Assets/ML-Agents/Examples/FirstTRexScene/results/rollerball2/RollerBallBehaviour/RollerBallBehaviour-3822.onnx (onnx, 73663 bytes, 7 tensors)

action_model._continuous_distribution.log_sigma f4 [1, 2]
000000 00 00 00 00 00 00 00 00
       0.0 0.0

action_model._continuous_distribution.mu.bias f4 [2]
000000 00 00 00 00 00 00 00 00
       0.0 0.0

action_model._continuous_distribution.mu.weight f4 [2, 128]
000000 17 fd c6 3a a0 39 0d 3c 2e 3c 80 bc 95 1c f4 bb
       0.0015181628 0.008619696 -0.015653696 -0.0074496963
000010 d3 74 a9 bc 02 d0 10 ba 0d 17 d8 3b 4e f4 8b ba
       -0.020685589 -0.00055241596 0.0065945447 -0.0010677667
000020 4c f0 b4 bc ad 2a fa bc 72 60 c6 b8 f7 b7 79 bc
       -0.022087239 -0.030537928 -9.45934e-05 -0.015241615
000030 f0 c8 ee 3a 13 b2 73 3b 83 25 98 bb 9a db 99 3c
       0.0018217843 0.0037184998 -0.0046431436 0.018781472
000040 59 3f bf bc 73 52 23 bc 5b 67 d1 ba fa be 96 bc
       -0.023345636 -0.009968388 -0.0015976237 -0.018401612
000050 1f a5 d4 3c 7d 6c be bc 7b 3e b3 bb 15 44 2a bc
       0.025957642 -0.02324509 -0.0054700947 -0.010392209
000060 bf 23 23 bb 15 68 62 39 b9 a7 95 bc 71 5d 98 bc
       -0.0024893133 0.00021591813 -0.018268453 -0.018599244
000070 1f 38 01 3c b9 39 ca bb f7 a8 86 bb 02 c4 8a bc
       0.0078869155 -0.006171432 -0.0041094976 -0.016939167
000080 5c f8 bd 3a 8e 07 b0 ba 42 a9 1a 3d 27 10 6a bc
       0.0014493573 -0.0013429986 0.037759073 -0.014286078
000090 ff bd 28 bc c8 45 db 3a 0f 21 4d bc 23 00 f5 bc
       -0.010299205 0.001672917 -0.012520089 -0.029907292
0000a0 17 db ae bb 2a ca f6 bb d2 fa df 3c 92 2d 7d 3c
       -0.005336176 -0.007531424 0.02734128 0.015452759
0000b0 93 c2 3a bc 72 d2 16 bd 65 43 e4 3c e8 9c 2f bb
       -0.011398929 -0.03682179 0.027864167 -0.0026796404
0000c0 39 47 b6 3b 97 d6 54 3c 22 45 10 3c d2 ae 16 bc
       0.0055626896 0.012990615 0.008805545 -0.009196954
0000d0 4f cc 27 bc 78 d1 a4 bb 97 8a 88 bc d0 67 a8 3c
       -0.010241582 -0.0050298534 -0.016667647 0.020557314
0000e0 e0 d1 8e 3c c7 37 82 bc 1d c6 63 bc aa 0a 12 bc
       0.01743406 -0.015895737 -0.013902214 -0.008913675
0000f0 da ef 5d 3b 6d 5d 00 bb 47 72 31 bc 87 16 83 bc
       0.0033864886 -0.0019586936 -0.0108304685 -0.016001953
000100 9b 35 f8 bb 0b 14 0f bd 9d ad a0 bb 2d 11 f5 3c
       -0.0075747496 -0.034931224 -0.004903509 0.029915417
000110 3d df ba bb e0 92 bd 3b 9b 9c 0d bb a7 1f c1 3c
       -0.0057028816 0.005785331 -0.0021608237 0.023574663
000120 63 a6 05 3c c7 e6 0c bd 25 64 52 3c 48 c8 17 3a
       0.0081573455 -0.034399774 0.012841259 0.0005790037
000130 82 9d e9 bc 4f 92 09 3d a8 c5 64 3c 07 d9 e6 ba
       -0.028517488 0.033586796 0.013963141 -0.0017612287
000140 a2 cf 67 ba f8 b0 28 bc c7 2a 8d 3c 9d bb 03 bd
       -0.00088428904 -0.010296099 0.017232312 -0.032161344
000150 45 3b ef 3c 97 f6 37 bd d3 f1 c5 bc 71 b9 b3 39
       0.029203067 -0.0449129 -0.024163162 0.00034279705
000160 dd ff 62 bc 57 81 80 bc 80 ec d3 3b 57 f9 91 3a
       -0.013854948 -0.015686674 0.006467402 0.0011136931
000170 4e d4 0d 3b b7 1d 2e 3c d3 44 10 3d b2 20 ab bc
       0.0021641436 0.010627202 0.035221886 -0.020889614
000180 bf 16 b0 ba ab aa 9b 3c d5 a1 b4 3b 65 ef d3 3b
       -0.0013434513 0.01900228 0.005512456 0.006467747
000190 b2 fa 9e 3c b5 e2 9b 3b 6d f6 80 3c 8d 88 64 3c
       0.01940665 0.00475725 0.015742505 0.013948572
0001a0 d7 56 5b bc 40 90 29 3d 0f 3a 31 bc ef 4b e1 bb
       -0.013387403 0.041397333 -0.010817065 -0.006875507
0001b0 5c 51 b6 bc 2d f9 59 3a e2 25 de 3b b6 e9 14 3b
       -0.022255592 0.0008315023 0.0067794183 0.002272231
0001c0 d3 fe 2f 3c 59 73 01 bc a2 ce 5b 3b d8 49 e8 bc
       0.010741907 -0.007901036 0.003353991 -0.028355524
0001d0 e0 ed 0f 3d 8d 48 34 bb 83 44 a5 bc 6f 29 9f 3c
       0.035138965 -0.0027509064 -0.02017427 0.019428937
0001e0 32 72 71 3b 28 d7 05 bc 05 e6 cf 3b 6a ea 19 3d
       0.0036841747 -0.008168973 0.006344559 0.03757707
0001f0 85 00 ed bb 11 c5 02 bb 87 48 0f 3d 25 fa ef 3c
       -0.007232728 -0.0019953887 0.034981277 0.029294083
000200 36 31 91 3c 2f 66 ed 3b 8e c2 c3 3c 77 4d cc 3a
       0.01772366 0.0072448472 0.023896482 0.0015587051
000210 a0 f9 9b 3c 12 5a 12 3b ac 7a 81 bb 5b 58 5c 3a
       0.019039929 0.0022331518 -0.003951391 0.00084055
000220 e7 4c 6d 3c 1b 19 5b bb 5a 75 d2 bc 6a 35 3c 3c
       0.014483667 -0.0033431712 -0.025690723 0.011487344
000230 c4 34 2c bc 19 a7 3f bc 05 d3 f1 bc 53 2b 18 3c
       -0.010510627 -0.011697554 -0.029519567 0.009287673
000240 6a 04 c6 bb 43 99 b7 bc 6c ea b7 3b fd a9 32 bc
       -0.0060430067 -0.022411948 0.005612662 -0.010904786
000250 df 24 98 3c 6d 57 e2 3c 4e c4 0f bc 5a ce 21 ba
       0.018572269 0.027629578 -0.00877483 -0.00061724114
000260 6c f2 12 bd 2d 6a dc 3c 12 7b 10 bb 8e 5c 89 3c
       -0.035875723 0.026906097 -0.0022046012 0.016767766
000270 27 c6 39 3c 97 d9 29 bc 2f 7b 7a bc 77 49 d8 3c
       0.011338747 -0.010366819 -0.015288158 0.026402218
000280 a4 2f 34 bc 72 03 d6 3b 70 7c 6c bc e7 79 aa bc
       -0.010997687 0.0065311724 -0.014433965 -0.02081008
000290 c9 2c 16 bc 12 ce d1 bb 36 87 28 3c dc e2 2c bd
       -0.009165951 -0.0064027393 0.010286143 -0.042208537
0002a0 c6 81 c6 3b af f8 e6 bc 75 89 68 3c 66 d8 c4 ba
       0.0060579507 -0.028194753 0.014192929 -0.0015018105
0002b0 85 27 63 3c 8b e7 97 3c b7 a1 ae bb af 1b 04 bd
       0.013864403 0.018543025 -0.0053293365 -0.032252964
0002c0 58 53 e9 3a bc 55 29 3c 2a c9 c1 bc dd b1 90 3c
       0.0017801328 0.010335382 -0.023655493 0.017662937
0002d0 a3 46 89 bc f0 c4 4d bc e3 b1 00 3b ce 24 12 3c
       -0.016757315 -0.012559161 0.0019637279 0.008919908
0002e0 27 c2 4a 3b 8a e8 50 bb 07 9a 00 3c aa b8 d6 bc
       0.0030938478 -0.0031876885 0.007849223 -0.026211102
0002f0 c1 77 cb bb 51 a6 08 bb ff 11 46 3c a8 80 0d bc
       -0.006209344 -0.0020851085 0.012089252 -0.008636631
000300 d0 35 0a bc 5b 9b 96 3b 88 ed 19 bc 00 49 8f bc
       -0.008435681 0.0045961565 -0.009395011 -0.017490864
000310 3d 49 b4 bb cb 42 85 bc ed b3 08 bd 56 6e b6 bc
       -0.0055018947 -0.016267201 -0.033374716 -0.02226941
000320 37 22 03 bb 02 14 7c 3b 11 44 c0 bc f5 ce d7 bc
       -0.0020009407 0.0038464074 -0.023469957 -0.026343802
000330 87 43 61 bb 73 71 66 bb 45 be bb 3a e6 cb 9d 3c
       -0.0034372525 -0.0035162836 0.0014323673 0.019262265
000340 f6 a4 80 bb 03 d4 b3 3b f3 48 cb 3c 68 44 32 bc
       -0.003925915 0.0054879203 0.024815058 -0.010880567
000350 cd 1a 0d bc fc 1b 13 bc fd ee 0a 3c 7f f4 ca 3b
       -0.008612347 -0.00897884 0.008479831 0.006193697
000360 85 13 8d 3c 67 31 61 bc 92 09 57 3b 99 67 29 b7
       0.017221222 -0.013744689 0.00328121 -1.0097306e-05
000370 ad 98 23 bc 9b 33 90 bb 58 1c 41 3c f6 f1 92 3c
       -0.009985131 -0.004400683 0.011786543 0.017937642
000380 b2 7e e7 bc 4d c0 0d bd bb e0 9b bc 47 52 05 bc
       -0.028258655 -0.03460722 -0.019028058 -0.008137292
000390 93 7f 93 bb a7 82 27 3b f2 9f df 3b 4d a6 c3 bc
       -0.004501292 0.0025560053 0.006824487 -0.02388301
0003a0 4a 3d 69 bb 53 cf fe bc 9d 95 b3 3a 50 6b ae 3c
       -0.003558951 -0.03110472 0.0013701204 0.021291405
0003b0 a2 1d 49 3b 78 d4 6b 3c 7e df 85 3c 47 89 d3 bc
       0.0030687829 0.014393918 0.016341921 -0.025822295
0003c0 3d 69 05 3d df 59 f5 bb 75 6d ea 3a c2 53 e3 bb
       0.032571066 -0.00748752 0.0017885404 -0.006937475
0003d0 09 41 ab bb ec 4a c0 3c 71 32 21 bd f1 20 93 3a
       -0.0052262587 0.023473226 -0.039354745 0.0011225027
0003e0 1f 8c 6b bc 1b 85 7d 3b 78 75 65 3b 4c 38 ad ba
       -0.014376669 0.0038684073 0.0035012644 -0.001321563
0003f0 f7 07 1d bd b7 56 12 bc 54 92 ba ba 55 7c 77 bc
       -0.038337674 -0.008931807 -0.0014234283 -0.015105327

network_body._body_endoder.seq_layers.0.bias f4 [128]
000000 00 00 00 00 00 00 00 00 00 00 00 00 00 00 00 00
       0.0 0.0 0.0 0.0
000010 00 00 00 00 00 00 00 00 00 00 00 00 00 00 00 00
       0.0 0.0 0.0 0.0
000020 00 00 00 00 00 00 00 00 00 00 00 00 00 00 00 00
       0.0 0.0 0.0 0.0
000030 00 00 00 00 00 00 00 00 00 00 00 00 00 00 00 00
       0.0 0.0 0.0 0.0
000040 00 00 00 00 00 00 00 00 00 00 00 00 00 00 00 00
       0.0 0.0 0.0 0.0
000050 00 00 00 00 00 00 00 00 00 00 00 00 00 00 00 00
       0.0 0.0 0.0 0.0
000060 00 00 00 00 00 00 00 00 00 00 00 00 00 00 00 00
       0.0 0.0 0.0 0.0
000070 00 00 00 00 00 00 00 00 00 00 00 00 00 00 00 00
       0.0 0.0 0.0 0.0
000080 00 00 00 00 00 00 00 00 00 00 00 00 00 00 00 00
       0.0 0.0 0.0 0.0
000090 00 00 00 00 00 00 00 00 00 00 00 00 00 00 00 00
       0.0 0.0 0.0 0.0
0000a0 00 00 00 00 00 00 00 00 00 00 00 00 00 00 00 00
       0.0 0.0 0.0 0.0
0000b0 00 00 00 00 00 00 00 00 00 00 00 00 00 00 00 00
       0.0 0.0 0.0 0.0
0000c0 00 00 00 00 00 00 00 00 00 00 00 00 00 00 00 00
       0.0 0.0 0.0 0.0
0000d0 00 00 00 00 00 00 00 00 00 00 00 00 00 00 00 00
       0.0 0.0 0.0 0.0
0000e0 00 00 00 00 00 00 00 00 00 00 00 00 00 00 00 00
       0.0 0.0 0.0 0.0
0000f0 00 00 00 00 00 00 00 00 00 00 00 00 00 00 00 00
       0.0 0.0 0.0 0.0
000100 00 00 00 00 00 00 00 00 00 00 00 00 00 00 00 00
       0.0 0.0 0.0 0.0
000110 00 00 00 00 00 00 00 00 00 00 00 00 00 00 00 00
       0.0 0.0 0.0 0.0
000120 00 00 00 00 00 00 00 00 00 00 00 00 00 00 00 00
       0.0 0.0 0.0 0.0
000130 00 00 00 00 00 00 00 00 00 00 00 00 00 00 00 00
       0.0 0.0 0.0 0.0
000140 00 00 00 00 00 00 00 00 00 00 00 00 00 00 00 00
       0.0 0.0 0.0 0.0
000150 00 00 00 00 00 00 00 00 00 00 00 00 00 00 00 00
       0.0 0.0 0.0 0.0
000160 00 00 00 00 00 00 00 00 00 00 00 00 00 00 00 00
       0.0 0.0 0.0 0.0
000170 00 00 00 00 00 00 00 00 00 00 00 00 00 00 00 00
       0.0 0.0 0.0 0.0
000180 00 00 00 00 00 00 00 00 00 00 00 00 00 00 00 00
       0.0 0.0 0.0 0.0
000190 00 00 00 00 00 00 00 00 00 00 00 00 00 00 00 00
       0.0 0.0 0.0 0.0
0001a0 00 00 00 00 00 00 00 00 00 00 00 00 00 00 00 00
       0.0 0.0 0.0 0.0
0001b0 00 00 00 00 00 00 00 00 00 00 00 00 00 00 00 00
       0.0 0.0 0.0 0.0
0001c0 00 00 00 00 00 00 00 00 00 00 00 00 00 00 00 00
       0.0 0.0 0.0 0.0
0001d0 00 00 00 00 00 00 00 00 00 00 00 00 00 00 00 00
       0.0 0.0 0.0 0.0
0001e0 00 00 00 00 00 00 00 00 00 00 00 00 00 00 00 00
       0.0 0.0 0.0 0.0
0001f0 00 00 00 00 00 00 00 00 00 00 00 00 00 00 00 00
       0.0 0.0 0.0 0.0

network_body._body_endoder.seq_layers.0.weight f4 [128, 8]
000000 4e f6 25 3f 81 26 ac be c1 1d 0d bf 11 03 4b 3f
       0.64828956 -0.33623126 -0.55123526 0.79301554
000010 d8 13 83 be 8c 56 84 3d 67 e8 3b 3c 5d 07 25 3f
       -0.25601077 0.0646182 0.011468983 0.6446436
000020 38 45 64 be c3 d6 0c 3e 7e 0e d9 be f0 e1 9f be
       -0.2229203 0.137538 -0.4239387 -0.31227064
000030 5d 23 d7 be 87 59 e0 3d 99 08 85 bd 27 c5 86 3e
       -0.42019168 0.10954576 -0.064957805 0.2632229
000040 b3 91 7f be 5c fd 5b be 21 57 07 bf 27 ac 9b 3e
       -0.24957924 -0.21483368 -0.52867323 0.3040478
000050 9a 2d 9a 3e 6c e9 f7 be 89 28 5d bc 56 64 c2 3e
       0.30112916 -0.48420274 -0.013498434 0.37967175
000060 75 bb 4d 3e bc 27 58 3b 4b eb 5c 3e d5 e3 f3 be
       0.2009104 0.0032982668 0.21574132 -0.4763476
000070 89 45 be bc e8 78 84 bd fd 6f a0 bd 58 2d aa 3e
       -0.023226516 -0.064683735 -0.0783386 0.3323772
000080 40 fc f1 bd 98 91 fa 3d 53 9d 03 3f d2 32 4e bf
       -0.11815691 0.12234801 0.5141193 -0.80546296
000090 e1 97 4c 3e b3 b4 cc be 36 92 0e bf 95 49 85 bd
       0.19979812 -0.39981613 -0.5569185 -0.06508175
0000a0 2e a7 f1 be 91 3f 7f be bc c7 30 3e 7f 5e 96 3e
       -0.4719786 -0.24926592 0.17263693 0.2936897
0000b0 72 87 07 3f 84 5c 1b bc 7b 45 ce be 81 f1 71 3d
       0.5294105 -0.009482507 -0.40287384 0.059068207
0000c0 79 ea a8 be cd 70 06 3d e6 4a 5d 3f 47 88 d9 bc
       -0.32991388 0.03282242 0.8644241 -0.02655424
0000d0 03 11 0a 3f e4 e7 d4 be 13 1b e2 be ce e8 a1 3c
       0.5393221 -0.41583169 -0.4416128 0.01976433
0000e0 74 28 35 be 3c 46 60 3d 68 8c ab be 96 a5 0e bf
       -0.17691213 0.05475448 -0.3350556 -0.55721414
0000f0 f6 d7 b1 bd 30 db a0 3e a0 28 ce 3d d8 4f bd be
       -0.086837694 0.31417227 0.10066342 -0.36974978
000100 9a 56 94 3e c0 24 ce bc a4 99 07 bf f4 10 ca 3e
       0.28972322 -0.025164008 -0.5296881 0.3946606
000110 00 6e e0 be 95 4a 5c 3e d6 b5 cd 3d 70 5e 08 bf
       -0.43833923 0.21512826 0.10044448 -0.532691
000120 8b ce f6 bd 13 b4 d8 bd 1a b0 b7 bd e4 f3 bb 3e
       -0.12051114 -0.105812214 -0.089691356 0.3670951
000130 e5 86 d8 3d c3 91 c9 3d 5b 0a 40 3d 34 d7 25 be
       0.10572604 0.09842255 0.046884876 -0.16195375
000140 8f a8 24 bd 4f cb ad bd 16 5c 54 3d cc cc fa be
       -0.040199813 -0.08486044 0.051845632 -0.48984373
000150 e6 62 d7 3c b2 23 95 3d 5c 4b 98 bd c3 72 bf bd
       0.026292276 0.07282199 -0.07436249 -0.09348061
000160 c7 6d 92 3e a0 9d b1 3d a1 bb c1 be 78 8b 7c 3d
       0.28599378 0.08672643 -0.37838462 0.061656445
000170 21 45 c8 3d 9d a0 e1 3e e2 f6 ea be 0b c4 dc be
       0.0977881 0.4406785 -0.45891482 -0.4311832
000180 62 25 0f be a2 a9 00 3e 69 08 3c 3e 6b 32 de bb
       -0.13979104 0.1256471 0.18362583 -0.0067809126
000190 d6 9e 90 3e 9a 12 9d 3e cb 2c be be c3 58 7a be
       0.28246182 0.30678254 -0.3714355 -0.24447922
0001a0 49 c9 64 3f b1 2a d1 be c1 94 87 be 9f 85 a2 be
       0.89369637 -0.40852883 -0.26480678 -0.3174257
0001b0 8e 0f 83 3e e1 e8 34 3e 90 4b 9a be af 13 1f bd
       0.25597805 0.17666961 -0.30135775 -0.03883713
0001c0 a7 fe 3b be 33 45 7c bc 80 b9 35 3f 00 8e 1e bf
       -0.18358861 -0.015397358 0.70986176 -0.61935425
0001d0 62 d4 93 3e 79 d2 49 3e 51 80 c4 be 7f 47 b8 be
       0.28872973 0.19709195 -0.38379148 -0.35992047
0001e0 fc af 1f 3e ec a6 4d bd 92 04 be be 11 45 6c 3c
       0.15594476 -0.050208017 -0.37112862 0.014420764
0001f0 ea a1 43 bc c5 1b c1 3d 1b 88 02 3e 19 d1 0f be
       -0.011940459 0.09429125 0.12747233 -0.14044608
000200 16 48 80 3e 01 23 07 3f 52 37 11 bf f5 90 db be
       0.25054997 0.52787787 -0.5672504 -0.4288403
000210 b6 31 8b 3e b9 df 8a be 27 03 58 bf 15 ca 86 3c
       0.27186364 -0.27123812 -0.8437981 0.016453782
000220 a2 07 03 3d 30 06 df bd 5d 53 6a be 12 39 cb bc
       0.0319897 -0.10889852 -0.22883363 -0.024807487
000230 4f 7c e5 3e 78 86 a1 be cc 2b 98 bb 68 25 92 be
       0.44821402 -0.31547904 -0.004643893 -0.28544164
000240 07 c5 00 bf 4b 73 87 3e fb 8a b2 3e 4b bb 18 3e
       -0.5030064 0.2645515 0.3487166 0.14915197
000250 7b 45 bd be 69 53 2d 3f 2e dc 44 3e b8 22 2c be
       -0.36967072 0.677054 0.19224617 -0.16810119
000260 cf 3b a7 bc a9 ab a1 be 71 a5 9c 3e 1c c7 87 3d
       -0.020414261 -0.3157628 0.30594972 0.06629774
000270 75 2d a9 be 8d b5 97 be fb 68 4f 3d b5 83 3c be
       -0.33042493 -0.296307 0.050637227 -0.18409617
000280 16 16 d2 3e 97 d1 cd 3e cb a5 38 bc 0e 4d e3 3d
       0.41032475 0.40198967 -0.011269997 0.110986814
000290 6a 76 9a be dc a5 21 3e 47 fc 1e 3f 67 af 87 bc
       -0.30168468 0.15785927 0.62103695 -0.01656313
0002a0 4d 1e a2 3e ae 51 b1 bd ba fb b1 3e e6 76 1c bf
       0.31663743 -0.08658157 0.34762365 -0.61118925
0002b0 67 ff aa be 95 31 79 bc 4a e9 13 bf 98 84 01 3f
       -0.33397982 -0.015209575 -0.57777846 0.50592947
0002c0 e3 4c 3d 3d bd 2d dc be 71 3e c9 be 08 f9 f0 3e
       0.046215903 -0.43003646 -0.39305452 0.47064996
0002d0 41 45 c3 be 76 a3 b5 be 9c e6 c7 be 5f 7d 97 3d
       -0.38138774 -0.35476273 -0.39043128 0.073969595
0002e0 4f b2 90 3e 01 35 5a 3f 24 ae 39 be fa 02 f4 be
       0.2826104 0.8523713 -0.18132836 -0.4765852
0002f0 b8 b5 b5 3e 09 d8 2a be 2d c2 98 be c2 fe bb bd
       0.35490203 -0.16683973 -0.29835644 -0.091794506
000300 4e 69 64 bf 78 44 d1 be 2a f2 05 bf b1 e4 8c 3e
       -0.8922318 -0.4087255 -0.5232264 0.27518228
000310 39 df 0a 3f 12 11 88 be 61 22 0d bd f3 f6 00 be
       0.5424686 -0.26575524 -0.034456614 -0.12594204
000320 b0 09 c7 be ce 8f 24 bd de f7 6a be 40 9f 84 be
       -0.38874578 -0.040176205 -0.22946116 -0.25902748
000330 f8 45 5e 3c 3c 5e ae be 5a ec 4a bf 89 6c 32 3f
       0.013566487 -0.3405627 -0.79266894 0.6969686
000340 2a 5e 20 be a0 4b ff 3e c7 f2 34 3e ea 3a da 3e
       -0.1566092 0.49862385 0.17670737 0.42623073
000350 ff eb 23 3f 1c e3 aa ba aa 0a 52 3f 6b b4 01 bf
       0.64031976 -0.0013037655 0.8204752 -0.5066592
000360 7b 3b 8a be e0 32 b1 3e 88 45 3b 3e 36 7e d4 3d
       -0.26998505 0.34609127 0.18288243 0.10375635
000370 48 26 2c 3f aa cd 3b be e7 6a f7 be a1 c5 19 be
       0.6724591 -0.18340173 -0.48323748 -0.15016796
000380 19 2a 56 3e da 90 86 3e e1 07 f8 be 58 cc a2 be
       0.20914496 0.26282388 -0.4844351 -0.31796527
000390 7c c3 31 3f c9 61 99 3e a4 48 03 3e 3e 60 8b be
       0.6943891 0.29957417 0.12820679 -0.27221864
0003a0 f6 4c 8d be 7d 00 43 bf ff a3 c0 be bc e6 f9 3d
       -0.2759778 -0.7617262 -0.3762512 0.12202212
0003b0 0f 17 ae be df 89 3d 3e 07 75 f8 bd 82 1e 23 bd
       -0.34001967 0.18509625 -0.12131696 -0.039824016
0003c0 51 14 2f bf 9b 4b 4c 3e 44 4f 7d 3e 7b 81 c3 3d
       -0.68390375 0.19950716 0.24737269 0.09546181
0003d0 52 e5 25 bd 3b 20 e4 3e ac 96 d8 be 31 99 29 bf
       -0.0405019 0.4455584 -0.42302454 -0.66249377
0003e0 4b 8f 9d 3e 71 dc dc be 6e e0 d3 3d 10 bb 8c 3d
       0.30773386 -0.43136933 0.10345541 0.06871617
0003f0 01 c6 c2 3e 6f b5 95 3e c6 93 63 be 85 4a 9c be
       0.3804169 0.29239985 -0.2222434 -0.30525604

network_body._body_endoder.seq_layers.2.bias f4 [128]
000000 00 00 00 00 00 00 00 00 00 00 00 00 00 00 00 00
       0.0 0.0 0.0 0.0
000010 00 00 00 00 00 00 00 00 00 00 00 00 00 00 00 00
       0.0 0.0 0.0 0.0
000020 00 00 00 00 00 00 00 00 00 00 00 00 00 00 00 00
       0.0 0.0 0.0 0.0
000030 00 00 00 00 00 00 00 00 00 00 00 00 00 00 00 00
       0.0 0.0 0.0 0.0
000040 00 00 00 00 00 00 00 00 00 00 00 00 00 00 00 00
       0.0 0.0 0.0 0.0
000050 00 00 00 00 00 00 00 00 00 00 00 00 00 00 00 00
       0.0 0.0 0.0 0.0
000060 00 00 00 00 00 00 00 00 00 00 00 00 00 00 00 00
       0.0 0.0 0.0 0.0
000070 00 00 00 00 00 00 00 00 00 00 00 00 00 00 00 00
       0.0 0.0 0.0 0.0
000080 00 00 00 00 00 00 00 00 00 00 00 00 00 00 00 00
       0.0 0.0 0.0 0.0
000090 00 00 00 00 00 00 00 00 00 00 00 00 00 00 00 00
       0.0 0.0 0.0 0.0
0000a0 00 00 00 00 00 00 00 00 00 00 00 00 00 00 00 00
       0.0 0.0 0.0 0.0
0000b0 00 00 00 00 00 00 00 00 00 00 00 00 00 00 00 00
       0.0 0.0 0.0 0.0
0000c0 00 00 00 00 00 00 00 00 00 00 00 00 00 00 00 00
       0.0 0.0 0.0 0.0
0000d0 00 00 00 00 00 00 00 00 00 00 00 00 00 00 00 00
       0.0 0.0 0.0 0.0
0000e0 00 00 00 00 00 00 00 00 00 00 00 00 00 00 00 00
       0.0 0.0 0.0 0.0
0000f0 00 00 00 00 00 00 00 00 00 00 00 00 00 00 00 00
       0.0 0.0 0.0 0.0
000100 00 00 00 00 00 00 00 00 00 00 00 00 00 00 00 00
       0.0 0.0 0.0 0.0
000110 00 00 00 00 00 00 00 00 00 00 00 00 00 00 00 00
       0.0 0.0 0.0 0.0
000120 00 00 00 00 00 00 00 00 00 00 00 00 00 00 00 00
       0.0 0.0 0.0 0.0
000130 00 00 00 00 00 00 00 00 00 00 00 00 00 00 00 00
       0.0 0.0 0.0 0.0
000140 00 00 00 00 00 00 00 00 00 00 00 00 00 00 00 00
       0.0 0.0 0.0 0.0
000150 00 00 00 00 00 00 00 00 00 00 00 00 00 00 00 00
       0.0 0.0 0.0 0.0
000160 00 00 00 00 00 00 00 00 00 00 00 00 00 00 00 00
       0.0 0.0 0.0 0.0
000170 00 00 00 00 00 00 00 00 00 00 00 00 00 00 00 00
       0.0 0.0 0.0 0.0
000180 00 00 00 00 00 00 00 00 00 00 00 00 00 00 00 00
       0.0 0.0 0.0 0.0
000190 00 00 00 00 00 00 00 00 00 00 00 00 00 00 00 00
       0.0 0.0 0.0 0.0
0001a0 00 00 00 00 00 00 00 00 00 00 00 00 00 00 00 00
       0.0 0.0 0.0 0.0
0001b0 00 00 00 00 00 00 00 00 00 00 00 00 00 00 00 00
       0.0 0.0 0.0 0.0
0001c0 00 00 00 00 00 00 00 00 00 00 00 00 00 00 00 00
       0.0 0.0 0.0 0.0
0001d0 00 00 00 00 00 00 00 00 00 00 00 00 00 00 00 00
       0.0 0.0 0.0 0.0
0001e0 00 00 00 00 00 00 00 00 00 00 00 00 00 00 00 00
       0.0 0.0 0.0 0.0
0001f0 00 00 00 00 00 00 00 00 00 00 00 00 00 00 00 00
       0.0 0.0 0.0 0.0

network_body._body_endoder.seq_layers.2.weight f4 [128, 128]
000000 c0 eb d7 3d 59 57 2c bb 68 ce 83 3d 63 39 9c 3c
       0.105430126 -0.002629718 0.06435853 0.019070333
000010 8e 3e f1 3c 90 aa ae 3d 60 b5 0d 3e 48 d4 4e 3e
       0.029448774 0.08528626 0.1383872 0.20198166
000020 54 19 e0 bd 14 19 92 3d 78 c2 01 3d ac bf 81 3c
       -0.10942331 0.071336895 0.0316796 0.015838467
000030 5f bf 9c bd 4f 40 f1 3c 9a 10 1d 3e e1 c8 64 3d
       -0.07653689 0.02944961 0.15338364 0.055855636
000040 35 e7 8c 3c 29 e3 87 bd f9 90 37 3c b5 b0 95 bd
       0.017200092 -0.06635124 0.011203998 -0.07309095
000050 e3 aa ef bd 83 24 11 be 6d 71 0e 3c 1a 93 11 bd
       -0.11702516 -0.14174084 0.008694035 -0.035540678
000060 32 f0 dc bc 6a a6 6a 3d a0 40 b1 bc aa c6 06 bd
       -0.026970003 0.05728761 -0.02163726 -0.032904305
000070 89 5f e7 bb c9 a2 1f bd ec 37 bc bd 8a c8 41 3d
       -0.007060949 -0.038973603 -0.09190354 0.04731039
000080 07 3d 7a bc 7e 51 1c 3e e2 37 2f 3b 3b 91 bd bc
       -0.015273339 0.15265462 0.002673619 -0.02314054
000090 1a e3 8b bd a5 ec e1 3d 53 31 a7 3d bf 6f ba 3d
       -0.068304256 0.110314645 0.08163705 0.09103345
0000a0 49 1e 5f 3b 62 cb 79 3d 26 bd 78 bd 96 02 dd 3d
       0.003404515 0.060984977 -0.06072726 0.10791509
0000b0 00 a4 81 3d 4a 0f af 3c 59 26 5a 3d b4 6b 81 3d
       0.06330109 0.021369595 0.053259227 0.06319371
0000c0 95 b6 00 3a 42 0b 8f bd c6 52 34 be 14 89 f0 bd
       0.00049100193 -0.06984569 -0.176097 -0.117448956
0000d0 af b3 5e 3c ab 54 af bc 10 41 7a 3c 08 8b 13 bd
       0.013592645 -0.021402678 0.015274301 -0.036021262
0000e0 08 74 cd bc b0 09 5d 3e b9 44 55 be 35 a5 16 3e
       -0.025079742 0.21585727 -0.20826997 0.14711459
0000f0 03 50 2a 3b 3d 0c 85 bd b7 bd 1f be 2b f4 a5 bd
       0.0025987632 -0.06496475 -0.15599714 -0.08103212
000100 1c 4f e9 bc 73 72 70 bd 6a 8d 5e be 36 4d c4 3d
       -0.028480105 -0.058702897 -0.21733633 0.09585039
000110 78 14 00 3d af 6a d6 bb 96 e6 64 3c b5 69 1f 3c
       0.03126952 -0.0065434794 0.013970992 0.009729792
000120 a6 ba bc bd 6f 51 0c 3d a7 14 ba bd 85 85 ee bc
       -0.09215288 0.03425735 -0.0908597 -0.029116401
000130 00 9b 26 3d 49 9d 57 3c fc 53 17 3d 53 e0 1e bc
       0.040675163 0.013160058 0.036945328 -0.009697038
000140 9a 62 31 3e e9 88 ff bc d8 96 0e be 97 73 7a 3d
       0.1732277 -0.031193214 -0.1392473 0.06114539
000150 53 15 15 be 4e 96 ab 3d 10 05 1c 3e 52 6e 40 bd
       -0.14558916 0.08378278 0.15236306 -0.04698021
000160 b9 d4 46 3e 1b 9e b9 3c 78 ee 0c 3d 43 09 68 3c
       0.19417085 0.022658398 0.03440711 0.014162364
000170 8e 84 0f 3d df c5 46 bd 69 10 7a 3d 54 68 ed bd
       0.035038523 -0.04852855 0.061050806 -0.11592165
000180 fd e6 25 3d 9d 4a bb 3c 7b 97 b6 bd 2d 97 46 3d
       0.04050349 0.022862727 -0.08915611 0.048484016
000190 e0 25 21 3d c8 3e 6f bd 56 97 2b 3e 7a a6 d3 bc
       0.03934276 -0.058409482 0.16756949 -0.025836218
0001a0 55 37 04 bc 95 d7 26 3d ea 29 31 3d 9b 38 18 3c
       -0.008069833 0.04073294 0.043252863 0.00929084
0001b0 56 05 c7 3d 0f 60 a2 bd 09 11 46 3d 73 44 ef bd
       0.097178146 -0.07928478 0.04835609 -0.116829775
0001c0 49 22 75 bd 4e fd 94 bd ea a7 ac 3d cc ea 0a be
       -0.05984715 -0.072748765 0.084304646 -0.1356613
0001d0 8b a5 47 bd e1 e4 e6 3c 1e 58 92 bd d9 76 45 bd
       -0.04874186 0.02818531 -0.07145713 -0.048209045
0001e0 55 81 44 bd 59 e2 e8 bd 1c fb 83 3c 64 cd 2c 3d
       -0.047974903 -0.113712974 0.01611095 0.042188063
0001f0 ee 90 19 be 12 45 bb 39 4f c1 52 3d fc 69 62 bd
       -0.14996693 0.0003571888 0.051453885 -0.055276856
000200 05 65 80 3c 8f eb a3 3c 06 5b c5 bc 3d bf 80 bd
       0.01567317 0.020009784 -0.024091255 -0.06286476
000210 bc 06 ce bc 0f f3 58 3d 17 8f 23 3b 50 0a cc 3d
       -0.025149696 0.052966174 0.0024957114 0.099629045
000220 f1 d6 01 3d 37 b7 84 bd ba c2 85 bd f5 fb 02 be
       0.031699125 -0.06480258 -0.06531282 -0.12791426
000230 28 ac 00 be 7e 8f 03 bd 60 d5 09 3e 34 21 6f 3d
       -0.12565672 -0.032119267 0.13460302 0.058381274
000240 2c 3f 7a bd c5 82 8e 3b 21 d7 d9 bc d0 16 51 bc
       -0.0610954 0.004349085 -0.02659184 -0.012761787
000250 57 c4 39 bd fb b3 ba 3d 5f fa bc bd 9d 3c 9d bd
       -0.04535326 0.0911636 -0.09227442 -0.07677577
000260 31 91 1e be c8 86 0b be 30 ad 73 bd 8e 97 74 3d
       -0.15485074 -0.13625634 -0.059491336 0.059714846
000270 67 4f 23 3d c0 ae 2c bc 10 64 91 3d fe 93 ff bc
       0.039870646 -0.0105397105 0.070991635 -0.031198498
000280 f2 6e f5 bb c3 e7 23 be 42 b1 03 3d 1b 54 18 bd
       -0.0074900324 -0.16006379 0.032151468 -0.037189584
000290 08 4e 73 3d f8 1a 05 3e ba f7 06 be a4 82 c3 3d
       0.05940059 0.12998569 -0.13180438 0.09546402
0002a0 9a 03 7a bd d5 07 4c bd 8a 2c 9e 3c b0 17 75 bd
       -0.06103859 -0.049812157 0.019308347 -0.059837043
0002b0 60 c8 86 bd 02 39 ef bd 91 1b b7 3c 06 2d 67 3c
       -0.06581187 -0.11680795 0.022352012 0.0141098555
0002c0 04 0c bd 3d ad 35 ae bc 80 7c 03 3d 5f 65 cf 3d
       0.092308074 -0.021265829 0.032101154 0.10126757
0002d0 3f 33 9b 3d e7 1f ba 3d 2c 7e 58 bd 7f 0f f5 bd
       0.07578134 0.09088116 -0.052854702 -0.11965846
0002e0 c3 e5 9e bd 1f b2 b4 3c e6 f1 88 bd 00 56 6a 3d
       -0.07758667 0.022057591 -0.066867635 0.057210922
0002f0 bc 2d 58 bd 79 56 85 3c dd fc 1f 3e 58 e9 8e 3d
       -0.05277799 0.016276585 0.15623803 0.069781005
000300 43 9e 20 be 07 a5 4f 3d 83 5d 9a bd eb 72 32 be
       -0.15685372 0.05069449 -0.07537367 -0.1742665
000310 ec 13 1e 3e 38 56 f5 3d 89 81 1a bd 1c 99 94 bc
       0.15437287 0.119793355 -0.03772119 -0.018139414
000320 55 3c d0 bd bf 4b a5 bd 75 3c 99 3d 61 12 22 3d
       -0.101677574 -0.08071088 0.074822344 0.03956831
000330 94 f0 64 bd bf 33 28 3d 2c ac 90 bd 9a 71 c7 3d
       -0.055893496 0.041064974 -0.07064089 0.09738465
000340 22 e9 82 3d 50 9c b5 3d d8 12 3f bd 02 c7 17 be
       0.06392123 0.08867705 -0.04664883 -0.14822009
000350 a9 46 62 3d cb 9e 8c bd 23 07 e0 3d ec 5e 87 3c
       0.055243168 -0.06866225 0.10938861 0.016524754
000360 25 23 26 3d b4 73 1f be 0f dd 94 bc dd b0 d5 bd
       0.04056086 -0.15571481 -0.018171815 -0.104341246
000370 2e 4b dd bd 50 f8 92 bd 2e 10 d7 3d 9c 05 d3 bc
       -0.10805355 -0.07176268 0.10501133 -0.02575951
000380 f4 25 1d 3d a7 67 d3 3d 4f d5 a8 bd 55 70 ae bd
       0.038366273 0.103225045 -0.082438104 -0.085175194
000390 55 8d 1b be 2d d6 5f bd a2 98 30 bd ea 55 94 3d
       -0.15190633 -0.054647613 -0.043114312 0.07242949
0003a0 ec 38 8a bd 2b f8 fb bc 3a 5a e9 3d 62 78 13 be
       -0.06749138 -0.030757984 0.113941625 -0.14401391
0003b0 de d3 7c bd 00 61 ce bd 46 f7 2a bd b3 55 7f bd
       -0.06172549 -0.10077095 -0.041739725 -0.06233759
0003c0 8b d0 7f bb 61 47 4d 3e de 15 3f 3e 2a 3e 85 bd
       -0.0039034213 0.2004676 0.18660685 -0.065059975
0003d0 c8 eb 47 3c 61 f9 11 3d ef a1 49 be d5 99 15 3e
       0.012202211 0.035638217 -0.19690679 0.14609464
0003e0 b2 ff 1b 3e 77 65 30 bd 2c ca 46 be 90 dd 7d bd
       0.15234259 -0.043065514 -0.1941306 -0.061978877
0003f0 3d 8a 04 bd bf 1c 83 3d 3f d7 86 3d c9 3f 74 bd
       -0.032358397 0.06401967 0.06584024 -0.059631143
