Assets/ML-Agents/Examples/RollerBall/results/rollerball/RollerBallBehaviour/RollerBallBehaviour-72652.onnx (onnx, 73663 bytes, 7 tensors)

action_model._continuous_distribution.log_sigma f4 [1, 2]
000000 84 5b f8 bd c1 5e 63 be
       -0.1212683 -0.22204114

action_model._continuous_distribution.mu.bias f4 [2]
000000 c7 a9 1e bd d7 11 15 3d
       -0.03873613 0.036393967

action_model._continuous_distribution.mu.weight f4 [2, 128]
000000 38 6c f5 3d f8 10 9e 3d 67 cd f5 bb 80 fb 8c 3d
       0.11983532 0.0771808 -0.0075012925 0.06883907
000010 8f 3f 89 3d a5 07 97 bd b8 69 0b bd 93 4d 37 bd
       0.06701576 -0.07374505 -0.034036368 -0.044751715
000020 e6 09 93 bd 35 65 d5 3d 17 f0 55 bd c0 b7 a5 3d
       -0.07179622 0.10419694 -0.05223092 0.08091688
000030 07 7d 27 bd d9 de bc bd 9e 53 92 3b 16 d8 6d bd
       -0.04089072 -0.09222192 0.0044655344 -0.058067404
000040 87 d2 5f 3d 8a e9 d6 3c 94 c9 0a 3c f8 e4 23 3d
       0.054644134 0.026234407 0.0084709115 0.040013283
000050 ec a5 93 3d f3 75 34 3d eb 4c 9a bc 76 f9 e5 bb
       0.072093815 0.044057798 -0.018835505 -0.0070182635
000060 e2 df ce 3d f2 83 31 3d 14 38 9b 3c cf bb b5 bd
       0.10101296 0.043338723 0.018947639 -0.08873712
000070 0a 19 3b 3d 4c d2 9e bc 70 29 53 3d 0d 8e 17 bb
       0.045678176 -0.019387387 0.05155319 -0.002312544
000080 34 ce c3 bd 46 53 37 39 b9 01 87 bd 58 5d bd 3d
       -0.095608145 0.00017483262 -0.065921254 0.092463195
000090 45 5d 82 bb c0 7b eb 3d 8b 1c c8 3d 4c 61 73 3d
       -0.0039784038 0.11498213 0.09771069 0.05941896
0000a0 ba 5b ac bc 92 2b a8 bd 07 8f c7 3d 26 8a 0b be
       -0.021039832 -0.082114354 0.09744077 -0.13626918
0000b0 8a ba 99 bc ab 19 dd 3d 3b 3c 85 3c 07 68 82 bd
       -0.018765707 0.107959114 0.016264072 -0.06367498
0000c0 e8 e8 a7 3c 7c 61 95 bd 3f fd 38 3d 49 9f 41 3d
       0.0204968 -0.07293984 0.04516339 0.047271047
0000d0 a3 b6 aa 3d 9c 70 b6 bd 54 53 34 3c dc 4f 54 3d
       0.083356164 -0.08908197 0.011006195 0.051833972
0000e0 35 6d 2b bd 0c 0a 9c 3d d0 4f da 3b 3c 3a c3 bd
       -0.041852195 0.07619104 0.0066623464 -0.09532592
0000f0 b7 58 bc bd 00 46 97 3a bc 53 ee 3d 73 61 c2 3d
       -0.091966085 0.0011541247 0.11637065 0.09491243
000100 61 5a d4 bd 16 c0 0c be 70 9d a6 3c e9 7e 47 bd
       -0.10368801 -0.1374515 0.020338744 -0.048705015
000110 1e b1 25 3e ec cf 30 3c 6a a5 b0 bc 85 e5 bc bd
       0.16180846 0.01079176 -0.02156325 -0.09223465
000120 fb d0 ca 3c fb 9b 35 3d 15 20 90 b9 96 9b 97 bd
       0.024757853 0.044338208 -0.00027489723 -0.074027225
000130 bb 36 b0 bd 42 09 99 bd a3 74 83 bd f3 ab 40 bd
       -0.08604189 -0.07472469 -0.06418731 -0.047038984
000140 a1 28 0e 3e 92 55 91 3d fe fa c8 3d f4 42 87 3d
       0.13882686 0.07096399 0.09813498 0.06604567
000150 58 3a bb 3a 2c 05 34 bd 20 db 46 bd c7 fc 6b 3d
       0.0014284356 -0.043950245 -0.048548818 0.057614114
000160 4e b3 6b 3d 85 0e 4f 3b b5 a5 8e 3d 5d b8 16 be
       0.057544045 0.0031594348 0.069652 -0.14718767
000170 71 4b 80 3d 3f da 52 3c 8f 40 3d 3c 8f 59 a5 3c
       0.06264389 0.012869417 0.0115510365 0.020184306
000180 24 f1 a4 3d 8f 68 ad 3c bb 8a f0 3c c8 14 0e be
       0.080538064 0.021168021 0.029363027 -0.13875115
000190 a4 d2 f0 3c 29 32 1a bd f9 35 7a 3d b8 79 a8 bc
       0.029397316 -0.037645493 0.06108663 -0.020565853
0001a0 a1 28 01 3d 2b bb be 3d 13 c5 a9 3d 16 f7 85 3c
       0.031532887 0.09313043 0.08289542 0.016353171
0001b0 1d d2 c9 bd 46 26 bb 3d 4e 3b 9f bd ea 44 58 bd
       -0.09854529 0.091381595 -0.07774983 -0.052800097
0001c0 97 1e df bc 9d cc 16 3d 89 cb 20 3d ca 89 7c 3d
       -0.027236266 0.03681623 0.039256606 0.061654843
0001d0 65 6e 21 3d d6 31 94 bd 4b 37 66 3d 6b 7a 79 3c
       0.03941192 -0.07236068 0.056205075 0.015226941
0001e0 e6 95 55 3d a7 f7 da bc 5a 09 ce bc 46 2e 98 bd
       0.052144907 -0.026729418 -0.025150944 -0.07430701
0001f0 a2 5d 33 bd 65 97 f5 bc 1b e7 77 bd 50 aa 9b 3d
       -0.043790467 -0.029979417 -0.060523134 0.07600844
000200 13 d7 5d 3c 99 78 e6 3b af 84 5c 3b 3d 9f 83 bd
       0.013540047 0.0070334193 0.0033648422 -0.06426857
000210 11 66 5c bc 73 08 ca bd 00 f2 b6 b9 5f a2 87 3d
       -0.013452069 -0.09864893 -0.0003489405 0.06622767
000220 fe 6a 47 bc c0 31 ee 3a fd eb 9d 3d 77 b3 68 3d
       -0.012171505 0.0018172786 0.07711027 0.056811776
000230 0c db 4e 3c 45 df 85 3b 06 56 61 bc 6b 50 ce bc
       0.012625467 0.0040854537 -0.01375342 -0.02518483
000240 cc c9 0a bd 74 57 22 3c 35 b5 53 bd 60 c1 b2 3d
       -0.033883855 0.009908546 -0.051686484 0.087282896
000250 c0 8b e5 bb 44 31 00 bd a5 58 75 bd 13 95 20 bb
       -0.007005185 -0.031296983 -0.05989899 -0.0024502918
000260 5b 9e 72 3c a5 87 ac bd 45 0a a6 bc e2 f3 1a bd
       0.014808263 -0.0842431 -0.020268569 -0.03783024
000270 d8 33 d3 3d 8c e2 42 bc 8f 4d d8 bc 17 19 9d bd
       0.10312623 -0.011894833 -0.02640417 -0.07670801
000280 a8 d6 fd bc 45 04 f2 3b 48 50 bc bc 0c 1c 3a bd
       -0.030986145 0.007385763 -0.0229875 -0.045436904
000290 94 62 3d 3c 30 2d 33 bc aa d2 77 bd 5b e1 41 bd
       0.011559147 -0.0109360665 -0.06050364 -0.047334056
0002a0 76 85 40 bd 9a e0 83 bc ab 20 8e bc 95 b7 2f 3b
       -0.04700228 -0.01609831 -0.017349562 0.0026812304
0002b0 0d 80 fe 3d 17 82 72 3d e5 9f 19 bd 71 9b fb bc
       0.124267675 0.059206095 -0.037506003 -0.030713769
0002c0 64 5a 59 3c b5 71 de bc 89 6e 6c 3d f9 f5 09 bc
       0.01326618 -0.02715383 0.057722602 -0.008420461
0002d0 77 a3 cc 3c 3e 13 bc 3d 20 de 3e bb 53 30 8f bc
       0.02498029 0.09183358 -0.0029124096 -0.017479097
0002e0 b0 61 3d bd f0 c3 3b bd 60 f1 87 39 44 57 54 3d
       -0.04623574 -0.045841157 0.00025929045 0.051841035
0002f0 e6 ea f5 bc 94 cf fa 3d 32 b1 5f 3c 5d a2 1e 3d
       -0.030019235 0.12246624 0.0136530865 0.03872906
000300 d1 e5 1b 3e c7 15 3f bd 69 f6 f7 bc 42 8a c0 bc
       0.15224387 -0.046651628 -0.030268865 -0.023503426
000310 b9 39 36 3d fc a2 09 3e bf 2f 19 3d c6 9b 30 bd
       0.044488642 0.1344108 0.03739905 -0.043117307
000320 fc 7b c4 3d 63 c2 46 3d df e3 9c 3d 22 cc dc bc
       0.09593961 0.048525225 0.076606505 -0.026952807
000330 80 22 99 3d a6 7f cd bb d7 05 77 3d c1 f4 b7 bd
       0.074772835 -0.0062713204 0.060308304 -0.0898223
000340 85 84 55 bd 0b 51 63 3d 47 2b 7f 3c d3 8d 95 3c
       -0.052128334 0.05549721 0.015574283 0.018256104
000350 60 66 c7 3c 89 67 7a bc 0e ec f0 3d 28 46 6a bd
       0.024340808 -0.015283474 0.11763774 -0.057195812
000360 26 34 9d bc bd ef d0 ba 65 a4 df 3c c2 12 fa 3c
       -0.019189905 -0.0015940588 0.02730007 0.030526523
000370 f2 1f 23 3d 8f 3a 23 bd 25 17 a8 3d e9 e7 ab 3c
       0.039825387 -0.039850768 0.082075395 0.020984607
000380 75 f4 8f bc a0 78 73 bc d0 67 83 bc d1 ee ad ba
       -0.01757262 -0.014860302 -0.016040713 -0.0013270025
000390 26 7c 18 bc 61 d7 ab bc ed 0e a4 bd c8 86 1c 3d
       -0.009306943 -0.020976724 -0.08010659 0.038214475
0003a0 0e 78 39 3c cd 46 52 3d 27 ff 54 bd 5b 2d 8a bc
       0.011320127 0.051337052 -0.052001145 -0.01686733
0003b0 a3 38 a7 3d 57 be 1f be 9a dd 92 3b ea b7 cd bc
       0.081650995 -0.15599953 0.0044819834 -0.025112111
0003c0 ff 16 d0 3d d4 56 0f bd 84 bc bc bc 0c b6 c0 3d
       0.10160636 -0.034994915 -0.02303911 0.09409723
0003d0 95 4e 94 bc 37 a3 93 bd b6 1d c9 3b ab 45 58 bc
       -0.018103877 -0.07208865 0.006137575 -0.013200204
0003e0 15 03 a1 3d 8f 09 ed 3c 63 25 07 3e 56 d9 a5 bc
       0.07861916 0.028935222 0.13197856 -0.020245235
0003f0 28 f7 92 bd 62 f0 be 3d 3f 60 ff bc c8 e1 b5 bc
       -0.071760476 0.09323193 -0.031173823 -0.022202387

network_body._body_endoder.seq_layers.0.bias f4 [128]
000000 b0 ce 70 bd f2 90 bd 3d 63 73 7d bb bc 12 c4 3c
       -0.058790863 0.09256162 -0.0038673512 0.023934714
000010 f1 99 b9 3c 79 9e ac bd 27 24 65 3d e6 50 83 3d
       0.022656413 -0.08428664 0.05594268 0.064119145
000020 ec 7e 47 bc 93 8a 73 bb ea 31 20 3d 45 44 3a 3c
       -0.012176257 -0.0037161454 0.0391101 0.011368816
000030 f3 bd 27 bd 5d f1 8e 3c 79 80 35 bd fb 79 65 3d
       -0.040952634 0.017449075 -0.044311974 0.056024533
000040 ba e3 a4 bd 9b 70 a6 3c b6 03 c7 3d d9 2f 5a 3d
       -0.08051248 0.020317366 0.09717505 0.053268287
000050 69 27 0f 3c 2f 0c b0 3c 1d ae c2 3d a5 86 bd 3c
       0.008737423 0.021490185 0.09505866 0.023135493
000060 72 02 00 bc 57 33 c4 3b 55 39 b4 3c 3c 23 2b bd
       -0.007813083 0.0059875655 0.021999994 -0.04178165
000070 3d ab 82 3c 55 8b 72 bc 68 8d df bb 42 e5 17 bd
       0.015950793 -0.014803727 -0.006822277 -0.03708387
000080 61 d6 ed bd ba 58 fb 3c 30 d7 ad bc 6b 3f c6 3d
       -0.11613155 0.030681957 -0.021220773 0.09680065
000090 a7 c7 ec bc 0b c6 89 3d 7c 68 cb 3d 09 71 fc 3c
       -0.028903795 0.06727227 0.09932038 0.030815618
0000a0 a9 10 74 3d aa 7a 50 3d ba ee a5 3b 92 61 fb 3b
       0.0595862 0.05089823 0.005063859 0.0076715434
0000b0 dc a5 79 bc 01 fb f6 3d 05 89 6e bc 33 3e 69 bd
       -0.015237298 0.12059594 -0.014559035 -0.056944083
0000c0 18 ed 94 bd 93 4f 64 3d 01 92 72 bd 17 65 61 3d
       -0.072717845 0.05573995 -0.05922127 0.055028047
0000d0 56 9e ba 3d 38 c4 1d 3d b1 65 00 3d 20 dd 66 3d
       0.091122314 0.038517207 0.03134698 0.056363225
0000e0 5e b4 02 3d 31 50 c5 3d f2 8e 56 bc 84 9a 66 bd
       0.031910293 0.09634436 -0.013095604 -0.0562997
0000f0 2b 04 30 bc 91 db be 3c bd 1e 95 3d 54 1f b4 bd
       -0.010743181 0.023298057 0.072812535 -0.08795038
000100 cb a9 99 3d d5 f7 09 3d 05 35 0f 3e e6 80 e3 ba
       0.075030886 0.033683617 0.13985069 -0.001735714
000110 5d c2 0a 3e 3f 8b 77 3d e5 6e 04 3d 7d a2 87 3d
       0.13550706 0.06043553 0.03233232 0.06622789
000120 a3 ac 44 3d 83 49 03 bd ee 5c ca ba 11 d2 2b bd
       0.0480162 -0.032052528 -0.0015439072 -0.04194838
000130 a8 c8 95 bd 5f 19 b8 bd 70 2e 22 3b 11 3a 9a 3d
       -0.07313663 -0.08989214 0.0024746917 0.075306065
000140 3a 26 f8 bc 0b e4 53 bc 24 40 f7 3d b3 2d 02 be
       -0.030291665 -0.012932788 0.12072781 -0.12712745
000150 ab 52 f3 3b 7b cc d3 bb e1 4a d0 3d 72 2e 13 bd
       0.0074256263 -0.006463585 0.10170532 -0.035932966
000160 1a 80 ca 3d 31 de 09 bd d9 eb d7 3a f7 94 7e 3b
       0.09887715 -0.033659164 0.0016473486 0.0038846114
000170 e3 bc c2 3c b6 2e 1d bd 5b 19 a1 3d 89 ab 28 3d
       0.023771709 -0.038374625 0.07866164 0.041179214
000180 3a 3f b2 3d af 03 c9 3d e4 c6 35 bd 08 49 ce 3c
       0.08703466 0.09815156 -0.04437913 0.025181308
000190 59 ff b7 3c 93 a6 58 bd 8e 12 91 bd 81 fa 74 bc
       0.022460626 -0.052893233 -0.07083617 -0.014952303
0001a0 97 2e cd bc 38 9e 02 b8 4b 87 55 bc 24 92 53 3d
       -0.02504663 -3.1141768e-05 -0.013032745 0.051653042
0001b0 bd 52 0f 3c a3 7e 0e 3d 88 4e d2 3c d1 1b e5 3c
       0.008747754 0.03478874 0.025672212 0.027967365
0001c0 7f 35 83 3d 39 7f e7 bc 6b 06 b2 3d 34 59 7d 3d
       0.06406688 -0.028258907 0.086926304 0.06185265
0001d0 15 28 03 bd c2 d8 d2 b9 a4 1a 66 bc e8 1a 1f 3d
       -0.032020647 -0.00040215818 -0.014044438 0.03884402
0001e0 2b 74 28 3d c5 06 e8 bc 3b 06 79 bb fc 3f 83 bd
       0.04112641 -0.02832354 -0.0037998098 -0.064086884
0001f0 1a ac 70 3b 3b 26 79 3d 55 7c 69 bc 8f cb 18 be
       0.0036723674 0.060827475 -0.0142508345 -0.14921401

network_body._body_endoder.seq_layers.0.weight f4 [128, 8]
000000 8f fe df bd 3a 01 8c be f4 33 7b bc de ff 38 3f
       -0.10937225 -0.27344686 -0.015332211 0.7226542
000010 4b b4 a0 be 2a 8b ce be 44 75 81 3e 35 41 84 be
       -0.31387553 -0.4034055 0.2528478 -0.25831
000020 2a 31 d7 3e 36 8c 24 bf 90 28 6b bd d2 58 ca 3d
       0.42029697 -0.64276445 -0.05741173 0.098802224
000030 c0 b8 16 3e 0f 34 8f 3e 72 98 98 be ae a9 54 3e
       0.14718914 0.27969405 -0.29803807 0.20767853
000040 1e f0 a0 3c 3f b9 3d be 2f 1c 53 be 56 76 6b 3e
       0.019645747 -0.18527697 -0.2061622 0.2299436
000050 41 36 df 3d 3c 7d 34 be 28 14 f2 bd c5 86 69 3e
       0.1089902 -0.17625898 -0.11820251 0.22805317
000060 6b 2c 15 bd e2 1f de be 0c 90 7c be 46 db af 3e
       -0.036419313 -0.433837 -0.24664325 0.3434698
000070 6e 9d 5d 3e e1 e1 a4 3d a6 5f 8b 3c 6f ea 06 3a
       0.21642086 0.080508955 0.017013382 0.00051466277
000080 24 de 0b be 09 68 13 3e ac 97 81 be 59 a1 b9 3e
       -0.13658959 0.14395155 -0.2531103 0.3625591
000090 5a 1a 94 be cd 05 b4 bd 35 3d f6 3e 23 c1 20 3e
       -0.28926355 -0.08790169 0.48093572 0.15698676
0000a0 41 b0 18 3c 69 69 03 bf 84 32 ef be d1 fb bb 3e
       0.009319366 -0.5133272 -0.46718228 0.36715558
0000b0 d1 5f b1 be 5c 22 83 be 37 12 2d 3e ee b9 ec be
       -0.34643415 -0.25612152 0.1690148 -0.46235603
0000c0 f8 ca 9b 3e 66 4c bf bd 37 b9 af 3e 3d 22 d3 be
       0.3042829 -0.09340744 0.34320995 -0.4123706
0000d0 0c 6d ab 3e ff 61 ff 3e 12 6b 80 be b6 f3 f9 3d
       0.33481634 0.49879453 -0.25081688 0.12204687
0000e0 62 77 ef 3e 27 e8 5f bc 92 e6 62 be 63 14 c6 3c
       0.4677077 -0.013666189 -0.22158268 0.024179643
0000f0 15 b8 aa 3e 45 68 7f be 5d 21 af be 22 f1 06 3e
       0.33343568 -0.2494212 -0.34205142 0.13177922
000100 f3 62 fa 3e f8 fc ba 3d 7c 7d 0a 3f 82 f9 79 3e
       0.48903617 0.09130281 0.54097724 0.24411586
000110 53 76 7e be 94 a1 95 be c6 e7 ec be d9 33 e7 3e
       -0.24849825 -0.29224837 -0.4627058 0.45156744
000120 d1 fa b3 3e d9 a0 f7 3d d1 fb c7 3d 61 b0 37 3e
       0.35152295 0.12091226 0.09764827 0.17938377
000130 4f f6 09 be 64 e5 e3 3d 69 f2 33 3f 49 f5 d5 be
       -0.13472866 0.11127737 0.70291764 -0.417887
000140 c1 6f fa 3e be ed f1 be ba 32 c5 bd 99 af ff be
       0.48913386 -0.47251695 -0.09628816 -0.49938658
000150 8d 43 c3 3e 12 4b dd be 08 04 f2 be 4a 55 90 be
       0.38137475 -0.43221337 -0.472687 -0.2819007
000160 62 29 b8 bd 25 c8 57 3e 9c 6e 75 3e dc 7e 5a 3e
       -0.08992268 0.21072443 0.23967975 0.21337456
000170 25 17 a6 3e 91 3e 7d 3f ce 58 8c be 03 e6 dd 3e
       0.32439533 0.98923594 -0.27411503 0.43339548
000180 bc 1e 3c be df 5f ca bc fe c0 c8 bd 72 6d 4b 3e
       -0.18371099 -0.024703918 -0.09802435 0.19865969
000190 89 eb f1 3d dc 93 a4 3d 9d 98 41 3e 49 de da be
       0.11812503 0.080360144 0.18905874 -0.42747715
0001a0 e6 3e 5f 3d 89 17 05 3f b6 ca c8 3c 9a 66 03 bf
       0.054503344 0.51989037 0.024510723 -0.5132843
0001b0 80 92 51 be e2 90 a6 3e 1e 18 da 3d df a1 be 3e
       -0.20466042 0.32532412 0.10649131 0.37232873
0001c0 8b a7 c0 3e 1e 42 f9 3e 23 d7 b1 be 7d 1a 88 3e
       0.37627825 0.48683256 -0.3473445 0.2658271
0001d0 4c 8b 05 bf d4 c7 a3 bc 0c ab 69 3e 14 ff 96 3e
       -0.52165675 -0.019992746 0.22819155 0.29491484
0001e0 3e 7d 38 3f d7 2e 19 3f e9 da 14 bf 52 cd 24 bf
       0.72066104 0.59837097 -0.5814653 -0.64375794
0001f0 94 c6 95 3e 83 a8 9b 3e 1c 45 bc bd 5d c0 bb bd
       0.29253066 0.30402002 -0.09192869 -0.0916755
000200 16 b8 34 3e 0d 2e 00 bd a4 ab 2f 3d 61 c0 31 3e
       0.17648348 -0.031293917 0.0428883 0.17358543
000210 bd 54 c7 bd 94 57 30 3d cf 51 d1 bd e0 bd de bc
       -0.097329594 0.04305227 -0.10220682 -0.027190149
000220 57 cb 4d be 46 6a 0a bf bb 31 99 3d 79 ad a4 3e
       -0.20097099 -0.5406841 0.074801885 0.321636
000230 54 d8 de 3c 2d c2 5e 3e cb 0c a3 3e 30 d0 ad be
       0.027202763 0.2175376 0.31845698 -0.33947897
000240 3c a0 3e bf ec 86 c0 bd 95 20 7c bd bf 7d 66 be
       -0.7446325 -0.09400734 -0.06155451 -0.22508906
000250 ef e0 87 bd 92 ba 28 3e 10 97 18 3f a1 9c 6f 3e
       -0.066346996 0.16477421 0.59605503 0.23399593
000260 42 fd cf 3e 9c 43 5c 3e cf ca a1 bd 16 7c 9f bf
       0.40622908 0.21510166 -0.07900011 -1.2459743
000270 9a f9 c4 bc 9f 9e 99 3e 23 69 ba 3e 33 ea 1c bf
       -0.0240448 0.3000383 0.36408338 -0.6129486
000280 4d d3 0a 3f d8 a7 12 be ae d5 2c 3e 5a a8 3e bd
       0.5422867 -0.1432184 0.16878387 -0.04654727
000290 b7 89 e6 be 38 19 fd 3e b0 05 87 be 65 d3 3a 3f
       -0.45026943 0.49433303 -0.26371527 0.7297881
0002a0 46 e6 b7 3d 19 36 a2 be f4 9b 6d 3e a0 4d 37 3e
       0.08979468 -0.31681898 0.23204023 0.17900705
0002b0 32 6a 8f be 44 90 35 3f e4 4e 56 bd 22 50 3c be
       -0.28010708 0.70923257 -0.05232133 -0.18389943
0002c0 fb 51 41 3e ac 5c ef bd 7a 81 8c 3e c4 d5 44 be
       0.1887893 -0.11687598 0.27442533 -0.1922217
0002d0 6a 10 c3 3e 17 32 10 be b4 23 79 be ca c0 c8 bd
       0.3809846 -0.14081608 -0.24330026 -0.098023966
0002e0 e1 48 8c be 8a d2 98 be 09 ac 39 3c 2a 46 a3 be
       -0.27399352 -0.2984813 0.01133252 -0.31889468
0002f0 4b ba a5 3e 3e f0 b1 bc ce d3 f3 be 7c 0d 20 3d
       0.32368693 -0.021721002 -0.47622532 0.03907536
000300 7f bd e7 be 0e 8a ee 3c 62 16 22 be 39 ed 0f 3e
       -0.45261762 0.029118564 -0.15828851 0.14055337
000310 fa 51 ff be f7 30 9b be d7 cf 87 3d 6c 86 a8 be
       -0.4986723 -0.30310795 0.06631439 -0.32915056
000320 2a 61 ca be ce c1 00 3e e4 5f 79 be db 00 7c bf
       -0.39527255 0.1257393 -0.24352986 -0.98438805
000330 16 7d c0 be a6 0b 00 be 98 b4 ce be aa 3f e6 be
       -0.37595433 -0.12504444 -0.40372157 -0.44970447
000340 81 26 bd 3e 87 53 5b 3e be 16 b9 bd 22 72 8b be
       0.3694344 0.21418582 -0.09037541 -0.27235514
000350 51 3a 10 bf 59 57 9a be 73 12 aa be 9a 91 ae be
       -0.56338984 -0.30144766 -0.332172 -0.3409546
000360 a1 86 25 bd 2a bd b6 be ce 9a d7 3e 84 d4 6b be
       -0.040411595 -0.35691196 0.42110294 -0.23030287
000370 8d e2 14 be 1d 27 20 3e 01 d5 b4 be e4 52 11 3f
       -0.14539547 0.1563992 -0.3531876 0.56767106
000380 3f 62 1e 3d ab 7c 9a bd fe 96 5b 3e 0d 52 cf 3e
       0.038667914 -0.0754331 0.21444318 0.40492287
000390 df 15 a6 be 7e 85 10 3f 38 8d 22 3f cb f7 e4 3c
       -0.3243856 0.5645369 0.6349673 0.027950188
0003a0 ae 96 f0 bc 90 ca 3d bd 77 c4 11 bf 27 24 3d 3d
       -0.029368725 -0.046335757 -0.56940407 0.046177056
0003b0 4f 3e 71 3e 0c 2a aa 3d 23 fa 7b bc 11 03 21 bf
       0.23558925 0.08308801 -0.015379461 -0.62895304
0003c0 eb 26 01 3d 19 4e c1 3d 22 af 5a 3e a5 c3 9d 3d
       0.031531256 0.09438724 0.2135587 0.07703332
0003d0 fa 4e 4b 3c e5 8e 28 be 14 24 28 3d ed 1f a1 3d
       0.012408966 -0.1646076 0.04105003 0.078674175
0003e0 19 29 83 3d e2 0b f3 be 8b 5f bd 3e 87 5f 07 bd
       0.06404323 -0.47470003 0.36986956 -0.033050086
0003f0 71 89 db be 44 9e ec be 02 12 58 be 8f e1 36 be
       -0.42878297 -0.46214497 -0.2110062 -0.17859481

network_body._body_endoder.seq_layers.2.bias f4 [128]
000000 cf 60 27 3d b3 50 3d 3c 56 45 71 bd 6a 85 a0 3d
       0.04086381 0.011554885 -0.058904015 0.07837947
000010 60 5b 3d bc 41 99 a2 3d 9e 89 8a bd a5 a6 3a 3d
       -0.01155743 0.07939387 -0.0676453 0.04556908
000020 aa 91 b8 3c e6 c1 1f 3d 9d 45 cf 3d 1b 9f 9c 3b
       0.022530396 0.039003275 0.101206996 0.004779709
000030 b8 32 03 bd b6 e3 05 3d 8f 0e 86 bd e3 19 0a 3d
       -0.03203079 0.032687865 -0.065457456 0.033716094
000040 4b 89 49 3c 31 55 81 3b 6f b2 95 3c 82 fe 68 3c
       0.0123008 0.003946923 0.01827356 0.014220836
000050 4a 12 9e 3c d8 b6 86 bc 16 6e 00 3d 21 1d 42 bd
       0.01929583 -0.016444609 0.031354986 -0.04739106
000060 27 c1 19 3d e4 7c a4 bc 59 cf f6 bc 00 e2 97 3d
       0.03753772 -0.020079084 -0.030128168 0.07416153
000070 43 2a 52 3d 34 82 88 bd d8 b8 52 3b 11 27 64 bd
       0.051309835 -0.06665459 0.0032153632 -0.05570132
000080 4c ce 33 3d 87 29 c6 bc bd 56 2f 3d 8d e5 15 3d
       0.043897912 -0.024189724 0.04280733 0.03659587
000090 21 06 c5 bd d9 e6 c5 3c 05 ba 7e 3c 1c ae 3f 3c
       -0.096203096 0.024157928 0.01554728 0.011699226
0000a0 c5 34 29 3b c1 c9 2c 3d c5 e3 23 3d 6a 09 ae 3d
       0.0025818807 0.042184595 0.04001214 0.08497889
0000b0 b7 ae 12 3e e7 6e 91 3d 24 22 de bb 91 da 48 3d
       0.14324461 0.07101231 -0.006778972 0.049036566
0000c0 ff 15 e1 bc 14 6b 9f bb c8 35 09 3d b0 24 9f bc
       -0.027476309 -0.0048650596 0.033498555 -0.019426674
0000d0 11 54 ce 3c be a5 0a 3e 5a 38 9f bd 20 70 1b bc
       0.02518657 0.13539788 -0.0777442 -0.009487182
0000e0 69 e6 41 bc 73 f2 f3 3c 29 ea 48 bd 94 f5 14 3e
       -0.011834719 0.029778695 -0.049051438 0.14546806
0000f0 8c 5c a3 3d c2 10 d0 3d 4b 5d 28 3d 86 97 3d 3d
       0.07976636 0.10159446 0.041104596 0.046287082
000100 60 9f 1c 3e 4d 21 00 3e 77 57 81 bd 77 af a6 bc
       0.15295172 0.12512703 -0.06315511 -0.02034734
000110 0c a4 c6 3d d4 cc d6 3d 56 76 a3 3c 9f 15 84 3d
       0.09699258 0.104882866 0.019953888 0.064494364
000120 6f ad 0e 3d a3 e0 1d bd 23 69 c2 3d 4b 7b a0 3c
       0.034833368 -0.03854431 0.094927095 0.01959004
000130 1e f9 b9 3d dc 67 cc bc 3b 27 f6 3d 47 52 3d 3d
       0.090807185 -0.024951868 0.12019201 0.046221044
000140 ad 1f 80 3d e1 3b 13 3b ff bd 20 3d 52 d9 6a 3d
       0.06256042 0.002246611 0.039243694 0.05733616
000150 48 50 ae bd da 78 09 3d 80 85 00 3e b1 95 3b 3c
       -0.08511406 0.03356252 0.12550926 0.011449263
000160 32 a8 8a bc 50 6e a0 bd b4 64 1e bc 64 74 ea 3d
       -0.016925905 -0.078335404 -0.009667564 0.11447981
000170 1d 6f 2f 3d 44 99 90 bc 5c e6 2e 3d c1 08 be bc
       0.042830575 -0.017651208 0.042700157 -0.023197534
000180 aa 3d a4 3c 6a 43 47 bd 66 64 92 bd 8d 96 b9 3d
       0.020048935 -0.048648275 -0.07148056 0.090619184
000190 02 e5 a6 bd 51 e9 8f 3c e3 de c4 3c e6 27 0a bd
       -0.081491485 0.017567309 0.024032062 -0.033729456
0001a0 cc 30 40 bd b5 ba ad 3c f0 50 34 3c 1e cb f0 bc
       -0.046921536 0.021207193 0.011005625 -0.029393729
0001b0 b2 43 e1 3d 76 12 ad 3d f0 18 2a 3d 7c 54 92 bc
       0.1099924 0.08450787 0.04152769 -0.01786255
0001c0 16 b8 97 3d 63 a2 bd bc 4e c0 2f bd 71 19 a5 3d
       0.074081585 -0.023148721 -0.042908005 0.08061493
0001d0 d6 0b 8d bd 1b bc 6f 3d eb 9a 57 ba 9b e6 65 bc
       -0.06887023 0.058529 -0.00082246837 -0.014032031
0001e0 bf cd 14 b9 e1 59 0d bd 36 da 00 3e b7 ac 0a 3d
       -0.00014191026 -0.034509543 0.12583241 0.03385612
0001f0 d5 49 2e 3d e4 78 a7 3d f6 30 db 3b ad 4f ae bb
       0.04255088 0.08177355 0.006689186 -0.0053195567

network_body._body_endoder.seq_layers.2.weight f4 [128, 128]
000000 e9 dc 1b bd f9 f4 df 3d eb dd 4f bd 8b 9d 32 bd
       -0.038052473 0.10935397 -0.050748747 -0.043607276
000010 4d ad 09 be d2 31 da bd 5c 49 ac 3d fb 4f 57 3e
       -0.13445015 -0.10654034 0.0841243 0.21026604
000020 11 df ba 3d 61 01 cc bc 23 5e ad bc 9c 1e 02 3e
       0.09124578 -0.024903001 -0.021163052 0.12706989
000030 ca 1b fb bd 68 62 95 3d 10 2e 2e be de 7b e4 3d
       -0.1226116 0.0729416 -0.17009759 0.11156438
000040 14 b0 cd bd cd 21 6e be e2 b6 ba bd e7 f3 d4 3c
       -0.1004335 -0.23255081 -0.091169134 0.025995208
000050 1e 73 5a bc 48 f1 42 be e7 38 5d 3e 3f c8 f0 bc
       -0.01333311 -0.19037354 0.21603738 -0.02939236
000060 9a 2f 16 bd ca b0 10 3d b7 be 88 3e ce 4d 52 3d
       -0.03666649 0.03532485 0.26708004 0.05134373
000070 24 bc ba 3c 45 92 85 bd 98 0a 18 bb 71 e6 55 3d
       0.02279479 -0.06522039 -0.0023199674 0.05222172
000080 fd a4 47 be 21 ba dd bc e0 71 66 bd 20 96 fd bd
       -0.19496532 -0.027066292 -0.056260943 -0.1238215
000090 27 a9 ee 3d f2 8b 24 3d e3 f4 a5 bd cd fd 76 3e
       0.11653357 0.040172525 -0.08103349 0.24120255
0000a0 1d 8d f3 3c 3e 3d b4 bc cc a8 89 3d 3e b7 de bd
       0.029730374 -0.022001859 0.067216486 -0.108747944
0000b0 f6 d6 fa bc c4 11 0b bd 1f b5 cb 3d 1f 23 8c 3d
       -0.03062008 -0.03395249 0.099466555 0.06842636
0000c0 78 2d ab 3b f2 fc b1 3d 87 7f b7 bd 7b bb 54 be
       0.005223926 0.086908236 -0.08959871 -0.20774643
0000d0 7e cc 00 3c 6e d4 31 3e b2 93 4e 3d 2d f8 90 bd
       0.007861255 0.17366192 0.050433822 -0.07078586
0000e0 8f be 13 3e db c1 95 bd 54 8d dd bc 64 d5 39 bc
       0.14428161 -0.073123656 -0.02704493 -0.01134238
0000f0 a0 85 ba 3b 61 00 84 bd c4 18 53 bd 70 61 42 3d
       0.005692199 -0.06445385 -0.05153729 0.047456205
000100 f9 40 ed 3d 31 03 0c 3e 71 44 58 be 6a 4c 94 bd
       0.11584658 0.13673092 -0.21119858 -0.07241137
000110 49 dc 13 bd 9d 63 0a be 29 6d 73 bd 91 d9 66 3e
       -0.036098752 -0.13514562 -0.059430275 0.22543932
000120 1c a1 4c 3e 4e fa 04 bc af 73 eb 3c 6a e0 d4 bc
       0.19983333 -0.008116318 0.028741686 -0.025985915
000130 14 80 c9 3d f6 21 4f 3d 6f b0 52 be ac f8 63 bc
       0.09838882 0.050569497 -0.20575117 -0.013914268
000140 91 9f 40 bd 9e 3c af bd 04 b9 c9 bd ce f3 52 bd
       -0.047027174 -0.08556484 -0.09849742 -0.05150204
000150 b1 d7 22 3e 42 07 45 bd 8b 7d 41 3d 7b 3c d7 3b
       0.15902592 -0.048102625 0.047238868 0.006568489
000160 73 80 74 bd f5 db 0e 3e 0e 83 5c 3d 82 64 90 bd
       -0.05969281 0.13951094 0.05383592 -0.0705042
000170 8f be 0f be f2 5f 09 3e 35 55 bf bd 52 64 ef 3d
       -0.14037536 0.13415506 -0.09342424 0.116890565
000180 90 65 08 be 7c ae b2 3d 04 5a 57 be 26 0d 07 be
       -0.13319993 0.087246865 -0.21030432 -0.1318861
000190 3b 0c 3a 3e 6f ac c9 bc e3 a8 16 3e 31 a4 83 bd
       0.18168728 -0.024618356 0.14712863 -0.064278014
0001a0 7f 45 a2 bd 72 c8 b1 3d b2 f5 67 3b 1a e3 e4 bc
       -0.079234116 0.0868081 0.0035394249 -0.027940322
0001b0 66 7a be 3d cf c6 b8 3d 0f 8c d1 3d 40 82 27 bd
       0.093006894 0.09022295 0.10231792 -0.0408957
0001c0 ee 4e 95 bc 21 5d e2 3d e8 f6 de 3a fa 51 44 3e
       -0.018226113 0.11052919 0.001701084 0.19171897
0001d0 d4 b6 aa 3e 2e 49 96 3d 56 49 50 3d 1e 24 4c 3e
       0.33342612 0.07338177 0.05085119 0.19935653
0001e0 d3 06 01 be b6 17 a1 bc 31 c0 81 bd 71 fe c6 3c
       -0.1260026 -0.019664627 -0.06335486 0.024291249
0001f0 72 64 aa 3d 61 b9 65 3d d8 a3 2f 3b ea cd 30 bb
       0.0831994 0.056084994 0.002680054 -0.0026978203
000200 96 d6 ad 3d 1a 76 0e bd dd 05 f1 bd ab b7 1c be
       0.08488195 -0.0347806 -0.117686965 -0.15304439
000210 7b 38 7d bc b1 67 98 bd 19 0d 3b 3d e7 23 4e 3e
       -0.0154553605 -0.074416526 0.045666788 0.20130883
000220 14 04 99 3b b7 83 c8 bd 45 56 df 3d b8 db dc bb
       0.0046696756 -0.097907476 0.109051265 -0.0067400597
000230 92 55 0b be 3c 83 ff 3c 5c dd 0b 3e b5 8b 3d bd
       -0.13606861 0.031190507 0.1365866 -0.046275813
000240 d0 f7 d0 bd 3a c7 5a 3d 36 09 2b bd 15 98 2c 3c
       -0.102035165 0.053412654 -0.04175683 0.010534306
000250 7b bf 97 3d 91 81 ab 3d 2b 75 01 3e d2 f8 94 3d
       0.07409569 0.08374322 0.12642352 0.07274021
000260 3f ab bb 3d a8 12 1f 3e 7d 55 0f 3e 82 bd 80 3c
       0.09163522 0.1553446 0.13997455 0.015715364
000270 f9 be 9c 3d 70 0b ed bd a9 6f af bd 4a 2f 4d bb
       0.07653613 -0.11574447 -0.08566219 -0.0031308704
000280 fb 50 0b be 9e 51 b8 3d 02 b5 cf 3c aa 07 87 3c
       -0.1360511 0.08999942 0.025354866 0.016483147
000290 f0 3f 82 bd e3 33 d2 3d 9d 46 1e be 24 a1 c7 3d
       -0.06359851 0.10263803 -0.15456624 0.09747532
0002a0 e4 ce 54 be 2c 58 aa bc ea 08 5d 3e c0 f4 a4 3d
       -0.20782048 -0.020793997 0.21585432 0.08054495
0002b0 93 c2 0c 3d 79 06 a2 bd 7a 34 a9 3d fd c1 8f bd
       0.034365248 -0.07911391 0.08261962 -0.07019422
0002c0 78 c2 1b bd 60 ca 20 be 17 ee da bd a5 c8 a8 bd
       -0.038027257 -0.157022 -0.10689943 -0.08241395
0002d0 17 87 56 bc 3c 5a d8 bc 34 cd 9b 3c 29 0a 0f 3e
       -0.013093731 -0.026410215 0.019018747 0.1396872
0002e0 10 d6 07 bd c9 cf 1f 3d 25 ec 91 3c 8e 4e 13 3e
       -0.03316313 0.03901652 0.017812798 0.14385435
0002f0 ed 5b d3 3d 09 3b 71 3d e3 86 c4 bd ec 66 05 3e
       0.10320268 0.05889419 -0.0959604 0.13027543
000300 fb 3a 57 3e a7 3a f9 3c b8 e7 e0 bc 72 12 82 3d
       0.21018593 0.030423475 -0.027454242 0.063511744
000310 c0 eb 75 3c 44 bb 42 3d f0 7e 08 3d d4 7f b1 3d
       0.01500982 0.04754187 0.033324182 0.086669594
000320 48 2b 57 3e fc 29 a9 3d dd dc 33 3e 7e 0a 53 bd
       0.21012604 0.08259961 0.17564721 -0.051523678
000330 9e b9 82 3d 49 3b 74 bd 2c 94 9d bd 90 10 fd bd
       0.0638306 -0.05962685 -0.07694277 -0.12356675
000340 46 39 e0 3c a1 a9 00 3c 9f f7 c0 3c d5 db 76 3d
       0.02737106 0.007852943 0.023555575 0.060268242
000350 d7 89 0d 3e 2b 1a 17 3e d4 d9 f5 3d a9 56 78 bd
       0.13822113 0.14756076 0.12004438 -0.06062952
000360 16 9a c9 bd ed c6 d1 bd 27 9b 00 be 65 0d 25 bd
       -0.09843843 -0.1024302 -0.12559186 -0.040295977
000370 ba 22 ee bd 37 ed 29 bd de 62 04 3e 26 98 aa 3d
       -0.11627717 -0.04148599 0.1292834 0.08329801
000380 12 74 99 bd c4 6f e8 3d 3e b4 4f 3d 8a e5 5f be
       -0.07492842 0.113494426 0.050709 -0.21864906
000390 cd d9 04 bd 8b fe 3e 3c 21 cb 28 3d 0f d0 b0 bd
       -0.032434274 0.011657367 0.041209344 -0.08633434
0003a0 77 6d 96 bd 7a 41 93 bd 8f 92 d7 bd 63 9a 96 3d
       -0.073450975 -0.07190223 -0.10526001 0.07353666
0003b0 99 ae e5 3d 65 a5 05 3e 17 6b 64 3e e2 e0 2e be
       0.112149425 0.13051374 0.22306477 -0.17077973
0003c0 44 11 92 3d b9 4f 86 bd eb 2a bd bd 81 7e fd 3d
       0.071321994 -0.06558175 -0.092367016 0.12377644
0003d0 63 7f 8f 3c 0f 03 4f 3e b9 b0 be bd 8e cf 7b bd
       0.017516797 0.2021601 -0.09311051 -0.061477236
0003e0 f0 aa d1 bd b9 6f 7d 3e fe 24 67 3d d6 0a cc bc
       -0.10237682 0.2474965 0.056431763 -0.02490751
0003f0 a6 8d a5 bc ce fb 42 bc ad d9 b0 3d 8c 96 15 bd
       -0.020209145 -0.011900855 0.08635268 -0.036520526
