Assets/ML-Agents/Examples/RollerBall/results/rollerball/RollerBallBehaviour/RollerBallBehaviour-1440.onnx (onnx, 73663 bytes, 7 tensors)

action_model._continuous_distribution.log_sigma f4 [1, 2]
00000000: 168a 4ebb 827e 0fbc
-0.003151541 -0.008758189

action_model._continuous_distribution.mu.bias f4 [2]
00000000: aa27 0f3c 88be 913b
0.008737484 0.004447762

action_model._continuous_distribution.mu.weight f4 [2, 128]
00000000: 48ca d53c a681 0c3d 0c7c 97bc f06d 79bb
00000010: 36d8 943c 61e2 dcbc ecf6 5ebc b6e3 703c
00000020: 3bed 1cbc 44c6 ae3c 2893 36bd b489 653d
00000030: 3dc6 a6bc 7dae 80bb f4e5 573c 3f25 0b3b
00000040: cb10 663c ba5a b43c 0863 c7bb 1a97 b6bc
00000050: 7364 1e3c 9b2d a53c 94e0 32bc c7b8 bd3c
00000060: 782f d23c 9e6f af3c 5b10 db3c 4c37 caba
00000070: 6d48 9b3c e3ee 71bc 67b6 d23c 06fd 123a
00000080: dca4 bbbc 7ea8 aa3a b18b 88ba 6dfd 1cbb
00000090: 9403 adba d76d fc3c 9d15 d13b 90ab fd3c
000000a0: 4bfb 81bb e6dd 08bc 6889 213d f5cd 00bd
000000b0: d41b 8dbc 43a7 db3c 6f4f c53c d4e7 67bc
000000c0: 7bde 703c b8a5 f8bb 35b6 1d3c b7f2 5c3c
000000d0: 9a40 293c d4ba a93c ec8e b8bb 592a 7ebb
000000e0: c9d7 39bc 5ae0 22bb 3dc3 443c 67f1 91bc
000000f0: a83b 0cbc ec78 39bc 7c1b 0b3d ffb0 1a3c
00000100: bf48 9cba 9f3a 12bc a9c0 81ba ba15 f7bc
00000110: a845 c93b e9aa b23a f887 ddbb 429b a9bc
00000120: d3e9 853c a710 dfbc 8d62 103c 1385 12bd
00000130: 0c18 98bb 9c85 33bc 2c44 3d3c 9e07 6b3b
00000140: 22ea 023c 8e82 dd3c d4e6 fc3c 011b fa3b
00000150: 0a81 36bc b676 e6ba a68c d1bc a2fb 9cbb
00000160: f301 0d3d e106 5bbb 6d7f 063d ab18 97bc
00000170: 28a1 333c a086 023c 3482 d83b bc83 313c
00000180: bbc7 80bb 6c8e dabb 5465 1dba 5194 b9bc
00000190: 045d 91bb 0215 9e3b e8c5 b8bb 124e b7bc
000001a0: f120 863c 9e13 6d3d 3f31 38ba f9e5 bcbc
000001b0: 4927 cebc c7eb ddbc 0814 4fbc 11f8 efbb
000001c0: 812c 23bd 4edd ce3c 3d1c e53c 3060 5f3c
000001d0: d81b dd3c f63a 81bc 3149 cf3c 2eff 55bc
000001e0: e0ca a23c 0ef8 343a 99cd bb3b be40 e4b9
000001f0: 9b22 dbbc 5297 d3bc b0e0 3fbc a6ba 3d3c
00000200: c680 603c dc8e 993c 6dbb 1dbc 1097 aabb
00000210: fa5f edbc 49dc ffbc 0ce0 0dbc 6fb6 96bb
00000220: 544d 073d 6edc 943b 64f0 65bc ec27 8fba
00000230: 14ae 19bc 4362 153c 936e 57bc 79e0 ab3c
00000240: f2bf 8a3c 7492 383d bfd5 33bc 74c6 e2bb
00000250: 5199 0a3c 84e9 98b8 3a03 e9bc e665 a1bc
00000260: 48ef ae3c 8e1c c1bc 463f 87bb 1ea8 9c3c
00000270: 18ed a23c 5a9e 58bd 80af 04bc 1359 de3b
00000280: 0f8e 0fbc 9e4e 893c 3394 f2bb 7d76 a6bb
00000290: 92a5 0dbc 951b 1cbc fefc 87bd 0759 9ebc
000002a0: b8d7 2ebc fa44 03bc 8535 033c dc4b bdbb
000002b0: 463d 533b bc0f 3f3d 5613 713c 3d19 67b9
000002c0: 7f14 f53c 3bea 7a3b fafe 443d f049 32bc
000002d0: 9f7f 183c c1bd 16bc f9b7 adbc c73b c7bc
000002e0: 2922 a2bc 6a6c 9a3b d2df b5bc e57b ecba
000002f0: d09c a53b ed0d 6cbb 3870 873c 34c8 d1bb
00000300: dd88 b73b 1b7f 573b f6bb 1abd 7a60 7ebc
00000310: f302 713c c5f1 c03b 6f37 2e3d 7d91 993c
00000320: 95f9 0c3d a670 65bc af05 e63a a628 ebbc
00000330: bdfb 963c 6a24 85bc 0f70 233c 9dc3 82bc
00000340: eb89 61bc 61dc 3d3d b91b 193d 85d7 8f3c
00000350: e0c8 39bc c476 9f3c 3de4 793c 8bbc 2cbc
00000360: ac87 ff3b 278d 67bc 89a3 ae3c 8a8e 403b
00000370: 0713 c43c cc38 2dbc b454 0d3c 3b3c 0fbb
00000380: 17f3 993c 8799 46bc 9d25 ebbc 08d6 653c
00000390: 3990 09bc da0d 8d38 d538 d6bc 5a4e 5abc
000003a0: f881 06bd 4a91 ab3c 018a 0b3a 171f 62ba
000003b0: 8a3b 5fbc 78fb 3abd 25a0 a83c f48c 80bc
000003c0: 8d13 c83b fe3a 1dbc 0b4d 88bc 4ec7 9a3c
000003d0: dd17 f6bc 24e2 c4bc f6da 043d 800c bbbc
000003e0: 0ac1 623c 7552 a13b 46d2 a03a 57ed 0e3c
000003f0: d18a 07bd 798c 5e3a 8274 21bc b1c6 0bbc
0.026097432 0.03430333 -0.018491767 -0.0038059913 0.018169504 -0.026963415 -0.013608675 0.014702728
-0.0095780445 0.021334775 -0.044573933 0.056039527 -0.0203582 -0.0039270506 0.013177384 0.0021231917
0.01404209 0.022015918 -0.0060848035 -0.022288848 0.009667504 0.020163348 -0.010917801 0.023159398
0.0256574 0.021415528 0.026741197 -0.0015427857 0.018955434 -0.014766428 0.025721742 0.00056071614
-0.02290576 0.0013020185 -0.0010417608 -0.0023954764 -0.0013199919 0.030814094 0.0063807503 0.030965596
-0.003966724 -0.008353686 0.03943768 -0.031446416 -0.017225184 0.026813155 0.024085728 -0.014154393
0.014701481 -0.0075881146 0.009625961 0.013485602 0.010330344 0.02071897 -0.005632272 -0.0038782565
-0.011342951 -0.0024852962 0.012009439 -0.017815305 -0.008559145 -0.011320334 0.033961758 0.009441613
-0.0011923535 -0.008925109 -0.0009899336 -0.030161727 0.006142337 0.0013631257 -0.0067605935 -0.020703916
0.016346848 -0.02722962 0.008812559 -0.03577144 -0.0046415385 -0.010957148 0.011551898 0.0035862694
0.007990392 0.027039792 0.030871786 0.0076326136 -0.011139164 -0.0017582986 -0.025579762 -0.004790739
0.034425687 -0.0033420848 0.032836366 -0.01844438 0.010963716 0.007966667 0.0066073183 0.010834631
-0.0039300597 -0.00666981 -0.0006004174 -0.02265373 -0.004436137 0.0048242817 -0.0056388266 -0.022376094
0.01637313 0.057880037 -0.0007026381 -0.023058878 -0.025165217 -0.027089966 -0.012639053 -0.007323273
-0.039837364 0.02525201 0.027967567 0.013633773 0.026990816 -0.015775185 0.025303455 -0.013061328
0.019872129 0.0006903418 0.0057312963 -0.00043535786 -0.0267499 -0.025828991 -0.0117112845 0.011580145
0.013702577 0.018744878 -0.009627205 -0.0052059963 -0.02897643 -0.03123297 -0.008659374 -0.0045993845
0.03303273 0.004542879 -0.014034364 -0.0010921932 -0.009379882 0.009117666 -0.013148922 0.02098106
0.01693723 0.045061544 -0.010976254 -0.00692063 0.008459405 -7.2914205e-05 -0.028443921 -0.01970191
0.021354333 -0.023573186 -0.004127416 0.019123133 0.019888446 -0.05288539 -0.008098483 0.006785521
-0.008761897 0.01676112 -0.0074029206 -0.005080043 -0.008645432 -0.00952806 -0.06640051 -0.01932956
-0.010671549 -0.008012051 0.0080083655 -0.0057768654 0.0032232567 0.046645865 0.014714083 -0.00022039279
0.029917 0.0038286585 0.048094727 -0.010881886 0.009307771 -0.009200514 -0.021205889 -0.024320496
-0.01979168 0.004712631 -0.022201452 -0.0018042295 0.005054094 -0.0036019043 0.016533002 -0.00640204
0.005601032 0.0032882157 -0.03777691 -0.0155259315 0.014710176 0.005888196 0.042533334 0.018746132
0.034417707 -0.014003908 0.0017549301 -0.028705906 0.018430585 -0.016252715 0.009975447 -0.015962416
-0.013765792 0.046352748 0.037379954 0.017558822 -0.011339396 0.019465812 0.01525217 -0.010542999
0.007798156 -0.014132774 0.021318214 0.0029381835 0.023934854 -0.010572623 0.008626152 -0.0021855969
0.018792672 -0.012121565 -0.028704459 0.01402808 -0.008396202 6.725984e-05 -0.026150146 -0.0133243445
-0.03283879 0.020943303 0.00053229934 -0.00086258486 -0.013625035 -0.045649976 0.020584175 -0.015692212
0.0061058463 -0.009596584 -0.0166383 0.018893864 -0.030040676 -0.024033614 0.03243538 -0.022833109
0.013839969 0.0049231597 0.0012269698 0.008723578 -0.03309137 0.000848956 -0.009854438 -0.008531258

network_body._body_endoder.seq_layers.0.bias f4 [128]
00000000: 367a cd3a 3f44 873c 7e1a 5dbb 0239 5c3b
00000010: acf0 25bb 459d 56ba f095 b23c f9ef 923b
00000020: a70a 90bb 5a78 8fbb c641 483b ea8f 7f3c
00000030: f50b 20bb 4c61 7b3c 3eb4 df3b 410f d73b
00000040: 1937 84bc 92c0 82b9 5479 72ba 7b85 873a
00000050: 97d0 1f3c 6f55 603b 2b9f 4d39 9e3a f43a
00000060: 8604 41bc cb68 723c 1b68 113c bfe6 b23b
00000070: b04c 2d3c 53de 9c3b a596 93bb 25e4 0e3a
00000080: 6b34 35bc 95f2 463c 9b25 c73b 7efa 3e3b
00000090: 9b1c 08ba 504e 70b9 bbde 08bc 0757 c13b
000000a0: d012 a73b 76a4 8e3b 9ce3 483c f6fd 15bc
000000b0: f4f2 ab3b 90be d9ba 2581 a3bc 0680 2cbb
000000c0: 946d c1bb 5ce4 c8ba e76e 623b 810b 1e3c
000000d0: d265 86bc 6cdc 0fbc a26f 433c 7713 733b
000000e0: 277d 833c 95a7 553c eede 59bc 7288 483b
000000f0: 074d dfb8 c3ef c2bb eb47 debb 2f47 af3b
00000100: c07c 833c 4ae9 86bb af71 ff3b c6f1 3a3c
00000110: 7619 83bc 19db 57bb fc75 94bb 3acd 22bc
00000120: b5e6 3fbc 67ca 1a3b aa0e 5eba c4ff 44bb
00000130: 891f b73b e420 f33a 7960 b13a 1b7f 19bc
00000140: 6e75 983b f3bd 03ba e23b 903b c840 7abc
00000150: 1364 f93a 86c4 ee3a e83c 793b 0624 5dbb
00000160: 7356 dabb 6d54 003c d5d7 083c 1576 4abb
00000170: b0c8 bfbb 9a4b 513a 6798 62b9 42f9 0fbc
00000180: 2130 c4bb afd8 fa38 1b6d 723a 6962 edbb
00000190: 2a88 64bc b635 113c 023d 823b c3bc fbbb
000001a0: 8dfa 633a 46df 663c 1d2b 363c 018e 8b3b
000001b0: 2fe1 3b3c 61f2 25bb c129 8c3b 3f36 12bb
000001c0: 0255 c73b bf15 183c e7f4 0fbb 2675 253c
000001d0: a90f 2bbc 9018 bdba 3bec 823c 090a e6bb
000001e0: 99c7 bab9 0ee6 39bb 3449 b13c c13e 783b
000001f0: 806e 5ebb 0af3 303c b644 9ebc a33b 993b
0.001567668 0.016512034 -0.0033737714 0.0033603315 -0.0025320454 -0.0008186887 0.021800011 0.0044841734
-0.004395801 -0.0043783607 0.0030556782 0.015598277 -0.002442119 0.015343022 0.0068269065 0.0065630977
-0.016139554 -0.00024939008 -0.00092496467 0.0010339463 0.009754322 0.003423061 0.00019609618 0.0018633192
-0.011780864 0.014795492 0.008874918 0.005459636 0.010577366 0.0047872453 -0.004504042 0.00054508663
-0.011059861 0.012142797 0.006077481 0.0029141004 -0.0005192251 -0.00022917357 -0.008353884 0.005900267
0.005098678 0.0043531014 0.012261298 -0.009154787 0.005247468 -0.0016612578 -0.019959042 -0.0026321425
-0.0059029553 -0.0015326845 0.0034550966 0.009646297 -0.016405974 -0.00878058 0.011928471 0.003709046
0.016050888 0.013040443 -0.0132977795 0.0030598906 -0.00010647816 -0.005948992 -0.0067834756 0.005349062
0.016050696 -0.0041171657 0.0077955346 0.011410182 -0.016003352 -0.003293699 -0.0045306664 -0.009936625
-0.01171272 0.0023619176 -0.0008470813 -0.0030059675 0.005588476 0.0018549231 0.0013532779 -0.009368683
0.0046526706 -0.0005025558 0.00440167 -0.015274234 0.0019027017 0.0018216528 0.0038030688 -0.0033743395
-0.0066631376 0.007832629 0.00835224 -0.0030893136 -0.0058527812 0.0007983983 -0.00021609814 -0.008787455
-0.0059871827 0.000119612894 0.00092478254 -0.0072443974 -0.01394848 0.008862903 0.003974558 -0.0076824143
0.0008696698 0.0140913185 0.011118677 0.0042588715 0.011467262 -0.002532147 0.0042774384 -0.0022310165
0.006083132 0.009282528 -0.0021966042 0.010098731 -0.010440745 -0.0014426876 0.015981784 -0.0070202393
-0.00035625396 -0.0028365883 0.021641351 0.00378792 -0.0033940375 0.0108001325 -0.019319873 0.0046762987

network_body._body_endoder.seq_layers.0.weight f4 [128, 8]
00000000: cc33 c2bd 7633 5abe 9147 e9bd 58be 423f
00000010: 0c04 80be 644a d6be d6c1 893e f2c5 84be
00000020: 0b21 b33e 4604 38bf b2eb 29bc 8b2a 043e
00000030: 56d5 853d 2e64 623e 6086 95be aaf8 493e
00000040: e8fb be3d fe37 3dbe 14f0 38be 86a0 113e
00000050: 9c47 dc3d c24c 44be a9af 15be 13a4 283e
00000060: 0434 8ebc a0a8 e8be 7fa8 5dbe a12d b03e
00000070: 7110 473e 4998 b83d 0ba1 943d 3cde 12bd
00000080: bf15 a9bd 5939 f33d 7fb1 33be 6286 a63e
00000090: 06b1 98be b948 e9bd 3530 e03e 3888 c63d
000000a0: 53aa 903d a216 dcbe e770 0bbf 42c8 c23e
000000b0: 3be2 80be eb16 79be e21f 303e 0656 f6be
000000c0: 5174 723e 6e9c 02be 5621 c23e a8d4 a9be
000000d0: f638 993e 54d5 023f fcc7 6abe 649f 063e
000000e0: f2d2 de3e ca1e 96bd 216e 60be f38a 023e
000000f0: 3d1b 8e3e 869b 8ebe 062c 99be 923c 083e
00000100: 89fe cf3e 0fec ca3d bf33 093f 7f34 8c3e
00000110: 163e 7fbe acad 40be fb62 eebe cda9 083f
00000120: 8a01 943e a545 f63d 46f5 0b3b a3bf 5c3e
00000130: 0810 0cbe 3814 033e 6806 3a3f 5a87 e2be
00000140: ee2d 033f d231 02bf d1d4 e3bd bea2 ccbe
00000150: 6e4f af3e cc6d dbbe e076 c6be 9b62 8fbe
00000160: 3d47 babd a81c 5c3e 25f9 833e 6041 643e
00000170: e883 a33e bdfc 6d3f 6ef8 87be 159d bf3e
00000180: e7a0 96bd 5b34 623c 9149 a0bd b3de 523e
00000190: 3c3b 2b3e 9012 c13c bad5 2d3e 2f80 edbe
000001a0: 7cc5 50bb 618d 043f 9cce 393d f3b7 e4be
000001b0: f3bf 57be 0f9c a43e 7438 0c3e 9e88 cd3e
000001c0: 2eeb cb3e 4fb8 093f dd80 a1be 3b85 953e
000001d0: d82c ecbe fc9a a0bd 9b15 a83e a561 7c3e
000001e0: 890a 243f 5c85 0c3f 9abc 1cbf 4a47 0dbf
000001f0: 59db 7a3e db9c 7a3e 746a 65bd 7613 0abe
00000200: 5073 603e 637d 073d d699 693d f4ca 473e
00000210: fe00 ecbc c96d ab3c 0985 1cbe 3a80 393c
00000220: 4d99 d5bd c4ad 0fbf 341e ad3d cce3 a63e
00000230: 72d7 9a3c b8db 363e 4945 993e 1857 adbe
00000240: 257b 28bf c0b7 44be 3693 193b e664 75be
00000250: eb25 28be 3349 763e 38a6 123f 1493 843e
00000260: 5193 af3e 78c6 263e 2301 96bd 9ccb 92bf
00000270: f13d a0bd 71e1 933e 9f9a ed3e e4b4 1ebf
00000280: 4c7c f23e ae9d 11be 5530 473e 96e3 d0bc
00000290: 9228 e6be fc09 f93e 1f89 8cbe 323a 343f
000002a0: 2b6a c63d 1b76 abbe 23dd 393e f5d7 443e
000002b0: 2a47 9bbe aebe 2d3f 795f b6bd 23ed 5abe
000002c0: 1428 b53d 1ed2 58be af68 8a3e d23d 05be
000002d0: d622 943e 896c 20bd 8157 70be 2087 8ebd
000002e0: de12 9fbe bfb6 a3be bd3d f23b a782 86be
000002f0: 21d1 993e fa5a ab3c b31b e5be d7b7 d03d
00000300: 061f c6be d108 ce3c 49b8 09be 2ac8 bd3d
00000310: f3b0 01bf 1f93 9fbe 3885 dd3c df94 b2be
00000320: 8013 f0be d8c6 093e 5fd8 6bbe 3f2f 74bf
00000330: 992b bbbe 0ef9 0cbe f0c3 a8be 777d ebbe
00000340: 5a8b a23e e1e2 4d3e d48e 9dbd 940b 4bbe
00000350: 0f25 14bf a61e 9fbe b034 85be d1e4 b7be
00000360: 569e 03be 308d 9ebe 62bc ef3e 2d71 3fbe
00000370: 578e c4bd 97c7 343e 6e43 babe 427e 203f
00000380: be2f ad3c 097e a5bd 9d30 603e 0081 d83e
00000390: 11e1 aabe 7f63 053f 8bed 223f 364c 3f3c
000003a0: 2fb0 96bc d017 dbbc a29d 08bf d1aa aabc
000003b0: 040b 843e 9d16 5e3d 462e 36bd 03f1 28bf
000003c0: 6bb3 c33c c00d c63d 7b34 1b3e 4e8c 653d
000003d0: e0f4 473c 7977 c4bd d3f7 973b 6fe1 073e
000003e0: 7f2a 253d b6c7 dfbe 5851 8f3e ccc5 1cbd
000003f0: b5d7 cfbe a886 e4be 01f7 56be b2ef 3cbe
-0.09482536 -0.21308693 -0.11390603 0.7607169 -0.25003088 -0.4185363 0.26905698 -0.2593227
0.34986147 -0.7188152 -0.010371136 0.12906854 0.06534831 0.22108528 -0.29204082 0.19723764
0.09325391 -0.1847839 -0.18060333 0.14221391 0.10755846 -0.19169906 -0.1461779 0.1646884
-0.017358787 -0.4544115 -0.21646307 0.34409812 0.19439866 0.09013421 0.07257279 -0.03585647
-0.08256101 0.118761726 -0.17548178 0.325244 -0.29822558 -0.11390824 0.4378678 0.096939504
0.07063737 -0.42986017 -0.5446915 0.3804341 -0.251726 -0.24325149 0.17199662 -0.48112506
0.23677184 -0.12754986 0.37916058 -0.33170056 0.2992627 0.5110676 -0.2292785 0.1314674
0.43520314 -0.07330091 -0.21917011 0.12748317 0.27755156 -0.2785303 -0.299164 0.13304356
0.40623882 0.09908306 0.53594583 0.273838 -0.24926028 -0.1881625 -0.4655989 0.53384095
0.28907424 0.120250024 0.002135591 0.21557479 -0.1367799 0.12800682 0.72666025 -0.4424389
0.5124196 -0.5085727 -0.11124576 -0.39967912 0.34240288 -0.42857206 -0.3876257 -0.28004918
-0.09095619 0.21495306 0.2577602 0.22290564 0.31936574 0.92963773 -0.26556724 0.37424532
-0.073549084 0.013806428 -0.07826532 0.20592766 0.16721815 0.023568422 0.16976061 -0.4638686
-0.003185599 0.5177823 0.045363054 -0.44671592 -0.21069317 0.32150313 0.1369341 0.40143293
0.39827865 0.5379686 -0.31543627 0.2920321 -0.46127963 -0.07842061 0.32828984 0.24646623
0.64078575 0.5489099 -0.61225283 -0.55186903 0.24497737 0.24473898 -0.056009725 -0.13483986
0.21918988 0.033078562 0.057031475 0.19511014 -0.028809067 0.020926373 -0.15285124 0.0113220755
-0.104296304 -0.5612452 0.084530264 0.3259567 0.01890156 0.17857254 0.29935673 -0.3385551
-0.65812904 -0.1921072 0.0023433692 -0.23964271 -0.16420715 0.24051361 0.5728488 0.25893462
0.3429208 0.16286647 -0.073244356 -1.1468387 -0.078243144 0.28882936 0.4640703 -0.6199477
0.47360456 -0.14220306 0.19452031 -0.025499146 -0.44952828 0.4864043 -0.27448365 0.704013
0.09688219 -0.33488545 0.18150763 0.19223006 -0.3032773 0.6786908 -0.08904929 -0.21379523
0.08845535 -0.21173903 0.27032992 -0.13011864 0.28932828 -0.039166007 -0.2347088 -0.06959367
-0.31069082 -0.31975362 0.0073926137 -0.26271555 0.30042365 0.020917404 -0.44747695 0.10191315
-0.38695544 0.025150688 -0.13449205 0.09266694 -0.5066063 -0.31166932 0.027041063 -0.34879205
-0.46889877 0.13454759 -0.23031758 -0.9538459 -0.365567 -0.13766882 -0.32961988 -0.4599416
0.31746942 0.20106079 -0.07693258 -0.19828635 -0.57869047 -0.3107807 -0.2601676 -0.3591676
-0.12853369 -0.30967093 0.46823412 -0.18695517 -0.09597462 0.17654262 -0.3637957 0.62692654
0.02114093 -0.0808068 0.21893544 0.4228592 -0.33374837 0.52104944 0.6364371 0.011675885
-0.018394558 -0.026744753 -0.5336553 -0.020833405 0.25789654 0.054220784 -0.044477724 -0.65992755
0.023889264 0.09670591 0.15156738 0.056042008 0.012204379 -0.095931 0.0046376972 0.1326959
0.04032373 -0.43707055 0.27991748 -0.03827457 -0.4059426 -0.44633985 -0.20992662 -0.18450812

network_body._body_endoder.seq_layers.2.bias f4 [128]
00000000: f747 1f3c 5ee1 013c d117 f8bb c0cb 623a
00000010: 1e17 1c3a aba2 5ebb 1ce0 21bc fe26 633b
00000020: 065e 083c bebd 733b 6c2c 95ba a80f e73b
00000030: 3126 1fbc ac0e 81bb 9915 563b b744 0f3c
00000040: f420 a53b c250 2e3c d8ea 17ba 9e2a bfbb
00000050: d34b 453b 0d58 e5ba cc20 e33a b309 893b
00000060: 7d63 3c3c 3e46 373c 0e40 713b 7769 a83b
00000070: 735a 653b f19b d0b9 63b3 dd3b 77e0 9eba
00000080: 6c28 cabb 71e0 f9ba 67c9 bdba 1a60 f5bb
00000090: 9eff d6bb fdce b63b 28fe dc38 8dee 543b
000000a0: 63c7 74bb bd75 d4bb a14d a13b 1e31 28bc
000000b0: fbb4 a5bb 5bd6 643c 0ef3 cf3b bd4b 05bc
000000c0: 346d 333c 3529 26bc 6058 363c c620 ae3b
000000d0: 9138 3b3c 1c91 213c f002 aa3b f9ee 86bb
000000e0: 786f 50bc b5e4 09bc 6198 d439 e788 d8bb
000000f0: a9a1 20ba 7b84 1cbc b9d6 3a3c bd76 1e3c
00000100: 9c9f 8fbb 1d8e 12bc f4fa 8e3b f1b4 16bc
00000110: c2a6 d439 4eb3 1cbc 7e61 c4b9 8c8b f6bb
00000120: dcf8 b43b 0288 aabb 7f4b 093b 4b6c 393b
00000130: f5ba a2ba 29b7 07bc f067 443c ef6c f1bb
00000140: 501f 0bbc fb7d 2e3c 1993 693c 9914 6b3c
00000150: 548b 4fbc 1999 c73b e83a 9539 92f7 4cbb
00000160: 5c7f e83b 563e b9b9 ffea a53b 9c1c 223a
00000170: 7e22 883c 585e 2b3a c3a8 e93b ea97 a43b
00000180: 046e 41bb 7b2c ecbb f55c fdbb 9d3c 8abb
00000190: 097c 3ebc 5fe6 1dbb 63fd 313b 3233 39bc
000001a0: 32f0 c53b 4b45 7c3c 47e2 2abc 3080 21bc
000001b0: dd26 26bc 7d4b 0fbc c647 173a b35b 03bc
000001c0: 11d4 81bb 3498 be3b 1f5b 963b a978 9a3c
000001d0: d5c8 2c3c ada2 8839 9cb8 163c 90b9 9dbb
000001e0: 9d6c 813b c2a2 0cbc 9391 5c3b 7257 35bb
000001f0: 6e1d d4ba b7d0 dabb c4d2 13bc 6546 f0ba
0.009721748 0.007927267 -0.0075711985 0.0008651577 0.00059543725 -0.003397147 -0.009880092 0.0034660692
0.008323198 0.0037191953 -0.0011381037 0.007051427 -0.009713695 -0.0039385166 0.0032666682 0.00874441
0.0050393287 0.010639371 -0.00057951873 -0.005833938 0.003010501 -0.0017497555 0.00173285 0.0041820644
0.011498329 0.011186181 0.0036811861 0.0051395255 0.003499654 -0.00039789037 0.0067657693 -0.0012121339
-0.0061693694 -0.0019064081 -0.0014479578 -0.007488263 -0.0065612337 0.005578874 0.00010537758 0.003249082
-0.003735029 -0.006483762 0.004922584 -0.010265617 -0.005056975 0.013967122 0.006346113 -0.008135733
0.010951329 -0.01014166 0.011129469 0.0053139655 0.011427061 0.009861257 0.0051883385 -0.004117843
-0.012721889 -0.008416344 0.00040549322 -0.006608117 -0.0006127605 -0.00955307 0.011403733 0.009671864
-0.0043830406 -0.008945015 0.004363412 -0.009198413 0.00040560035 -0.009564234 -0.0003745667 -0.0075239595
0.0055228304 -0.0052042017 0.002094954 0.0028293307 -0.0012415337 -0.008283415 0.011987671 -0.007367722
-0.008491352 0.010650153 0.014256262 0.014348173 -0.012667496 0.0060912487 0.00028463383 -0.0031275493
0.0070952605 -0.00035332394 0.005063414 0.00061840727 0.01661801 0.00065371906 0.0071307137 0.0050229924
-0.0029515037 -0.007207451 -0.0077320286 -0.0042186514 -0.011626252 -0.002409361 0.0027159087 -0.01130371
0.0060405964 0.01539738 -0.010429925 -0.009857222 -0.010141102 -0.008746025 0.0005770888 -0.008017468
-0.003962048 0.005816484 0.004588499 0.018856363 0.010545929 0.00026061144 0.009199288 -0.0048133805
0.0039497153 -0.008583726 0.0033656105 -0.002767053 -0.0016183087 -0.006677713 -0.009022418 -0.0018331526

network_body._body_endoder.seq_layers.2.weight f4 [128, 128]
00000000: c117 debb 18a4 cf3c c0f0 5fbd 3d5d 263d
00000010: d844 44bd 9fc3 a1bd 534c 133d 4058 db3d
00000020: 4fea e43c 568e 07bd bd88 1fbe 6464 e03d
00000030: 4a15 a6bd aa50 253d 9268 2ebe ff13 a73c
00000040: dcbf 11be 43db 21be 28a9 81bb 75e6 9ebd
00000050: 1528 a9bd 039e 38be 5db4 f43d 6cea a6bd
00000060: 5b0d d6bc bd95 eabc 74d1 263e 8fc9 083d
00000070: 1abf 0f3d e15d 70bd c9f7 e6bc 9345 9abc
00000080: 75b5 75be 907e 18bd 2c03 33be fef5 16bd
00000090: 0a09 2b3e 9d5c 51bd 38d8 a4bd 5f6c 853e
000000a0: 4f28 a43d 1f5a e9bc bed9 5d3d 4b14 9bbd
000000b0: db10 7f3c ff5d 03bd 363f 303d d9ff 1f3d
000000c0: 9cf4 1e3c 2f59 0a3e 6f77 a9bd e0e3 bdbd
000000d0: 61eb 953d 2a7f 763d 4288 613c 4f92 85bd
000000e0: bd96 ff3d de86 77bd d540 b5bd b8bc 32bd
000000f0: 80df 01bc bd8c b0bd fad3 883c e081 653c
00000100: 3a12 6d3c 7285 ac3c ab3d 30be 91d4 d2bd
00000110: 7a9a 67bd 2ba4 09be 35e8 c4bd 92ba 253e
00000120: b9f5 b73d f097 2e3d d683 28bd af52 693c
00000130: 0f8a 9d3d b72c 79bc f070 2fbe 990d 483c
00000140: f718 eabd 30e3 28bd c0f1 f1bc 73de a2bd
00000150: c007 d53d 56fd d1bd a36c 1b3c 2029 71bd
00000160: 0f25 94bc 9763 ba3d c10f 6d3d b55c a4bd
00000170: b45c fbbd 6acd 173e 785a 10bd 7abc 783d
00000180: f7ff 32bd d07d 813c 269d 8bbe 1c66 95bd
00000190: 7a82 083e 1d86 30bd 726a 3b3d 1a49 afbc
000001a0: 2194 19bd e6bb 8f3c 1764 5abc 1cbd 11bd
000001b0: dd58 603d adc3 f23c 6f26 c13c 752b 39bd
000001c0: fc92 edbc e57f 1f3e 3861 0ebd 70cb 4c3e
000001d0: 6c8d 943e 75a1 743d 1caf bb3c 8174 c93d
000001e0: 6f15 22be 5c6b a9bd 196c e8bd 84b5 e63c
000001f0: ecad fe3d de8c afbc 6eff da3c c02e f3bc
00000200: b737 213e 8927 c9bd b86b 93bd fc51 b3bd
00000210: dccc b23d 3c52 afbc 0852 3439 4a71 1f3e
00000220: dcc8 adbc 872d c3bd 7c53 d4bb 4ecf 9fbc
00000230: 6be5 cdbd 264d 233c 0e28 1d3e 2c27 13be
00000240: 2523 01be ac57 b63d ef08 d23c bff3 b8bd
00000250: 5c2d e63c 1c0d 873d 8dd3 1e3d 11a3 da3c
00000260: 7280 d13d eed9 ca3d 8e58 393d 46d9 233c
00000270: bdd5 a53d db31 cdbd 27bd 5dbd 0558 73bd
00000280: 4619 27be 0546 8d3d 9130 85bd e209 893d
00000290: 13e4 b5bc b0ac 8f3d b482 c4bd 0e7b 093e
000002a0: 109f 10be 5050 0abd 496e 5d3e ee1d 893d
000002b0: 39a4 723d 33b8 53bd 224a 353d b6e1 b2bd
000002c0: 7730 8d3c 23a8 16be c178 a1bd 7a0f 863d
000002d0: 70d5 953d a0fa 0dbe 057b 8abb 404c 273e
000002e0: 7a12 64bd dec0 c53d aaca 64bc b859 f93d
000002f0: 8052 b83d f3ac da3c 6079 5cbd 3dd6 ce3d
00000300: 64cd 0c3e 632f d4bc 1dd9 0d3d 3fa9 3b3d
00000310: dd03 1ebc 4e0c 3a3d ab6f ca3c 61ba 013d
00000320: 03fa 233e fc6c 2e3e f626 eb3d 0875 9f3c
00000330: 7047 273d e9dd ecbd 5680 83bd 218c c3bd
00000340: c8a8 a3bc 619d 153d 9b66 533d 6b25 533d
00000350: b1cf a13d 0ce8 ce3d 1ce9 c63d 7330 e3bd
00000360: ab9c 6ebd 370b 16be 30e8 ddbd ee29 3fbd
00000370: bfe4 89bd 3253 63bd 326b 5b3e 92d6 123d
00000380: 5ace ba3c 36ff af3d eaef 8dbc 0f5b 6abe
00000390: 07f2 20bd c2db 17bd 6720 143b 5627 aabc
000003a0: 6659 b7bd 00b5 f2bd da48 0fbe 3cdb 043d
000003b0: f32f a03d 6aa2 bd3d 95b7 f93d f20d 21be
000003c0: 11dc bf3d fbb1 90bb eb8a 74bd 43c0 dd3d
000003d0: a786 47bb 06e1 1f3e 09af e2bd dae0 34be
000003e0: f568 94bd 073b 413e 515d 193d 2be5 a9bc
000003f0: a4ab 3abc cdc3 d8bc f8c6 f63d 5783 e3bc
-0.006777734 0.0253468 -0.054672956 0.040616263 -0.047917217 -0.0789864 0.03596146 0.10710192
0.027943758 -0.033094727 -0.15579505 0.10956648 -0.08109529 0.04036013 -0.17032078 0.020395277
-0.14233345 -0.15806298 -0.0039569326 -0.077588 -0.08259598 -0.18029027 0.11948464 -0.08150181
-0.026129415 -0.028635854 0.16290838 0.033395346 0.035094358 -0.05868328 -0.028194325 -0.018832004
-0.23995002 -0.037230074 -0.17481679 -0.03685569 0.16702667 -0.051113714 -0.08049053 0.26059243
0.08015501 -0.028485356 0.054162733 -0.0757223 0.0155679835 -0.032072064 0.043029033 0.039062355
0.009701874 0.13510583 -0.08274733 -0.09271979 0.073202856 0.060179867 0.013765397 -0.06522047
0.12479923 -0.060431354 -0.08850256 -0.043637007 -0.007926822 -0.08620594 0.01670264 0.014008015
0.014469678 0.021059725 -0.17211024 -0.1029445 -0.056543805 -0.13441531 -0.096146025 0.16184452
0.08982415 0.042625368 -0.041141354 0.014240905 0.07692348 -0.015208415 -0.17132926 0.012210273
-0.11430543 -0.041232288 -0.02953422 -0.07952585 0.10401869 -0.10253398 0.00948635 -0.05887711
-0.018084077 0.091010265 0.057876352 -0.08025495 -0.12273541 0.14824453 -0.035242528 0.06072662
-0.04370114 0.015807062 -0.27268332 -0.072948664 0.13331023 -0.04309665 0.04575581 -0.021397162
-0.037494782 0.017545652 -0.013329527 -0.03558074 0.054772247 0.029634321 0.023577897 -0.04520746
-0.029000752 0.15576132 -0.034760684 0.1999948 0.29014146 0.05972429 0.022910647 0.098366745
-0.15828489 -0.0827243 -0.11348743 0.028162725 0.12435517 -0.021429475 0.026733126 -0.029685378
0.1574391 -0.09821994 -0.0719828 -0.08755872 0.0873048 -0.021401517 0.00017196697 0.1557056
-0.021213941 -0.09530168 -0.0064796787 -0.01950803 -0.10053524 0.009967124 0.15347311 -0.14370412
-0.12611063 0.08903441 0.025639025 -0.09030866 0.0280978 0.06594297 0.03877597 0.026689084
0.10229577 0.09904848 0.045250468 0.0100005325 0.08097408 -0.10019275 -0.054135468 -0.059410114
-0.16318235 0.06898121 -0.06503404 0.06691338 -0.02220348 0.070153594 -0.09595242 0.13425848
-0.14123178 -0.033768 0.21624102 0.06695162 0.059238646 -0.051689338 0.04426015 -0.08734457
0.017235024 -0.14712577 -0.0788436 0.06545921 0.073161006 -0.13865137 -0.004226091 0.16337681
-0.055681683 0.09655927 -0.0139643345 0.121753156 0.090001106 0.026693797 -0.05382669 0.100994565
0.13750225 -0.025901502 0.034630883 0.045815703 -0.009644476 0.04542189 0.02471145 0.031671885
0.1601334 0.17033762 0.114820406 0.019464985 0.040839612 -0.115657635 -0.064209625 -0.09548212
-0.019977942 0.03652704 0.051611524 0.051549356 0.07900942 0.10102853 0.09712431 -0.11093225
-0.05825488 -0.14652716 -0.10835302 -0.046670847 -0.06733083 -0.055499263 0.2142761 0.03584916
0.022803474 0.085935995 -0.017326314 -0.22886299 -0.039293315 -0.03707481 0.002260232 -0.02077071
-0.08952598 -0.11850929 -0.13992634 0.03243564 0.078216456 0.09259494 0.121932186 -0.15727976
0.09368146 -0.004415748 -0.059702795 0.10827687 -0.003044525 0.15613183 -0.110685416 -0.17663899
-0.072465815 0.18870173 0.03744251 -0.020739159 -0.011393461 -0.026460553 0.12049669 -0.027772589
