Assets/ML-Agents/Examples/RollerRex/results/rollerrex/My Behavior/My Behavior-5056.pt (torch, 151351 bytes, 12 tensors)

network_body._body_endoder.seq_layers.0.weight f4 [128, 8]
00000000: 4ed0 17bd 3fdb 05bc 6ee9 e33e e8e8 83bd
00000010: 76a5 5e3d 937f b83e 4b3b b73e d4b5 b1be
00000020: cbc8 d03e 02e5 0dbe 235e c83e 7c57 e4bd
00000030: 8f07 6abf 3b20 c33e c379 d5be 4535 85bc
00000040: 4642 243d 5b42 343f ab0d bfbd 9f3d d8be
00000050: 6671 603e e162 52bd c7e8 cd3d 87e7 043f
00000060: 8b21 483e 9eaf a4be 7670 da3e 2b78 8c3e
00000070: 5736 0bbf ea93 643e 6d0d 27bd a50f 88bd
00000080: 198e 163f 76cb 7d3e 636c 5dbe 6c4a 743e
00000090: 3108 04bf eeb5 75be f8ce 043e 9486 11be
000000a0: ede5 333f 079a 1e3f 54ff 073f 3d0a 413e
000000b0: ce1b fcbe fe20 b83e 9ffd 98bd 6585 343e
000000c0: 0549 4dbf 55f0 e0be 7d01 11bd 5d6d 3bbe
000000d0: 7db8 133d 01ce f03e b4f3 09be aa7b f2bd
000000e0: 1011 8bbe 7fd8 8a3e 384f 3f3e de5e 47be
000000f0: b643 3a3e a65b 963e 7db4 1a3e 34f4 12bd
00000100: 95f1 993e ffaf 973e 71ef 8bbe a6d7 06be
00000110: d509 08bf aee2 afbc 17ef f53e ac86 d5be
00000120: 0002 36bf 6fcd f93e f9a1 d03e 835c 26be
00000130: 073d 99be b53e 7ebe 6455 d6bd ee50 303e
00000140: 26a0 203e 6aa9 073d 5f88 0f3f afa2 98be
00000150: 6067 d9be 7cf2 7cbf 29da e53e 15d5 8a3d
00000160: b43e e3be 3ff5 f93e 8f2f 85bc 57e9 0cbe
00000170: 41c1 d6be 34b8 583e bb15 593e ab4d 553e
00000180: a777 453f c27f 21bd 1f44 8fbd 8119 9bbc
00000190: 5f3e 503f e65c 283e 968b 11bf ca1a 86be
000001a0: 5d72 973c 6d40 c4be 0bcc 6e3e 44ba c0bd
000001b0: 5a27 fabd 200b 883f d112 e6be ed3b 96be
000001c0: 72d7 293e 44a2 7dbf 899d b33d 0841 97be
000001d0: 3007 5abd d70c 673f 00ab 83bd 5f43 423f
000001e0: 31e6 fdbe 8c18 c53e 1135 283f b78e 4e3e
000001f0: 3c87 d13e 5ac4 763e 7b18 ecbe 58a6 27bf
00000200: 5f3a bdbd 1c05 8f3d 59a1 1cbf b836 f6be
00000210: 1adf e73e 8736 01be b157 8fbe 866d 303e
00000220: a454 58be 0b48 e6be ac03 983d fe0d 883d
00000230: 92b3 8dbd 0692 47be 1550 3cbe e9ef 30bc
00000240: c4a2 ae3d 015f 543e 2aa2 0f3f cf4d b9bd
00000250: bdf7 903d 678f 3e3d 02cb 0a3d 5ad8 b7bd
00000260: fa45 c0bb da06 c33e a969 453e d69a 08bd
00000270: 3690 bc3e b119 b43e 0164 84be 777d 69bf
00000280: f67f efbe 5aa3 1b3f d0dd ebbe 5385 86be
00000290: 8f80 54be a922 e2be 062f 70be 67ff 723e
000002a0: b519 5bbe 7c48 3dbe afc2 ebbe 4efb 8fbe
000002b0: db5c 803e 28e6 f33d c232 283f a713 ee3e
000002c0: 73ee 23be 9ab0 69bd aa95 9cbe 474f 7f3e
000002d0: 2743 babd f7d5 97be e003 9cbe 669d 0fbe
000002e0: 7d26 06be 9579 74bc f3ca 3f3f 959d e1bd
000002f0: 1007 14bf 2726 4b3d 2de5 ab3e c6e2 833e
00000300: 7377 d93d faaf cfbe f6ae 07bf 951e 1abb
00000310: 87ac 043f 8314 023e 8ba2 a4be e87c bc3e
00000320: 0585 b83d 246a a5be 649b b83d 19c8 153e
00000330: 9886 023e 144f 1b3f a915 6d3e 5390 843e
00000340: 95a4 70be f8ee 20be accd 703e 656e 9ebe
00000350: b747 0d3e 5713 af3e 7e53 c9bd 821a 873d
00000360: 6a05 a1bd e967 abbe 763d a03e 4918 9ebd
00000370: 1b21 973d c155 b7be b23a 94be ed6f 2cbe
00000380: e70d 0a3f 6581 2c3f 4704 3dbd 6b42 c4bd
00000390: 438f 35bf 20ea c8be cac8 3fbe e9a8 b33d
000003a0: ddc6 06bf f8f0 743e 2f4d ecbd 8a2a 313e
000003b0: adaf 6dbd 603d e03d 7138 253e 0d04 afbd
000003c0: 8d6a 8b3e dafd 813f fe2a 7bbe f0d0 5abc
000003d0: 5651 fc3e e217 233f e57f cebe 3aa7 76be
000003e0: f0d1 d4bd 3bc6 9d3e 37a5 8b3d a513 283d
000003f0: a32b e3be f794 90be 1516 c2be 8c99 6e3d
-0.03706389 -0.008169948 0.4451403 -0.06440908 0.054357015 0.3603483 0.35787424 -0.34709036
0.40778193 -0.13856891 0.3913432 -0.11149499 -0.91417783 0.38110527 -0.4169446 -0.016260752
0.040102266 0.7041375 -0.09328779 -0.42234513 0.21918258 -0.05136383 0.100541644 0.5191578
0.19544046 -0.32165235 0.42663926 0.2743543 -0.5437979 0.2232205 -0.04078429 -0.06643609
0.58810574 0.24784645 -0.21623378 0.23856515 -0.51575 -0.23995182 0.12969577 -0.14211494
0.70272714 0.6195378 0.53123975 0.18851562 -0.49239963 0.3596267 -0.074702494 0.17629011
-0.80189544 -0.4393336 -0.03540181 -0.18303438 0.036064614 0.47032169 -0.13471872 -0.11839993
-0.27161455 0.27118298 0.18682563 -0.19469783 0.18189892 0.29366797 0.15107913 -0.03587742
0.30067125 0.29626462 -0.27331117 -0.13168201 -0.5314 -0.021470394 0.48033974 -0.4170431
-0.710968 0.48789546 0.40748575 -0.16246228 -0.29929373 -0.24828608 -0.10465506 0.17218372
0.15686092 0.03312055 0.5606746 -0.29811618 -0.4246168 -0.988075 0.44893005 0.067789234
-0.44383776 0.4881992 -0.01625803 -0.13760887 -0.41944316 0.21164018 0.21199696 0.20830409
0.771357 -0.03942848 -0.06995415 -0.01893306 0.8134517 0.16441688 -0.56853616 -0.26192313
0.01848715 -0.38330403 0.23320024 -0.09410527 -0.12214537 1.0628395 -0.4493623 -0.29342595
0.16586092 -0.9907572 0.08770282 -0.29541802 -0.05322951 0.9025397 -0.064291 0.7588405
-0.49589685 0.3849529 0.6570597 0.20171629 0.40923488 0.2409834 -0.46112427 -0.65488195
-0.09239649 0.069833964 -0.61183697 -0.48088622 0.452874 -0.12618457 -0.2799659 0.1722928
-0.21126038 -0.4497684 0.07422575 0.06643294 -0.06919016 -0.19489297 -0.18389924 -0.010799387
0.08527139 0.20739366 0.5610682 -0.09048044 0.07078502 0.046523478 0.03388501 -0.08976813
-0.005867717 0.38091165 0.19278587 -0.033350788 0.36828774 0.3517585 -0.25857547 -0.9120707
-0.46777314 0.6079613 -0.46067667 -0.26273593 -0.20752166 -0.4416707 -0.23455438 0.23730241
-0.21396525 -0.18484682 -0.4604697 -0.28121418 0.25070843 0.11909133 0.6570245 0.4649937
-0.1600893 -0.057053186 -0.30582935 0.24932586 -0.090948395 -0.2965543 -0.30471706 -0.14024886
-0.1310062 -0.014921566 0.7491905 -0.110163845 -0.57823277 0.04959693 0.33573285 0.25758952
0.10618486 -0.40563947 -0.53001344 -0.0023516763 0.51825756 0.12703137 -0.3215526 0.36814046
0.090097465 -0.3230754 0.090140134 0.14627112 0.12746656 0.6066754 0.23152794 0.2589136
-0.23500283 -0.1571616 0.23515958 -0.309436 0.13796888 0.34194443 -0.09830378 0.06596853
-0.07862361 -0.33477715 0.3129689 -0.07719476 0.07379361 -0.35807613 -0.2895103 -0.16839571
0.53927463 0.6738494 -0.046146657 -0.09582981 -0.70921725 -0.39241123 -0.18728939 0.087724514
-0.5264719 0.23920047 -0.11538159 0.17301384 -0.058028866 0.10949206 0.16134812 -0.085456945
0.2722973 1.0155594 -0.24528119 -0.013355479 0.49280804 0.6370832 -0.4033195 -0.2408723
-0.10391605 0.308153 0.068186216 0.04103436 -0.4436923 -0.2823865 -0.37907472 0.058251902

network_body._body_endoder.seq_layers.0.bias f4 [128]
00000000: 0000 0000 0000 0000 0000 0000 0000 0000
00000010: 0000 0000 0000 0000 0000 0000 0000 0000
00000020: 0000 0000 0000 0000 0000 0000 0000 0000
00000030: 0000 0000 0000 0000 0000 0000 0000 0000
00000040: 0000 0000 0000 0000 0000 0000 0000 0000
00000050: 0000 0000 0000 0000 0000 0000 0000 0000
00000060: 0000 0000 0000 0000 0000 0000 0000 0000
00000070: 0000 0000 0000 0000 0000 0000 0000 0000
00000080: 0000 0000 0000 0000 0000 0000 0000 0000
00000090: 0000 0000 0000 0000 0000 0000 0000 0000
000000a0: 0000 0000 0000 0000 0000 0000 0000 0000
000000b0: 0000 0000 0000 0000 0000 0000 0000 0000
000000c0: 0000 0000 0000 0000 0000 0000 0000 0000
000000d0: 0000 0000 0000 0000 0000 0000 0000 0000
000000e0: 0000 0000 0000 0000 0000 0000 0000 0000
000000f0: 0000 0000 0000 0000 0000 0000 0000 0000
00000100: 0000 0000 0000 0000 0000 0000 0000 0000
00000110: 0000 0000 0000 0000 0000 0000 0000 0000
00000120: 0000 0000 0000 0000 0000 0000 0000 0000
00000130: 0000 0000 0000 0000 0000 0000 0000 0000
00000140: 0000 0000 0000 0000 0000 0000 0000 0000
00000150: 0000 0000 0000 0000 0000 0000 0000 0000
00000160: 0000 0000 0000 0000 0000 0000 0000 0000
00000170: 0000 0000 0000 0000 0000 0000 0000 0000
00000180: 0000 0000 0000 0000 0000 0000 0000 0000
00000190: 0000 0000 0000 0000 0000 0000 0000 0000
000001a0: 0000 0000 0000 0000 0000 0000 0000 0000
000001b0: 0000 0000 0000 0000 0000 0000 0000 0000
000001c0: 0000 0000 0000 0000 0000 0000 0000 0000
000001d0: 0000 0000 0000 0000 0000 0000 0000 0000
000001e0: 0000 0000 0000 0000 0000 0000 0000 0000
000001f0: 0000 0000 0000 0000 0000 0000 0000 0000
0.0 0.0 0.0 0.0 0.0 0.0 0.0 0.0
0.0 0.0 0.0 0.0 0.0 0.0 0.0 0.0
0.0 0.0 0.0 0.0 0.0 0.0 0.0 0.0
0.0 0.0 0.0 0.0 0.0 0.0 0.0 0.0
0.0 0.0 0.0 0.0 0.0 0.0 0.0 0.0
0.0 0.0 0.0 0.0 0.0 0.0 0.0 0.0
0.0 0.0 0.0 0.0 0.0 0.0 0.0 0.0
0.0 0.0 0.0 0.0 0.0 0.0 0.0 0.0
0.0 0.0 0.0 0.0 0.0 0.0 0.0 0.0
0.0 0.0 0.0 0.0 0.0 0.0 0.0 0.0
0.0 0.0 0.0 0.0 0.0 0.0 0.0 0.0
0.0 0.0 0.0 0.0 0.0 0.0 0.0 0.0
0.0 0.0 0.0 0.0 0.0 0.0 0.0 0.0
0.0 0.0 0.0 0.0 0.0 0.0 0.0 0.0
0.0 0.0 0.0 0.0 0.0 0.0 0.0 0.0
0.0 0.0 0.0 0.0 0.0 0.0 0.0 0.0

network_body._body_endoder.seq_layers.2.weight f4 [128, 128]
00000000: 73c3 4a3d 9eb0 f63d c44c 713d 24a8 47bd
00000010: 1fa4 04be f552 09bd 0549 ac3c 6eba 76bd
00000020: d9a6 7dbc 72f8 1abd 89b5 8b3d 52fb 23bd
00000030: 4daf 9bbd 7e39 e2bd d06c 143e e366 193d
00000040: b4d2 d1bd b181 ab3d 44aa e03c 7b7a c4bc
00000050: 87f2 22be 9ad1 08be eb03 063e 6e1b d4bc
00000060: 822b b63e b5ae 233c 3f2f 9d3b d224 1abd
00000070: 951d ae3c 24cd cdbc 6d3b a83c 7b7f 2abb
00000080: 8c26 813d c7f4 263c 4b2d c5bd 4038 8bbd
00000090: cbe3 d9bd c9c0 463e 1d56 debd 7f16 7cbd
000000a0: df1a 02be af8f f93d e913 68bd 720d 05bd
000000b0: 4d14 34bc bf66 36be d119 1c3e 8b83 21bd
000000c0: 7cf7 c0bd 5eb7 153e 1309 423d 1bc4 dd3d
000000d0: dd5c 65bd 5843 133c faed 3fbe 2bd2 28bd
000000e0: fab5 623d 22be 8c3d ec56 b4bd 83e0 bd3a
000000f0: b81d 3f3d d0f3 eabc 9115 c9bd ea31 45be
00000100: 9aec ab3c a908 a03d 582d 88bd 88c5 a43c
00000110: 8aca c63d 80bb 4a3d beab 45bc 396b da3d
00000120: 3110 983e 81c3 d1bd 496f 8e3c 52b9 11bd
00000130: 1a7b 573d 16f6 0e3e 7a50 333d 50f2 5fbd
00000140: 1bb6 d8bd 8391 f63b 466f 8dbc 75b9 37bc
00000150: c36f 343d 7e64 8cbd 2429 773d 53d2 8abd
00000160: 5fb8 073d 3a73 02bd 3db0 e43d 3e2d 9ebd
00000170: 8b16 6e3c 11fd 26bd 29cc bb3d 93d5 4f3d
00000180: 00d0 f1bd 5973 5c3b ec7c 403b 638b 0ebd
00000190: 663a a33d 60ea 903d b896 03be c2d6 f6bd
000001a0: 6818 9a3d 85b8 f33d b8c5 c3bc 2b1b 073d
000001b0: dd5f 3cbd fd87 513c 2add 13be 1f20 bf3c
000001c0: 9bc5 aebd f041 5dbd 05d5 8ebd ba60 ebbc
000001d0: 466f 6e3d 7c52 ea3d a715 9a3d 09cf 3ebe
000001e0: 519a 5f3d 7e0f 20be f362 723d aee4 f83d
000001f0: 4c91 f83d 384d 84bd 3ed5 46bc 6853 b3bd
00000200: 2c51 583d b653 583d 3930 27bd 7f66 7e3d
00000210: 8f21 383d 7fd2 38bd 2b36 3fbd 415a 303d
00000220: 549c 883d f4f9 bc3b 7127 da3d 6951 8aba
00000230: ff2a 963d 9e27 883d b1fc a23d f9e9 2a3e
00000240: f4a1 a13c b237 edbc 6c09 333e 9053 44bd
00000250: f9c9 f3bc 7ec2 353a 460c 02bd 52cb 0fbd
00000260: 08e4 823c 3502 a63d 25a1 ebbc f286 7cbc
00000270: f32b 2dbe e1ee 84bd ed8d 1a3e 0b3d b5bd
00000280: ce55 d23d 84a0 6f3b 8663 86bd fe31 f83c
00000290: 12d9 133e 1c96 ac3d 2df3 9dbc 58b5 c4bd
000002a0: b522 82bd 17d0 93bd 5279 7fbd 1076 2ebe
000002b0: ee15 4a3e 50ec 01be ee9f e03d 2e58 a4be
000002c0: 247c cd3c 5428 b73d 36fd 5e3d 21a5 6b3d
000002d0: 8185 48bb c796 bdbc 0847 4bbd 7080 96bd
000002e0: 4d61 913c d5ce 58bd 80b1 90be 1672 e0bd
000002f0: 4681 863e d92e fcbd 1fb8 9ebd 9fec 5b3d
00000300: 6670 85bd 25c4 123d 920d 00be c0b2 a23c
00000310: cffa 193d b411 36bc c7b1 8fbd 261c a0bb
00000320: 0f01 69bc 85a0 b7bd 9838 92bd d630 0d3e
00000330: 681d 00bd be42 8cbd 6d22 8fbd 908d 483d
00000340: 4145 aebd c511 0a3e a1e1 31bd 9e38 703d
00000350: 86bd 8cbd 31cc b53d 0524 35be 7955 aabb
00000360: 48d0 623d 124b 34be 82f3 fb3d 5dc3 fdbc
00000370: a7e8 a0bc 6e8a 1ebd 87c0 94bd e5c3 a63c
00000380: 2f47 2ebc b20b e8bc d2d3 c03c db8e 6dbd
00000390: 630d 00be 7518 56be ddde 693e 991e 4bbd
000003a0: 7985 e93c 9a34 373d b205 71bc fca3 a73d
000003b0: eb1a fe3c 0fce ec3c 3a97 1abc b3b6 acbc
000003c0: 7dc4 c8bd eef5 c9bd b1a3 7dbd f844 a53d
000003d0: b94c b93c 49b6 acbd 27ce 09bd 0951 b6be
000003e0: 966c 713c 8909 733d 0531 9fbd 0d98 34bd
000003f0: 74ed d7bd 9299 383e 87ff 2c3d 6891 24bd
0.0495028 0.12045406 0.0589111 -0.048744336 -0.12953232 -0.03352638 0.021030912 -0.060236387
-0.015481674 -0.037834592 0.068217345 -0.0400346 -0.07601795 -0.11046122 0.14494634 0.037451636
-0.102452666 0.08374346 0.027424939 -0.023984184 -0.1591283 -0.13361207 0.13087432 -0.025891986
0.3558007 0.009990384 0.004796892 -0.03763277 0.02125434 -0.025122233 0.020536149 -0.0026015926
0.0630618 0.010190195 -0.096277796 -0.06797838 -0.10639151 0.19409479 -0.108562686 -0.06154489
-0.12705563 0.121856086 -0.056659613 -0.032483526 -0.010991168 -0.17812632 0.15244223 -0.03943209
-0.09422204 0.1462073 0.047371935 0.1082842 -0.055996764 0.008988224 -0.18743125 -0.041216057
0.055349328 0.068722025 -0.088056415 0.0014486465 0.0466592 -0.028680712 -0.098185666 -0.19257322
0.020986844 0.07814152 -0.06649274 0.020113721 0.097066 0.04949522 -0.012064872 0.10664982
0.29699853 -0.102423675 0.01738705 -0.035577126 0.052607633 0.13961062 0.04377792 -0.054674447
-0.10581609 0.0075246706 -0.017264973 -0.01121365 0.044051897 -0.06855105 0.06034197 -0.067783974
0.033134814 -0.03184817 0.11166427 -0.07723473 0.014531742 -0.040768687 0.091698 0.05074079
-0.11807251 0.0033638088 0.0029371334 -0.0348009 0.07970123 0.070759535 -0.12850463 -0.120526806
0.075241864 0.11900429 -0.02389799 0.032984894 -0.04598986 0.01278877 -0.14439836 0.023330746
-0.08533784 -0.05401796 -0.06974224 -0.028732646 0.058211587 0.11441514 0.07523661 -0.18633665
0.054590527 -0.1563091 0.059176397 0.12152992 0.12137088 -0.06460041 -0.012135802 -0.08756143
0.052811787 0.052814208 -0.040817473 0.062109467 0.04495388 -0.04512262 -0.046682518 0.043054823
0.06670442 0.0057671014 0.10652054 -0.0010552827 0.073324196 0.066481814 0.07958353 0.16690816
0.019730546 -0.028957222 0.17484063 -0.047931254 -0.029759394 0.00069335836 -0.031749986 -0.03510601
0.015977874 0.0810589 -0.028763363 -0.015413033 -0.16911297 -0.06490875 0.15093203 -0.08849534
0.10270272 0.003656418 -0.06561951 0.030297276 0.14438275 0.084270686 -0.019280994 -0.09604901
-0.06354276 -0.07217424 -0.06237156 -0.17037225 0.19734928 -0.12687802 0.10968004 -0.32098526
0.025083609 0.08943239 0.0544407 0.057530526 -0.0030597153 -0.023143185 -0.049628288 -0.07348716
0.017746592 -0.052931625 -0.28260422 -0.1095926 0.26270503 -0.12313623 -0.07749962 0.053692456
-0.06515579 0.03583159 -0.12505177 0.019860625 0.037592705 -0.011112619 -0.0701633 -0.004886168
-0.014221444 -0.089661635 -0.07139701 0.1378816 -0.031278044 -0.068486676 -0.06988988 0.04896313
-0.08509303 0.13483341 -0.043428067 0.058647744 -0.06872086 0.08876837 -0.17689522 -0.0051981774
0.055374414 -0.17606762 0.12302305 -0.030976946 -0.019642187 -0.038706236 -0.07263284 0.020357082
-0.010637089 -0.02832589 0.023538504 -0.057997566 -0.12505107 -0.20907767 0.22838922 -0.049589727
0.028506028 0.0447279 -0.0147108305 0.081855744 0.031018695 0.02890685 -0.009435469 -0.021083212
-0.09803102 -0.098613605 -0.061923686 0.08069795 0.022619592 -0.08433206 -0.033643868 -0.356087
0.014735362 0.059335265 -0.077730216 -0.04409032 -0.105433375 0.18027332 0.042235877 -0.040177733

network_body._body_endoder.seq_layers.2.bias f4 [128]
00000000: 0000 0000 0000 0000 0000 0000 0000 0000
00000010: 0000 0000 0000 0000 0000 0000 0000 0000
00000020: 0000 0000 0000 0000 0000 0000 0000 0000
00000030: 0000 0000 0000 0000 0000 0000 0000 0000
00000040: 0000 0000 0000 0000 0000 0000 0000 0000
00000050: 0000 0000 0000 0000 0000 0000 0000 0000
00000060: 0000 0000 0000 0000 0000 0000 0000 0000
00000070: 0000 0000 0000 0000 0000 0000 0000 0000
00000080: 0000 0000 0000 0000 0000 0000 0000 0000
00000090: 0000 0000 0000 0000 0000 0000 0000 0000
000000a0: 0000 0000 0000 0000 0000 0000 0000 0000
000000b0: 0000 0000 0000 0000 0000 0000 0000 0000
000000c0: 0000 0000 0000 0000 0000 0000 0000 0000
000000d0: 0000 0000 0000 0000 0000 0000 0000 0000
000000e0: 0000 0000 0000 0000 0000 0000 0000 0000
000000f0: 0000 0000 0000 0000 0000 0000 0000 0000
00000100: 0000 0000 0000 0000 0000 0000 0000 0000
00000110: 0000 0000 0000 0000 0000 0000 0000 0000
00000120: 0000 0000 0000 0000 0000 0000 0000 0000
00000130: 0000 0000 0000 0000 0000 0000 0000 0000
00000140: 0000 0000 0000 0000 0000 0000 0000 0000
00000150: 0000 0000 0000 0000 0000 0000 0000 0000
00000160: 0000 0000 0000 0000 0000 0000 0000 0000
00000170: 0000 0000 0000 0000 0000 0000 0000 0000
00000180: 0000 0000 0000 0000 0000 0000 0000 0000
00000190: 0000 0000 0000 0000 0000 0000 0000 0000
000001a0: 0000 0000 0000 0000 0000 0000 0000 0000
000001b0: 0000 0000 0000 0000 0000 0000 0000 0000
000001c0: 0000 0000 0000 0000 0000 0000 0000 0000
000001d0: 0000 0000 0000 0000 0000 0000 0000 0000
000001e0: 0000 0000 0000 0000 0000 0000 0000 0000
000001f0: 0000 0000 0000 0000 0000 0000 0000 0000
0.0 0.0 0.0 0.0 0.0 0.0 0.0 0.0
0.0 0.0 0.0 0.0 0.0 0.0 0.0 0.0
0.0 0.0 0.0 0.0 0.0 0.0 0.0 0.0
0.0 0.0 0.0 0.0 0.0 0.0 0.0 0.0
0.0 0.0 0.0 0.0 0.0 0.0 0.0 0.0
0.0 0.0 0.0 0.0 0.0 0.0 0.0 0.0
0.0 0.0 0.0 0.0 0.0 0.0 0.0 0.0
0.0 0.0 0.0 0.0 0.0 0.0 0.0 0.0
0.0 0.0 0.0 0.0 0.0 0.0 0.0 0.0
0.0 0.0 0.0 0.0 0.0 0.0 0.0 0.0
0.0 0.0 0.0 0.0 0.0 0.0 0.0 0.0
0.0 0.0 0.0 0.0 0.0 0.0 0.0 0.0
0.0 0.0 0.0 0.0 0.0 0.0 0.0 0.0
0.0 0.0 0.0 0.0 0.0 0.0 0.0 0.0
0.0 0.0 0.0 0.0 0.0 0.0 0.0 0.0
0.0 0.0 0.0 0.0 0.0 0.0 0.0 0.0

action_model._continuous_distribution.log_sigma f4 [1, 2]
00000000: 0000 0000 0000 0000
0.0 0.0

action_model._continuous_distribution.mu.weight f4 [2, 128]
00000000: 6167 443c 7a71 91bb 5b24 9bbb 97d8 3f3c
00000010: fdfb d1bc ae5b 943b fbae 583c 3f2b dc3a
00000020: e055 cebc b822 b6ba 728a 7fbb f8e4 e33b
00000030: 503c 15bc 86f7 073d 0266 893b 77da ae3b
00000040: 35d3 59bc 35ea 6fbc 9377 18bc 7c47 a0bc
00000050: 730b ecbb 0759 d83c f2a6 f03b 0d49 41bb
00000060: 9031 e8b9 3b89 58bb 2e0b b7ba 5eb5 ad3c
00000070: 777b 703b 9b2e 443b 27a0 26bc 3bc7 033c
00000080: 67b3 c3bb 6050 d73c f290 ebbc f431 023d
00000090: a63b c1bb c7c2 18bd f772 44b9 acd9 a1bb
000000a0: c964 c3ba 6a14 dd3c e711 ad3c df24 bdbc
000000b0: 43ae 933c e762 be3c aff8 b3ba 6632 9bbc
000000c0: 6708 41bb 67e3 5ebc 139b 2cbc ef6a 74bc
000000d0: 0363 893b b38d 5bbb fbd2 e93c 1d07 26bc
000000e0: c91a 4c3b 7cfe a83c 6034 75bc 6fc8 42bc
000000f0: 63dd 473c c358 5eb9 5094 d73c a21f bcbc
00000100: 55b7 7cba b37d 09bd 4f8c b5bc 5f67 7dbb
00000110: 2f2f c53c 5761 65bc 6919 12bb 5b63 2a3b
00000120: 4f55 e9bc e07e f33c ca01 093c 005a d63b
00000130: 3405 c4bb 4316 93ba c499 0abc 91c0 ccbb
00000140: 5584 67bc 43a9 033c ed5d 9b3c 066e c23c
00000150: 4865 14bd 6a3d f2bc 972b c2bb 7d1f 393c
00000160: ed28 3f3d 505c 783c 888c dfbb 879d d93c
00000170: d01b 57b9 174f 1a3c e873 bbbc 2ffa bb3b
00000180: 5c82 b0bc 2933 133c 7462 1939 ed57 6c3c
00000190: 2ff6 533c d0d5 7f3c 0bb9 913c bca1 0ebd
000001a0: c060 56bb 0e36 0d3a 82b7 eabb ec32 b2bb
000001b0: c34e ecbb 1238 41bc 6fd8 17bc c0f7 abbc
000001c0: af8f a33c de3f aa3c 4012 d2bb 5067 573c
000001d0: 3277 c8bc 5edd 1d3d 83f5 32bc cbbc 603b
000001e0: 17a3 5dbc 6b0b 7abb 5231 d13b 5ad7 60bc
000001f0: 26a0 9a3c 5bc2 053c 8ff9 353a bd6f 8a3b
00000200: 6fb2 c23a 8fe0 943c 5c35 3abc 4bb0 b53c
00000210: 6c56 2fbc 81e9 163d 61bb 0a3c b923 19bc
00000220: c281 b73c 1aa5 4c3c 1bb3 0dba d034 d5bc
00000230: 3c9e 9c3c f4dc 40bc 0f18 a2bb 6abd 32bc
00000240: d9bc c33c 370b 39bc 402b 8abc bc2c a4bb
00000250: 4d8e 8cbb 28bd a4bc 1b54 e3ba bfd9 2cbc
00000260: 6dee 373d d7ad 84bb 0dc2 de3c a487 1e3c
00000270: 6738 a13c fe01 96bb 67f2 09bc a51c da3b
00000280: 1378 0fbd 1e33 223c 34fa 90bc ff49 82bc
00000290: 1259 f2bb 5143 96bb c9d3 84bc 867f c9bc
000002a0: a5a5 113c 3dea e73c 3dc4 813c d0fb 823c
000002b0: 362b 943b d8dd 54bd c280 debc 1cd3 38bd
000002c0: 8f4c cf3c 5b78 e53c 0b67 0bbc 1603 8dbc
000002d0: db73 bfbc 4ee5 a93c 5299 7e3c d774 383c
000002e0: 0471 09bc 92f8 2dbc e32d 363b d309 693c
000002f0: 53b2 98bc 27b7 8b3c f499 2a3c a80c ab3c
00000300: 250c e8bb d7dd b53b 276c 633c 4e24 1b3c
00000310: b056 353c c6eb 0abd 2073 31bb 1e43 2ebc
00000320: 756b d0bc 6980 9fbc ef77 503c 28c8 edbb
00000330: b416 203c 6c19 0c3c 375f 493c 81bb 9abc
00000340: 3c70 bfbb db66 86bc 4f96 203b 6893 353c
00000350: 66f8 2a3c e862 e83a 90fa 16bd df6b 87bc
00000360: 5af5 91bc 4376 debc f862 35bc 4b3d 16bc
00000370: 93bd 783c 7362 3fbc b506 47bc 2497 a2bc
00000380: 6f00 a73b ba9f ea3c 9f33 873b 7b51 7cbc
00000390: bd08 e33b 5db2 f7b8 50b2 b7bc 0794 bd3b
000003a0: d0fc f23b e783 de3c 6f07 933c 81a9 cabc
000003b0: 3dcd a4bc 7bd8 a43b 6961 1ebc 653c e4bb
000003c0: 9dd7 783c 573d ad3c a12d 86b9 8b57 9ebc
000003d0: e083 24bc 55e2 efbb c31b 423a 57b0 223c
000003e0: 83c4 3c3b f0e8 da3c b922 a5bb c357 8bbc
000003f0: 9b9e ac3c 3278 df3b 2afa 02b9 0317 05bd
0.011987538 -0.0044385763 -0.0047345585 0.011709354 -0.025632853 0.0045275306 0.013225312 0.0016797556
-0.025187433 -0.0013895845 -0.0038992432 0.0069547854 -0.009108618 0.03319504 0.0041930685 0.0053361016
-0.013294985 -0.014643242 -0.009305852 -0.019565336 -0.0072035133 0.026409639 0.00734412 -0.0029493005
-0.00044287415 -0.003304078 -0.0013965124 0.021204647 0.0036694685 0.0029935006 -0.010170019 0.008043106
-0.005972314 0.026283443 -0.028755639 0.03178592 -0.005897003 -0.03729513 -0.00018734844 -0.0049392786
-0.0014907356 0.026987273 0.0211267 -0.02308887 0.01802743 0.02324052 -0.001373073 -0.01894493
-0.002945447 -0.013604022 -0.010535019 -0.014918073 0.0041927113 -0.0033501207 0.028542986 -0.010133532
0.0031143895 0.02062916 -0.0149661 -0.011888607 0.012198779 -0.00021204636 0.026315838 -0.022964302
-0.0009640356 -0.03356714 -0.02216163 -0.003866635 0.02407035 -0.014000258 -0.0022292978 0.0025999162
-0.028483061 0.029723585 0.008362243 0.0065414906 -0.0059820656 -0.0011221844 -0.008459512 -0.0062485416
-0.0141306715 0.008035961 0.018965686 0.023734104 -0.0362294 -0.0295703 -0.0059256065 0.011299011
0.04666989 0.015158728 -0.0068221726 0.026564373 -0.00020514359 0.009418271 -0.022882417 0.0057366113
-0.021546535 0.0089843655 0.00014627894 0.01442526 0.012937113 0.015614942 0.01778843 -0.03482221
-0.0032711476 0.0005386778 -0.007162989 -0.0054381993 -0.0072115376 -0.011793153 -0.00926791 -0.02099216
0.019965975 0.020782407 -0.006410867 0.01314719 -0.0244709 0.03854119 -0.010922792 0.0034292217
-0.013527653 -0.0038153778 0.0063840533 -0.013723219 0.018875193 0.008164014 0.0006941789 0.004224746
0.0014854203 0.018173484 -0.011365261 0.02217879 -0.010701757 0.03684378 0.008467526 -0.009346896
0.02240074 0.012490535 -0.0005405412 -0.02602616 0.01911842 -0.011771429 -0.0049467157 -0.010909418
0.02389376 -0.011294178 -0.016866326 -0.0050102156 -0.0042894245 -0.020109728 -0.0017343791 -0.010549962
0.044905115 -0.0040490436 0.02719214 0.009675894 0.019680215 -0.004577874 -0.00841961 0.0066562467
-0.03502662 0.009899883 -0.017697431 -0.015904425 -0.007395872 -0.0045856615 -0.016214268 -0.02459694
0.00888959 0.028309936 0.015840644 0.015989214 0.0045217527 -0.05196938 -0.027161006 -0.045123205
0.02530506 0.028011492 -0.008508454 -0.017213386 -0.023370674 0.020739224 0.015539484 0.011258326
-0.008388761 -0.010618346 0.0027798347 0.014223534 -0.01863972 0.017055107 0.010412682 0.020880058
-0.007081526 0.005550127 0.013880766 0.009469105 0.011068031 -0.033916257 -0.0027076676 -0.010636119
-0.025441865 -0.01947041 0.012723907 -0.0072565265 0.009771038 0.008550983 0.012290767 -0.018888237
-0.005842237 -0.016406467 0.0024503653 0.011082508 0.010435199 0.0017729672 -0.03686005 -0.01653093
-0.017817188 -0.027156001 -0.011070959 -0.009169887 0.015181917 -0.011681187 -0.012147595 -0.01984746
0.0050964872 0.028640617 0.0041260268 -0.015400286 0.006928532 -0.000118111006 -0.022423893 0.0057854685
0.0074153915 0.027162505 0.01794788 -0.024739029 -0.020117396 0.0050306893 -0.009666779 -0.0069652074
0.015188125 0.021147413 -0.00025592468 -0.019328853 -0.010041207 -0.007320682 0.00074046495 0.009929738
0.0028803654 0.026722401 -0.0050395397 -0.017009621 0.021071723 0.0068197483 -0.0001249096 -0.03249265

action_model._continuous_distribution.mu.bias f4 [2]
00000000: 0000 0000 0000 0000
0.0 0.0

network_body._body_endoder.seq_layers.0.weight f4 [128, 8]
00000000: 034e b53e 8347 b93e 35ea dbbe ff17 a83e
00000010: b81d 49bc e102 823e 7e22 b93c 570e b1bd
00000020: 11b5 e5be 90b2 fd3d 445f 983e 9aa1 e0be
00000030: 1241 0c3c ae8d 43be 9e93 ebbe 909b a4be
00000040: 36c3 603e b92e 35be 4e03 2b3e 395c f3be
00000050: 3c91 693d 2937 943d dccc 55be 5684 31be
00000060: 3aab 043f 0300 07be ff13 20be c719 03be
00000070: 4501 e03d 2acf eb3c e5d8 603e 7bf3 0d3e
00000080: 8bff 17be e024 853d 7b08 27bf 5cf1 55bd
00000090: aed4 373e 6326 cdbd 2e60 a83d 2361 dd3e
000000a0: bc3c 263f 03d9 04bd 8b9a f8bd 5bdf de3d
000000b0: 779c 52bd 7e3e ad3e 3cb6 393e b408 833e
000000c0: a8dd 32bf d356 c23e ae4a 053f d7c7 abbe
000000d0: 836c 6e3e c931 f1be 1920 9cbe 4da6 463d
000000e0: b580 08be 5cbd 05bf 262d 853f e20b bdbd
000000f0: 22b4 653e f0ca 313f 3e4a 9f3e 9ae3 f83e
00000100: 6c62 063f 1258 ae3c a3b8 32bd 4d51 ee3d
00000110: 44af 113e ff28 773e b6f1 583e 4887 0abf
00000120: 60dd 61bf c43f c63d 018f 083f c45a 15be
00000130: 33a1 75bc 4c6a 4abc 6675 25be 2ef4 793d
00000140: 6fb3 ec3e 7764 e63d bd7a a23e 3404 113f
00000150: 5351 c3bd 8f1a 48be 4601 f1be d59d 423e
00000160: 2130 e3bd 0a3c b7be bd63 7d3e 431e 073f
00000170: 697a c4be 69dc c4be 9883 f0bd 9d5d 2f3e
00000180: 117c b13e 54c5 64be 2066 303e 757b fa3c
00000190: 84fe 913e 4411 9e3e d693 9f3e f9b6 803e
000001a0: df03 eebe 0c64 fdbd f15c 013f 8575 b0bc
000001b0: 4e32 15be 1953 a7be 8a4f 013f eae8 28bf
000001c0: b106 7bbe 63e0 eabc 8e11 893e 2b5b 4d3f
000001d0: 7647 8d3e 8e81 123f 8a86 4b3f 4b1f b1bc
000001e0: 2a1f 79be 36cc 3cbf 7b7e fc3e 807c 5a3e
000001f0: c384 b9bd 75c9 02bd 6527 afbd bff4 743d
00000200: 1afa 3fbe 9ae8 763e e841 21bf 1b7e 593e
00000210: b1fa 0dbd 183f bf3c 63c8 773d 2514 d7be
00000220: 1248 c83d 7d14 57be ab3a 3a3e 0f02 bf3e
00000230: e557 5bbe 0851 c9bd 2f48 9f3d a923 693e
00000240: 6735 f7bd 0214 e13e 18c6 b9be 6ab2 09bf
00000250: 8044 4bbe a9a5 04bf 11f2 0fbe 3a6f 3cbf
00000260: 11b6 e8bc 08ef b93e f44e 003f db62 313e
00000270: 3b07 833d 918d 08bf b533 953c 620f abbd
00000280: 4d53 9f3d 8d20 213f 9ef1 78bf 6fc8 c5be
00000290: 68d8 6e3e c3cb cdbe 54d1 d13d 3d84 ecbe
000002a0: bd0a 033f ecee 443e e928 aa3c 6c27 363f
000002b0: 415f 7ebd 97e0 25bc 84ee 26be ffe5 353f
000002c0: 439b d23e efeb 333f ea75 8e3e c24f d73e
000002d0: 4ad1 7d3e 5d16 e4be f580 4b3e 9218 0d3e
000002e0: 0510 e23d f35e b5bb 98f7 663d 2a97 223f
000002f0: 0c4b 8a3e 5cf2 803c 3fb9 a13c e091 b7be
00000300: 1234 70bf 8447 933e ff91 31be 4133 b53d
00000310: 8444 b4be b1e1 bebe aaec 0abd 28ea b43e
00000320: 481d ffbe 9a65 8e3d ca82 b03e d7d6 4ebd
00000330: 1ccd 8b3d 948b 2d3e bde2 a83c 2bb2 4c3f
00000340: 3dc8 3c3f 5cbe fc3d 088d 78be 8195 7d3e
00000350: 0e69 51be cab1 973d ee1a 72bc 3f75 36be
00000360: f01c 9ebe f8b9 95be 6902 203e 8533 95be
00000370: 5086 74be f2d1 51be 648e 133f 13aa c0be
00000380: 6317 62bd e877 bc3e adb3 743c 783f 023f
00000390: 8493 f13e 515c c83e c807 92bd 5b34 26bf
000003a0: f883 24be 369b debe 02a5 953d ca68 f4be
000003b0: bb7e 8d3e 5f69 bbbc 78ae 2d3e a009 34bd
000003c0: 9d75 fabc f4fe c43e 424a b83d 624d f0bc
000003d0: 4ba7 b63e d16d 9d3e c929 a83d 1953 313f
000003e0: 0ae3 69be b941 3abe 9765 0e3f 317d 4ebe
000003f0: 733e c8be bbca 25bf ca97 5b3d 41e1 3bbd
0.3541108 0.36187372 -0.42952123 0.32830808 -0.012275152 0.2539282 0.022599455 -0.08645313
-0.44864705 0.12387574 0.29760182 -0.43873292 0.008560436 -0.19097015 -0.4601106 -0.32149935
0.21949467 -0.17693605 0.1670048 -0.47531298 0.057023272 0.072370835 -0.20878929 -0.17335638
0.5182377 -0.13183598 -0.15632628 -0.12802802 0.10937742 0.028785307 0.21957739 0.13862412
-0.14843576 0.06501174 -0.65247315 -0.05223213 0.17952225 -0.10017087 0.0822147 0.43238172
0.64936423 -0.03243352 -0.12138852 0.108824454 -0.051418748 0.3383674 0.18135923 0.25592577
-0.6986947 0.37956867 0.5206708 -0.33550903 0.23283581 -0.47108296 -0.3049324 0.04849844
-0.13330348 -0.52242064 1.0404403 -0.09230782 0.22431996 0.69450283 0.3111133 0.48611146
0.5249393 0.02128223 -0.043633115 0.11636601 0.14227015 0.24136733 0.21185955 -0.5411267
-0.88228416 0.09680131 0.53343207 -0.14585406 -0.014992046 -0.012354445 -0.16158065 0.061023884
0.46230647 0.11249631 0.31734267 0.5664704 -0.09536996 -0.19541381 -0.47071284 0.1900552
-0.11093164 -0.35787994 0.24745078 0.5278055 -0.38374642 -0.3844941 -0.117438495 0.17125554
0.34664968 -0.223409 0.17226458 0.030576447 0.28514493 0.30872548 0.31167477 0.25139597
-0.46487328 -0.12372598 0.5053244 -0.021540413 -0.14569971 -0.32680586 0.5051199 -0.659804
-0.24514271 -0.028671449 0.26771206 0.80217236 0.27593583 0.57228935 0.79502165 -0.021621367
-0.24328294 -0.737491 0.49315247 0.21336555 -0.090585254 -0.031930406 -0.08552436 0.05980372
-0.1874775 0.24112168 -0.6299119 0.21239512 -0.034662906 0.023345515 0.060493838 -0.42007557
0.09779371 -0.2100391 0.18186443 0.37306258 -0.21420248 -0.098299086 0.0777744 0.2276751
-0.120707326 0.43960577 -0.36283946 -0.53787863 -0.1985035 -0.5181528 -0.14057185 -0.7360722
-0.028407129 0.3631518 0.5012047 0.17322867 0.063978635 -0.53341013 0.018213132 -0.083525434
0.0777956 0.62940294 -0.9724368 -0.3862948 0.2332474 -0.4019452 0.10245004 -0.4619464
0.5118826 0.19231766 0.02077146 0.71153903 -0.06210256 -0.010124347 -0.16301924 0.7105407
0.4113408 0.7028188 0.27824336 0.42053038 0.24786869 -0.44548312 0.19873412 0.13778904
0.11038212 -0.0055350005 0.056388468 0.6351191 0.2701038 0.015740566 0.019741653 -0.3585348
-0.93829453 0.287655 -0.1734085 0.088476665 -0.35208523 -0.37281564 -0.033917107 0.35334897
-0.49827027 0.06952973 0.34474784 -0.050497856 0.06826231 0.16947776 0.02061593 0.7995936
0.7374304 0.12340996 -0.24272549 0.24764062 -0.20450231 0.074069574 -0.014776928 -0.17818163
-0.30881453 -0.29243445 0.1562592 -0.2914087 -0.23879361 -0.20490244 0.57639146 -0.37629756
-0.055198085 0.3681023 0.014935416 0.50878096 0.47182858 0.39132932 -0.071303904 -0.6492364
-0.16065967 -0.43477792 0.07306863 -0.47736198 0.2763575 -0.022877393 0.16961086 -0.04395449
-0.03057366 0.38475764 0.089985386 -0.029333774 0.3567451 0.30747846 0.08211095 0.6926742
-0.22840515 -0.18189134 0.55623764 -0.20164944 -0.39110145 -0.6476247 0.053611554 -0.045869116

network_body._body_endoder.seq_layers.0.bias f4 [128]
00000000: 0000 0000 0000 0000 0000 0000 0000 0000
00000010: 0000 0000 0000 0000 0000 0000 0000 0000
00000020: 0000 0000 0000 0000 0000 0000 0000 0000
00000030: 0000 0000 0000 0000 0000 0000 0000 0000
00000040: 0000 0000 0000 0000 0000 0000 0000 0000
00000050: 0000 0000 0000 0000 0000 0000 0000 0000
00000060: 0000 0000 0000 0000 0000 0000 0000 0000
00000070: 0000 0000 0000 0000 0000 0000 0000 0000
00000080: 0000 0000 0000 0000 0000 0000 0000 0000
00000090: 0000 0000 0000 0000 0000 0000 0000 0000
000000a0: 0000 0000 0000 0000 0000 0000 0000 0000
000000b0: 0000 0000 0000 0000 0000 0000 0000 0000
000000c0: 0000 0000 0000 0000 0000 0000 0000 0000
000000d0: 0000 0000 0000 0000 0000 0000 0000 0000
000000e0: 0000 0000 0000 0000 0000 0000 0000 0000
000000f0: 0000 0000 0000 0000 0000 0000 0000 0000
00000100: 0000 0000 0000 0000 0000 0000 0000 0000
00000110: 0000 0000 0000 0000 0000 0000 0000 0000
00000120: 0000 0000 0000 0000 0000 0000 0000 0000
00000130: 0000 0000 0000 0000 0000 0000 0000 0000
00000140: 0000 0000 0000 0000 0000 0000 0000 0000
00000150: 0000 0000 0000 0000 0000 0000 0000 0000
00000160: 0000 0000 0000 0000 0000 0000 0000 0000
00000170: 0000 0000 0000 0000 0000 0000 0000 0000
00000180: 0000 0000 0000 0000 0000 0000 0000 0000
00000190: 0000 0000 0000 0000 0000 0000 0000 0000
000001a0: 0000 0000 0000 0000 0000 0000 0000 0000
000001b0: 0000 0000 0000 0000 0000 0000 0000 0000
000001c0: 0000 0000 0000 0000 0000 0000 0000 0000
000001d0: 0000 0000 0000 0000 0000 0000 0000 0000
000001e0: 0000 0000 0000 0000 0000 0000 0000 0000
000001f0: 0000 0000 0000 0000 0000 0000 0000 0000
0.0 0.0 0.0 0.0 0.0 0.0 0.0 0.0
0.0 0.0 0.0 0.0 0.0 0.0 0.0 0.0
0.0 0.0 0.0 0.0 0.0 0.0 0.0 0.0
0.0 0.0 0.0 0.0 0.0 0.0 0.0 0.0
0.0 0.0 0.0 0.0 0.0 0.0 0.0 0.0
0.0 0.0 0.0 0.0 0.0 0.0 0.0 0.0
0.0 0.0 0.0 0.0 0.0 0.0 0.0 0.0
0.0 0.0 0.0 0.0 0.0 0.0 0.0 0.0
0.0 0.0 0.0 0.0 0.0 0.0 0.0 0.0
0.0 0.0 0.0 0.0 0.0 0.0 0.0 0.0
0.0 0.0 0.0 0.0 0.0 0.0 0.0 0.0
0.0 0.0 0.0 0.0 0.0 0.0 0.0 0.0
0.0 0.0 0.0 0.0 0.0 0.0 0.0 0.0
0.0 0.0 0.0 0.0 0.0 0.0 0.0 0.0
0.0 0.0 0.0 0.0 0.0 0.0 0.0 0.0
0.0 0.0 0.0 0.0 0.0 0.0 0.0 0.0

network_body._body_endoder.seq_layers.2.weight f4 [128, 128]
00000000: 4a9d 563d 8eb7 cc3d a413 7fbd ad9c 4f3d
00000010: 9d03 3ebd 0858 d039 f74c 82bc f38e 6bbd
00000020: 02dc b1bd 41bc 983d 2260 ff3d 45c5 173e
00000030: 1065 c2bc 0bb8 e2bd d948 583d 19a1 f13c
00000040: 86a6 2cbc 9f8c dfbc 3e04 b7bd 0e77 4e3e
00000050: 243f b13d 3bef 2abe d968 463e 64a0 45bd
00000060: 1da8 b33d 21cb 42bb 7f5c d1bd 21a2 78bd
00000070: 802f efbc 97d0 98be 47ba 043e ac61 05bc
00000080: a84d ce3d a069 3bbe 5ee8 ee3d 8514 40be
00000090: 787c 3dbe 7873 01bd 8265 3bbd 51ce 27be
000000a0: d7a3 253d e8fa f63c 13a7 42bb 2b3e 2c3e
000000b0: 28cd 043d 7659 693b cedc 083e 0188 b03c
000000c0: da80 543d cf6e 553d 32d7 28bd 1ee1 193e
000000d0: 4a2c 293c 292c 093e 0c28 09bc 83ef f8bc
000000e0: ee4c 45be 61dd 263d 3781 ae3c b37a cdbd
000000f0: 0bcf 82bc baa4 6c3d d194 8b3d 0745 cbbd
00000100: 3765 b8bd e03c aabd ea4b 70bd 6f6b 7b3d
00000110: 842b bc3d 9abb d73d 166e 31bd 1714 6d3d
00000120: 779d 0e3e 08dd 62bd 069e 16be 0676 253d
00000130: cb10 473d 00b6 0a3e 3bbb 64be 1e7d 313c
00000140: 7d36 993d b93e 923d 307a b13b 3771 62bd
00000150: e1f6 3abd 6710 79bd 2a5e bfbc 220e 1ebe
00000160: a80d 71bd 6807 33be 82af cc3d 58af 663d
00000170: 2628 9ebc 2d44 de3d 12b7 203e 3f37 2f3d
00000180: b77a d9bc d371 3d3d 5f91 593c 224d 093d
00000190: db30 4d3c b14a c2bd f050 063e 133d 883b
000001a0: 576f 8bbd 1171 f33d 3708 ba3d 7a39 85bd
000001b0: 69f7 a3bd 8625 db3c 7a31 cc3c bf7f 07be
000001c0: 5803 ac3d c1e3 013e 0608 083b 0032 f23d
000001d0: 9196 933d 132e 003e fecf c6bd 4683 49bc
000001e0: 3f39 db3d 449f 35be ce50 a33d c61e 093d
000001f0: 4746 54bd 7a29 063d 5e65 58bb 9cc7 103d
00000200: 363b 01bd 5ef6 3d3c 4a38 d13c 92b2 e73d
00000210: c69d e33b 525c b5bd 0cf1 2a3e 9db0 a5bd
00000220: 8fde 943d a75a 27bd 3905 773d 57d9 c83d
00000230: 4a06 fb3a 6e47 3cbc cc23 a3bd efa1 00bd
00000240: 1d79 573d b1e9 ffbd 4e90 5e3d 2a35 0c3e
00000250: eddc b5bd 721c 9fbc e5b8 183e 50e2 c43d
00000260: 4c2f 93bd 89ae ac3d cc56 a93d 919c 5a3d
00000270: fda4 203d c31f 263d d5ac b0bb a143 16bc
00000280: ac3b 8dbd 593f 0ebd 3963 20be 8c99 76bd
00000290: f71c 24be e4e6 d33c 0cc9 913a 9125 bbbd
000002a0: e783 8dbc 9878 98bd 6379 55bc 7f60 22bd
000002b0: 7434 893c f4aa 863d 4d04 813c 7684 a5be
000002c0: 9c56 043c 6d7a c13d 76e3 ef3c fdd3 cc3d
000002d0: 6309 bc3d 84a8 593c 45c1 d7bc 3fe9 3f3b
000002e0: efd4 923c 13aa 4b3e c68f 19bd 34b1 e63d
000002f0: aa70 65bc 44ce 3bbd ef6e aabd 54d8 0f3e
00000300: 2c16 c5bd 20fd 58bd 0f6d 5cbd 420b 2d3d
00000310: 2e62 a4be 3711 d33d 282e 63bd 3185 203d
00000320: ace8 8d3d bd72 9b3d 3a79 20be f43c a6bd
00000330: ee8a 70bd 04ea bfbc e6a7 c43d 2f8d 07bc
00000340: e99e 85bd 5411 b13d f34e a83d 756f 6c3d
00000350: 7370 0fbe 1792 f2bd 9f27 29bd c965 2abd
00000360: 8948 003e 2ab4 b73d 6a81 333d a8b0 ad3d
00000370: 5804 0e3e c1a1 823c 8c2d 5ebc 3e7d f23b
00000380: 83c6 69bd 2911 58bd 7dc7 8339 4682 e63d
00000390: b344 753d 7e28 ecbc 5531 363e 7d8f 37bd
000003a0: d276 093d d9db 943d 01c3 bcbd 41e2 283c
000003b0: a2af e5bd 8861 0cbe 2ce3 a8bd 03d5 5fbd
000003c0: 438d 0dbe 9afa 973c 8bd0 d6bb 7c53 e4bc
000003d0: ec8f 44be 7f4f 04be 81a6 043d 4df4 b93c
000003e0: 435c 39bd 85a2 b93d d207 7cbd 0a19 a6bd
000003f0: 1f14 e4bc 98df 33bc 9b4a 4ebe 39a9 26be
0.052396096 0.09995948 -0.06227459 0.050686527 -0.046390165 0.0003973844 -0.01590584 -0.057509374
-0.08684541 0.074577816 0.12469508 0.14821346 -0.023729831 -0.1107026 0.052803848 0.029495763
-0.010537749 -0.027288733 -0.08936356 0.20162603 0.08654621 -0.16692822 0.19375934 -0.048248664
0.087722994 -0.0029723125 -0.1022272 -0.060701493 -0.029197454 -0.2984664 0.12961684 -0.008140963
0.100734055 -0.18302011 0.11665414 -0.18757828 -0.18504512 -0.03160426 -0.045751102 -0.16387297
0.040439453 0.030148938 -0.0029701635 0.1682059 0.032422215 0.0035606301 0.1336548 0.021549227
0.051880695 0.05210763 -0.04122085 0.15027282 0.010325501 0.13395752 -0.008371364 -0.030387646
-0.19267628 0.040738467 0.021301849 -0.10033169 -0.015967866 0.057774283 0.06815494 -0.09925275
-0.0900368 -0.08312392 -0.058666147 0.061381754 0.091879874 0.10533829 -0.043317877 0.057880487
0.13927256 -0.055386573 -0.14708719 0.04039576 0.0486 0.1354599 -0.22337048 0.010833053
0.07481096 0.0714087 0.005416177 -0.05528375 -0.0456456 -0.060806658 -0.02336033 -0.15435079
-0.058850914 -0.17483294 0.09994413 0.056319565 -0.019306254 0.10852847 0.15694836 0.042777296
-0.026547773 0.04625113 0.013279288 0.033520825 0.012523855 -0.094869025 0.13116813 0.0041576712
-0.06808346 0.118868 0.09083598 -0.065051034 -0.08006174 0.026751291 0.024925936 -0.13232325
0.08399075 0.12684537 0.0020756735 0.11825943 0.07206453 0.12517576 -0.0970764 -0.012299364
0.10704278 -0.17736536 0.07974397 0.033476613 -0.051824834 0.0327544 -0.0033019404 0.035346612
-0.03155061 0.011594383 0.025539536 0.113133565 0.0069462983 -0.08855499 0.16693515 -0.08090327
0.07269012 -0.040857937 0.060307715 0.09807079 0.0019151655 -0.01149164 -0.07965812 -0.031404432
0.052605737 -0.12495745 0.05433684 0.13692155 -0.08880029 -0.019422743 0.14914282 0.09613478
-0.071867555 0.084317274 0.08268508 0.05337197 0.039219845 0.040557634 -0.005391697 -0.009171397
-0.06896147 -0.03472838 -0.1566285 -0.060205027 -0.16026674 0.025866933 0.0011122539 -0.091380246
-0.01727481 -0.074448764 -0.013029429 -0.039642807 0.016748644 0.065755755 0.015749121 -0.32327622
0.00807729 0.09447179 0.029283267 0.10001371 0.09181478 0.013284806 -0.026337275 0.0029283313
0.0179238 0.19889097 -0.03749063 0.112642676 -0.014003912 -0.045851007 -0.0832194 0.14047366
-0.096233696 -0.052975774 -0.053814944 0.042247064 -0.32106155 0.10306018 -0.05546394 0.03918952
0.06929144 0.07590244 -0.15671244 -0.08117095 -0.058726244 -0.023427017 0.096023366 -0.008273407
-0.0652445 0.08645883 0.08218183 0.05772348 -0.1400774 -0.11844271 -0.04129755 -0.041600976
0.1252767 0.089699104 0.04382459 0.0848096 0.13868845 0.01594627 -0.013560664 0.007400184
-0.05707408 -0.05275074 0.00025134897 0.112553164 0.05987997 -0.028827902 0.17792256 -0.044814575
0.03356058 0.07268495 -0.092168815 0.010307849 -0.1121514 -0.1370908 -0.082464546 -0.054646503
-0.13823418 0.018552113 -0.006555622 -0.02787184 -0.19195527 -0.1292095 0.032385353 0.0226995
-0.045254003 0.09064201 -0.061530896 -0.081102446 -0.027841626 -0.010978602 -0.20145647 -0.16275491

network_body._body_endoder.seq_layers.2.bias f4 [128]
00000000: 0000 0000 0000 0000 0000 0000 0000 0000
00000010: 0000 0000 0000 0000 0000 0000 0000 0000
00000020: 0000 0000 0000 0000 0000 0000 0000 0000
00000030: 0000 0000 0000 0000 0000 0000 0000 0000
00000040: 0000 0000 0000 0000 0000 0000 0000 0000
00000050: 0000 0000 0000 0000 0000 0000 0000 0000
00000060: 0000 0000 0000 0000 0000 0000 0000 0000
00000070: 0000 0000 0000 0000 0000 0000 0000 0000
00000080: 0000 0000 0000 0000 0000 0000 0000 0000
00000090: 0000 0000 0000 0000 0000 0000 0000 0000
000000a0: 0000 0000 0000 0000 0000 0000 0000 0000
000000b0: 0000 0000 0000 0000 0000 0000 0000 0000
000000c0: 0000 0000 0000 0000 0000 0000 0000 0000
000000d0: 0000 0000 0000 0000 0000 0000 0000 0000
000000e0: 0000 0000 0000 0000 0000 0000 0000 0000
000000f0: 0000 0000 0000 0000 0000 0000 0000 0000
00000100: 0000 0000 0000 0000 0000 0000 0000 0000
00000110: 0000 0000 0000 0000 0000 0000 0000 0000
00000120: 0000 0000 0000 0000 0000 0000 0000 0000
00000130: 0000 0000 0000 0000 0000 0000 0000 0000
00000140: 0000 0000 0000 0000 0000 0000 0000 0000
00000150: 0000 0000 0000 0000 0000 0000 0000 0000
00000160: 0000 0000 0000 0000 0000 0000 0000 0000
00000170: 0000 0000 0000 0000 0000 0000 0000 0000
00000180: 0000 0000 0000 0000 0000 0000 0000 0000
00000190: 0000 0000 0000 0000 0000 0000 0000 0000
000001a0: 0000 0000 0000 0000 0000 0000 0000 0000
000001b0: 0000 0000 0000 0000 0000 0000 0000 0000
000001c0: 0000 0000 0000 0000 0000 0000 0000 0000
000001d0: 0000 0000 0000 0000 0000 0000 0000 0000
000001e0: 0000 0000 0000 0000 0000 0000 0000 0000
000001f0: 0000 0000 0000 0000 0000 0000 0000 0000
0.0 0.0 0.0 0.0 0.0 0.0 0.0 0.0
0.0 0.0 0.0 0.0 0.0 0.0 0.0 0.0
0.0 0.0 0.0 0.0 0.0 0.0 0.0 0.0
0.0 0.0 0.0 0.0 0.0 0.0 0.0 0.0
0.0 0.0 0.0 0.0 0.0 0.0 0.0 0.0
0.0 0.0 0.0 0.0 0.0 0.0 0.0 0.0
0.0 0.0 0.0 0.0 0.0 0.0 0.0 0.0
0.0 0.0 0.0 0.0 0.0 0.0 0.0 0.0
0.0 0.0 0.0 0.0 0.0 0.0 0.0 0.0
0.0 0.0 0.0 0.0 0.0 0.0 0.0 0.0
0.0 0.0 0.0 0.0 0.0 0.0 0.0 0.0
0.0 0.0 0.0 0.0 0.0 0.0 0.0 0.0
0.0 0.0 0.0 0.0 0.0 0.0 0.0 0.0
0.0 0.0 0.0 0.0 0.0 0.0 0.0 0.0
0.0 0.0 0.0 0.0 0.0 0.0 0.0 0.0
0.0 0.0 0.0 0.0 0.0 0.0 0.0 0.0

value_heads.value_heads.extrinsic.weight f4 [1, 128]
00000000: 4f85 f3bd eb64 26be 1e55 333e c014 423e
00000010: 004a 173a 5fc8 5bbe e84a 5e3d 000c 3dbd
00000020: 1183 55be d0e8 41be 5acf 1b3e d495 f13d
00000030: 6802 273e c061 123e 9a24 88bd 50ea 823d
00000040: 18e5 2b3e 903b f93c 8b40 e2bd 44f8 543e
00000050: 1d63 0cbe 0c59 3b3e 31b7 c6bd c603 293e
00000060: 3cd1 053d 109b da3d 409a d2bb 2a95 0b3e
00000070: 60bf 4b3c 48be 313d 2421 debd 6087 8f3c
00000080: aee1 4e3e e589 21be ea7c 43be 800a 963b
00000090: eec4 e3bd 8a55 363e 200f 0fbe 44c8 54bd
000000a0: a22e 173e 763a 2abe 3ce8 71bd 3ca1 f33d
000000b0: 54ad 39be 9867 a0bc 7b81 1ebe f837 0f3e
000000c0: 8c78 d63d 904a 093e c61a 42be 8a8d 3e3e
000000d0: 881b 31bd 7861 d93d 30d7 eb3c 208d 13be
000000e0: 8809 883d a00c 403c 90c2 203e b091 483e
000000f0: e8cf 5dbd e9cd 5bbe c889 0a3e 15a5 1cbe
00000100: c083 8fbb 20c9 ecbc 9c39 553e f079 f4bc
00000110: 9863 de3c 2e6f 083e f43f 14be 50eb 0d3d
00000120: 4029 223c d452 f93d 3cac 333e f84f 5abd
00000130: c3dc 4abe 065c 41be f0b8 06be d6e8 f9bd
00000140: ce0b 38be 2497 98bd 607a 553d 00fb 7a3b
00000150: 62d3 0b3e a24e 14be 000b 77bd bc8e db3d
00000160: 26bd 163e 0875 ea3d 6895 01be d092 793c
00000170: b092 90bd 1824 9bbd 3082 913c 1281 053e
00000180: 6216 313e b357 fdbd 4d49 56be 1c3d 48bd
00000190: 1e9f c0bd 2cc8 58bd 108b 06bd d478 9fbd
000001a0: ee83 4e3e 6a56 123e a0e6 193e 64db 4dbd
000001b0: ca94 413e fa41 14be a8b2 5cbd 2481 4cbd
000001c0: 803c c93d 0080 13bc dcf5 903d 5a90 213e
000001d0: f2fa 223e 6a52 4bbe 1af6 563e 0abe 0b3e
000001e0: b795 4fbe c693 8cbd f0b9 503d 34df ce3d
000001f0: b021 04bd 38da a53d c0ed 0abe 50fb c83d
-0.11890661 -0.16249435 0.17512938 0.18953228 0.000577122 -0.21463154 0.054270655 -0.046154022
-0.20850779 -0.18936467 0.15215817 0.117961556 0.16309512 0.14295101 -0.06647606 0.06392348
0.16786611 0.03042391 -0.11047467 0.20797831 -0.13709684 0.18295687 -0.0970291 0.16505346
0.032670245 0.10674107 -0.0064270794 0.1363112 0.012435764 0.043394357 -0.10846165 0.017520607
0.20203277 -0.15775259 -0.1909062 0.0045788884 -0.11121546 0.17806068 -0.13970613 -0.0519488
0.14763883 -0.16623864 -0.059059367 0.118959874 -0.18132526 -0.019580647 -0.1547908 0.13986194
0.10472211 0.1340735 -0.18955526 0.1860868 -0.043239146 0.10614294 0.028789133 -0.14409304
0.06642443 0.01172176 0.1569922 0.19586825 -0.054153353 -0.21465267 0.13529122 -0.15297349
-0.0043797195 -0.028904498 0.20822757 -0.0298433 0.0271471 0.13323662 -0.14477521 0.03464824
0.00989753 0.12174001 0.17546171 -0.05329892 -0.19810776 -0.1888276 -0.13156486 -0.12202613
-0.17973253 -0.07450703 0.05211866 0.003829658 0.13654855 -0.14483121 -0.060313225 0.10720584
0.14720592 0.11448103 -0.1265465 0.015232757 -0.070592284 -0.07575244 0.017762274 0.13037518
0.17293695 -0.12370243 -0.209264 -0.048886403 -0.09405349 -0.052925274 -0.032847464 -0.07786718
0.20167515 0.14290777 0.15029383 -0.050258055 0.18904415 -0.14478293 -0.053881317 -0.049927846
0.098259926 -0.009002686 0.07078144 0.15777722 0.1591604 -0.19855657 0.20992318 0.13646713
-0.20271955 -0.06864123 0.050958574 0.10101166 -0.03225869 0.080982625 -0.13567257 0.09813559
