Assets/ML-Agents/Examples/RollerRex/results/rollerrex/My Behavior/My Behavior-9088.onnx (onnx, 73663 bytes, 7 tensors)

action_model._continuous_distribution.log_sigma f4 [1, 2]
0.0 0.0
00000000: 0000 0000 0000 0000

action_model._continuous_distribution.mu.bias f4 [2]
0.0 0.0
00000000: 0000 0000 0000 0000

action_model._continuous_distribution.mu.weight f4 [2, 128]
0.032046963 0.016339876 0.0015490814 -0.0048400452 0.005615876 -0.010874994 0.0028103255 0.0047343806
-0.024148254 -0.00467457 0.0055826027 -0.00643539 0.01602975 -0.016229076 0.021734409 0.016854996
-0.026321456 0.009137984 0.0130354455 0.026428973 0.005500377 0.0012357881 -0.0009785808 0.0029769398
0.0013833279 -0.01664397 0.020287884 0.010393668 -0.012356458 0.0052906377 0.005498169 -0.01786678
8.812642e-05 0.016298192 -0.0007166087 -0.028162822 0.016935544 -0.0016425392 -0.013980292 -0.0076399646
0.00027177227 -0.0029020864 -0.0060743713 -0.01831842 -0.038702395 0.017750101 0.013563824 -0.016341807
-0.005758238 -0.03316018 0.019930748 0.008685359 0.0139354095 0.018276906 -0.0028367452 0.016982516
0.009391445 0.014621015 0.010122694 0.018868182 -0.023371493 0.002946439 0.0112151215 -0.00325666
-0.019141516 -0.0078038224 -0.016710265 -0.042824995 -0.0078054755 0.0016287602 -0.019570116 0.03583294
-0.024180975 0.002976148 0.002943901 -0.0029288928 -0.01220525 -0.0036077152 0.030637205 0.008952598
0.011169947 -0.007272581 -0.007736254 0.02045192 -0.010368696 -0.013941951 0.013391676 -0.028375361
0.0084118815 0.002633443 -0.0006593454 -0.038222425 0.0034671896 -0.0018609905 0.013189559 0.016901383
-0.017188564 -0.00488612 -0.0002765115 0.0035575312 -0.0008349257 -0.0052669123 0.011626952 -0.007956447
-0.023683017 0.019155376 -0.029364977 -0.01530116 0.006222729 -0.017588248 0.012859178 0.012995916
-0.045611557 -0.023291042 -0.00088264665 0.0036072673 -0.029172529 -0.012182868 0.02009532 -0.003605632
0.012536994 0.0029064282 -0.017187597 -0.02170019 0.027516646 -0.013720984 -0.011330123 0.011311624
-0.00093922 0.02882574 0.012677264 0.01856979 0.011034093 0.035933014 0.03819036 3.8168957e-05
0.0040102038 -0.0047180406 0.025671987 -0.013824581 -0.007217144 0.014964632 -0.020841047 0.035451423
0.015426806 0.011586121 0.017169584 0.015521492 -0.0011827232 0.005515636 0.052674185 0.034655485
-0.01551784 0.01119823 0.0033572845 -0.02199505 -0.028727809 -0.039341968 0.02180089 -0.00888535
-0.014177091 0.010769599 0.011750568 -0.011721421 -0.03346696 0.038246535 0.005522339 0.008458411
-0.0021651657 0.011125514 -0.0066849287 0.037723314 -0.026349673 -0.014597272 0.007577218 -0.0013392083
-0.016117452 0.034091674 -0.0104335155 -0.010958261 -0.0043285307 -0.0019434039 0.0038762358 0.0022980398
-0.03091844 0.010213904 -0.008595199 -0.0012414403 0.009973383 -0.0075879483 0.015255657 0.0026224789
-0.006842685 0.010126843 -0.014416245 -0.017296595 0.0021298795 -0.023852536 0.006974883 0.016833186
-0.008501894 -0.013439505 -0.010560254 0.0107122455 -0.021367876 -0.01218793 -0.0034554806 -0.02550361
-0.039890047 0.021386892 -0.016682144 -0.015893692 -0.015792733 0.025860155 0.019395454 -0.028397614
-0.008159424 2.7889238e-05 -0.03986282 0.0012996567 0.02730433 -0.008587754 -0.01329049 -0.009864791
-0.005488056 -0.010085858 0.03207245 -0.0019290204 0.0011102039 -0.03908209 -0.024188356 -0.029942943
0.014921342 0.004207614 0.011248498 -0.023624992 -0.00890728 -0.030711606 -0.021063859 0.00054658786
0.013832979 0.026203543 -0.006593381 -0.0021039222 -0.038674526 0.022129245 -0.034982197 0.011453136
-0.0062084026 0.021784475 0.0033151438 -0.011119599 0.01472794 0.017603032 -0.034657292 0.0028641939
00000000: ad43 033d 34db 853c 8c0a cb3a 3e99 9ebb
00000010: 6205 b83b 082d 32bc 702d 383b dd22 9b3b
00000020: 8fd2 c5bc 232d 99bb 44ee b63b f7df d2bb
00000030: d350 833c d7f2 84bc 5c0c b23c 7d13 8a3c
00000040: 18a0 d7bc 7cb7 153c 9f92 553c 9381 d83c
00000050: 823c b43b 2bfa a13a b943 80ba c318 433b
00000060: c850 b53a ef58 88bc c732 a63c 344a 2a3c
00000070: be72 4abc 165d ad3b fc29 b43b 5a5d 92bc
00000080: 83d0 b838 c983 853c ccda 3bba b8b5 e6bc
00000090: 69bc 8a3c 784a d7ba 980d 65bc ab58 fabb
000000a0: a87c 8e39 ee30 3ebb 850b c7bb 8310 96bc
000000b0: 6786 1ebd a968 913c cd3a 5e3c 41df 85bc
000000c0: 9aaf bcbb f8d2 07bd cf45 a33c 094d 0e3c
000000d0: 5851 643c 73b9 953c b0e8 39bb eb1e 8b3c
000000e0: 93de 193c fb8c 6f3c a8d9 253c 7291 9a3c
000000f0: 9375 bfbc 0b19 413b a1bf 373c b06d 55bb
00000100: abce 9cbc 35b7 ffbb f7e3 88bc 4369 2fbd
00000110: 13c5 ffbb 207c d53a 8251 a0bc 90c5 123d
00000120: 2e17 c6bc 7a0b 433b 77ee 403b abf2 3fbb
00000130: 87f8 47bc 6b6f 6cbb e0fa fa3c ebad 123c
00000140: 2702 373c d54e eebb 6780 fdbb c98a a73c
00000150: 77e1 29bc c86c 64bc c368 5b3c 7273 e8bc
00000160: fdd1 093c d895 2c3b ecd7 2cba 1e8f 1cbd
00000170: ca39 633b 7bec f3ba 0519 583c c574 8a3c
00000180: 08cf 8cbc bf1b a0bb bff8 90b9 7825 693b
00000190: eade 5aba 1096 acbb f97e 3e3c c25b 02bc
000001a0: e302 c2bc bceb 9c3c d28e f0bc b7b1 7abc
000001b0: 09e8 cb3b 3b15 90bc 4daf 523c d3ec 543c
000001c0: 2fd3 3abd dbcc bebc 6a61 67ba e767 6c3b
000001d0: 3afb eebc a79a 47bc f19e a43c 784c 6cbb
000001e0: f767 4d3c c679 3e3b 01cd 8cbc 99c4 b1bc
000001f0: 976a e13c facd 60bc fba1 39bc 6454 393c
00000200: fd35 76ba f523 ec3c 4db4 4f3c ac1f 983c
00000210: 57c8 343c 7f2e 133d 7f6d 1c3d 9b17 2038
00000220: 0768 833b cb99 9abb 0f4e d23c 7f80 62bc
00000230: cb7d ecbb 372e 753c d8ba aabc 8335 113d
00000240: b7c0 7c3c b7d3 3d3c 3aa7 8c3c db4d 7e3c
00000250: 9b05 9bba 82bc b43b e3c0 573d e9f2 0d3d
00000260: 8a3e 7ebc c878 373c e305 5c3b f72e b4bc
00000270: 9556 ebbc 0b25 21bd c897 b23c dc93 11bc
00000280: 0847 68bc f972 303c 7485 403c 340b 40bc
00000290: a714 09bd 66a8 1c3d bdf4 b43b 2695 0a3c
000002a0: 74e5 0dbb ca47 363c 3f0d dbbb c383 1a3d
000002b0: 45db d7bc 6529 6fbc 504a f83b 6088 afba
000002c0: bf08 84bc b6a3 0b3d 56f1 2abc 478a 33bc
000002d0: 59d6 8dbb d0b9 feba 7208 7e3b b69a 163b
000002e0: ab48 fdbc 3858 273c e1d2 0cbc d3b7 a2ba
000002f0: 6667 233c 53a4 f8bb ddf2 793c e5dd 2b3b
00000300: 9a38 e0bb 0feb 253c 1d32 6cbc 97b1 8dbc
00000310: 7395 0b3b 6566 c3bc 8f8d e43b c0e5 893c
00000320: 874b 0bbc 5f31 5cbc ea04 2dbc 6a82 2f3c
00000330: af0b afbc e2af 47bc 5875 62bb f2ec d0bc
00000340: bf63 23bd 9033 af3c fea8 88bc 7d33 82bc
00000350: c35f 81bc add8 d33c 37e3 9e3c 1da2 e8bc
00000360: 1baf 05bc aff3 e937 3247 23bd 3e59 aa3a
00000370: 55ad df3c a7b3 0cbc 5bc0 59bc ef9f 21bc
00000380: 27d5 b3bb 283f 25bc 675e 033d 2fd7 fcba
00000390: 4384 913a 8b14 20bd a926 c6bc e74a f5bc
000003a0: a578 743c 06e0 893b 9f4b 383c 3389 c1bc
000003b0: d7ef 11bc e896 fbbc 1d8e acbc e448 0f3a
000003c0: b8a3 623c d0a8 d63c 4a0d d8bb f5e1 09bb
000003d0: 2e69 1ebd 6448 b53c 7e49 0fbd efa5 3b3c
000003e0: db6f cbbb 5b75 b23c e242 593b fb2e 36bc
000003f0: 754d 713c 3c34 903c cef4 0dbd 33b5 3b3b

network_body._body_endoder.seq_layers.0.bias f4 [128]
0.0 0.0 0.0 0.0 0.0 0.0 0.0 0.0
0.0 0.0 0.0 0.0 0.0 0.0 0.0 0.0
0.0 0.0 0.0 0.0 0.0 0.0 0.0 0.0
0.0 0.0 0.0 0.0 0.0 0.0 0.0 0.0
0.0 0.0 0.0 0.0 0.0 0.0 0.0 0.0
0.0 0.0 0.0 0.0 0.0 0.0 0.0 0.0
0.0 0.0 0.0 0.0 0.0 0.0 0.0 0.0
0.0 0.0 0.0 0.0 0.0 0.0 0.0 0.0
0.0 0.0 0.0 0.0 0.0 0.0 0.0 0.0
0.0 0.0 0.0 0.0 0.0 0.0 0.0 0.0
0.0 0.0 0.0 0.0 0.0 0.0 0.0 0.0
0.0 0.0 0.0 0.0 0.0 0.0 0.0 0.0
0.0 0.0 0.0 0.0 0.0 0.0 0.0 0.0
0.0 0.0 0.0 0.0 0.0 0.0 0.0 0.0
0.0 0.0 0.0 0.0 0.0 0.0 0.0 0.0
0.0 0.0 0.0 0.0 0.0 0.0 0.0 0.0
00000000: 0000 0000 0000 0000 0000 0000 0000 0000
00000010: 0000 0000 0000 0000 0000 0000 0000 0000
00000020: 0000 0000 0000 0000 0000 0000 0000 0000
00000030: 0000 0000 0000 0000 0000 0000 0000 0000
00000040: 0000 0000 0000 0000 0000 0000 0000 0000
00000050: 0000 0000 0000 0000 0000 0000 0000 0000
00000060: 0000 0000 0000 0000 0000 0000 0000 0000
00000070: 0000 0000 0000 0000 0000 0000 0000 0000
00000080: 0000 0000 0000 0000 0000 0000 0000 0000
00000090: 0000 0000 0000 0000 0000 0000 0000 0000
000000a0: 0000 0000 0000 0000 0000 0000 0000 0000
000000b0: 0000 0000 0000 0000 0000 0000 0000 0000
000000c0: 0000 0000 0000 0000 0000 0000 0000 0000
000000d0: 0000 0000 0000 0000 0000 0000 0000 0000
000000e0: 0000 0000 0000 0000 0000 0000 0000 0000
000000f0: 0000 0000 0000 0000 0000 0000 0000 0000
00000100: 0000 0000 0000 0000 0000 0000 0000 0000
00000110: 0000 0000 0000 0000 0000 0000 0000 0000
00000120: 0000 0000 0000 0000 0000 0000 0000 0000
00000130: 0000 0000 0000 0000 0000 0000 0000 0000
00000140: 0000 0000 0000 0000 0000 0000 0000 0000
00000150: 0000 0000 0000 0000 0000 0000 0000 0000
00000160: 0000 0000 0000 0000 0000 0000 0000 0000
00000170: 0000 0000 0000 0000 0000 0000 0000 0000
00000180: 0000 0000 0000 0000 0000 0000 0000 0000
00000190: 0000 0000 0000 0000 0000 0000 0000 0000
000001a0: 0000 0000 0000 0000 0000 0000 0000 0000
000001b0: 0000 0000 0000 0000 0000 0000 0000 0000
000001c0: 0000 0000 0000 0000 0000 0000 0000 0000
000001d0: 0000 0000 0000 0000 0000 0000 0000 0000
000001e0: 0000 0000 0000 0000 0000 0000 0000 0000
000001f0: 0000 0000 0000 0000 0000 0000 0000 0000

network_body._body_endoder.seq_layers.0.weight f4 [128, 8]
-0.004421318 -0.050114267 0.004530382 -0.3815489 -0.24359116 -0.04693956 0.09132177 0.5823738
0.08443158 0.21390885 0.15190393 0.22104031 -0.116882 -0.14885461 -0.062783495 -0.34269112
-0.10736577 0.090964064 0.14995646 -0.0045770584 0.20369582 -0.6622798 0.30789444 -0.0018120486
0.23408549 0.80148494 0.14740218 -0.20136254 -0.19702302 0.5943564 -0.30992138 -0.60186017
-0.31552547 -0.25049528 0.095722795 -0.92948514 -0.2728167 0.3001116 -0.48932317 0.3102293
-0.21637705 -0.47936982 0.20167397 -0.70881313 0.02401824 0.7500715 0.3012936 0.1826359
-0.29589593 0.26165664 -0.05070795 -0.1329466 0.2900249 -0.5871078 -0.19261318 -0.003610268
-0.3863261 -0.6049603 0.44336015 -0.3805749 -0.5086366 -0.20854484 0.35053062 0.14708605
-0.24344525 0.44563398 -0.28900164 0.117220245 -0.017002152 -0.061088547 0.03434513 0.3834666
0.16670415 -0.11121054 0.07416615 -0.11914878 0.20978305 -0.40193146 0.67685384 0.17860009
0.40662137 0.19206175 -0.32759023 -0.23460986 0.31554756 -0.07314971 -0.42817986 -0.251115
-0.4859162 -0.55007094 0.15162726 -0.11964429 -0.5761261 0.080223724 0.21042147 -0.8007635
-0.14766677 0.03927881 0.32622916 -0.27025393 -0.047015373 -0.096084684 0.41608012 -0.8142603
0.37447962 0.17127587 0.06826684 -0.4377329 0.6725331 -0.6788897 0.5361302 0.38450795
-0.1178003 -0.14040545 -0.054827455 0.28061178 0.34293634 0.0431592 -0.234532 0.22868705
-0.5655554 -0.14484577 -0.24697271 0.07871157 -0.07461626 -0.15982734 0.14032815 0.1130873
-0.42245847 0.18016846 -0.2736733 -0.27340892 0.016364027 0.01627227 0.08263633 -0.46416467
-0.3574808 -0.015761537 0.07106511 -0.12308736 -0.23091148 -0.43614495 -0.372197 0.42513457
0.34101543 -0.378455 -0.43292767 0.09293094 -0.2651924 -0.04025459 -0.5481117 -0.3199662
-0.20652089 0.49191335 -0.11047601 -0.26402664 0.05318195 -0.46092734 0.08616277 0.23519707
-0.14127694 0.32921404 -0.043953188 0.11974704 0.2718008 0.6228386 0.46641123 0.20658687
-0.2691569 0.27421597 0.10327317 0.8430399 0.5442053 -0.3444576 0.52042717 -0.82136285
0.1648428 0.3440493 -0.26435748 -0.15985051 0.2796709 0.14602523 -0.04951771 0.34053823
0.346023 0.3073722 0.47990954 -0.32766137 0.05888776 0.19113283 -0.19639143 0.62371206
0.03441901 0.2787024 -0.10088126 0.124581054 -0.07266034 0.54032046 -0.36021608 0.1474963
-0.0017617784 0.47923765 -0.026627686 -0.647153 0.45466474 -0.27661324 -0.32566875 0.40565372
-0.45398456 -0.16984646 -0.0749526 0.2043337 -0.56406707 -0.37354684 0.045180645 0.38190746
0.34102866 0.18878306 0.35460272 -0.0935882 0.2578783 -0.023882544 -0.04199368 0.072876096
0.3907709 -0.66173255 0.15466356 -0.77334696 -0.29079562 0.44534507 0.37285277 -0.18672419
-0.06093387 -0.51375204 0.20901588 -0.8004186 -0.12804893 0.3033942 0.6597048 -0.22390372
-0.035764933 0.017191868 -0.18647629 0.014674309 -0.5131186 0.35160595 0.61450756 0.16674304
0.33511895 0.1365039 -0.38615203 -0.157494 -0.4793629 -0.046905864 0.057612054 0.025518443
00000000: b4e0 90bb 9e44 4dbd 9973 943b 615a c3be
00000010: f66f 79be b243 40bd e806 bb3d 7316 153f
00000020: 77ea ac3d ec0a 5b3e b48c 1b3e 6458 623e
00000030: d45f efbd 586d 18be a294 80bd 3675 afbe
00000040: 96e2 dbbd 5e4b ba3d 308e 193e 26fb 95bb
00000050: a395 503e 2b8b 29bf 57a4 9d3e 4382 edba
00000060: 1bb4 6f3e 1e2e 4d3f 99f0 163e fb31 4ebe
00000070: 67c0 49be be27 183f 04ae 9ebe 8213 1abf
00000080: 8e8c a1be eb40 80be 500a c43d bdf2 6dbf
00000090: a1ae 8bbe 3aa8 993e 9188 fabe 60d6 9e3e
000000a0: f291 5dbe f66f f5be 9f83 4e3e c774 35bf
000000b0: e6c1 c43c b004 403f 2843 9a3e e804 3b3e
000000c0: ac7f 97be dcf7 853e 24b3 4fbd 2723 08be
000000d0: 257e 943e b24c 16bf 643c 45be 3f9a 6cbb
000000e0: 89cc c5be aede 1abf 1a00 e33e b7da c2be
000000f0: 0236 02bf c78c 55be c078 b33e ba9d 163e
00000100: b649 79be 232a e43e 06f8 93be 2b11 f03d
00000110: 1948 8bbc fc37 7abd 7bad 0c3d bc55 c43e
00000120: 7eb4 2a3e 5ac2 e3bd 6ce4 973d 4704 f4bd
00000130: 5ed1 563e f6c9 cdbe 4b46 2d3f f1e2 363e
00000140: ad30 d03e d6ab 443e e8b9 a7be 913d 70be
00000150: 738f a13e 84cf 95bd 643a dbbe 2592 80be
00000160: 02ca f8be 73d1 0cbf 2d44 1b3e 1108 f5bd
00000170: 007d 13bf 564c a43d ba78 573e d6fe 4cbf
00000180: f535 17be d1e2 203d 8207 a73e b95e 8abe
00000190: 3193 40bd 0cc8 c4bd 7408 d53e 5d73 50bf
000001a0: cbbb bf3e f162 2f3e 7ccf 8b3d 871e e0be
000001b0: 212b 2c3f b7cb 2dbf d43f 093f 3ade c43e
000001c0: 4941 f1bd 72c6 0fbe c192 60bd 59ac 8f3e
000001d0: 5a95 af3e b4c7 303d 2829 70be f02c 6a3e
000001e0: 3dc8 10bf 7352 14be 6ae6 7cbe 8833 a13d
000001f0: 69d0 98bd c7a9 23be 2fb2 0f3e 509a e73d
00000200: 7a4c d8be 157e 383e e81e 8cbe 41fc 8bbe
00000210: da0d 863c 6c4d 853c 3c3d a93d fea6 edbe
00000220: b907 b7be 571e 81bc 968a 913d 3a15 fcbd
00000230: 0f74 6cbe 644e dfbe 9b90 bebe 3dab d93e
00000240: 9399 ae3e dbc4 c1be b2a8 ddbe 9452 be3d
00000250: 4cc7 87be ffe1 24bd 0c51 0cbf 9cd2 a3be
00000260: 367a 53be 11dc fb3e 3f41 e2bd 802e 87be
00000270: 51d5 593d abfe ebbe 1b76 b03d 80d7 703e
00000280: e7aa 10be be8e a83e 4208 34bd f03d f53d
00000290: 7929 8b3e 5a72 1f3f 74cd ee3e 828b 533e
000002a0: efce 89be 0966 8c3e e280 d33d 76d1 573f
000002b0: 0a51 0b3f bf5c b0be b73a 053f d644 52bf
000002c0: 8dcc 283e 3b27 b03e dd59 87be daaf 23be
000002d0: 0631 8f3e a387 153e 15d3 4abd 075b ae3e
000002e0: ed29 b13e e45f 9d3e b4b6 f53e 3bc3 a7be
000002f0: 4b34 713d 53b8 433e d61a 49be 98ab 1f3f
00000300: f3fa 0c3d 15b2 8e3e d69a cebd 5a24 ff3d
00000310: f2ce 94bd 7152 0a3f 3e6e b8be 4509 173e
00000320: 79eb e6ba a35e f53e 4e22 dabc d2ab 25bf
00000330: d1c9 e83e 40a0 8dbe 0ebe a6be d8b1 cf3e
00000340: aa70 e8be 3bec 2dbe c080 99bd da3c 513e
00000350: b366 10bf 8841 bfbe 570f 393d 6089 c33e
00000360: 4f9b ae3e 5950 413e 7d8e b53e 2cab bfbd
00000370: a008 843e 53a5 c3bc 9101 2cbd 1040 953d
00000380: 2013 c83e 4e67 29bf 2060 1e3e 11fa 45bf
00000390: 2ae3 94be 4504 e43e 8fe6 be3e a034 3fbe
000003a0: cb95 79bd 4185 03bf 4208 563e 3ce8 4cbf
000003b0: 421f 03be 7c56 9b3e 6ae2 283f 0447 65be
000003c0: 407e 12bd f6d5 8c3c a4f3 3ebe 836c 703c
000003d0: be5b 03bf b205 b43e 5e50 1d3f b0be 2a3e
000003e0: b694 ab3e aec7 0b3e b8b5 c5be 1b46 21be
000003f0: 0e6f f5be 5d20 40bd 9efa 6b3d 0e0c d13c

network_body._body_endoder.seq_layers.2.bias f4 [128]
0.0 0.0 0.0 0.0 0.0 0.0 0.0 0.0
0.0 0.0 0.0 0.0 0.0 0.0 0.0 0.0
0.0 0.0 0.0 0.0 0.0 0.0 0.0 0.0
0.0 0.0 0.0 0.0 0.0 0.0 0.0 0.0
0.0 0.0 0.0 0.0 0.0 0.0 0.0 0.0
0.0 0.0 0.0 0.0 0.0 0.0 0.0 0.0
0.0 0.0 0.0 0.0 0.0 0.0 0.0 0.0
0.0 0.0 0.0 0.0 0.0 0.0 0.0 0.0
0.0 0.0 0.0 0.0 0.0 0.0 0.0 0.0
0.0 0.0 0.0 0.0 0.0 0.0 0.0 0.0
0.0 0.0 0.0 0.0 0.0 0.0 0.0 0.0
0.0 0.0 0.0 0.0 0.0 0.0 0.0 0.0
0.0 0.0 0.0 0.0 0.0 0.0 0.0 0.0
0.0 0.0 0.0 0.0 0.0 0.0 0.0 0.0
0.0 0.0 0.0 0.0 0.0 0.0 0.0 0.0
0.0 0.0 0.0 0.0 0.0 0.0 0.0 0.0
00000000: 0000 0000 0000 0000 0000 0000 0000 0000
00000010: 0000 0000 0000 0000 0000 0000 0000 0000
00000020: 0000 0000 0000 0000 0000 0000 0000 0000
00000030: 0000 0000 0000 0000 0000 0000 0000 0000
00000040: 0000 0000 0000 0000 0000 0000 0000 0000
00000050: 0000 0000 0000 0000 0000 0000 0000 0000
00000060: 0000 0000 0000 0000 0000 0000 0000 0000
00000070: 0000 0000 0000 0000 0000 0000 0000 0000
00000080: 0000 0000 0000 0000 0000 0000 0000 0000
00000090: 0000 0000 0000 0000 0000 0000 0000 0000
000000a0: 0000 0000 0000 0000 0000 0000 0000 0000
000000b0: 0000 0000 0000 0000 0000 0000 0000 0000
000000c0: 0000 0000 0000 0000 0000 0000 0000 0000
000000d0: 0000 0000 0000 0000 0000 0000 0000 0000
000000e0: 0000 0000 0000 0000 0000 0000 0000 0000
000000f0: 0000 0000 0000 0000 0000 0000 0000 0000
00000100: 0000 0000 0000 0000 0000 0000 0000 0000
00000110: 0000 0000 0000 0000 0000 0000 0000 0000
00000120: 0000 0000 0000 0000 0000 0000 0000 0000
00000130: 0000 0000 0000 0000 0000 0000 0000 0000
00000140: 0000 0000 0000 0000 0000 0000 0000 0000
00000150: 0000 0000 0000 0000 0000 0000 0000 0000
00000160: 0000 0000 0000 0000 0000 0000 0000 0000
00000170: 0000 0000 0000 0000 0000 0000 0000 0000
00000180: 0000 0000 0000 0000 0000 0000 0000 0000
00000190: 0000 0000 0000 0000 0000 0000 0000 0000
000001a0: 0000 0000 0000 0000 0000 0000 0000 0000
000001b0: 0000 0000 0000 0000 0000 0000 0000 0000
000001c0: 0000 0000 0000 0000 0000 0000 0000 0000
000001d0: 0000 0000 0000 0000 0000 0000 0000 0000
000001e0: 0000 0000 0000 0000 0000 0000 0000 0000
000001f0: 0000 0000 0000 0000 0000 0000 0000 0000

network_body._body_endoder.seq_layers.2.weight f4 [128, 128]
-0.17053786 -0.03734048 0.0827459 -0.057479877 0.027444078 0.03391195 0.2514887 0.01854636
0.049519505 0.11073007 0.08582869 -0.040317297 -0.09556273 0.084442504 -0.01666631 -0.067371406
-0.14161228 0.055915453 -0.03204819 0.023482362 0.049316816 0.05693963 0.03836321 0.013576209
0.01806602 -0.016775463 -0.069208704 -0.036681145 0.029802987 -0.0017029967 0.11570025 0.04089637
-0.089054435 0.00012946983 0.044261303 0.038513836 -0.09190165 -0.01731824 0.0015213827 -0.013175996
0.034968924 0.047396306 0.023448268 0.20515 -0.03229872 -0.000101802936 0.048323706 -0.24791296
0.009430275 0.08238293 -0.03089929 0.03514343 -0.012670083 -0.059465352 -0.065597124 0.02214896
0.04983745 0.030974384 -0.0077140406 0.14175257 0.013887751 0.087111935 -0.08836319 0.04134646
-0.12481439 -0.06648548 -0.017205864 0.011709546 0.13271789 -0.06978588 0.022974571 -0.06985887
-0.07679202 -0.02229652 0.10187248 -0.029151354 -0.083671294 -0.06521611 -0.02189614 -0.08045607
-0.031028908 0.08866453 0.00082891743 0.14152591 -0.06368534 -0.06148248 0.083523296 0.07118681
-0.010890112 -0.08002112 0.09577319 0.05416696 0.034584567 0.057445563 -0.065261185 0.017562531
0.15753168 0.0076049687 -0.03266038 0.03198445 0.007480324 0.18319726 0.13509431 -0.11356953
0.021281758 0.0396722 0.13022424 0.042172343 0.082219385 0.13584381 -0.06924996 0.002218048
-0.053281717 -0.038527314 -0.02258845 0.20913847 -0.0053810203 0.021498445 -0.09350637 -0.064285144
0.042298645 -0.018624872 0.14559247 0.027137022 0.12217602 0.071770854 0.02743082 -0.17975274
0.14624134 -0.034827843 -0.18078259 0.11273845 -0.121662654 0.11988318 -0.0049447664 0.04517515
0.081553236 -0.13590798 0.0652697 -0.05231738 -0.27417168 -0.07243305 0.08844039 0.059334096
-0.009293181 -0.042765703 0.11775017 -0.011301939 -0.048909795 -0.29737696 -0.11260119 0.15771165
0.062398657 -0.18699464 -0.048560128 -0.028737506 0.008569979 -0.03037714 -0.06437148 -0.14545533
-0.041447062 0.014377312 -0.21403891 0.047913417 -0.10673824 -0.29802656 0.00072891155 -0.027093701
0.0400152 0.03599763 -0.06520728 0.07626111 0.069198556 -0.047897138 0.022149589 0.15156299
-0.06657173 0.0361858 0.0434692 -0.13992853 0.00082491833 -0.098479085 0.036744334 0.056984704
0.109807976 -0.16648442 0.017871065 0.06853545 -0.015945734 -0.07207862 -0.11389437 0.14024654
-0.00075900933 -0.018412625 -0.054615878 -0.03058475 -0.06381547 -0.11181452 0.034173243 0.061672647
-0.08665247 0.0003172141 0.09172752 0.062524736 0.04880422 -0.16718319 0.0040555866 0.011073666
0.08484744 -0.008800657 -0.056586996 0.14825459 0.0054585636 0.106626615 -0.09473314 0.07628472
-0.16399486 -0.041615285 -0.051425096 0.024664978 -0.039003324 0.12183159 -0.009090538 0.1324026
0.07345238 0.0844691 0.015842821 0.08518347 0.002327338 0.0215808 -0.06770702 -0.043475885
0.07025704 0.004197332 0.02212138 -0.013483733 0.001919922 0.04327483 -0.005523557 -0.1911355
0.044617 0.076226674 0.044229213 -0.08382224 -0.06743924 -0.076650254 -0.14386554 -0.16435377
-0.044550303 -0.07371679 0.01013834 -0.13170283 0.033041984 0.053703643 -0.07970078 0.060104683
00000000: 7aa1 2ebe 55f2 18bd af76 a93d 0570 6bbd
00000010: 67d2 e03c 42e7 0a3d 20c3 803e 89ee 973c
00000020: f7d4 4a3d 72c6 e23d f4c6 af3d c023 25bd
00000030: 65b6 c3bd 31f0 ac3d c987 88bc 05fa 89bd
00000040: cf02 11be 9a07 653d f644 03bd 155e c03c
00000050: 6e00 4a3d 8839 693d be22 1d3d bf6e 5e3c
00000060: 31ff 933c b26c 89bc 4bbd 8dbd f83e 16bd
00000070: 6525 f43c 1637 dfba 41f4 ec3d f482 273d
00000080: 2c62 b6bd 4bc2 0739 574b 353d afc0 1d3d
00000090: ef36 bcbd fbde 8dbc 2269 c73a 22e0 57bc
000000a0: 933b 0f3d a122 423d 9516 c03c d712 523e
000000b0: aa4b 04bd 097f d5b8 14ef 453d e5dc 7dbe
000000c0: 7181 1a3c 62b8 a83d 8220 fdbc 8ff2 0f3d
000000d0: 2e96 4fbc f191 73bd c957 86bd bc71 b53c
000000e0: 5b22 4c3d febd fd3c 10c6 fcbb 9627 113e
000000f0: 7389 633c be67 b23d c3f7 b4bd e85a 293d
00000100: b09e ffbd 8a29 88bd 50f3 8cbc 65d9 3f3c
00000110: 33e7 073e e6eb 8ebd 2b35 bc3c 2b12 8fbd
00000120: 2245 9dbd 31a7 b6bc 85a2 d03d d2ce eebc
00000130: db5b abbd 0690 85bd 895f b3bc 27c6 a4bd
00000140: 5630 febc c095 b53d b54b 593a 2bec 103e
00000150: 766d 82bd 0ed5 7bbd 430e ab3d 64ca 913d
00000160: 716c 32bc 1de2 a3bd bc24 c43d 2dde 5d3d
00000170: 8ca8 0d3d 0a4c 6b3d a8a7 85bd 4cdf 8f3c
00000180: fc4f 213e 1a33 f93b e4c6 05bd 2002 033d
00000190: 811d f53b 1098 3b3e 2a56 0a3e 2497 e8bd
000001a0: 1557 ae3c 517f 223d 8159 053e e8bc 2c3d
000001b0: a362 a83d a41a 0b3e ecd2 8dbd ac5c 113b
000001c0: ee3d 5abd d1ce 1dbd 6a0b b9bc 6528 563e
000001d0: 4553 b0bb 821d b03c 4580 bfbd eea7 83bd
000001e0: 5841 2d3d 3093 98bc 3116 153e 764e de3c
000001f0: 6c37 fa3d 99fc 923d 99b6 e03c 1a11 38be
00000200: 4ac0 153e a4a7 0ebd 121f 39be 6be3 e63d
00000210: 452a f9bd 5085 f53d b507 a2bb 9409 393d
00000220: 6205 a73d 762b 0bbe 1fac 853d c04a 56bd
00000230: 3b60 8cbe c757 94bd 3c20 b53d 4f08 733d
00000240: 6d42 18bc 172b 2fbd 0027 f13d c52b 39bc
00000250: a355 48bd cb41 98be 749b e6bd 2a7f 213e
00000260: bc95 7f3d 867b 3fbe fce6 46bd eb6a ebbc
00000270: 1969 0c3c 7bd9 f8bc 32d5 83bd 3ef2 14be
00000280: 65c4 29bd d18e 6b3c 042d 5bbe dc40 443d
00000290: 9499 dabd f096 98be 6d14 3f3a 9cf3 ddbc
000002a0: fae6 233d 4072 133d 658b 85bd c92e 9c3d
000002b0: f9b7 8d3d ca2f 44bd 0e73 b53c 5433 1b3e
000002c0: c256 88bd 9037 143d c30c 323d 6d49 0fbe
000002d0: 553f 583a 67af c9bd 3a81 163d cb68 693d
000002e0: 01e3 e03d e47a 2abe 5766 923c 505c 8c3d
000002f0: a1a0 82bc f59d 93bd 7441 e9bd ca9c 0f3e
00000300: 41f8 46ba 13d6 96bc e6b4 5fbd df8c fabc
00000310: afb1 82bd 03ff e4bd 3ef9 0b3d 759c 7c3d
00000320: da76 b1bd c14f a639 a3db bb3d f80c 803d
00000330: efe6 473d 1232 2bbe bae4 843b 526e 353c
00000340: 7fc4 ad3d a130 10bc c4c7 67bd 0dd0 173e
00000350: c0dd b23b 0e5f da3d 7303 c2bd 2a3b 9c3d
00000360: 45ee 27be ca74 2abd 1fa3 52bd 350e ca3c
00000370: f3c1 1fbd d782 f93d 7bf0 14bc 8c94 073e
00000380: 346e 963d 23fe ac3d cec8 813c ac74 ae3d
00000390: 4186 183b 38ca b03c faa9 8abd c513 32bd
000003a0: ece2 8f3d c689 893b e537 b53c e0ea 5cbc
000003b0: e4a5 fb3a f340 313d f4fe b4bb 06b9 43be
000003c0: 51c0 363d bb1c 9c3d b129 353d ffaa abbd
000003d0: 961d 8abd cffa 9cbd 7d51 13be 5b4c 28be
000003e0: 617a 36bd d4f8 96bd 481b 263c 1bdd 06be
000003f0: 0857 073d 5af8 5b3d 2a3a a3bd 5430 763d
