Assets/ML-Agents/Examples/RollerRex/results/rollerrex/My Behavior/My Behavior-2240.pt (torch, 150637 bytes, 10 tensors)

network_body._body_endoder.seq_layers.0.weight f4 [128, 8]
00000000: ed65 7dbe 047b c93e afe0 8bbe e7df a93d
00000010: 7a78 523e 5dd7 2e3e a91b aebe a20b 443f
00000020: 5b09 0cbe b997 2ebe 7ba7 40bd 45cf e03d
00000030: 8503 293f b966 743f 9fe1 afbd ce0f 503d
00000040: 1b37 36bf d28c c0be 5560 29bf ddb8 d93e
00000050: de47 13be 44dc 253f e132 903e 7ddc 313f
00000060: 6bbb ff3e 7ca0 8f3e 9e37 8abe 80ae 973e
00000070: ba29 e93e 6814 23be afdb 123d a689 bebc
00000080: f3e3 36be f2d1 78be 3d9e 37be 63a8 e7bd
00000090: 28a0 99be b41a 9bbe 48ef 50ba e1bf eabe
000000a0: 59c5 c8bc 818a 8fbe d29f e7be 145d 733e
000000b0: 1207 05bf 4c41 493e 72a7 813e a1af 2dbe
000000c0: 960c 01bd c599 c3be eab4 5fbe add9 3bbb
000000d0: 053d d63e f439 553e ab88 68be 5b6d 20bf
000000e0: de42 bbbc 936b 1e3e 16cb eb3d a2f5 733e
000000f0: ef26 1bbe 6d89 a3be ef25 49be e852 4bbe
00000100: cc57 b8bd 2824 95bd 6c52 3bbe e9d6 573d
00000110: bf3b debd ac7d 993c 9460 92be 2d94 a93d
00000120: 5ddf 77bf ff13 29bf dc5e d7bd 56d0 913e
00000130: 6347 ea3e 1cc4 94bd 2fd1 d7bd 423a adbe
00000140: aac4 28be 5986 f03d 8079 3b3f 2119 d6be
00000150: a046 6bbe 9dec c33d e950 2dbe bc90 42be
00000160: e60a 043e 4a48 24be 5d23 3bbf a155 8b3e
00000170: c369 4bbc bb8d b93e ec3d 31bd 3f9e 153f
00000180: 8745 27bf 4466 a73e e3dc a4be 19f3 d8be
00000190: 2134 863d 4381 9bbb 4c4d a23e 2fa0 8f3e
000001a0: e826 b13d 6f21 cb3e d86b 4e3e 5fe7 20be
000001b0: 88b2 d23e 134f 5e3e b082 c8bd ce21 d2bd
000001c0: 5921 023e 48e7 6aba 4d0a 12be 4678 053f
000001d0: 23c0 e63d 5016 52bf d187 b33e 68b7 a53e
000001e0: 5f9f 9c3e be78 743e 38b0 6dbe 606b 1e3e
000001f0: af0a 62bd 54bf e0be 4663 f6bd 54e9 af3e
00000200: 2210 e5bd c0e9 8fbe 4d2b fc3e 76f1 f23e
00000210: 02fc d4bd 66af c7be 1839 ccbc e2f3 40be
00000220: 1a4c 8fbe 83d6 ee3e 9044 cdbe b1db 57bd
00000230: 39d8 e6bd 7a11 ff3e 836d 063d da69 a73e
00000240: 6a4d 29bf 6a23 253d 251f 193e d4fe b8be
00000250: 427a 95be 935b dcbe 9572 003e 62a4 27be
00000260: 40b0 1bbf cc4c 2abe 3603 5fbe a296 1dbc
00000270: d25c 06be ef0b cebe 80bc 0f3e 9d6c dc3d
00000280: 28c7 4c3d 9547 543d 096c 05bf 7feb f63e
00000290: aa2a 473f b266 9cbd 7eeb 263e c830 9bbf
000002a0: 96b8 023f 5df3 44be fafa 423f 35eb 933d
000002b0: 2f67 f5be 3003 b6bc f3e9 23be dac4 3cbe
000002c0: 8473 163e 3552 80be 97a3 473e 3f7c 05bf
000002d0: 120e a7be c8b4 033f 2b97 d23e 6f2a 623e
000002e0: 8436 a03d edea 763e 1f1e 153f e2a2 1dbc
000002f0: 7bad ad3e 7dc6 913d 0a80 a2be b6c4 91be
00000300: 5d47 a23e 26da 803e 0896 343e 979a 6c3e
00000310: 1cd3 71bf 5cfd 92be 9f76 7ebe 9799 ed3d
00000320: edc3 b7be 6cb1 183d 9a56 7f3e 8171 b1bd
00000330: c832 563d 57e2 ec3e 6069 b73d 9dee e53e
00000340: 2626 c7be 9518 96bd 59d9 bfbe f6be afbe
00000350: 3d26 08be 55d6 a3bd 5b67 02be 6e03 5ebd
00000360: 2ecf e73e 3752 3cbe a958 a5bc f2d8 04bd
00000370: fa37 923e 7035 753d d048 1c3e ef5a ca3d
00000380: fd72 18bd 6e41 32bd 96fc 25bf f74d 523f
00000390: d72c cb3e 129f 2d3e 80aa 153e 8915 8fbe
000003a0: 34b4 563e b80b a6be cd84 6fbe 957a de3d
000003b0: f50e afbe 83af 493e 84ed 993e 709c a63d
000003c0: f59e 253f 1ad5 5cbe b49c 403e 576e 91be
000003d0: 7cde b5bd 2481 33be 14e0 96bb 92d4 50bd
000003e0: 231e 9b3c 839a 673e 3811 d9be 9b71 16bd
000003f0: f5ff 0f3e 964c 473b dd76 c0bd 1aad 41be
-0.24745913 0.39351666 -0.27319857 0.08294659 0.2055377 0.17074342 -0.34005478 0.7658025
-0.13675444 -0.17050065 -0.04703472 0.109770335 0.66020995 0.9546924 -0.08587956 0.050796323
-0.71177834 -0.37607437 -0.66162616 0.42523852 -0.14382884 0.64789224 0.28163818 0.69477063
0.49947676 0.28052127 -0.26995558 0.2962532 0.45539647 -0.15925753 0.035854038 -0.023258995
-0.17860393 -0.24298838 -0.17931457 -0.11311414 -0.30005002 -0.3029381 -0.0007970226 -0.45849517
-0.024508165 -0.28035358 -0.4523912 0.23765975 -0.51963913 0.19653815 0.25323063 -0.16961528
-0.031506144 -0.38203254 -0.21846357 -0.002866368 0.4184343 0.20822889 -0.22708385 -0.62666863
-0.022859033 0.15470724 0.11513345 0.2382417 -0.1515157 -0.31940785 -0.19643377 -0.19855845
-0.09001121 -0.07282287 -0.1829316 0.05269519 -0.108512394 0.018736683 -0.28589308 0.082802154
-0.968252 -0.66046137 -0.1051614 0.2847926 0.4575759 -0.072639674 -0.105379455 -0.3383351
-0.16481271 0.11744375 0.7323227 -0.41816047 -0.2297616 0.09566615 -0.16925396 -0.19000524
0.12894782 -0.16043201 -0.73100835 0.27213767 -0.012415352 0.36240944 -0.043271944 0.5844459
-0.65340465 0.3269521 -0.32199773 -0.4237297 0.065529115 -0.004745634 0.31699598 0.28051898
0.08649999 0.39673945 0.20158327 -0.15713261 0.41151834 0.21709852 -0.09790552 -0.10260354
0.12708034 -0.0008960855 -0.14261742 0.5213665 0.11267116 -0.82065296 0.35064557 0.3236649
0.3059034 0.23874184 -0.23211753 0.15470648 -0.05518597 -0.43895972 -0.12030654 0.34357703
-0.11184718 -0.28108025 0.49251786 0.47449845 -0.10399629 -0.39001006 -0.024929568 -0.18843034
-0.27987748 0.46648034 -0.40091372 -0.05269975 -0.1127171 0.4981802 0.032819282 0.32697946
-0.6613375 0.040316977 0.14953287 -0.36131918 -0.29194838 -0.43038616 0.1254371 -0.16371301
-0.6081581 -0.16630858 -0.21778569 -0.009618433 -0.13121346 -0.4024348 0.14036751 0.10762904
0.049994618 0.05182608 -0.52117974 0.48226544 0.77799475 -0.07636775 0.1630077 -1.2124262
0.51062906 -0.1923346 0.7616421 0.072225966 -0.47930285 -0.022218317 -0.16007213 -0.18434468
0.14692503 -0.2506272 0.19495998 -0.5214271 -0.32627922 0.51447725 0.41130957 0.220865
0.07822898 0.24113055 0.58249086 -0.009621354 0.33921418 0.07117937 -0.3173831 -0.2847039
0.3169507 0.25166434 0.17635357 0.23105846 -0.9446275 -0.28708923 -0.24849938 0.116015606
-0.35891667 0.037278578 0.2493538 -0.08664227 0.052294523 0.46266434 0.089556456 0.4490861
-0.38896292 -0.073289074 -0.3747051 -0.3432538 -0.13295837 -0.07999865 -0.1273474 -0.05420249
0.45275253 -0.18390737 -0.020183878 -0.032433458 0.28558332 0.059865415 0.15262151 0.098806255
-0.037219036 -0.04351943 -0.6483854 0.82150215 0.39682648 0.16955212 0.14615822 -0.27946118
0.2096718 -0.32430816 -0.23390503 0.108632244 -0.341911 0.19695859 0.30064023 0.08135307
0.64695674 -0.21565667 0.18809777 -0.28404495 -0.08880326 -0.17529732 -0.004604349 -0.050983973
0.018935269 0.22617535 -0.4239595 -0.036729436 0.14062484 0.003041064 -0.09397671 -0.1891369

network_body._body_endoder.seq_layers.0.bias f4 [128]
00000000: 0000 0000 0000 0000 0000 0000 0000 0000
00000010: 0000 0000 0000 0000 0000 0000 0000 0000
00000020: 0000 0000 0000 0000 0000 0000 0000 0000
00000030: 0000 0000 0000 0000 0000 0000 0000 0000
00000040: 0000 0000 0000 0000 0000 0000 0000 0000
00000050: 0000 0000 0000 0000 0000 0000 0000 0000
00000060: 0000 0000 0000 0000 0000 0000 0000 0000
00000070: 0000 0000 0000 0000 0000 0000 0000 0000
00000080: 0000 0000 0000 0000 0000 0000 0000 0000
00000090: 0000 0000 0000 0000 0000 0000 0000 0000
000000a0: 0000 0000 0000 0000 0000 0000 0000 0000
000000b0: 0000 0000 0000 0000 0000 0000 0000 0000
000000c0: 0000 0000 0000 0000 0000 0000 0000 0000
000000d0: 0000 0000 0000 0000 0000 0000 0000 0000
000000e0: 0000 0000 0000 0000 0000 0000 0000 0000
000000f0: 0000 0000 0000 0000 0000 0000 0000 0000
00000100: 0000 0000 0000 0000 0000 0000 0000 0000
00000110: 0000 0000 0000 0000 0000 0000 0000 0000
00000120: 0000 0000 0000 0000 0000 0000 0000 0000
00000130: 0000 0000 0000 0000 0000 0000 0000 0000
00000140: 0000 0000 0000 0000 0000 0000 0000 0000
00000150: 0000 0000 0000 0000 0000 0000 0000 0000
00000160: 0000 0000 0000 0000 0000 0000 0000 0000
00000170: 0000 0000 0000 0000 0000 0000 0000 0000
00000180: 0000 0000 0000 0000 0000 0000 0000 0000
00000190: 0000 0000 0000 0000 0000 0000 0000 0000
000001a0: 0000 0000 0000 0000 0000 0000 0000 0000
000001b0: 0000 0000 0000 0000 0000 0000 0000 0000
000001c0: 0000 0000 0000 0000 0000 0000 0000 0000
000001d0: 0000 0000 0000 0000 0000 0000 0000 0000
000001e0: 0000 0000 0000 0000 0000 0000 0000 0000
000001f0: 0000 0000 0000 0000 0000 0000 0000 0000
0.0 0.0 0.0 0.0 0.0 0.0 0.0 0.0
0.0 0.0 0.0 0.0 0.0 0.0 0.0 0.0
0.0 0.0 0.0 0.0 0.0 0.0 0.0 0.0
0.0 0.0 0.0 0.0 0.0 0.0 0.0 0.0
0.0 0.0 0.0 0.0 0.0 0.0 0.0 0.0
0.0 0.0 0.0 0.0 0.0 0.0 0.0 0.0
0.0 0.0 0.0 0.0 0.0 0.0 0.0 0.0
0.0 0.0 0.0 0.0 0.0 0.0 0.0 0.0
0.0 0.0 0.0 0.0 0.0 0.0 0.0 0.0
0.0 0.0 0.0 0.0 0.0 0.0 0.0 0.0
0.0 0.0 0.0 0.0 0.0 0.0 0.0 0.0
0.0 0.0 0.0 0.0 0.0 0.0 0.0 0.0
0.0 0.0 0.0 0.0 0.0 0.0 0.0 0.0
0.0 0.0 0.0 0.0 0.0 0.0 0.0 0.0
0.0 0.0 0.0 0.0 0.0 0.0 0.0 0.0
0.0 0.0 0.0 0.0 0.0 0.0 0.0 0.0

network_body._body_endoder.seq_layers.2.weight f4 [128, 128]
00000000: ecac 84bd 3437 e13d ebbc a8bc 47f0 303c
00000010: d7b8 acbd dd8d 0fbd 9056 153e 40ae 0dbd
00000020: 41be 103e 5294 253e 830a 1abd e2a6 8b3d
00000030: 70e9 b63d 4b20 84bd 50d6 48bd 8248 9ebc
00000040: 8226 873d 756c 25be da2b f8bd 2e1e 8d3d
00000050: c220 55bd 4041 9ebd 722a 89bd c8c0 3b3c
00000060: 5fd1 943c fa80 2c3e 064f 8cbd f75e 693d
00000070: c0a0 4d3d 5be5 abbc f5c6 103d 0608 a6bd
00000080: f545 02be 97af aa3d 5796 09bb a765 ee3d
00000090: 5b1b 5b3d da4d b0bd 651f 073e dc3c 56bb
000000a0: 823c de3d 22aa 37be 1c92 c83b 0259 cdbd
000000b0: ef5b 5bbe ab48 d3bd aabe ddbc 1f03 04bd
000000c0: 62c1 08be 775c 943d fe59 c23a 7fbc edbd
000000d0: feab cdbd 314b 77bd 08c0 c13d e4e5 c9bd
000000e0: 5092 143e 246f 7b3d da14 aa3d 1776 d43d
000000f0: 82d1 733d 6201 febd ef3a 25be 3d85 203d
00000100: 6860 773d 3ec5 713c 56f0 8b3c 77dc 56bd
00000110: 0e5f 5fbe 4dfe a4bd 6d1e 0c3d 96d2 31be
00000120: dab7 a23d 089e f03c 5085 98bd 0243 053d
00000130: 5403 a3bc 6e1b c1bd dafd 1cbd da41 d23d
00000140: b7f5 0e3d 0a60 1fbe d945 2d3e a2ff bd3d
00000150: aab4 2a3d bda6 053e a5f9 c6bb 2ce5 183d
00000160: b5a2 1fbd c117 063d cba5 8f3d f96f 083e
00000170: 4e7e da3d e5a1 01be d3e3 e73d 838b 053e
00000180: 8879 7c3d 5d67 5cbd 0239 8dbd 02b3 ecbd
00000190: 3c38 dcbc 6d76 613e 15a9 e83d 7875 353c
000001a0: d5c3 0bbe 4417 65bd 455a 00be 620b 06be
000001b0: 6345 233d 8f22 0d3e be73 093e 06e4 e73d
000001c0: 8335 2abe 1f19 813d 56a9 6f3c 4efb 1e3d
000001d0: 0bc7 683c 293c 72bc f393 4bbd 68e5 59bd
000001e0: 0ea4 8c3c 6ca4 a23d 6e40 743e 8bbf ba3d
000001f0: d99e 703c 7cd6 6bbc 274c a43c 92c1 a9be
00000200: f371 733c fc81 dd3d 2ec9 1aba 8d40 2f3d
00000210: 5a78 a7bd 9b92 933d a782 57be bdcd 933d
00000220: af30 093d fd26 96bc 7dfe 1b3d eb06 f93d
00000230: 5470 ecbd d50b 20bd 268f c9bd e543 ea3c
00000240: 5827 cfbd 93d5 933d 26c5 9e3d 1675 333d
00000250: 007e 783c 3d6e 4d3d 2a50 82bd 1b4d f93c
00000260: 1379 cbbd 2ae7 98bc c083 0fbe 18ff 793d
00000270: 3941 b03c 3f5f 5a3b fbd2 403d a62f 753d
00000280: 6af1 c83d 46aa 27bd b2d6 013c 96b9 043d
00000290: 7d0b 0a3c d11f c53c 4d05 94bd ee1c 9abc
000002a0: d849 83bd e105 5e3e dd4b 61bd 25f6 103d
000002b0: 8979 e2bb 91de 08be eb00 653e 93dc f1bb
000002c0: 9ca0 56bd 7bc3 1c3d 36cd a13d 163d c53d
000002d0: 43e5 773d 1ab5 b1bd d977 c7bc 96f0 3f3c
000002e0: bd49 de3d 8111 e53c 324c 273d 3b92 673c
000002f0: e9bf 113d 7351 1cbd dce4 6e3d 2cd5 f63d
00000300: d8fc ca3d 7c1d 653e c0b4 cfbd ee51 a93b
00000310: 8248 18bd f724 e3bc 200b fe3c f0a5 4ebd
00000320: bd26 aa3c 25e6 353d 8a53 3e3e 96a0 f9bc
00000330: d582 803c 735b fa3d a1ee 503d fe5c aa3d
00000340: 3d03 f2bc f4f6 81bd 6e6f f03d 5530 d1bd
00000350: 6b57 2ebd 3de5 da3d 7e6f cf3c 9d94 9dbd
00000360: c0ea e13c f4f1 a13d 0c22 4dbe bba9 cfbd
00000370: 0bc9 afbb fd2b 993d 8c36 8cbd 1390 52be
00000380: a3bf 443d 15fb ab3d e254 88bd 0f73 babc
00000390: ffe0 8b3d 3c40 15be 22d1 38be c048 0d3c
000003a0: 514f 94bd 6513 c1bd eedd a8bd 287f 213c
000003b0: e4f6 bb3d 135b 7b3d 6b63 07be b307 03be
000003c0: ba7f 4dbd c247 a3bd 60c4 0ebd 51c1 9dbd
000003d0: 649d 41bd e2f7 fc3b 9a5d c5bd b92a 99bd
000003e0: 0725 0f3d 75a4 933c 3729 b03d 910f edbd
000003f0: aae7 443c f8a8 143d 9966 48bc 14db 073e
-0.06478295 0.10996857 -0.020597896 0.010799474 -0.08433693 -0.0350474 0.14583802 -0.034590006
0.14135076 0.16169861 -0.03760768 0.0681894 0.089312434 -0.06451472 -0.04903251 -0.019321684
0.06599142 -0.16154654 -0.12117739 0.06890522 -0.052033193 -0.07727289 -0.06697549 0.011459537
0.018166242 0.16846076 -0.0685101 0.05697533 0.05020213 -0.020983389 0.03534599 -0.08106999
-0.12721999 0.08334272 -0.002099415 0.116404824 0.053492885 -0.08608599 0.1319557 -0.0032690084
0.10851385 -0.17935994 0.006120933 -0.100267425 -0.21421789 -0.10316595 -0.027068455 -0.03222954
-0.1335502 0.07244199 0.0014827845 -0.116082184 -0.100425705 -0.060374442 0.09460455 -0.09858301
0.14508939 0.06138529 0.08304758 0.10374086 0.059525974 -0.124026075 -0.16135763 0.039189566
0.060394675 0.014756499 0.017082375 -0.052456345 -0.21813604 -0.080563165 0.034208704 -0.17365488
0.07945223 0.02937223 -0.07447302 0.032534607 -0.019899048 -0.0942906 -0.03832803 0.102664664
0.0349023 -0.1556398 0.16921176 0.09277274 0.0416762 0.13051887 -0.0060722404 0.03732793
-0.03897353 0.032737497 0.070140444 0.13323964 0.10668622 -0.12659414 0.11322751 0.13041501
0.06163934 -0.053809512 -0.06895639 -0.115575805 -0.026882283 0.22017832 0.11360375 0.01107537
-0.13648923 -0.05593039 -0.12534435 -0.1309028 0.039861094 0.13782714 0.13423058 0.11322789
-0.16621976 0.063036196 0.014627775 0.03881388 0.014207612 -0.014784851 -0.049701642 -0.053197294
0.017168071 0.07941517 0.23852703 0.09118565 0.01468631 -0.014394399 0.020055844 -0.33155495
0.014858711 0.10815808 -0.0005904612 0.04278617 -0.08177252 0.07205697 -0.21045934 0.07216976
0.033493694 -0.018329138 0.038084496 0.121595226 -0.115448624 -0.039073784 -0.098417565 0.028596828
-0.10114926 0.072184704 0.07752447 0.043812834 0.0151667595 0.05015396 -0.06362946 0.030432275
-0.099352024 -0.018664915 -0.14015102 0.061034292 0.021515476 0.0033320931 0.047076207 0.059859894
0.09811671 -0.04093387 0.0079247225 0.03240355 0.008425591 0.024063023 -0.072275735 -0.018812623
-0.06410569 0.2168193 -0.05500399 0.03539099 -0.006911461 -0.13366152 0.22363631 -0.007381031
-0.052399263 0.038272362 0.07900469 0.09630792 0.060521375 -0.086771205 -0.02434914 0.011715075
0.10853908 0.027962448 0.04084415 0.014133985 0.03558341 -0.038163614 0.058323726 0.12052378
0.09911507 0.22374529 -0.10141897 0.0051672375 -0.037178524 -0.027727587 0.031011164 -0.05045122
0.020770425 0.044408936 0.18586555 -0.030472081 0.015687386 0.12224474 0.051008824 0.08318518
-0.02954256 -0.06345931 0.117400035 -0.10214297 -0.042563837 0.10688255 0.025321718 -0.07694361
0.027577758 0.07907477 -0.20032519 -0.101397954 -0.0053645424 0.07479093 -0.068463415 -0.20562772
0.04803432 0.083974995 -0.06656815 -0.022759942 0.06830024 -0.14575285 -0.18048528 0.008623302
-0.07241691 -0.09427527 -0.08245455 0.009856977 0.0917795 0.061366152 -0.13221519 -0.12795906
-0.050170638 -0.07972671 -0.034855247 -0.07702888 -0.04726924 0.0077199796 -0.09636994 -0.07478852
0.03494742 0.018022755 0.08601611 -0.11575235 0.012018124 0.036293954 -0.012231492 0.13267165

network_body._body_endoder.seq_layers.2.bias f4 [128]
00000000: 0000 0000 0000 0000 0000 0000 0000 0000
00000010: 0000 0000 0000 0000 0000 0000 0000 0000
00000020: 0000 0000 0000 0000 0000 0000 0000 0000
00000030: 0000 0000 0000 0000 0000 0000 0000 0000
00000040: 0000 0000 0000 0000 0000 0000 0000 0000
00000050: 0000 0000 0000 0000 0000 0000 0000 0000
00000060: 0000 0000 0000 0000 0000 0000 0000 0000
00000070: 0000 0000 0000 0000 0000 0000 0000 0000
00000080: 0000 0000 0000 0000 0000 0000 0000 0000
00000090: 0000 0000 0000 0000 0000 0000 0000 0000
000000a0: 0000 0000 0000 0000 0000 0000 0000 0000
000000b0: 0000 0000 0000 0000 0000 0000 0000 0000
000000c0: 0000 0000 0000 0000 0000 0000 0000 0000
000000d0: 0000 0000 0000 0000 0000 0000 0000 0000
000000e0: 0000 0000 0000 0000 0000 0000 0000 0000
000000f0: 0000 0000 0000 0000 0000 0000 0000 0000
00000100: 0000 0000 0000 0000 0000 0000 0000 0000
00000110: 0000 0000 0000 0000 0000 0000 0000 0000
00000120: 0000 0000 0000 0000 0000 0000 0000 0000
00000130: 0000 0000 0000 0000 0000 0000 0000 0000
00000140: 0000 0000 0000 0000 0000 0000 0000 0000
00000150: 0000 0000 0000 0000 0000 0000 0000 0000
00000160: 0000 0000 0000 0000 0000 0000 0000 0000
00000170: 0000 0000 0000 0000 0000 0000 0000 0000
00000180: 0000 0000 0000 0000 0000 0000 0000 0000
00000190: 0000 0000 0000 0000 0000 0000 0000 0000
000001a0: 0000 0000 0000 0000 0000 0000 0000 0000
000001b0: 0000 0000 0000 0000 0000 0000 0000 0000
000001c0: 0000 0000 0000 0000 0000 0000 0000 0000
000001d0: 0000 0000 0000 0000 0000 0000 0000 0000
000001e0: 0000 0000 0000 0000 0000 0000 0000 0000
000001f0: 0000 0000 0000 0000 0000 0000 0000 0000
0.0 0.0 0.0 0.0 0.0 0.0 0.0 0.0
0.0 0.0 0.0 0.0 0.0 0.0 0.0 0.0
0.0 0.0 0.0 0.0 0.0 0.0 0.0 0.0
0.0 0.0 0.0 0.0 0.0 0.0 0.0 0.0
0.0 0.0 0.0 0.0 0.0 0.0 0.0 0.0
0.0 0.0 0.0 0.0 0.0 0.0 0.0 0.0
0.0 0.0 0.0 0.0 0.0 0.0 0.0 0.0
0.0 0.0 0.0 0.0 0.0 0.0 0.0 0.0
0.0 0.0 0.0 0.0 0.0 0.0 0.0 0.0
0.0 0.0 0.0 0.0 0.0 0.0 0.0 0.0
0.0 0.0 0.0 0.0 0.0 0.0 0.0 0.0
0.0 0.0 0.0 0.0 0.0 0.0 0.0 0.0
0.0 0.0 0.0 0.0 0.0 0.0 0.0 0.0
0.0 0.0 0.0 0.0 0.0 0.0 0.0 0.0
0.0 0.0 0.0 0.0 0.0 0.0 0.0 0.0
0.0 0.0 0.0 0.0 0.0 0.0 0.0 0.0

action_model._discrete_distribution.branches.0.weight f4 [1, 128]
00000000: f6a1 0c3c d60f a4bc b7d2 58bc ecb8 a8bb
00000010: 7d65 13bc 990e babb b1c6 a83c 6e8d 83bc
00000020: 6785 cab6 6354 e83b d743 e3bb ef0f 9b3b
00000030: 8426 b3bb c5d2 b6bb 0937 19bc 4dbc 533a
00000040: 0f96 d53b a760 00bc 881d 003b 8ac7 443a
00000050: 7e0c 323c 5ebd 8dbb 5e3b 293c d204 bdbb
00000060: 7288 7bbb d5ed f1bb 8546 0dbc ff35 44bc
00000070: 874e d0bc 4f8a 8cba 1133 3a3b 8535 72bb
00000080: c5bf 97bb 32b5 d8bb f9e1 81bb 2480 34bb
00000090: f6aa c13b 650b 7bbc d137 cb3b 0230 4739
000000a0: f5e3 91bc 16f7 0fbc 90ee 693c 6844 0db9
000000b0: 40bc 08bc 819b b23b 4b2c 22ba effc 4b3b
000000c0: 1336 2abc 47c3 ac3b 3667 c13b 2af8 d63a
000000d0: c575 e73b 45a3 20bc 52be e53b e7fe 33bc
000000e0: a2b5 03bc aae2 ccbb 70b8 663c a743 32bc
000000f0: 5435 02bc d81c 77bb d6db 143b a123 02bb
00000100: 3748 0b3b a95b 9d3a 153e 0abb 3266 573b
00000110: 801d 803b bb8f 073c cd78 bb3b 2705 42bb
00000120: 1cad 88bc e3b3 fc3b 7dbe eaba 2c7e 963c
00000130: 1278 ea3b 22df f63b 7067 6b3b cce7 05bc
00000140: 95b6 75bc af09 4f3c 8e73 b0bb cdd2 6a3c
00000150: 6329 f2ba 8558 633c 4de1 85ba 427b f8bb
00000160: a501 dd3b 9308 5cbc 3bf6 81bb c931 4a3b
00000170: 085f eb3b 0f0c 6c3c 1a70 ed3a 228e 3a3c
00000180: a395 46bb 7452 333a 5743 0bbc 4f24 ab3c
00000190: 5a0a 7cbb 9a5c f2bb 841b 3dbb db46 573c
000001a0: ada0 48bb bf8b a2bb 0fc0 053c a109 c1bb
000001b0: 2dd7 5fbb 9260 63ba 8fe5 9fbb df48 c13a
000001c0: 8473 3839 1025 7a3b a31c 553c df35 2c3c
000001d0: 85c1 c43a df54 bdbb a32d 36bb cb0d 893c
000001e0: 00af 6c38 f3f0 7e3b 60c4 7ebb ab74 0b3c
000001f0: 9713 93bb 7560 2c3c fff3 42ba a72b 27bc
0.008583536 -0.020027082 -0.013233832 -0.0051489975 -0.008996365 -0.0056780097 0.020602556 -0.01605865
-6.035599e-06 0.007090138 -0.0069355774 0.004732124 -0.005467238 -0.005579325 -0.0093515 0.000807707
0.0065181325 -0.007835544 0.0019548852 0.000750654 0.010867236 -0.004325553 0.010329096 -0.005768397
-0.0038380888 -0.007383088 -0.00862277 -0.011975764 -0.02542807 -0.0010722372 0.0028411786 -0.003695817
-0.004631015 -0.006613397 -0.0039637056 -0.0027542198 0.0059102727 -0.015322541 0.006201722 0.00018996003
-0.017808894 -0.008786937 0.014278069 -0.00013472291 -0.008345664 0.0054506664 -0.000618641 0.0031126102
-0.010388869 0.0052723023 0.0059021963 0.0016400863 0.0070636 -0.0098045515 0.0070112133 -0.010986066
-0.00803891 -0.0062526064 0.014082059 -0.010880387 -0.007947285 -0.0037706401 0.002271404 -0.0019857662
0.002125276 0.0012005466 -0.0021094133 0.003286731 0.0039097667 0.008274014 0.0057211877 -0.0029605122
-0.016684107 0.007711874 -0.0017909553 0.01837071 0.007155427 0.0075339237 0.0035919808 -0.00817294
-0.014997144 0.012636586 -0.005384869 0.014332485 -0.0018475469 0.013876085 -0.001021424 -0.007583053
0.006744581 -0.013429779 -0.0039661205 0.0030852428 0.0071829595 0.014407172 0.0018115074 0.011386426
-0.0030301593 0.00068405946 -0.008499942 0.020891337 -0.0038458318 -0.007396293 -0.0028855512 0.013139452
-0.0030613348 -0.0049605067 0.008163466 -0.0058910404 -0.0034155354 -0.0008673753 -0.0048796604 0.0014746449
0.0001759064 0.0038169064 0.013007316 0.010510891 0.0015011287 -0.0057779397 -0.0027798198 0.01673021
5.6429766e-05 0.003890094 -0.0038874373 0.0085117025 -0.0044884193 0.010521044 -0.0007436871 -0.010203279

network_body._body_endoder.seq_layers.0.weight f4 [128, 8]
00000000: 5448 7f3e 6ece 06bf 5864 0d3c 7422 6a3d
00000010: 03c1 4ebe 922a 013e f573 5a3d f1d7 d33e
00000020: 9d9c 31be 0840 bb3e e553 c53e 6a2e a43e
00000030: 5da6 073d f7df 0dbe 3bbd 4cbd b2d1 d7bd
00000040: d1ba 1d3f 00c2 7d3e 8d71 5e3d 3172 ccbd
00000050: a0c0 143e c773 253e 14af d3bd 80ad 48be
00000060: f8e7 08be 98fc 97be 0b90 343e 047f 7e3d
00000070: 3b05 273e 22da b63e 0990 903e b7f2 80be
00000080: 819b 2ebe 875f 10be 5885 423f 7c82 88bd
00000090: 983a 80be 8bab 94be af14 96be 23bc a4bd
000000a0: 595b 1dbb 9ec7 5e3e 5303 a63d 23f5 cf3e
000000b0: fd85 413e 9df8 ac3d c9c5 8e3e 64cc 813e
000000c0: 9c6f 6a3e 6ed6 9dbe f8ad c93e 5816 dfbd
000000d0: 84f1 783d 764f 88be 07c3 023e 01d6 1c3f
000000e0: 4edd 3ebe 623a a3be 5bd4 32be 8aae c6bd
000000f0: 28fd 41be 0066 143f 0e6a a73e af89 9c3e
00000100: a797 a1be 9e2a c63d 5ec9 66be de97 123e
00000110: 85bf acbe 035f b7be f52f b7bd ccf5 743e
00000120: fd6a 933d 08bd 9fbc d3c7 f6bd c8d3 c03e
00000130: eafe 203f 1621 cc3e d4de a13e 5a1e 753e
00000140: f9ec 8bbd 7884 1a3e 8a9e 5c3e f4cc 883e
00000150: e2d8 1e3c d95a 173e 1add d6be 345a 663c
00000160: f58a d0be 33c6 a43b a5a7 0cbe 7743 bdbe
00000170: af6e f8be 1193 bb3d ab44 9b3e 6035 383d
00000180: 1b21 8cbe 0f8b 0a3f 8257 82be 3e98 053e
00000190: cfdb ebbe a3db 9dbe 8de5 dd3c 649a 8b3e
000001a0: b928 98bd 0b4d 623e dfbc 883e 6b53 21bd
000001b0: cfd3 093f 3655 27bf 1dba 853e 962b d8be
000001c0: 494e 24be e62e c2bd f89d 05be cdf2 9dbd
000001d0: dca8 da3d 2724 0b3e 111c 9f3d 8cd7 cc3e
000001e0: 23cb 2a3d 1b6c 153e a6bd 3cbf 7153 7ebc
000001f0: efd0 bcbc 9d10 91be 1259 f63e b138 0f3e
00000200: 9aea c53c 53eb 3ebe 478b 15bf 16bd 853e
00000210: 4ea0 24be 0e3a 50be aae4 f2bd ac64 ec3c
00000220: b646 8a3e a987 a9be 99f7 70bf 4c20 e93d
00000230: e49c cabe e5f8 4cbe d0ab 8ebe 0c9c 223e
00000240: 1ff2 8e3d 46ba 3ebe b301 47be 0d8c 103f
00000250: d634 abbe aaa3 20bf c2f3 ef3e 0ee9 89be
00000260: c77e 36be 7ca5 1b3e ccd7 86be c7bb 11bf
00000270: 1bd2 813e f903 5cbe b5db fbbe 62cf 29bd
00000280: d691 643e ba67 3c3b e5e2 e9bd e4bd ad3e
00000290: 94ac f33e d886 2d3e 7dcd 803e 8943 48be
000002a0: d3e1 3bbd cda6 dc3e 92ed 9b3d f3ca ee3d
000002b0: b319 bebe 1093 193e 7fb4 4d3e bb74 93be
000002c0: 1607 c4be c8ce 7ebd b20c d4be 5469 66bc
000002d0: bc21 323f 4ee6 43bf fe53 84be 6db8 debe
000002e0: a31e 843b 9475 1abf fc96 00bf cba8 08bf
000002f0: aa54 0f3d 2f50 843e e9b3 41bf dbf4 1abe
00000300: 3390 29be c918 903d 8b4f 223f c9dd 7bbe
00000310: ac6a 8d3e 5ba0 1fbf c79c 053e 925d 27be
00000320: f456 81bf 2104 3ebf 8e1f 513e c0c4 9fbe
00000330: 66a3 b93e 6ee6 3835 93fe 763e 38c6 063f
00000340: 299e 8c3e 8685 aabc 1e74 863e 9d40 793c
00000350: 949d 203e 2bc1 193e 35b5 5bbe e807 8b3e
00000360: da6f 293e 0367 493e 31db 4a3f 6c8c a33d
00000370: e6bf c1be 4a09 41bd 58b4 ef3d a248 bbbe
00000380: 5a2a 8ebe dea3 d43d e543 be3e feff c33e
00000390: b8d1 b8bb 7e7b f03d 5509 4b3f 6b31 8cbe
000003a0: 7e33 823f 5212 e23b c8ca 0f3e aefd 463e
000003b0: 967f 4fbe 7d47 37be 634f 3e3e fa7c 21bf
000003c0: b80e 13bd 0866 d1b9 c7ce 03bd d975 c7bd
000003d0: 5054 de3e f86b 7abe e93d 9c3e 7657 193f
000003e0: 4031 fd3c efc0 17bf 2994 10bf cb38 ff3e
000003f0: 6d81 abbe a61c 593e 7926 7abe 0155 97bc
0.24929935 -0.52658737 0.008629881 0.057161763 -0.20190816 0.12613896 0.05333324 0.41375688
-0.173449 0.3657229 0.3854057 0.3206666 0.03311764 -0.13854967 -0.04998515 -0.10538043
0.61613184 0.24781036 0.05430751 -0.09982718 0.14526606 0.16157447 -0.10336128 -0.19597435
-0.13369739 -0.296849 0.17633073 0.06213285 0.16310589 0.35713297 0.2823489 -0.25185177
-0.17051508 -0.14098941 0.75984716 -0.06665513 -0.25044703 -0.29037127 -0.29312655 -0.08043697
-0.0024010746 0.21755835 0.08106103 0.40616712 0.18898769 0.08445857 0.27885273 0.2535125
0.22894138 -0.3082766 0.3939054 -0.108929336 0.060777202 -0.26623124 0.1276971 0.61264044
-0.18639109 -0.3188048 -0.1746382 -0.097012594 -0.18944228 0.5796814 0.326981 0.30573794
-0.31561014 0.09676097 -0.22537753 0.14315745 -0.33739868 -0.35814676 -0.08944694 0.23921889
0.07198141 -0.019499317 -0.12049832 0.37661576 0.6288897 0.39868993 0.31615317 0.2393736
-0.06832308 0.15089595 0.21544853 0.26718867 0.009695264 0.1478075 -0.41965562 0.014059592
-0.40731016 0.00502851 -0.13735826 -0.36965534 -0.48521945 0.0915891 0.30325827 0.044972777
-0.27369007 0.54118437 -0.25457388 0.13046357 -0.46066138 -0.30831632 0.027086997 0.27266228
-0.07429642 0.22099702 0.26706597 -0.039386194 0.5383882 -0.65364397 0.26118556 -0.42220753
-0.16045488 -0.094816014 -0.13048542 -0.07712326 0.106767386 0.1358801 0.07769025 0.400082
0.041697633 0.1459202 -0.7372688 -0.015522824 -0.023048846 -0.28332987 0.4811483 0.1398647
0.024159718 -0.18644457 -0.58415645 0.26120824 -0.16076776 -0.20334646 -0.118600205 0.028856598
0.27007073 -0.33111313 -0.94127804 0.11383113 -0.39572823 -0.2001682 -0.27865458 0.1587984
0.06979775 -0.18625745 -0.19434242 0.564637 -0.33438748 -0.6274973 0.4686566 -0.2693562
-0.17821799 0.15199846 -0.26336515 -0.5692715 0.2535561 -0.2148589 -0.4919106 -0.04145754
0.22321257 0.002874835 -0.1142023 0.33933938 0.47592604 0.1694597 0.25156775 -0.19557013
-0.04586966 0.4309601 0.07613672 0.11659803 -0.37128982 0.14997506 0.20088385 -0.28799996
-0.38286656 -0.06220892 -0.41415936 -0.014063198 0.69582725 -0.7652329 -0.2584533 -0.4350008
0.0040319725 -0.6033566 -0.50230384 -0.5338256 0.03499285 0.25842425 -0.75665146 -0.15132467
-0.16558914 0.070359774 0.6340262 -0.24596323 0.27620447 -0.6235406 0.13048087 -0.16344288
-1.0104661 -0.7422505 0.20422193 -0.31204796 0.36257476 6.888066e-07 0.2412055 0.5264621
0.27464417 -0.020815622 0.26260465 0.015213159 0.15685111 0.15015094 -0.21455844 0.2715447
0.16546574 0.19668202 0.7924071 0.07985768 -0.3784172 -0.047128 0.1170432 -0.36578852
-0.27766687 0.10382818 0.37161174 0.38281244 -0.005640235 0.11742304 0.79311115 -0.27381453
1.0171964 0.0068991566 0.14042199 0.19432709 -0.20263514 -0.17898364 0.18584971 -0.63081324
-0.03590271 -0.00039939606 -0.03217962 -0.097392745 0.434237 -0.2445525 0.30515984 0.5989908
0.030907273 -0.5927877 -0.56476074 0.49848017 -0.33497182 0.21202335 -0.24428739 -0.01847315

network_body._body_endoder.seq_layers.0.bias f4 [128]
00000000: 0000 0000 0000 0000 0000 0000 0000 0000
00000010: 0000 0000 0000 0000 0000 0000 0000 0000
00000020: 0000 0000 0000 0000 0000 0000 0000 0000
00000030: 0000 0000 0000 0000 0000 0000 0000 0000
00000040: 0000 0000 0000 0000 0000 0000 0000 0000
00000050: 0000 0000 0000 0000 0000 0000 0000 0000
00000060: 0000 0000 0000 0000 0000 0000 0000 0000
00000070: 0000 0000 0000 0000 0000 0000 0000 0000
00000080: 0000 0000 0000 0000 0000 0000 0000 0000
00000090: 0000 0000 0000 0000 0000 0000 0000 0000
000000a0: 0000 0000 0000 0000 0000 0000 0000 0000
000000b0: 0000 0000 0000 0000 0000 0000 0000 0000
000000c0: 0000 0000 0000 0000 0000 0000 0000 0000
000000d0: 0000 0000 0000 0000 0000 0000 0000 0000
000000e0: 0000 0000 0000 0000 0000 0000 0000 0000
000000f0: 0000 0000 0000 0000 0000 0000 0000 0000
00000100: 0000 0000 0000 0000 0000 0000 0000 0000
00000110: 0000 0000 0000 0000 0000 0000 0000 0000
00000120: 0000 0000 0000 0000 0000 0000 0000 0000
00000130: 0000 0000 0000 0000 0000 0000 0000 0000
00000140: 0000 0000 0000 0000 0000 0000 0000 0000
00000150: 0000 0000 0000 0000 0000 0000 0000 0000
00000160: 0000 0000 0000 0000 0000 0000 0000 0000
00000170: 0000 0000 0000 0000 0000 0000 0000 0000
00000180: 0000 0000 0000 0000 0000 0000 0000 0000
00000190: 0000 0000 0000 0000 0000 0000 0000 0000
000001a0: 0000 0000 0000 0000 0000 0000 0000 0000
000001b0: 0000 0000 0000 0000 0000 0000 0000 0000
000001c0: 0000 0000 0000 0000 0000 0000 0000 0000
000001d0: 0000 0000 0000 0000 0000 0000 0000 0000
000001e0: 0000 0000 0000 0000 0000 0000 0000 0000
000001f0: 0000 0000 0000 0000 0000 0000 0000 0000
0.0 0.0 0.0 0.0 0.0 0.0 0.0 0.0
0.0 0.0 0.0 0.0 0.0 0.0 0.0 0.0
0.0 0.0 0.0 0.0 0.0 0.0 0.0 0.0
0.0 0.0 0.0 0.0 0.0 0.0 0.0 0.0
0.0 0.0 0.0 0.0 0.0 0.0 0.0 0.0
0.0 0.0 0.0 0.0 0.0 0.0 0.0 0.0
0.0 0.0 0.0 0.0 0.0 0.0 0.0 0.0
0.0 0.0 0.0 0.0 0.0 0.0 0.0 0.0
0.0 0.0 0.0 0.0 0.0 0.0 0.0 0.0
0.0 0.0 0.0 0.0 0.0 0.0 0.0 0.0
0.0 0.0 0.0 0.0 0.0 0.0 0.0 0.0
0.0 0.0 0.0 0.0 0.0 0.0 0.0 0.0
0.0 0.0 0.0 0.0 0.0 0.0 0.0 0.0
0.0 0.0 0.0 0.0 0.0 0.0 0.0 0.0
0.0 0.0 0.0 0.0 0.0 0.0 0.0 0.0
0.0 0.0 0.0 0.0 0.0 0.0 0.0 0.0

network_body._body_endoder.seq_layers.2.weight f4 [128, 128]
00000000: 6ce7 a8bc a043 c13d 0d79 3bbe ad19 efbd
00000010: 6699 dcbc 1824 09be 83c6 9b3d 6c87 9dbd
00000020: f8d1 3d3d 4225 3b3d d4dd 12bd 530c 8fbc
00000030: 9fb0 b03d 9b86 2b3d 2732 b4bd ddb6 a33c
00000040: 5e6f 6a3d f4cc 0c3e cb33 143a ff42 be3d
00000050: 7cbf d03d f2bb ebbc 5bdb 80bd 6b29 5b3b
00000060: 233d e13c 8b52 eebd 0adc d93c c569 8e3d
00000070: 0e24 f23d 75e1 0cbe 1f15 b7bc f72e 55be
00000080: 9ab5 8abc 845d 823d f39e d03c 3e45 363e
00000090: e2b2 b53c 53cc c63b 7152 28be d83d 093c
000000a0: bc1d 953a a622 0cbe 1aec 763d 7ca5 4b3d
000000b0: 5d4a adbd 331a 88bc a104 8d3d 2baa f2bd
000000c0: 0b0d 393e 8921 6ebc 6de2 8c3d a41b 58bd
000000d0: 9ac6 5eba a6be 823d da98 b23d 344e ecbd
000000e0: cf34 e1bb 84c0 dbbd dccf fc3d fb9b 8bbe
000000f0: e574 903d b5a8 2d3d fa5b 0c3e c344 f9bc
00000100: 35a1 5a3c f657 c53d 2a28 bcbd 4552 93bc
00000110: 02ac f43d d86f 2bbd 1f84 bc3d e1cd 1d3d
00000120: 60d9 73bd fa58 47bd 59b3 39be 6ff1 8c3c
00000130: 2986 d03b 3833 9d3d 7e31 df3c 28cc e23d
00000140: 0210 e1bd 7561 7e3d daa5 593d 954d dc3c
00000150: f75c 413d 2e80 173c 2e40 a9bc ec97 c73d
00000160: 14cd ba3c f5ba 19bd 1704 98bd a252 f9bc
00000170: 27a6 40bd 4ed6 8cbd 94f8 c03c 6646 053c
00000180: 3106 d43c 2b3d 593d ca17 61bd daa1 3fbd
00000190: d218 1d3c 4058 283d 785e ca3d 7214 1e3d
000001a0: c5ba 8cbd 0331 193e 61bc ebbd 6939 743d
000001b0: bf6e 11be f59d 2f3e 2b6a af3d 834a 073e
000001c0: 2d87 3dbd 07fa a83c b511 8e3c 120b 90bc
000001d0: 7fc2 1bbe df37 58bd a1b7 e2bd 2ca9 f83b
000001e0: 201c 78bc 7886 cebb b56c ba3d bf19 503d
000001f0: c570 65bc f665 af3c 3df9 6d3d f9c2 eebd
00000200: 3fd2 243d f931 da3c 9e4b 15be 99b3 8a3b
00000210: 77aa e73c f9a8 96bc f763 093e 8f20 ad3b
00000220: 05d9 fd3c 880e 9bbc 7a7d de3d 8603 ca3d
00000230: 1032 68bd f212 0a3c 6fc9 0abd 3ab0 eabd
00000240: 62c5 e1bd 8af6 28bd 1ab6 f13d 3148 1a3d
00000250: 90c7 acbb 6a69 b3bd 4286 0f3d 4316 5ebe
00000260: 604f e1bd e1fa 12bd 3ec9 363d 9a8b 813d
00000270: c564 133c 1a05 3d3d b3a2 6ebb 852c 063e
00000280: 7bd6 0a3d aac5 363d e43e 62bd f00b 8cbc
00000290: 963f 0e3e 13ac 46be a334 a3bd 3a9b e1bc
000002a0: 720c afbd e5ef 3fbe b625 e63b 7b9b b13d
000002b0: 972c ddbd 7b73 1a3e 8fbc adbc ed30 15bd
000002c0: 1aee dc3d 33f4 42be 5d72 a5bd 64e4 e9bc
000002d0: 329e 2ebd 2e68 34be ff2f fdbd 1875 52be
000002e0: fea7 efbd 7665 d9bc 8e80 c83d 90fd 0b3e
000002f0: 9bb5 38be 0ac4 f0bd 9407 a83c a2f1 e6bd
00000300: d88f af3d 5bab 9f3b 517b c33c 0651 10bc
00000310: e198 803d dbc7 0f3d de2a e2bb 7bec 023d
00000320: 84a8 6cbb 5db9 a5bc 15d9 6e3d 9594 dd3d
00000330: c995 343d 5bc2 e8bc a0e0 aa3c 1e87 6fbd
00000340: 741b 673d e2df ce3d e773 9ebc 3bcf f23d
00000350: d2ba afbb ecc1 043c bc49 7bbd 7a91 e23d
00000360: 835f 69bd 1f9f d03d 5025 843d 36c6 debc
00000370: 2b3b d8bd add4 5abc 83ec c0bd 5fc0 20bd
00000380: 32aa 813d 51fb e8bd aeaf a5bd 2954 c4bd
00000390: ee7a 8ebc ab0d 643c 4ba6 b63c c893 933d
000003a0: 50a0 97bc d6bd a13b de77 9a3d 324e b0bd
000003b0: 769a bfbc 9dac 9dbc ec09 b4bd 4232 833c
000003c0: f873 5bbd 8f5f 94bc 16ff 92bd c954 f53b
000003d0: aeaa 4b3e d1c4 eb3d 4991 593c 4176 10bd
000003e0: 2b52 9bbd 0ebd 823d 3012 2c3e c897 933d
000003f0: ee60 54bc 8424 f3bb 4be3 93bd bf68 bfbd
-0.020618163 0.094367266 -0.18307896 -0.11674819 -0.026928615 -0.13392675 0.076062225 -0.07691845
0.04634282 0.04568983 -0.035856083 -0.017461931 0.08627438 0.041876417 -0.08798628 0.019984657
0.057235114 0.13750058 0.00056534697 0.09290122 0.10192773 -0.028776143 -0.06291839 0.0033441435
0.027494973 -0.116368376 0.02659418 0.06953768 0.11823283 -0.1375788 -0.022348939 -0.20818697
-0.016932297 0.06365493 0.025466418 0.17799851 0.022180025 0.006066838 -0.16437699 0.008376561
0.0011376659 -0.13685092 0.060283758 0.049718365 -0.08461449 -0.016614055 0.068856485 -0.11848863
0.18071382 -0.014534363 0.06879125 -0.052760735 -0.0008498222 0.063840196 0.0872056 -0.115383536
-0.0068727504 -0.10730079 0.123443335 -0.2726744 0.07053546 0.04239722 0.13706961 -0.030428296
0.013344099 0.09635918 -0.09187348 -0.017983565 0.119468704 -0.04185471 0.092048876 0.03852642
-0.059533477 -0.04866884 -0.18134822 0.017204968 0.0063636494 0.07675785 0.02724528 0.11074096
-0.109893814 0.06210466 0.053136684 0.026892463 0.0472078 0.009246869 -0.020660486 0.09745774
0.022802867 -0.03753181 -0.07422655 -0.03043491 -0.047033455 -0.06876813 0.023556031 0.00813446
0.025881859 0.05303685 -0.054954328 -0.046785213 0.009588437 0.041099787 0.098813 0.038593717
-0.06871561 0.14960103 -0.1151054 0.059625063 -0.14202403 0.171501 0.08565172 0.13212018
-0.04627149 0.020627035 0.017342428 -0.017583404 -0.15210913 -0.052787658 -0.11070181 0.0075885262
-0.015143424 -0.006302651 0.091027655 0.050805803 -0.014003937 0.021410923 0.05809902 -0.11658282
0.04023957 0.026635157 -0.14579627 0.0042328355 0.028279526 -0.01839112 0.1341704 0.0052834223
0.030987272 -0.018927827 0.108637765 0.09863953 -0.05668837 0.0084273685 -0.03388351 -0.11459394
-0.11023976 -0.041250743 0.11802311 0.037666503 -0.005272813 -0.087603405 0.035040148 -0.2168818
-0.11001468 -0.035883788 0.044625513 0.06325455 0.008996193 0.046147443 -0.0036412894 0.1310292
0.03389595 0.0446221 -0.05523576 -0.017095536 0.13891444 -0.19401579 -0.07969024 -0.027539838
-0.08547296 -0.18743856 0.0070235385 0.08672234 -0.107995205 0.15083115 -0.021208076 -0.036423612
0.10787602 -0.19038467 -0.08078454 -0.028551288 -0.042631336 -0.17617866 -0.1236267 -0.2055248
-0.11701964 -0.026537638 0.09790145 0.13670945 -0.18038027 -0.117561415 0.020511426 -0.112765566
0.08572358 0.004872722 0.023862513 -0.00880838 0.06279159 0.035102706 -0.006902083 0.031963807
-0.0036111185 -0.02022999 0.058312494 0.108193554 0.04408816 -0.028412988 0.020859063 -0.058478467
0.056422666 0.10101296 -0.019342376 0.11855932 -0.005362847 0.008102875 -0.061349615 0.11062904
-0.056975853 0.101866 0.06452429 -0.027194124 -0.105581604 -0.01335637 -0.09420111 -0.03924596
0.0633129 -0.1137606 -0.08090149 -0.09586365 -0.017392602 0.013919274 0.022296092 0.072059214
-0.01850906 0.0049359603 0.07542394 -0.086086646 -0.023389082 -0.019247347 -0.08790955 0.016015176
-0.053577393 -0.018111972 -0.0717756 0.007486914 0.19889328 0.11512149 0.013279268 -0.035269026
-0.07584032 0.063837156 0.16803813 0.07206684 -0.012962563 -0.0074201245 -0.07221087 -0.093461506

network_body._body_endoder.seq_layers.2.bias f4 [128]
00000000: 0000 0000 0000 0000 0000 0000 0000 0000
00000010: 0000 0000 0000 0000 0000 0000 0000 0000
00000020: 0000 0000 0000 0000 0000 0000 0000 0000
00000030: 0000 0000 0000 0000 0000 0000 0000 0000
00000040: 0000 0000 0000 0000 0000 0000 0000 0000
00000050: 0000 0000 0000 0000 0000 0000 0000 0000
00000060: 0000 0000 0000 0000 0000 0000 0000 0000
00000070: 0000 0000 0000 0000 0000 0000 0000 0000
00000080: 0000 0000 0000 0000 0000 0000 0000 0000
00000090: 0000 0000 0000 0000 0000 0000 0000 0000
000000a0: 0000 0000 0000 0000 0000 0000 0000 0000
000000b0: 0000 0000 0000 0000 0000 0000 0000 0000
000000c0: 0000 0000 0000 0000 0000 0000 0000 0000
000000d0: 0000 0000 0000 0000 0000 0000 0000 0000
000000e0: 0000 0000 0000 0000 0000 0000 0000 0000
000000f0: 0000 0000 0000 0000 0000 0000 0000 0000
00000100: 0000 0000 0000 0000 0000 0000 0000 0000
00000110: 0000 0000 0000 0000 0000 0000 0000 0000
00000120: 0000 0000 0000 0000 0000 0000 0000 0000
00000130: 0000 0000 0000 0000 0000 0000 0000 0000
00000140: 0000 0000 0000 0000 0000 0000 0000 0000
00000150: 0000 0000 0000 0000 0000 0000 0000 0000
00000160: 0000 0000 0000 0000 0000 0000 0000 0000
00000170: 0000 0000 0000 0000 0000 0000 0000 0000
00000180: 0000 0000 0000 0000 0000 0000 0000 0000
00000190: 0000 0000 0000 0000 0000 0000 0000 0000
000001a0: 0000 0000 0000 0000 0000 0000 0000 0000
000001b0: 0000 0000 0000 0000 0000 0000 0000 0000
000001c0: 0000 0000 0000 0000 0000 0000 0000 0000
000001d0: 0000 0000 0000 0000 0000 0000 0000 0000
000001e0: 0000 0000 0000 0000 0000 0000 0000 0000
000001f0: 0000 0000 0000 0000 0000 0000 0000 0000
0.0 0.0 0.0 0.0 0.0 0.0 0.0 0.0
0.0 0.0 0.0 0.0 0.0 0.0 0.0 0.0
0.0 0.0 0.0 0.0 0.0 0.0 0.0 0.0
0.0 0.0 0.0 0.0 0.0 0.0 0.0 0.0
0.0 0.0 0.0 0.0 0.0 0.0 0.0 0.0
0.0 0.0 0.0 0.0 0.0 0.0 0.0 0.0
0.0 0.0 0.0 0.0 0.0 0.0 0.0 0.0
0.0 0.0 0.0 0.0 0.0 0.0 0.0 0.0
0.0 0.0 0.0 0.0 0.0 0.0 0.0 0.0
0.0 0.0 0.0 0.0 0.0 0.0 0.0 0.0
0.0 0.0 0.0 0.0 0.0 0.0 0.0 0.0
0.0 0.0 0.0 0.0 0.0 0.0 0.0 0.0
0.0 0.0 0.0 0.0 0.0 0.0 0.0 0.0
0.0 0.0 0.0 0.0 0.0 0.0 0.0 0.0
0.0 0.0 0.0 0.0 0.0 0.0 0.0 0.0
0.0 0.0 0.0 0.0 0.0 0.0 0.0 0.0

value_heads.value_heads.extrinsic.weight f4 [1, 128]
00000000: a485 a6bd c00f 733b a473 543e 746e a1bd
00000010: 5614 a6bd 9c3a f53d 91f8 38be 146c 403e
00000020: cc05 bd3d 6805 56be 6883 f63c c81b ff3d
00000030: 00f0 313b 1aaf 453e f8be 503d 88eb 6ebd
00000040: da66 2c3e f461 03be 5459 833d e022 bd3b
00000050: 0ead 2a3e 60c7 2c3e cc64 32be ea4e 1fbe
00000060: 675d 4cbe d880 4e3d 27af 0abe 6dd5 0abe
00000070: d8fc 9e3d e4f2 4ebd fc01 393e 1458 41bd
00000080: f8a6 08be 3ceb 083e 3c50 1dbe c0d2 99bb
00000090: 54c0 ce3d 5e6a 94bd 3464 3dbe 9c26 12bd
000000a0: 94dd 4bbe e00d 79bc 94fd c53d e06a 2f3e
000000b0: e343 1dbe 5a64 d5bd c851 f83d 2043 f0bb
000000c0: 0c49 0c3e 408e 0bbe e673 07be 004f 123b
000000d0: 6809 58bd 409a ffbb dd97 e1bd 407a ddbb
000000e0: 8a02 29be 1844 b23d 0022 333e d45c 0b3d
000000f0: 80c3 6a3c 88da d9bc 6ea8 0bbe 129b e7bd
00000100: d46e d53d c147 25be 8c29 bcbd 0848 bd3d
00000110: cca0 af3d a04d 323e aa87 5abe 2685 043e
00000120: 4831 c1bc d17a 0cbe 3085 81bc 3c82 68bd
00000130: fe94 2fbe 6c74 083d 943b 963d 482a 70bd
00000140: 2863 373d d8a4 6a3d dc02 91bd 6233 35be
00000150: b81e ba3d 8d8b 42be d2be dbbd f425 c23d
00000160: c25f cabd 3e88 3abe 3e51 5c3e bfbe 2fbe
00000170: 64d8 29be 1252 17be 18b4 c1bc 00ff 9eba
00000180: 9804 eebd fedd 0abe 4c1e ecbd 34bf 8b3d
00000190: 18bb 83bc e097 48bd 1024 853d 8c97 943d
000001a0: 0ae0 5b3e 0c5b a6bd 4c2b ab3d 8b86 5abe
000001b0: e087 0c3e c02d 123c be1b 1a3e 14d5 d83d
000001c0: d0c1 123e e61e 493e 24fe 3b3e 6834 b73c
000001d0: a053 283c 8017 ba3d dfb6 3abe 10cb 7a3d
000001e0: 28cd 4a3e 2bb2 26be aee9 183e c809 86bc
000001f0: 00b0 d339 4849 eebc c697 343e 00ba 30be
-0.08130959 0.0037088245 0.20747238 -0.078823954 -0.081093475 0.119740695 -0.1806357 0.18791229
0.09229621 -0.209005 0.030091956 0.12456471 0.0027151108 0.19305077 0.050963372 -0.05833009
0.1683611 -0.12830335 0.06413522 0.0057719797 0.16667578 0.1687293 -0.17421263 -0.15557447
-0.19957505 0.050415844 -0.13543378 -0.13557978 0.0776307 -0.050524607 0.18067163 -0.04720314
-0.13344944 0.13370985 -0.15362638 -0.004694313 0.100952774 -0.072468504 -0.18495256 -0.035681352
-0.19908744 -0.015201062 0.09667507 0.17130613 -0.15357928 -0.10419531 0.121249735 -0.0073322207
0.1369974 -0.13628483 -0.13227805 0.002232492 -0.052743345 -0.0078003705 -0.11015294 -0.006758958
-0.16504875 0.08704394 0.17493439 0.034024075 0.014328837 -0.026593462 -0.1363847 -0.11308874
0.104215294 -0.16140653 -0.09187612 0.092422545 0.085755914 0.17412424 -0.21340814 0.12941417
-0.02358307 -0.13718726 -0.015810579 -0.056764826 -0.1714668 0.033314154 0.073355824 -0.058634073
0.044772297 0.057286114 -0.070806235 -0.17695382 0.090878904 -0.18998547 -0.107297555 0.09479895
-0.098815456 -0.18216035 0.21515366 -0.17162608 -0.16586453 -0.14777401 -0.023645446 -0.0012130439
-0.1162197 -0.13561246 -0.11529216 0.068235785 -0.016080424 -0.048972964 0.06501019 0.07255468
0.21472183 -0.081228346 0.083578676 -0.21340387 0.13723707 0.00892204 0.15049645 0.105875164
0.14331746 0.19640693 0.18358666 0.022363856 0.010273844 0.090865135 -0.18233822 0.06122881
0.19804823 -0.16278903 0.14932892 -0.016362086 0.00040376186 -0.029087678 0.17636022 -0.17258453
