Assets/ML-Agents/Examples/RollerRex/results/rollerrex/My Behavior/My Behavior-2496.pt (torch, 151351 bytes, 12 tensors)

network_body._body_endoder.seq_layers.0.weight f4 [128, 8]
0	0x3e226c8e	0.15861723
1	0xbf002629	-0.5005823
2	0xbe208132	-0.15674284
3	0xbec6e5a2	-0.3884707
4	0x3e0e49c0	0.13895321
5	0x3f035dfa	0.5131527
6	0x3f118bdc	0.56854033
7	0x3cd4b7a2	0.02596647
8	0x3eb370a8	0.35046887
9	0xbd8e7380	-0.069556236
10	0xbe58defb	-0.2117881
11	0xbe52e05d	-0.205934
12	0x3f0e555f	0.55599016
13	0x3db05048	0.086090624
14	0x3f3bf1f3	0.7341606
15	0xbf16e424	-0.58941865
16	0x3be31aaf	0.006930671
17	0xbea6f1b6	-0.32606286
18	0x3e3fd258	0.18732584
19	0x3e58d732	0.2117584
20	0xbe445971	-0.19174744
21	0xbde36dd8	-0.111049354
22	0xbdb61d58	-0.088923156
23	0x3e07bc0b	0.13255326
24	0x3eea5d6c	0.457744
25	0x3e99c23f	0.3003101
26	0x3ee548bc	0.44782054
27	0x3ec74a72	0.38923985
28	0x3e32278c	0.17397898
29	0xbe1f9653	-0.15584688
30	0xbd8dbd37	-0.069208555
31	0xbf17ab41	-0.5924569
32	0xbd23f924	-0.04003252
33	0xbeedbcdd	-0.46433154
34	0x3e90fd13	0.2831808
35	0xbe284bcb	-0.16435163
36	0xbd9b3c4e	-0.075798616
37	0x3f4e93fb	0.8069455
38	0x3e7064f3	0.23476009
39	0xbe9cd92c	-0.3063444
40	0xbe512491	-0.20424105
41	0xbe43685e	-0.19082782
42	0x3e5f869e	0.21828696
43	0x3eeea87a	0.46612912
44	0x3dd076ae	0.10178886
45	0xbeaad514	-0.3336569
46	0x3f0ead63	0.5573332
47	0x3ed370c8	0.41296983
48	0xbd883810	-0.06651318
49	0x3dce181a	0.10063191
50	0x3f02a85b	0.5103814
51	0x3e16f429	0.14741577
52	0xbf4745ee	-0.7784108
53	0x3de08310	0.10962498
54	0xbd4a4054	-0.049377754
55	0x3c22ffa6	0.009948647
56	0xbec6555d	-0.38737002
57	0x3ec388a8	0.38190198
58	0x3ed5d03b	0.4176043
59	0xbebefb0d	-0.37300912
60	0xbe03c61f	-0.12868546
61	0x3ec14f8c	0.37756002
62	0xbe61a200	-0.22034454
63	0xbe89cb5e	-0.2691297
64	0x3e979ec8	0.29613328
65	0xbf097450	-0.53693104
66	0xbe9f6ee2	-0.31139284
67	0xbeea5204	-0.45765698
68	0xbee9d650	-0.4567132
69	0xbcbe6e0a	-0.02324583
70	0x3e328cb2	0.17436484
71	0x3f18ee03	0.5973818
72	0x3da312b2	0.0796255
73	0xbe7a377e	-0.24435231
74	0xbf0008b5	-0.50013286
75	0x3f4dbb53	0.8036396
76	0xbccadafd	-0.024762625
77	0xbf239800	-0.6390381
78	0xbeb50485	-0.3535501
79	0x3f61e6af	0.8824262
80	0xbe810277	-0.25197193
81	0xbeb7cc2c	-0.35897958
82	0x3f2c09b5	0.6720231
83	0x3d648a8e	0.0557962
84	0x3e3e6531	0.18593289
85	0xbe815b01	-0.25264743
86	0xbd28213e	-0.041047327
87	0x3f06d514	0.5266888
88	0x3d7c019b	0.06152497
89	0x3f175d60	0.59126854
90	0xbf5ded5f	-0.86690325
91	0x3db993ee	0.090614185
92	0xbdbff2b2	-0.09372462
93	0x3d045a5e	0.032312743
94	0xbe1e3560	-0.15450048
95	0xbdb83afd	-0.08995626
96	0x3ec8c013	0.3920904
97	0xbe87ab01	-0.26497653
98	0x3f1aa4ac	0.6040752
99	0xbdc6f31f	-0.097143404
100	0x3f48a254	0.78372693
101	0xbeb31e63	-0.3498412
102	0xbe09ba58	-0.13449991
103	0xbe38b431	-0.18037488
104	0x3ec56e02	0.38560492
105	0x3e8d9e20	0.27659702
106	0x3f076311	0.5288554
107	0x3f47a487	0.77985424
108	0xbe47aa94	-0.19498664
109	0xbe80c42f	-0.25149676
110	0xbefc8316	-0.4931876
111	0x3e2e162c	0.17000645
112	0xbe4d7de9	-0.20067562
113	0x3f4c9c07	0.7992558
114	0xbcc60f36	-0.024177175
115	0x3ef69cb7	0.4816644
116	0xbf2e9b85	-0.68206054
117	0x3e7e0b38	0.24808967
118	0xbf1724c2	-0.5904046
119	0x3e10c153	0.14136247
120	0xbdd2f36a	-0.10300334
121	0xbde1c9b7	-0.11024802
122	0xbed76f7c	-0.42077243
123	0xbf24ce22	-0.64377034
124	0x3f0d14a1	0.551096
125	0xbdf66d6e	-0.12032591
126	0x3eccc4fd	0.3999404
127	0x3d7158d0	0.05892259
128	0x3eae8904	0.3408891
129	0x3f0720f4	0.5278466
130	0x3c35c310	0.01109387
131	0x3f03ba75	0.51456386
132	0xbe592431	-0.21205212
133	0x3eee10fe	0.4649734
134	0x3f2dca07	0.67886394
135	0x3df1d6f1	0.11808575
136	0xbeae4f33	-0.340448
137	0xbda0610a	-0.07831009
138	0x3ebf6c1a	0.37387162
139	0xbea79e9a	-0.3273819
140	0x3ef75c64	0.48312676
141	0x3d4e3648	0.050344735
142	0xbf1d7883	-0.6151201
143	0xbd0d108e	-0.034439616
144	0x3e23240a	0.15931717
145	0x3ee5de12	0.4489599
146	0x3d22e73b	0.0397713
147	0x3e762a47	0.24039565
148	0x3ea33daf	0.31882998
149	0x3ee0a2f7	0.43874332
150	0xbd27f1af	-0.04100197
151	0x3c34ad43	0.011027637
152	0xbdba935f	-0.0911014
153	0xbe69b2af	-0.22822069
154	0x3d3060b5	0.043060977
155	0x3ea3c878	0.31988883
156	0x3d51d6ee	0.051230364
157	0x3e6c36ce	0.23067781
158	0x3e9be865	0.3045074
159	0x3e79a5b4	0.24379617
160	0x3c882ff5	0.01662443
161	0x3e82b3f7	0.25527927
162	0xbe95d6ba	-0.29265386
163	0x3e26758a	0.16255775
164	0xbd2386f4	-0.039923623
165	0xbf91d98a	-1.1394513
166	0xbdd6266f	-0.104565494
167	0x3f480ec4	0.7814753
168	0xbd4aff4c	-0.049559876
169	0xbe87bdd8	-0.26512027
170	0xbb5ff396	-0.0034172288
171	0x3c88c6a0	0.016696274
172	0x3f2a0621	0.664156
173	0xbd69d830	-0.057090938
174	0xbf0479db	-0.51748437
175	0xbf229dc3	-0.63521975
176	0xbf00cb47	-0.50310177
177	0xbe3613b7	-0.17780958
178	0x3ecd72ae	0.40126556
179	0xbf1c4816	-0.61047494
180	0xbd61b62b	-0.05510537
181	0xbf0a26b7	-0.53965324
182	0xbd072ddf	-0.03300273
183	0xbc070487	-0.0082408255
184	0xbe2b1690	-0.16707826
185	0xbf01659e	-0.5054568
186	0xbdca7be9	-0.09886915
187	0x3f8c3811	1.095461
188	0xbe752bcb	-0.23942487
189	0xbe3a19d6	-0.18173918
190	0xbe89430d	-0.26808968
191	0xbb1da3b5	-0.0024053876
192	0x3b4bc4d7	0.0031092667
193	0x3f176c2b	0.59149426
194	0x3d85b42f	0.06528508
195	0x3e3170e2	0.17328218
196	0x3e2c4162	0.16821817
197	0x3e36b538	0.17842567
198	0xbe5879cb	-0.2114021
199	0x3e25cc7d	0.16191287
200	0x3dbeac4a	0.09310205
201	0xbeaf9093	-0.3428999
202	0x3dac884a	0.084244326
203	0xbd98fa1a	-0.07469578
204	0x3ddb35e6	0.1070364
205	0xbe501b37	-0.20322882
206	0x3eac097a	0.3360098
207	0xbed2d1ee	-0.4117579
208	0xbf0bb427	-0.54571766
209	0x3cbb82dc	0.022889547
210	0xbdea44e0	-0.11438918
211	0x3e19d073	0.15020923
212	0xbe8ff4c9	-0.28116444
213	0x3e8a1355	0.26967874
214	0xbd95182b	-0.0728
215	0x3edc245f	0.429965
216	0xbe377674	-0.1791628
217	0x3f83b40a	1.0289319
218	0xbe4aa13f	-0.19788073
219	0xbdce019a	-0.10058899
220	0xbe871575	-0.26383558
221	0xbf00d789	-0.5032888
222	0x3e76101f	0.24029587
223	0x3e2c7e62	0.16845086
224	0x3b94d009	0.0045414013
225	0x3ed71035	0.42004552
226	0x3e5320b2	0.20617941
227	0xbe505289	-0.20343985
228	0x3e6cc0ec	0.23120469
229	0x3ee223c9	0.44167927
230	0x3f09d7fa	0.5384518
231	0xbe13beaa	-0.14428201
232	0xbf8216b9	-1.0163184
233	0x3e82909a	0.25500947
234	0xbe85da52	-0.26143128
235	0xbe69a5cc	-0.22817153
236	0xbeb7c317	-0.3589103
237	0xbd4bf7be	-0.049796812
238	0xbf32c1a1	-0.69826704
239	0x3e0dfd92	0.1386626
240	0x3db69ba0	0.08916402
241	0x3e041ece	0.12902376
242	0xbec080c7	-0.3759825
243	0xbe69fbee	-0.2285001
244	0x3daa0d95	0.08303372
245	0x3e965d78	0.29368186
246	0x3eb1f0d8	0.34754062
247	0xbe8e77c2	-0.27825743
248	0xbf1f9cb3	-0.6234848
249	0xbd309e81	-0.04311991
250	0x3e59df70	0.21276641
251	0xbecaa813	-0.39581355
252	0x3e8ca3ba	0.27468663
253	0xbe5726ed	-0.21010943
254	0x3edc3236	0.43007058
255	0x3cb0ceb5	0.02158294

network_body._body_endoder.seq_layers.0.bias f4 [128]
0	0x00000000	0.0
1	0x00000000	0.0
2	0x00000000	0.0
3	0x00000000	0.0
4	0x00000000	0.0
5	0x00000000	0.0
6	0x00000000	0.0
7	0x00000000	0.0
8	0x00000000	0.0
9	0x00000000	0.0
10	0x00000000	0.0
11	0x00000000	0.0
12	0x00000000	0.0
13	0x00000000	0.0
14	0x00000000	0.0
15	0x00000000	0.0
16	0x00000000	0.0
17	0x00000000	0.0
18	0x00000000	0.0
19	0x00000000	0.0
20	0x00000000	0.0
21	0x00000000	0.0
22	0x00000000	0.0
23	0x00000000	0.0
24	0x00000000	0.0
25	0x00000000	0.0
26	0x00000000	0.0
27	0x00000000	0.0
28	0x00000000	0.0
29	0x00000000	0.0
30	0x00000000	0.0
31	0x00000000	0.0
32	0x00000000	0.0
33	0x00000000	0.0
34	0x00000000	0.0
35	0x00000000	0.0
36	0x00000000	0.0
37	0x00000000	0.0
38	0x00000000	0.0
39	0x00000000	0.0
40	0x00000000	0.0
41	0x00000000	0.0
42	0x00000000	0.0
43	0x00000000	0.0
44	0x00000000	0.0
45	0x00000000	0.0
46	0x00000000	0.0
47	0x00000000	0.0
48	0x00000000	0.0
49	0x00000000	0.0
50	0x00000000	0.0
51	0x00000000	0.0
52	0x00000000	0.0
53	0x00000000	0.0
54	0x00000000	0.0
55	0x00000000	0.0
56	0x00000000	0.0
57	0x00000000	0.0
58	0x00000000	0.0
59	0x00000000	0.0
60	0x00000000	0.0
61	0x00000000	0.0
62	0x00000000	0.0
63	0x00000000	0.0
64	0x00000000	0.0
65	0x00000000	0.0
66	0x00000000	0.0
67	0x00000000	0.0
68	0x00000000	0.0
69	0x00000000	0.0
70	0x00000000	0.0
71	0x00000000	0.0
72	0x00000000	0.0
73	0x00000000	0.0
74	0x00000000	0.0
75	0x00000000	0.0
76	0x00000000	0.0
77	0x00000000	0.0
78	0x00000000	0.0
79	0x00000000	0.0
80	0x00000000	0.0
81	0x00000000	0.0
82	0x00000000	0.0
83	0x00000000	0.0
84	0x00000000	0.0
85	0x00000000	0.0
86	0x00000000	0.0
87	0x00000000	0.0
88	0x00000000	0.0
89	0x00000000	0.0
90	0x00000000	0.0
91	0x00000000	0.0
92	0x00000000	0.0
93	0x00000000	0.0
94	0x00000000	0.0
95	0x00000000	0.0
96	0x00000000	0.0
97	0x00000000	0.0
98	0x00000000	0.0
99	0x00000000	0.0
100	0x00000000	0.0
101	0x00000000	0.0
102	0x00000000	0.0
103	0x00000000	0.0
104	0x00000000	0.0
105	0x00000000	0.0
106	0x00000000	0.0
107	0x00000000	0.0
108	0x00000000	0.0
109	0x00000000	0.0
110	0x00000000	0.0
111	0x00000000	0.0
112	0x00000000	0.0
113	0x00000000	0.0
114	0x00000000	0.0
115	0x00000000	0.0
116	0x00000000	0.0
117	0x00000000	0.0
118	0x00000000	0.0
119	0x00000000	0.0
120	0x00000000	0.0
121	0x00000000	0.0
122	0x00000000	0.0
123	0x00000000	0.0
124	0x00000000	0.0
125	0x00000000	0.0
126	0x00000000	0.0
127	0x00000000	0.0

network_body._body_endoder.seq_layers.2.weight f4 [128, 128]
0	0xbcc0a58f	-0.023516444
1	0x3ca7e64a	0.020495553
2	0xbcd7f40f	-0.026361493
3	0x3b788e09	0.0037926456
4	0x3d399e60	0.045317054
5	0xbd91e6ba	-0.07124086
6	0xbd53acc2	-0.051678427
7	0xbc6bbfa4	-0.014388952
8	0x3d608a4e	0.054819398
9	0xbc8677e0	-0.016414583
10	0xbd9b4335	-0.07581178
11	0xbe33dc59	-0.17564525
12	0xbd9b5b33	-0.07585754
13	0x3d800ed3	0.062528275
14	0xbdac533d	-0.08414314
15	0x3d6e7377	0.058215585
16	0xbb7ea4b4	-0.0038855495
17	0x3e088e9d	0.13335653
18	0xbcd3c76e	-0.025851931
19	0xbe002d6b	-0.12517326
20	0x3de2482d	0.11048923
21	0x3d5c0ec0	0.053725004
22	0xbd3772cd	-0.044787217
23	0xbe49355d	-0.19649263
24	0xbcac3b49	-0.021024363
25	0x3de6546b	0.1124657
26	0x3d9e4424	0.077278405
27	0x3e4697d7	0.1939386
28	0x3d2cbec4	0.042174116
29	0x3d8f6056	0.070007965
30	0xbcc7e56b	-0.024401387
31	0xbd869a76	-0.0657243
32	0xbc8f7c1a	-0.01751523
33	0x3c3a355c	0.011365261
34	0xbdd38430	-0.10327947
35	0xbd7a652a	-0.061131634
36	0xbd572318	-0.052523702
37	0xbdd2a0ae	-0.102845535
38	0x3d9a6d64	0.07540396
39	0xbd5caf2a	-0.053877987
40	0xbdc2b644	-0.09507421
41	0x3d362944	0.044472948
42	0xbd9a8687	-0.0754519
43	0x3d55203f	0.052032705
44	0x3e4cc5f8	0.19997394
45	0xbe75e124	-0.24011666
46	0x3c80a67b	0.015704384
47	0x3b654d45	0.0034988683
48	0x3bc5a4a6	0.0060315905
49	0xbdb434ad	-0.087991096
50	0x3d23c752	0.03998501
51	0xbdcd2539	-0.10016865
52	0xbe1f4b53	-0.15556078
53	0x3c07a82c	0.008279841
54	0x3cb76e2a	0.022391398
55	0x3d916682	0.0709963
56	0xbd620c9b	-0.055187803
57	0x3c9690c2	0.018379573
58	0xbbec0781	-0.007203043
59	0xbddce855	-0.10786501
60	0x3d163ce0	0.03667915
61	0x3d831d71	0.064021
62	0xbd04c263	-0.032411944
63	0xbdbf5005	-0.093414344
64	0xbe0ddbc9	-0.13853373
65	0x3d7a050c	0.06103997
66	0x3cca85f4	0.024722077
67	0x3c286635	0.010278274
68	0xbd362d73	-0.044476938
69	0xbc622075	-0.013801684
70	0x3c2275c9	0.0099157775
71	0xbcf9fb55	-0.030515352
72	0x3dae532b	0.08511957
73	0x3b854a97	0.0040677297
74	0xbe71eaa5	-0.23624666
75	0xbcd4bcc4	-0.025968917
76	0x3d03bb66	0.03216114
77	0xbd8e2811	-0.06941236
78	0x3de35484	0.111001045
79	0x3e21f77f	0.15817069
80	0xbe2e4521	-0.17018558
81	0xbd62f494	-0.05540903
82	0xbd29ee1f	-0.041486856
83	0xbd661252	-0.056169815
84	0x3a2c71e1	0.00065782486
85	0xbe2b1953	-0.16708879
86	0x3d33262a	0.043737568
87	0xbd420105	-0.047364254
88	0xbe56ee7c	-0.20989412
89	0x3d5db59e	0.05412828
90	0xbc6198da	-0.013769353
91	0x3bc624b2	0.006046855
92	0xbe70d249	-0.23517717
93	0x3db3d1f1	0.087802775
94	0x3d30df0f	0.043181475
95	0x3dde7183	0.108614944
96	0xbd4fedf1	-0.050764028
97	0x3c3f9739	0.011693769
98	0x3de19e71	0.110165484
99	0xbc8f3b2a	-0.017484266
100	0xbda0e46d	-0.07856069
101	0xbd8a086e	-0.06739889
102	0xbba7a72a	-0.005116363
103	0xbd921e02	-0.0713463
104	0x3e183e96	0.14867625
105	0x3d57774b	0.052604
106	0xbdef1ef8	-0.11675829
107	0xbcf2e640	-0.029650807
108	0xbba3781a	-0.0049886825
109	0x3db701e4	0.089359075
110	0x3d91c653	0.071179055
111	0xbe314e30	-0.17314982
112	0xbd107d86	-0.03527596
113	0xbbf3d094	-0.007440636
114	0x3deebdc2	0.11657287
115	0x3c501713	0.012700814
116	0x3da25c29	0.079277344
117	0x3c956fd7	0.018241806
118	0xbc94605d	-0.018112356
119	0xbd0273ad	-0.0318486
120	0x3dda9ddb	0.1067464
121	0xbda56c36	-0.0807728
122	0xbd7502bf	-0.059817072
123	0x3e0d2d51	0.13786818
124	0xbd82b142	-0.063814655
125	0x3c44cd02	0.012011768
126	0xbd0b122a	-0.03395287
127	0xbce0b01a	-0.027427722
128	0xbd943ee4	-0.07238558
129	0x3db39eb0	0.087705016
130	0x3cb0407c	0.021515124
131	0xbd9a6e4b	-0.07540568
132	0xbd64ac11	-0.055828158
133	0xbd905679	-0.07047743
134	0x3c589d56	0.013221106
135	0xbd2bb93f	-0.04192471
136	0x3d1e78fc	0.0386896
137	0x3db094a0	0.08622098
138	0x3df9d83e	0.12199448
139	0x3da3d72f	0.080000274
140	0x3d5fdf60	0.054656386
141	0x3d579e76	0.052641355
142	0x3d5d345c	0.054005012
143	0xbdb811f1	-0.08987797
144	0x3ce77352	0.028253231
145	0xbc9b6e1f	-0.018973408
146	0xbd7e4cc6	-0.062084936
147	0xbb5e2d6e	-0.003390159
148	0x3d637893	0.05553491
149	0x3cf7e427	0.030260159
150	0xbc14ff57	-0.009094081
151	0xbc5925fa	-0.013253683
152	0x3dbc1701	0.09184075
153	0xbd053e47	-0.032530095
154	0x3e44c0ce	0.19214174
155	0xbc5bf77a	-0.013425702
156	0xbdd478cf	-0.10374605
157	0xbe12825b	-0.14307539
158	0xbddba5ed	-0.10725007
159	0xbe3b4c12	-0.18290737
160	0x3d4fdc58	0.050747246
161	0xbd62b8a6	-0.055351876
162	0xbdd0986a	-0.10185321
163	0x3c052d53	0.008128482
164	0x3df25f9a	0.11834641
165	0xbd349499	-0.044087026
166	0xbca8f9d3	-0.020626938
167	0xbdc01cfd	-0.09380529
168	0x3c81ce96	0.015845578
169	0xbda54d54	-0.0807139
170	0xbdab1b47	-0.08354812
171	0x3e2be806	0.16787729
172	0xbd10ce6e	-0.035353117
173	0xbd93f237	-0.07223933
174	0xbc009234	-0.007847358
175	0x3d0a3f2d	0.033751655
176	0xbd100f0c	-0.0351706
177	0x3d321d7a	0.043485142
178	0xbe485ad9	-0.19565906
179	0x3e1d4bb9	0.15360917
180	0x3e019a5e	0.12656543
181	0xbdbbd4f8	-0.0917148
182	0x3d82c018	0.06384295
183	0xbb0609a6	-0.0020452528
184	0xbdc4334a	-0.09580095
185	0x3dc91c80	0.09819889
186	0xbcb93c56	-0.022611778
187	0x3dc7f9c7	0.09764438
188	0xbd435415	-0.04768761
189	0xbc9bd2df	-0.01902145
190	0x3c1bb369	0.009503224
191	0xbe28d7a1	-0.16488506
192	0x3c54dfb2	0.012992786
193	0xbde17f2d	-0.11010585
194	0xbd8557d2	-0.06510891
195	0xbcb3b85b	-0.021938493
196	0xbd6f185a	-0.058372833
197	0xbe138d0c	-0.14409274
198	0xbdb9daa8	-0.090749085
199	0xbd0cbfc3	-0.034362566
200	0x3dc01cb2	0.09380473
201	0xbb8b2f0a	-0.004247551
202	0xbd8f2b1c	-0.06990644
203	0x3d413bcf	0.04717618
204	0x3db836c9	0.089948244
205	0x3d807350	0.06271994
206	0x3d0defb3	0.034652423
207	0x3e067e1c	0.13134044
208	0x3de6f72e	0.112776145
209	0x3d612e0c	0.054975554
210	0x3dafffe5	0.0859373
211	0x3dac969a	0.084271625
212	0xbde1633e	-0.11005257
213	0x3cd2720a	0.025689144
214	0x3e186f9d	0.14886327
215	0xbc66f297	-0.014095924
216	0x3dac54e0	0.08414626
217	0x3befc3f5	0.007317061
218	0xbd73b4ac	-0.059498474
219	0x3cb8b5a3	0.022547549
220	0x3e20cc0b	0.15702836
221	0xbca61237	-0.020272357
222	0xbb3b920c	-0.0028620986
223	0xbde4f0f8	-0.11178774
224	0xbcf1fb22	-0.029538695
225	0xbdd1d006	-0.102447554
226	0xbdc732e3	-0.09726503
227	0xbe2216a0	-0.15828943
228	0xbdfb4fce	-0.12271081
229	0xbdac9e8e	-0.084286794
230	0xbd025238	-0.03181669
231	0x3e030ae8	0.12797129
232	0xbd05ae93	-0.03263719
233	0xbe2ff466	-0.17183074
234	0xbdfa9ad0	-0.122365594
235	0xbd61b084	-0.05509998
236	0x3d18ddbd	0.03732084
237	0xbc836254	-0.016038097
238	0x3db97288	0.09055048
239	0x3dbaba9b	0.091176234
240	0x3d97fd32	0.0742134
241	0x3cfe6fae	0.031059112
242	0x3b30c0c1	0.002697036
243	0x3cb0cb65	0.021581361
244	0xbe1b8626	-0.15187892
245	0x3d07be8c	0.033140704
246	0xbd34ddf5	-0.044156987
247	0x3dab9ad3	0.0837914
248	0xbcc6ea54	-0.024281658
249	0x3af94674	0.0019018189
250	0x3cbe3866	0.023220252
251	0xbd84372f	-0.06455838
252	0x3deb8f9e	0.11502002
253	0x3d845500	0.06461525
254	0x3dba5670	0.09098518
255	0x3ccd4461	0.02505702

network_body._body_endoder.seq_layers.2.bias f4 [128]
0	0x00000000	0.0
1	0x00000000	0.0
2	0x00000000	0.0
3	0x00000000	0.0
4	0x00000000	0.0
5	0x00000000	0.0
6	0x00000000	0.0
7	0x00000000	0.0
8	0x00000000	0.0
9	0x00000000	0.0
10	0x00000000	0.0
11	0x00000000	0.0
12	0x00000000	0.0
13	0x00000000	0.0
14	0x00000000	0.0
15	0x00000000	0.0
16	0x00000000	0.0
17	0x00000000	0.0
18	0x00000000	0.0
19	0x00000000	0.0
20	0x00000000	0.0
21	0x00000000	0.0
22	0x00000000	0.0
23	0x00000000	0.0
24	0x00000000	0.0
25	0x00000000	0.0
26	0x00000000	0.0
27	0x00000000	0.0
28	0x00000000	0.0
29	0x00000000	0.0
30	0x00000000	0.0
31	0x00000000	0.0
32	0x00000000	0.0
33	0x00000000	0.0
34	0x00000000	0.0
35	0x00000000	0.0
36	0x00000000	0.0
37	0x00000000	0.0
38	0x00000000	0.0
39	0x00000000	0.0
40	0x00000000	0.0
41	0x00000000	0.0
42	0x00000000	0.0
43	0x00000000	0.0
44	0x00000000	0.0
45	0x00000000	0.0
46	0x00000000	0.0
47	0x00000000	0.0
48	0x00000000	0.0
49	0x00000000	0.0
50	0x00000000	0.0
51	0x00000000	0.0
52	0x00000000	0.0
53	0x00000000	0.0
54	0x00000000	0.0
55	0x00000000	0.0
56	0x00000000	0.0
57	0x00000000	0.0
58	0x00000000	0.0
59	0x00000000	0.0
60	0x00000000	0.0
61	0x00000000	0.0
62	0x00000000	0.0
63	0x00000000	0.0
64	0x00000000	0.0
65	0x00000000	0.0
66	0x00000000	0.0
67	0x00000000	0.0
68	0x00000000	0.0
69	0x00000000	0.0
70	0x00000000	0.0
71	0x00000000	0.0
72	0x00000000	0.0
73	0x00000000	0.0
74	0x00000000	0.0
75	0x00000000	0.0
76	0x00000000	0.0
77	0x00000000	0.0
78	0x00000000	0.0
79	0x00000000	0.0
80	0x00000000	0.0
81	0x00000000	0.0
82	0x00000000	0.0
83	0x00000000	0.0
84	0x00000000	0.0
85	0x00000000	0.0
86	0x00000000	0.0
87	0x00000000	0.0
88	0x00000000	0.0
89	0x00000000	0.0
90	0x00000000	0.0
91	0x00000000	0.0
92	0x00000000	0.0
93	0x00000000	0.0
94	0x00000000	0.0
95	0x00000000	0.0
96	0x00000000	0.0
97	0x00000000	0.0
98	0x00000000	0.0
99	0x00000000	0.0
100	0x00000000	0.0
101	0x00000000	0.0
102	0x00000000	0.0
103	0x00000000	0.0
104	0x00000000	0.0
105	0x00000000	0.0
106	0x00000000	0.0
107	0x00000000	0.0
108	0x00000000	0.0
109	0x00000000	0.0
110	0x00000000	0.0
111	0x00000000	0.0
112	0x00000000	0.0
113	0x00000000	0.0
114	0x00000000	0.0
115	0x00000000	0.0
116	0x00000000	0.0
117	0x00000000	0.0
118	0x00000000	0.0
119	0x00000000	0.0
120	0x00000000	0.0
121	0x00000000	0.0
122	0x00000000	0.0
123	0x00000000	0.0
124	0x00000000	0.0
125	0x00000000	0.0
126	0x00000000	0.0
127	0x00000000	0.0

action_model._continuous_distribution.log_sigma f4 [1, 2]
0	0x00000000	0.0
1	0x00000000	0.0

action_model._continuous_distribution.mu.weight f4 [2, 128]
0	0x3be169ca	0.006879066
1	0x3c56572a	0.013082305
2	0xbcc1a3e3	-0.023637718
3	0xbc0fe965	-0.008783673
4	0xbb91af77	-0.004445966
5	0x3c047e0f	0.008086695
6	0x3bad3d4b	0.0052868477
7	0xbbc15443	-0.0058999374
8	0x3ba67613	0.0050799935
9	0xbcb1fb65	-0.02172632
10	0xbcb2f175	-0.021843651
11	0x3c3c0e9f	0.011478095
12	0x3cf7501f	0.030189572
13	0xbc39de61	-0.011344523
14	0xb9eaf472	-0.00044814084
15	0xbbf457f0	-0.007456772
16	0x3c205bd8	0.009787522
17	0xbc39a457	-0.011330686
18	0xbc52bab3	-0.012861895
19	0x3c3ed191	0.011646644
20	0xbbed4d33	-0.007241869
21	0x3bb09472	0.00538879
22	0x3ccfd500	0.025370121
23	0x3acb178c	0.0015494688
24	0xbb978400	-0.00462389
25	0x3cce0682	0.025149588
26	0xbcb27b22	-0.02178723
27	0xbc69e92b	-0.014276783
28	0xbbf07650	-0.0073383227
29	0x3c1201a1	0.008911521
30	0x3a0e771b	0.0005434618
31	0x3cb387e8	0.021915391
32	0xbc8df3b2	-0.017328117
33	0xbc0dfc70	-0.008666143
34	0xbcb4c6f2	-0.02206752
35	0xbca15b82	-0.019696955
36	0x3c880394	0.016603269
37	0xbbfad4ad	-0.0076547475
38	0xbb8eee9a	-0.0043619396
39	0x3d33d473	0.04390378
40	0x3d0341ef	0.0320453
41	0x3c85c358	0.016328499
42	0xbc62da0b	-0.013845931
43	0xbcf140a2	-0.029449765
44	0x3cae3079	0.021263348
45	0x3b933b3a	0.0044931443
46	0x3c70ef7a	0.014705533
47	0xbc0d08a4	-0.008608017
48	0x3ca40ce8	0.020025685
49	0xbcd1439f	-0.02554494
50	0xbc2deb66	-0.010615205
51	0xbc0185bf	-0.007905423
52	0xbc291264	-0.010319326
53	0x3ae068fd	0.0017121133
54	0xbc7404b7	-0.014893702
55	0x3c72c4b2	0.014817404
56	0x3b25ee46	0.0025319024
57	0xb99cf4db	-0.0002993707
58	0x3c20b65d	0.009809104
59	0xbd2dd0c7	-0.042435434
60	0x3cc01106	0.023445617
61	0xbc4632d0	-0.012097076
62	0xbae82d47	-0.0017713689
63	0xbcbc07de	-0.02295297
64	0xbb5b7f8d	-0.0033492774
65	0x3c73287d	0.014841196
66	0x3c67f61d	0.014157799
67	0xbc6421b3	-0.01392405
68	0x3bcee3c8	0.0063137747
69	0xbcf016d0	-0.029307753
70	0x3c0aa911	0.00846316
71	0xbc575ef0	-0.013145193
72	0xbc34661f	-0.011010676
73	0xbc4ae49d	-0.012383607
74	0xbc1bf30e	-0.009518398
75	0x3c95dc6e	0.018293586
76	0x3bd0c1d3	0.006370762
77	0x3a10518a	0.00055053143
78	0x3c602efa	0.013683075
79	0x3b872c79	0.0041251746
80	0x3c48a087	0.012245304
81	0xbd240997	-0.040048208
82	0xbc3ba010	-0.011451736
83	0xbb7bdde7	-0.0038431825
84	0x3a61fe95	0.00086210045
85	0x3bdb51e2	0.006693111
86	0x3b874a17	0.0041287052
87	0x3ae12fba	0.0017180361
88	0x3c6e1e2d	0.014533562
89	0xbcb5cfeb	-0.02219387
90	0xbb8c3094	-0.004278252
91	0xbcb2c6dc	-0.02182334
92	0xbc566b82	-0.013087155
93	0x3c0ac76d	0.008470398
94	0xbb7666ea	-0.0037597963
95	0xbbebe627	-0.007199067
96	0x3ce324b5	0.027727464
97	0x3cb35d14	0.021894969
98	0xbc45491e	-0.012041358
99	0x3cd7da1b	0.026349118
100	0xbc9568cf	-0.018238453
101	0xbbdb4abf	-0.00669226
102	0xbbba4773	-0.005684787
103	0xbc2a1eb2	-0.010383295
104	0xbcb0f7b3	-0.021602487
105	0x3c44642b	0.0119867725
106	0xbcd57a27	-0.026059223
107	0x3b9e0478	0.00482231
108	0xb9bb1c37	-0.0003568844
109	0x3ba3a078	0.0049934946
110	0x3ca301f3	0.01989839
111	0xbcea928d	-0.028634334
112	0xbc0792cc	-0.008274745
113	0x3b231b74	0.002488819
114	0xbca7e55f	-0.020495115
115	0xbc1abbb2	-0.009444164
116	0x3b9ff0bf	0.004880994
117	0xbb2e69cc	-0.0026613353
118	0xbc44dc40	-0.012015402
119	0x3bf95dbf	0.0076100524
120	0x3af24b1b	0.0018485518
121	0x3b3f877b	0.002922504
122	0x3c402316	0.011727115
123	0xbc41c4f3	-0.0118267415
124	0x3c93484e	0.017978813
125	0xbcf45e65	-0.029830167
126	0x3cb10c8f	0.021612434
127	0x3c92f3d9	0.017938541
128	0xbb1c7a63	-0.002387666
129	0xbaf3ad02	-0.0018590989
130	0xbd0b8655	-0.034063656
131	0x3b2e8ec9	0.00266354
132	0x3c49555b	0.012288417
133	0xbce1e853	-0.027576601
134	0xbc24c94f	-0.010057761
135	0x3a90f066	0.0011057972
136	0xbb7a8c45	-0.003823058
137	0xbb9ff8b2	-0.0048819417
138	0xbc9d0f2b	-0.019172272
139	0x3c774f85	0.0150946425
140	0x3b956361	0.004558966
141	0x3cf1fe62	0.029540244
142	0x3ca2103d	0.019783134
143	0x3b699a6d	0.0035645023
144	0xb78bc203	-1.6660435e-05
145	0x3c970fd4	0.018440165
146	0x3b4521be	0.0030079926
147	0x3c81aaef	0.015828578
148	0xbb84a23b	-0.0040476597
149	0x3c285cc7	0.010276026
150	0x3a9355b5	0.0011240753
151	0x3c6582d7	0.014008245
152	0xbb38ed6b	-0.0028217684
153	0x3d02929f	0.03187811
154	0xbcc98f86	-0.02460457
155	0xbc813316	-0.01577143
156	0x3bdb6053	0.0066948324
157	0xbb6f574a	-0.0036520534
158	0xbacb8587	-0.0015527465
159	0xbbe21bcd	-0.006900287
160	0x3d08d65c	0.033407554
161	0x3c16a402	0.009194376
162	0x3ce35b3d	0.027753467
163	0x3c024a28	0.007952251
164	0x3c07b693	0.008283275
165	0xbcb25038	-0.021766767
166	0xbcee0be3	-0.029058402
167	0x3c9e6088	0.019333139
168	0x3c3460ee	0.011009438
169	0xbcc2cf27	-0.023780419
170	0x3c895c4e	0.016767647
171	0x3c91b3b3	0.017785883
172	0x3cab513f	0.020912765
173	0xbcb3c21c	-0.021943145
174	0x3c64ef25	0.013973032
175	0x3c90b3d3	0.017663872
176	0x3cdfd99b	0.027325442
177	0xbb12597b	-0.0022331167
178	0x3c1244a5	0.008927499
179	0xbc21691a	-0.009851718
180	0xbbab07a2	-0.0052194158
181	0xbc33bc53	-0.010970193
182	0x3d09d5ff	0.03365135
183	0x3ccb8833	0.024845218
184	0x3ce7eb2d	0.028310383
185	0x3bf74847	0.007546458
186	0x3b09ebdc	0.0021045124
187	0xbbb3e0db	-0.0054894513
188	0x3c951bae	0.018201675
189	0x3c638e7f	0.013888954
190	0x3c0d8af6	0.008639088
191	0x3d0514be	0.032490484
192	0xbcca72cb	-0.02471294
193	0xbc15ba0e	-0.009138597
194	0x3a767eb7	0.0009403037
195	0xbc5a708d	-0.013332498
196	0x3b2a2a90	0.002596531
197	0x3bb035ea	0.005377521
198	0xbc2ea196	-0.010658642
199	0xbbd0b25f	-0.0063689197
200	0x3cf40f32	0.029792402
201	0xbd11e040	-0.035614252
202	0x3a9e6f8c	0.0012087687
203	0xbbc24661	-0.0059288
204	0x3ae598b8	0.0017516827
205	0xbc559b13	-0.013037461
206	0x3b90eb02	0.0044225464
207	0x3b93d6df	0.0045116986
208	0x3cb9acaa	0.02266534
209	0xbbf32bc8	-0.0074209906
210	0x3c70c2dd	0.0146948965
211	0xbca6eb31	-0.02037582
212	0x3bd450f2	0.006479376
213	0x3c2b84da	0.010468686
214	0x3bc06457	0.0058713364
215	0x3c18ec42	0.009333672
216	0x3afac265	0.001913142
217	0x3cdd4312	0.02700952
218	0x3bf0b24b	0.007345473
219	0x3c47db15	0.012198229
220	0xbcdd9722	-0.027049605
221	0xbca75805	-0.020427713
222	0x3c89be5b	0.016814401
223	0xbc7ff487	-0.015622265
224	0xbc6b609b	-0.014366294
225	0x3c24f318	0.010067724
226	0xbc89ad87	-0.016806377
227	0x3cadd109	0.02121784
228	0x3c464577	0.012101523
229	0xbc70d15d	-0.014698354
230	0xbc50b91a	-0.012739444
231	0xbccf9905	-0.02534152
232	0xbd2610bb	-0.0405433
233	0x3cdb8e7f	0.026801346
234	0x3c1c2f46	0.009532755
235	0xbbf67263	-0.00752096
236	0xbc521783	-0.012822988
237	0x3d01e2a3	0.03171028
238	0x3c7055eb	0.014668922
239	0xbd349164	-0.044083968
240	0x3d120619	0.035650346
241	0x3c3decad	0.011592072
242	0x3c04c43b	0.008103426
243	0xbc5d57d8	-0.013509713
244	0x3b56a5c8	0.0032752622
245	0x3b06ffac	0.002059917
246	0xbc931b5b	-0.01795738
247	0xba5fefcd	-0.0008542508
248	0xb9ff8712	-0.00048738025
249	0x3c155c07	0.009116179
250	0xbcd6f120	-0.026238024
251	0xbc1ed0c1	-0.0096933255
252	0x3c9112ae	0.017709102
253	0xbc7ad02a	-0.015308419
254	0xbbaab688	-0.0052097477
255	0xbb8b55b9	-0.0042521623

action_model._continuous_distribution.mu.bias f4 [2]
0	0x00000000	0.0
1	0x00000000	0.0

network_body._body_endoder.seq_layers.0.weight f4 [128, 8]
0	0x3f09088d	0.5352867
1	0x3de0e445	0.10981039
2	0x3e28ec44	0.16496378
3	0x3e23383b	0.15939419
4	0x3db9aa68	0.090657055
5	0xbeedacb0	-0.46420813
6	0x3ea17dc0	0.31541252
7	0x3f0e5d83	0.5561144
8	0xbe31ece9	-0.1737553
9	0x3e8dd368	0.27700353
10	0xbe5ff774	-0.2187174
11	0x3ebf476c	0.37359178
12	0xbebeabe0	-0.37240505
13	0x3ecd19c5	0.40058723
14	0xbf1f5653	-0.62241095
15	0x3e9221a3	0.28541288
16	0xbe9d89e7	-0.30769274
17	0xbe26e359	-0.16297664
18	0xbfb55937	-1.4167851
19	0x3e7576c3	0.23971085
20	0xbdfd1417	-0.123573475
21	0x3d9fa64a	0.07795389
22	0xbe9b38cb	-0.30316767
23	0x3db9ee42	0.09078647
24	0x3db92e54	0.090420395
25	0x3e2b2376	0.16712746
26	0xbef63160	-0.48084545
27	0x3e5dd16a	0.21661916
28	0x3e4ce29a	0.20008317
29	0xbf43a410	-0.76422215
30	0xbeaaf8a1	-0.33392814
31	0x3e8fcd51	0.2808633
32	0x3dd79dfb	0.10528179
33	0x3f321852	0.6956836
34	0x3ef52c62	0.47885424
35	0x3ee0881b	0.4385384
36	0xbe121235	-0.14264758
37	0xbe63546c	-0.22200173
38	0x3f1c8a4e	0.61148536
39	0x3e1fe147	0.1561328
40	0x3d88beca	0.06677015
41	0xbe2e07de	-0.16995189
42	0xbd9294b3	-0.071572684
43	0x3e003dd6	0.12523589
44	0xbdf2cd9e	-0.118556246
45	0x3dcc61b0	0.0997957
46	0xbf043f9e	-0.5165957
47	0x3e8681f8	0.26271033
48	0xbf0201b5	-0.50783855
49	0xbe09a942	-0.13443473
50	0x3ee1427b	0.43996033
51	0x3ed7b65f	0.42131326
52	0xbe962d00	-0.29331207
53	0xbecc47a2	-0.39898401
54	0xbe0d14b9	-0.13777436
55	0xbe92014d	-0.28516617
56	0xbd8a4cbd	-0.06752918
57	0x3e55a1a9	0.2086245
58	0x3e8d909e	0.27649397
59	0x3e3369ed	0.17520876
60	0xbe94f910	-0.2909627
61	0x3e9939ac	0.29926813
62	0xbeaefddb	-0.3417805
63	0xbe8d33de	-0.27578634
64	0xbe6f3f89	-0.2336408
65	0xbe2bf2d7	-0.16791855
66	0xbf6a15f2	-0.91439736
67	0x3e74b819	0.23898353
68	0xbfa9355e	-1.3219411
69	0xbe87be77	-0.265125
70	0x3db944c3	0.090463184
71	0xbe855604	-0.26042187
72	0x3f39a058	0.7251029
73	0xbf2c8eb7	-0.67405266
74	0xbf22bde1	-0.6357098
75	0xbe197794	-0.14987022
76	0xbe277a71	-0.16355301
77	0x3ed68782	0.4190026
78	0xbd80b1a2	-0.06283881
79	0x3e95632c	0.29177225
80	0xbeda212c	-0.42603433
81	0x3e335bae	0.17515442
82	0x3d31955a	0.043355323
83	0xbee292d0	-0.44252634
84	0x3d528a38	0.051401347
85	0x3e862dc6	0.26206797
86	0xbf02d352	-0.511037
87	0x3d5e567b	0.054281693
88	0xbedbdff0	-0.42944288
89	0xbf249d4d	-0.6430252
90	0xbf072d5a	-0.52803576
91	0xbec09704	-0.37615216
92	0x3f534d9a	0.82540286
93	0xbf0b3685	-0.54380065
94	0xbe149803	-0.14511113
95	0xbe8d3577	-0.27579853
96	0x3f39e03e	0.7260779
97	0x3f06ad11	0.5260783
98	0xbe929e1e	-0.2863626
99	0xbe29a5a4	-0.16567093
100	0xbd19e773	-0.037574243
101	0xbe34afbb	-0.17645161
102	0x3d1f33a7	0.03886762
103	0x3ecef6c5	0.40422645
104	0x3e9c0e4d	0.3047966
105	0x3e917616	0.28410405
106	0xbea7a50e	-0.32743114
107	0x3e3cf61d	0.1845326
108	0xbe0a0ef0	-0.1348226
109	0xbdc45a50	-0.09587538
110	0xbf8f8e13	-1.1215233
111	0x3e489e56	0.1959165
112	0x3ea39b99	0.3195465
113	0x3c0df149	0.008663484
114	0xbeaa2127	-0.33228418
115	0x3e8c56d8	0.27410007
116	0xbed81ebe	-0.42210954
117	0xbdced08f	-0.10098373
118	0x3dc29d94	0.09502712
119	0x3f6718da	0.90272295
120	0xbe36a750	-0.17837262
121	0x3cfae964	0.030628867
122	0xbda6e4c6	-0.08149104
123	0xbdd9945c	-0.106240004
124	0xbe61de31	-0.22057416
125	0x3f0d25b5	0.5513566
126	0x3f2117f4	0.62927175
127	0xbe4e3092	-0.20135716
128	0x3f05c785	0.5225757
129	0x3e1f8f3e	0.15581986
130	0x3f0afc65	0.54291373
131	0xbeb3e05d	-0.35132113
132	0xbd657c52	-0.056026764
133	0xbcf16db5	-0.029471258
134	0x3e110c19	0.14164771
135	0x3d9d7035	0.076874174
136	0x3ef26496	0.47342366
137	0x3d613566	0.054982565
138	0x3cbd6e4f	0.023123888
139	0xbe46fc9a	-0.19432297
140	0x3d95196c	0.072802395
141	0x3f17e19f	0.59328645
142	0xbce5b311	-0.028039487
143	0xbe0033ae	-0.12519714
144	0xbe468bae	-0.19389221
145	0xbe429a60	-0.19004202
146	0x3f0659e1	0.52480894
147	0xbf0378f4	-0.51356435
148	0xbf37f6e3	-0.71861094
149	0x3e76ef1a	0.24114648
150	0xbe6478fc	-0.22311777
151	0x3f409049	0.7522016
152	0x3e91c9a2	0.28474146
153	0x3eda1735	0.4259583
154	0x3de7c02d	0.113159515
155	0x3e589f53	0.21154527
156	0x3edf05fa	0.43559247
157	0xbf2bf2da	-0.6716744
158	0xbe1df284	-0.15424544
159	0xbefe9b76	-0.49727982
160	0xbe855075	-0.26037946
161	0x3e545a97	0.20737682
162	0xbe56582a	-0.2093207
163	0xbce5115c	-0.02796238
164	0xbf02c3a1	-0.51079756
165	0x3ec9a33b	0.39382347
166	0x3d0f3bca	0.03496913
167	0xbeedbf14	-0.46434844
168	0x3d399f7c	0.04531811
169	0x3e7442d7	0.23853622
170	0x3ece9579	0.40348414
171	0xbbbf370d	-0.00583542
172	0xbe84c43e	-0.2593097
173	0x3ea6c19b	0.32569584
174	0xbed20258	-0.41017413
175	0x3bdeb0ff	0.006796002
176	0x3e38f5ff	0.1806259
177	0xbeb51e1d	-0.35374537
178	0x3e90f214	0.2830969
179	0x3f556c57	0.8336844
180	0x3d1c42ed	0.038149763
181	0xbe078bea	-0.13236967
182	0xbf72e85e	-0.94885814
183	0x3ecd67cc	0.40118253
184	0xbeb118c8	-0.3458922
185	0xbe2c734d	-0.16840859
186	0x3e79d435	0.24397357
187	0x3f5ae47b	0.85504884
188	0xbef27409	-0.47354153
189	0xbe813a2c	-0.25239694
190	0x3e747412	0.23872402
191	0x3cf6ad59	0.030111955
192	0xbe1ce7d4	-0.1532281
193	0xbf3aab29	-0.7291742
194	0xbde5eadc	-0.112264365
195	0x3df5e172	0.12005891
196	0x3dbe511f	0.09292816
197	0x3ef4a6c4	0.47783482
198	0x3dd81d48	0.1055246
199	0xbedd4783	-0.43218622
200	0x3e56f59b	0.20992129
201	0x3e0213bb	0.12702839
202	0x3ec782cd	0.3896698
203	0x3ec00401	0.37503055
204	0xbf04a525	-0.5181449
205	0xbe4b967b	-0.19881622
206	0x3e9ba077	0.30395862
207	0x3e86237c	0.26198947
208	0xbf0215ac	-0.5081432
209	0x3e499e0f	0.19689201
210	0xbeae3d24	-0.34031022
211	0xbedc3fe6	-0.430175
212	0x3f55bb83	0.83489245
213	0x3f262e05	0.6491397
214	0x3e2fb5d6	0.17159209
215	0xbe7036bc	-0.2345838
216	0xbf3aaf1b	-0.7292344
217	0x3e2f8ed5	0.1714433
218	0xbe13e3cf	-0.14442371
219	0x3c686e21	0.014186413
220	0x3d0f595f	0.03499734
221	0xbc93b9fb	-0.018033018
222	0x3aea065c	0.0017854678
223	0xbc3a9df8	-0.011390202
224	0x3e3d18b6	0.18466458
225	0x3e7c2408	0.2462312
226	0x3e85e482	0.261509
227	0x3e460d43	0.19340996
228	0x3d0ccefc	0.034377083
229	0xbe33a7bb	-0.17544453
230	0xbe6de763	-0.23232798
231	0x3ebffe54	0.37498724
232	0xbdd1837f	-0.10230159
233	0xbcc3bbff	-0.023893354
234	0xbea2637d	-0.3171653
235	0xbf583cfa	-0.8446804
236	0xbcabe31c	-0.020982318
237	0xbe53f8f0	-0.20700431
238	0xbe231fa3	-0.15930037
239	0xbec37922	-0.38178355
240	0x3d4ecaf9	0.05048654
241	0xbcb65ebb	-0.022261968
242	0xbda874cb	-0.082254015
243	0xbed3c6e6	-0.41362685
244	0xbeb7c174	-0.3588978
245	0xbf03bfac	-0.51464343
246	0xbe7cc7fa	-0.2468566
247	0xbcd35a86	-0.0258
248	0x3d895a22	0.067066446
249	0xbf658224	-0.89651704
250	0x3f22cd5b	0.635946
251	0x3d2218d9	0.039574478
252	0x3e1f5cd6	0.15562758
253	0xbf384400	-0.7197876
254	0x3e10ccd5	0.14140637
255	0xbe34a96d	-0.17642756

network_body._body_endoder.seq_layers.0.bias f4 [128]
0	0x00000000	0.0
1	0x00000000	0.0
2	0x00000000	0.0
3	0x00000000	0.0
4	0x00000000	0.0
5	0x00000000	0.0
6	0x00000000	0.0
7	0x00000000	0.0
8	0x00000000	0.0
9	0x00000000	0.0
10	0x00000000	0.0
11	0x00000000	0.0
12	0x00000000	0.0
13	0x00000000	0.0
14	0x00000000	0.0
15	0x00000000	0.0
16	0x00000000	0.0
17	0x00000000	0.0
18	0x00000000	0.0
19	0x00000000	0.0
20	0x00000000	0.0
21	0x00000000	0.0
22	0x00000000	0.0
23	0x00000000	0.0
24	0x00000000	0.0
25	0x00000000	0.0
26	0x00000000	0.0
27	0x00000000	0.0
28	0x00000000	0.0
29	0x00000000	0.0
30	0x00000000	0.0
31	0x00000000	0.0
32	0x00000000	0.0
33	0x00000000	0.0
34	0x00000000	0.0
35	0x00000000	0.0
36	0x00000000	0.0
37	0x00000000	0.0
38	0x00000000	0.0
39	0x00000000	0.0
40	0x00000000	0.0
41	0x00000000	0.0
42	0x00000000	0.0
43	0x00000000	0.0
44	0x00000000	0.0
45	0x00000000	0.0
46	0x00000000	0.0
47	0x00000000	0.0
48	0x00000000	0.0
49	0x00000000	0.0
50	0x00000000	0.0
51	0x00000000	0.0
52	0x00000000	0.0
53	0x00000000	0.0
54	0x00000000	0.0
55	0x00000000	0.0
56	0x00000000	0.0
57	0x00000000	0.0
58	0x00000000	0.0
59	0x00000000	0.0
60	0x00000000	0.0
61	0x00000000	0.0
62	0x00000000	0.0
63	0x00000000	0.0
64	0x00000000	0.0
65	0x00000000	0.0
66	0x00000000	0.0
67	0x00000000	0.0
68	0x00000000	0.0
69	0x00000000	0.0
70	0x00000000	0.0
71	0x00000000	0.0
72	0x00000000	0.0
73	0x00000000	0.0
74	0x00000000	0.0
75	0x00000000	0.0
76	0x00000000	0.0
77	0x00000000	0.0
78	0x00000000	0.0
79	0x00000000	0.0
80	0x00000000	0.0
81	0x00000000	0.0
82	0x00000000	0.0
83	0x00000000	0.0
84	0x00000000	0.0
85	0x00000000	0.0
86	0x00000000	0.0
87	0x00000000	0.0
88	0x00000000	0.0
89	0x00000000	0.0
90	0x00000000	0.0
91	0x00000000	0.0
92	0x00000000	0.0
93	0x00000000	0.0
94	0x00000000	0.0
95	0x00000000	0.0
96	0x00000000	0.0
97	0x00000000	0.0
98	0x00000000	0.0
99	0x00000000	0.0
100	0x00000000	0.0
101	0x00000000	0.0
102	0x00000000	0.0
103	0x00000000	0.0
104	0x00000000	0.0
105	0x00000000	0.0
106	0x00000000	0.0
107	0x00000000	0.0
108	0x00000000	0.0
109	0x00000000	0.0
110	0x00000000	0.0
111	0x00000000	0.0
112	0x00000000	0.0
113	0x00000000	0.0
114	0x00000000	0.0
115	0x00000000	0.0
116	0x00000000	0.0
117	0x00000000	0.0
118	0x00000000	0.0
119	0x00000000	0.0
120	0x00000000	0.0
121	0x00000000	0.0
122	0x00000000	0.0
123	0x00000000	0.0
124	0x00000000	0.0
125	0x00000000	0.0
126	0x00000000	0.0
127	0x00000000	0.0

network_body._body_endoder.seq_layers.2.weight f4 [128, 128]
0	0x3d5a20ae	0.053253822
1	0xbdeecb91	-0.11659921
2	0x3deff015	0.11715714
3	0xbd4dd430	-0.050251186
4	0xbd6f0ecb	-0.058363717
5	0x3de53f1e	0.11193679
6	0x3cb4b414	0.022058524
7	0xbded4ddd	-0.11587117
8	0xbcb210ce	-0.021736529
9	0xbc2f961a	-0.010716939
10	0x3d82e17b	0.06390663
11	0xbd2104c5	-0.03931119
12	0x3d6fbb0e	0.058528
13	0x3da8c0e2	0.082399145
14	0xbdfb9d38	-0.122858465
15	0x3dd3415e	0.10315202
16	0xbdaac333	-0.083380125
17	0x3d8c61cc	0.06854591
18	0x3d16eed9	0.036848877
19	0x3e8314bb	0.25601754
20	0x3de9ea0f	0.11421596
21	0x3e0e15bf	0.13875483
22	0xbc0146d4	-0.007890422
23	0xbe01eb57	-0.12687431
24	0xbda1e884	-0.07905677
25	0xbaddbcef	-0.0016917269
26	0x3e25c63c	0.16188902
27	0xbd96870a	-0.073499754
28	0xbd951286	-0.07278924
29	0xbcbb752d	-0.022883022
30	0x3c0e133f	0.008671581
31	0x3e15f379	0.14643659
32	0xbd3c593c	-0.045983538
33	0xbc02701e	-0.007961301
34	0xbdd16a6f	-0.10225379
35	0x3dc41d63	0.095759176
36	0xbcb238c0	-0.021755576
37	0x3d81391f	0.06309723
38	0x3d9b8a2d	0.07594714
39	0x3d2ed6da	0.042685367
40	0xbdd7746d	-0.10520253
41	0xbce95218	-0.028481528
42	0x3d23b5c5	0.03996827
43	0x3e1ab26e	0.15107128
44	0xbd2b2f53	-0.04179318
45	0xbcbbd3a0	-0.02292806
46	0xbe2929b9	-0.16519822
47	0x3db0776d	0.08616529
48	0x3e2a2e3c	0.166192
49	0x3bfe3831	0.0077581634
50	0xbd9c8ae1	-0.076436765
51	0x3ddfd8f7	0.10930055
52	0xbc9623db	-0.018327644
53	0xbe6b2f75	-0.22967322
54	0xba4b4cbe	-0.0007755271
55	0xbdab492d	-0.083635665
56	0x3e25c9a4	0.16190201
57	0x3d93e918	0.072221935
58	0x3da28232	0.07934989
59	0x3c1dc519	0.009629511
60	0x3c9213c6	0.017831694
61	0x3cc281ab	0.023743471
62	0x3d20c00d	0.039245654
63	0xbc8df208	-0.017327324
64	0xbe3d621d	-0.18494458
65	0xbe6c326a	-0.23066106
66	0xbd2b5615	-0.04183014
67	0x3dc166f7	0.09443467
68	0x3dd79582	0.10526563
69	0xbb4337a2	-0.0029787798
70	0x3c0be010	0.008537307
71	0xbdfdfa02	-0.12401201
72	0x3e58e521	0.21181156
73	0xbe145875	-0.14486869
74	0x3ded7d1d	0.11596129
75	0xbdeb5b52	-0.11492027
76	0xbda2c2cd	-0.079473116
77	0x3c6e223b	0.014534528
78	0x3df74416	0.12073533
79	0x3d40bb93	0.047053885
80	0xbd9cb64b	-0.07651957
81	0xbd04dc50	-0.03243667
82	0x3c0ef089	0.00872434
83	0x3cc8bd80	0.024504423
84	0xbe6e0858	-0.2324537
85	0xbdce8063	-0.100830816
86	0x3e538bbc	0.20658773
87	0x3d3c5a36	0.04598447
88	0xbcffdf37	-0.031234367
89	0x3d4417cb	0.047874253
90	0xbc4e2035	-0.012580921
91	0xbd1e89c2	-0.038705595
92	0xbe0c5595	-0.13704522
93	0xbc52ba9f	-0.012861877
94	0x3e2eef53	0.17083482
95	0xbb90fd91	-0.0044247587
96	0x3e1ef5b4	0.15523416
97	0xbb4317ca	-0.0029768818
98	0x3c0b1ef4	0.0084912665
99	0xbd1cd429	-0.03828827
100	0xbcc5ebc3	-0.024160272
101	0xbce01668	-0.027354434
102	0x3dca527d	0.09879015
103	0xbc4c8587	-0.012483007
104	0x3d4496f9	0.04799554
105	0x3d68db6f	0.056849893
106	0x3d963caa	0.073357895
107	0xbb7bcda2	-0.0038422127
108	0xbdaef572	-0.08542909
109	0x3da6d060	0.08145213
110	0xbcb26b74	-0.021779753
111	0x3d159ae3	0.036524665
112	0x3c5e94d0	0.013585284
113	0x3d9b00ee	0.07568537
114	0x3d91c900	0.07118416
115	0xbdaf1b56	-0.08550136
116	0x3d0a9f24	0.033843175
117	0xbd391474	-0.04518552
118	0x3cc2afe2	0.023765508
119	0xbcf10cc8	-0.02942504
120	0xbd4b0ea5	-0.049574513
121	0xbc1c7c26	-0.009551084
122	0x3d49003a	0.04907248
123	0x3bd07e60	0.0063627213
124	0xbd3b6100	-0.045746803
125	0x3c944ffd	0.018104548
126	0x3e591543	0.21199517
127	0xbd91064d	-0.0708128
128	0x3da019f1	0.07817448
129	0x3d076840	0.033058405
130	0xbd98ce12	-0.0746118
131	0x3df4ace0	0.11947036
132	0xbdc5d524	-0.09659794
133	0x3c2daefc	0.010600802
134	0xbcb10531	-0.02160892
135	0xbc3c317a	-0.0114864055
136	0xbe0b2e26	-0.13591823
137	0x3e2ef10a	0.17084137
138	0xbd7751d5	-0.060380775
139	0xbdf52c71	-0.11971367
140	0x3da04347	0.07825332
141	0x3cf1010e	0.029419448
142	0x3dbb9f74	0.09161273
143	0x3b42a313	0.002969925
144	0x3dbe6b8b	0.09297856
145	0xbde8b33b	-0.113623105
146	0x3d88b111	0.06674398
147	0x3d128ec9	0.0357807
148	0x3a4c9270	0.00078038033
149	0x3c72a201	0.014809133
150	0x3e0ce466	0.13759002
151	0x3e2f92d5	0.17145856
152	0xba3c331f	-0.00071792485
153	0xbdae076f	-0.084975116
154	0x3d6f40f7	0.058411565
155	0x3d97aa4e	0.0740553
156	0xbcdd7919	-0.027035283
157	0xbd0c5a1a	-0.034265615
158	0xbc39e826	-0.011346852
159	0xbb1f862e	-0.0024341452
160	0xbd253031	-0.040329162
161	0x3dae38ff	0.08506965
162	0xbdb3fe46	-0.08788733
163	0xbd873194	-0.06601253
164	0x3b8ec36c	0.004356792
165	0x3d798bf0	0.06092447
166	0xbd6eccc3	-0.058300745
167	0xbd6dedc2	-0.05808807
168	0xbb564273	-0.0032693415
169	0xbcfe6657	-0.031054659
170	0x3d992fd2	0.07479824
171	0x3db99080	0.09060764
172	0xbc8273c4	-0.015924342
173	0x3e2821cc	0.16419142
174	0x3cebbd3a	0.028776754
175	0x3cf7cf6a	0.03025027
176	0x3d23e14c	0.04000978
177	0x3d01f750	0.031729996
178	0xbdee8504	-0.116464645
179	0xbbdbc312	-0.006706604
180	0xbe07f501	-0.13277055
181	0x3e12d514	0.14339095
182	0xbe2e0e49	-0.16997637
183	0x3bebc67d	0.0071952925
184	0xbc511301	-0.012760879
185	0xbd9d9ae6	-0.0769556
186	0x3e152834	0.14566118
187	0xbdc053d0	-0.09390986
188	0xbd2431d9	-0.0400866
189	0x3d9ed573	0.07755556
190	0xbd969956	-0.07353465
191	0xb9dd7ad1	-0.0004224391
192	0xbac169d1	-0.0014756267
193	0xbe25932a	-0.1616942
194	0xbe0fa413	-0.14027433
195	0x3da888b7	0.08229201
196	0xbdd02bc9	-0.10164601
197	0x3d998927	0.07496863
198	0x3da3a834	0.079910666
199	0x3cc3b3b2	0.023889396
200	0xbb9d9c32	-0.0048098797
201	0x3dd0d766	0.10197334
202	0xbc62bbd8	-0.013838731
203	0x3dedb68f	0.11607086
204	0x3c925140	0.017861009
205	0xbdd77c99	-0.10521812
206	0xbbe75119	-0.007059228
207	0x3d97cc77	0.074120454
208	0xbc5f7a5e	-0.013640014
209	0x3d93307d	0.07186983
210	0xbd7dae4f	-0.06193381
211	0xbd2c0cfa	-0.042004563
212	0xbbea446d	-0.0071492703
213	0xbe3eb2ae	-0.18622848
214	0x3d7e32b6	0.06206008
215	0xbcb432f8	-0.02199696
216	0xbd290e26	-0.04127326
217	0x3d8a21fd	0.06744764
218	0xbe4eecf0	-0.20207572
219	0xbe0f7464	-0.14009243
220	0x3ddb41f8	0.10705942
221	0xbce77041	-0.028251769
222	0x3d30534c	0.043048188
223	0xbd95c6a0	-0.07313275
224	0xbdc7e162	-0.09759785
225	0x3d646108	0.0557566
226	0x3d9885af	0.07447373
227	0x3cbd28d6	0.023090761
228	0x3dc3f9bd	0.09569118
229	0x3e68fc62	0.22752526
230	0x3dec5f64	0.11541632
231	0x3def6b53	0.11690392
232	0xbd0b182a	-0.03395859
233	0x3c8db55a	0.01729839
234	0x3b9d3a01	0.0047981744
235	0xbdedf9d0	-0.116199136
236	0x3da04fc9	0.07827718
237	0x3bbc2abe	0.0057424
238	0xbd792d4a	-0.060834207
239	0x3de1a9cb	0.110187136
240	0xbe41520e	-0.18878958
241	0xbb4c6010	-0.0031185187
242	0x3d6d20b6	0.057892524
243	0xbd526f66	-0.05137577
244	0xbd16bde0	-0.036802173
245	0x3cbea8c5	0.023273835
246	0xbc0bd6b1	-0.008535073
247	0xbdceb349	-0.1009279
248	0x3da02548	0.07819611
249	0x3b5f52c4	0.0034076432
250	0x3e0731b1	0.1320255
251	0x3c858953	0.016300833
252	0x3c24f764	0.010068748
253	0x3a79002b	0.0009498621
254	0xbcb58891	-0.022159846
255	0xbdaa15ed	-0.08304963

network_body._body_endoder.seq_layers.2.bias f4 [128]
0	0x00000000	0.0
1	0x00000000	0.0
2	0x00000000	0.0
3	0x00000000	0.0
4	0x00000000	0.0
5	0x00000000	0.0
6	0x00000000	0.0
7	0x00000000	0.0
8	0x00000000	0.0
9	0x00000000	0.0
10	0x00000000	0.0
11	0x00000000	0.0
12	0x00000000	0.0
13	0x00000000	0.0
14	0x00000000	0.0
15	0x00000000	0.0
16	0x00000000	0.0
17	0x00000000	0.0
18	0x00000000	0.0
19	0x00000000	0.0
20	0x00000000	0.0
21	0x00000000	0.0
22	0x00000000	0.0
23	0x00000000	0.0
24	0x00000000	0.0
25	0x00000000	0.0
26	0x00000000	0.0
27	0x00000000	0.0
28	0x00000000	0.0
29	0x00000000	0.0
30	0x00000000	0.0
31	0x00000000	0.0
32	0x00000000	0.0
33	0x00000000	0.0
34	0x00000000	0.0
35	0x00000000	0.0
36	0x00000000	0.0
37	0x00000000	0.0
38	0x00000000	0.0
39	0x00000000	0.0
40	0x00000000	0.0
41	0x00000000	0.0
42	0x00000000	0.0
43	0x00000000	0.0
44	0x00000000	0.0
45	0x00000000	0.0
46	0x00000000	0.0
47	0x00000000	0.0
48	0x00000000	0.0
49	0x00000000	0.0
50	0x00000000	0.0
51	0x00000000	0.0
52	0x00000000	0.0
53	0x00000000	0.0
54	0x00000000	0.0
55	0x00000000	0.0
56	0x00000000	0.0
57	0x00000000	0.0
58	0x00000000	0.0
59	0x00000000	0.0
60	0x00000000	0.0
61	0x00000000	0.0
62	0x00000000	0.0
63	0x00000000	0.0
64	0x00000000	0.0
65	0x00000000	0.0
66	0x00000000	0.0
67	0x00000000	0.0
68	0x00000000	0.0
69	0x00000000	0.0
70	0x00000000	0.0
71	0x00000000	0.0
72	0x00000000	0.0
73	0x00000000	0.0
74	0x00000000	0.0
75	0x00000000	0.0
76	0x00000000	0.0
77	0x00000000	0.0
78	0x00000000	0.0
79	0x00000000	0.0
80	0x00000000	0.0
81	0x00000000	0.0
82	0x00000000	0.0
83	0x00000000	0.0
84	0x00000000	0.0
85	0x00000000	0.0
86	0x00000000	0.0
87	0x00000000	0.0
88	0x00000000	0.0
89	0x00000000	0.0
90	0x00000000	0.0
91	0x00000000	0.0
92	0x00000000	0.0
93	0x00000000	0.0
94	0x00000000	0.0
95	0x00000000	0.0
96	0x00000000	0.0
97	0x00000000	0.0
98	0x00000000	0.0
99	0x00000000	0.0
100	0x00000000	0.0
101	0x00000000	0.0
102	0x00000000	0.0
103	0x00000000	0.0
104	0x00000000	0.0
105	0x00000000	0.0
106	0x00000000	0.0
107	0x00000000	0.0
108	0x00000000	0.0
109	0x00000000	0.0
110	0x00000000	0.0
111	0x00000000	0.0
112	0x00000000	0.0
113	0x00000000	0.0
114	0x00000000	0.0
115	0x00000000	0.0
116	0x00000000	0.0
117	0x00000000	0.0
118	0x00000000	0.0
119	0x00000000	0.0
120	0x00000000	0.0
121	0x00000000	0.0
122	0x00000000	0.0
123	0x00000000	0.0
124	0x00000000	0.0
125	0x00000000	0.0
126	0x00000000	0.0
127	0x00000000	0.0

value_heads.value_heads.extrinsic.weight f4 [1, 128]
0	0xbda28a2c	-0.079365104
1	0xbd13a74c	-0.03604822
2	0xbde746b8	-0.112927854
3	0xbe4b97e0	-0.19882154
4	0x3d5c7990	0.05382687
5	0x3e2f6e96	0.17132029
6	0xbc655d30	-0.013999268
7	0x3e16f632	0.14742354
8	0x3c74f870	0.01495181
9	0x3e509eb0	0.20373034
10	0x3e36b31a	0.1784176
11	0x3e1b8a70	0.15189528
12	0xbe05b866	-0.13058624
13	0x3da850e0	0.08218551
14	0x3d8ae698	0.067822635
15	0x3d715918	0.058922857
16	0xbdbfbaa6	-0.09361772
17	0x3e142766	0.14468154
18	0x3dcabacc	0.0989891
19	0x3e37458c	0.17897624
20	0x3e0b16ce	0.13582918
21	0x3df79958	0.12089795
22	0xbe26f85c	-0.16305679
23	0xbd2a2800	-0.041542053
24	0xbdad5a90	-0.08464539
25	0xbe4fe95e	-0.20303866
26	0xbe356836	-0.17715535
27	0x3cc07168	0.023491576
28	0xbd0a316c	-0.03373854
29	0xbe5be965	-0.21475752
30	0x3e017190	0.12640977
31	0xbd301794	-0.042991236
32	0xbe000a8c	-0.12504023
33	0xbd6017b4	-0.054710105
34	0x3e17020a	0.14746872
35	0x3dd26370	0.102728724
36	0x3dd42f54	0.103605896
37	0x3ac65580	0.0015131682
38	0x3d5970a8	0.053085953
39	0xbe2438f2	-0.16037348
40	0x3df3dde0	0.11907554
41	0x3e5bc760	0.21462774
42	0xbd256a88	-0.0403848
43	0xbe44e26d	-0.19227
44	0x3d6270c8	0.055283338
45	0xbe2bf38e	-0.16792127
46	0x3e389a9a	0.18027726
47	0x3ca41010	0.02002719
48	0x3c8ec250	0.01742664
49	0x3dc8e284	0.098088294
50	0x3e4b0376	0.19825539
51	0xbd52ae50	-0.05143577
52	0xbe4e10a1	-0.20123531
53	0xbe0a2e6a	-0.13494268
54	0xbe442622	-0.19155172
55	0xbdc2bef6	-0.09509079
56	0xbe286e4f	-0.1644833
57	0x3ca95b50	0.020673424
58	0xbe2b6305	-0.16736992
59	0xbe2b091d	-0.16702695
60	0x3e2e4b80	0.17020988
61	0xbd4d2074	-0.050079778
62	0xbe57153c	-0.21004194
63	0xbe03a9f8	-0.12857807
64	0x3e062d1e	0.13103148
65	0xbbcee4a0	-0.0063138753
66	0xbe20f66c	-0.15719002
67	0x3d1485a8	0.036260277
68	0x3debad54	0.11507669
69	0x3d9b1298	0.07571906
70	0xbdb3fb24	-0.08788136
71	0xbd892c8e	-0.06697951
72	0x3e23a76e	0.15981838
73	0x3e3f58c8	0.18686211
74	0x3ce51688	0.027964845
75	0x3e224e9c	0.158503
76	0x3e42d800	0.1902771
77	0xbe0cdda4	-0.13756424
78	0xbe360978	-0.1777705
79	0xbbf5a280	-0.007496178
80	0x3e0f6b18	0.14005697
81	0xbdf9d2b4	-0.121983916
82	0xbe4204aa	-0.18947092
83	0x3d209130	0.03920096
84	0xbdf106b5	-0.117688574
85	0x3e58aec0	0.21160412
86	0x3d82a308	0.06378752
87	0xbc6f26b0	-0.014596626
88	0x3e1277c2	0.14303496
89	0xbd5b707c	-0.05357407
90	0xbc803098	-0.015648171
91	0x3c995ac8	0.018720046
92	0xbe4d701f	-0.20062302
93	0x3e34ad92	0.17644337
94	0x3e1dd6f0	0.15414023
95	0xbd8383f8	-0.064216554
96	0x3dbf5624	0.09342602
97	0xbe26a51d	-0.16273923
98	0xbe200c22	-0.15629628
99	0x3d8676fc	0.06565663
100	0x3de1fbe8	0.110343754
101	0xbe34649d	-0.17616506
102	0x3e1d4e50	0.15361905
103	0xbd37a954	-0.04483922
104	0xbc556a70	-0.013025865
105	0x3d279778	0.040915936
106	0xbe003005	-0.12518318
107	0xbe5047e7	-0.20339929
108	0xbd3f8554	-0.04675801
109	0xbe591bc3	-0.21201997
110	0x3d89d2cc	0.067296594
111	0xbcb91ea0	-0.022597611
112	0xbe30e378	-0.17274272
113	0x3d2b3bc8	0.04180506
114	0xbd473654	-0.048635796
115	0xbd3056f4	-0.043051675
116	0x3e3f350e	0.18672583
117	0x3d920e14	0.071315914
118	0x3e2e5730	0.17025447
119	0x3da8233c	0.082098454
120	0x3d458e80	0.0482316
121	0x3d763200	0.060106277
122	0xbe19465c	-0.14968246
123	0x3e1cad4a	0.1530048
124	0xbe386b91	-0.18009783
125	0xbd65a54c	-0.056065843
126	0xbe294db1	-0.16533543
127	0xbe138099	-0.14404525
