Assets/ML-Agents/Examples/RollerRex/results/rollerrex/My Behavior/My Behavior-9856.pt (torch, 151351 bytes, 12 tensors)

network_body._body_endoder.seq_layers.0.weight f4 [128, 8]
-0.16254117 -0.45489502 -0.08690943 -0.49022222 -0.18841588 0.0810508 0.37342405 -0.33488712
-0.18146262 0.0684555 0.33490494 0.2286089 0.41337758 0.6387806 0.2756571 0.097825564
-0.0019414511 0.28935418 0.33717623 -0.07798465 -0.2127897 -0.5303648 0.5399334 0.33701444
-0.09792618 0.16548803 0.048045088 -0.24714161 0.31184438 0.1746219 0.012189602 -0.14921598
-0.6763781 -0.36497122 0.70049286 0.38912562 0.19419055 0.18720138 0.51464826 0.3668295
-0.08789287 -0.48218253 0.059354875 -0.38568935 0.21739475 0.35195234 0.104878426 0.48909947
-0.25035337 -0.66172993 -0.20578453 -0.15698917 0.22955959 -0.39084795 -0.022084229 0.16895758
0.23645815 0.037605233 0.2729574 0.43777445 -0.03378356 0.5299396 0.62606126 -0.07595426
0.28485292 0.38544503 0.8687553 -0.07908145 -0.13509399 0.053328644 0.22914228 0.6305701
0.10391527 -0.26923504 0.06875943 -0.2343749 -0.44400516 0.47623035 -0.03955375 0.3287729
0.042357087 0.05151068 0.18533191 -0.03181929 -0.25145465 0.06581592 0.0012612917 0.111734845
-0.32394382 0.11427883 -0.39119017 0.08223534 0.105421774 -0.015583419 -0.33414596 0.47535604
0.4344575 0.12884638 0.11883501 -0.30441877 0.08591559 -0.18094282 0.70744014 0.0761752
-0.20033891 0.027724953 -0.08128604 0.1829986 0.19264445 0.002782526 0.23715658 0.26365367
-0.15460761 -0.1520521 0.44633448 -0.03602852 0.45035967 -0.19887978 -0.49189815 -0.30026373
-1.0682012 -0.16167776 -0.18242475 0.34804255 0.0074660387 0.42570803 -0.31743568 -0.07746947
-0.2056234 0.043273345 0.051090848 0.042214748 -0.34237236 0.12425102 -0.17356965 0.11641216
-0.57331765 0.33273748 -0.22337653 0.3602697 0.1425869 0.07948452 0.17089312 0.33563444
-0.33875996 -0.2443658 -0.34903735 0.5613184 -0.12184816 0.47008055 0.12428134 0.035059284
-0.24294221 -0.16417629 0.20938033 0.30695668 -0.22095232 0.41383862 0.049155436 -0.53892636
-0.70692956 0.46854827 0.41121167 -0.37568727 -0.21497746 0.29184398 -0.18623292 0.49633574
0.041651387 -0.014414015 -0.64279795 -0.14751682 0.27306607 0.017546864 0.06953012 0.1325154
-0.2785223 0.06878034 0.33843923 -0.43824592 -0.1837802 -0.22133617 -0.60944057 0.072881065
-0.17396536 -0.1797696 0.12363924 -0.3299102 -0.641605 -0.2420712 -0.36923763 0.29586595
0.17422278 -0.14261112 -0.39239994 -0.4755059 0.21809499 -0.3013038 0.103367865 0.08699236
0.42200547 0.100430965 -0.48483306 -0.31281513 -0.52619976 -0.2278794 -0.38223824 0.5809644
0.0804783 0.6808263 -0.6879476 0.09295407 -0.6989917 -0.27639055 0.52423453 0.37797883
-0.043146867 0.12671271 0.007616823 0.2829526 0.2995078 0.38986117 -0.27006507 -0.18117648
0.013137374 -0.36436796 0.14427502 1.0731505 0.39181083 0.40820184 -0.40010905 -0.4023123
-0.21981427 -0.40455645 0.028629793 -0.8095076 0.54918194 -0.38135973 0.20190579 -0.4141571
0.2980854 -0.27911332 -0.36052042 0.18236041 0.010871918 -0.23788023 -0.68150604 0.19657615
-0.51260924 0.026818292 0.024858603 -0.64574283 -0.3900838 -0.20238799 0.052356362 -0.15758356
00000000: 3171 26be 00e8 e8be 92fd b1bd 68fe fabe
00000010: 18f0 40be f6fd a53d 7031 bf3e 5376 abbe
00000020: 56d1 39be 6632 8c3d a978 ab3e 7418 6a3e
00000030: 3aa6 d33e 2087 233f ed22 8d3e c558 c83d
00000040: 4a78 feba 3b26 943e 5da2 ac3e 6bb6 9fbd
00000050: 8be5 59be fdc5 07bf 1339 0a3f 288d ac3e
00000060: 858d c8bd b275 293e edca 443d b112 7dbe
00000070: 11aa 9f3e 15d0 323e e5b6 473c 13cc 18be
00000080: 1d27 2dbf 82dd babe 8053 333f 793b c73e
00000090: e3d9 463e b8b1 3f3e fdbf 033f 14d1 bb3e
000000a0: 2d01 b4bd a1e0 f6be 191e 733d 1379 c5be
000000b0: bb9c 5e3e 1933 b43e 80ca d63d 3f6b fa3e
000000c0: 512e 80be 2267 29bf 2eb9 52be c5c1 20be
000000d0: ab11 6b3e 391d c8be fce9 b4bc 3703 2d3e
000000e0: 1622 723e f207 1a3d 13c1 8b3e f923 e03e
000000f0: a160 0abd 1faa 073f 8d45 203f e88d 9bbd
00000100: 3ed8 913e 0d59 c53e bf66 5e3f 75f5 a1bd
00000110: 1456 0abe 236f 5a3d 46a4 6a3e 0b6d 213f
00000120: 87d1 d43d 2dd9 89be bed1 8c3d f9ff 6fbe
00000130: a554 e3be 77d4 f33e 1d03 22bd ec54 a83e
00000140: a07e 2d3d ddfc 523d a6c7 3d3e f254 02bd
00000150: aabe 80be 7fca 863d ed51 a53a 3dd5 e43d
00000160: f7db a5be 050b ea3d 144a c8be 006b a83d
00000170: 5fe7 d73d 9951 7fbc 2e15 abbe de61 f33e
00000180: 3771 de3e 4ef0 033e c55f f33d c7dc 9bbe
00000190: 83f4 af3d 1349 39be cc1a 353f be01 9c3d
000001a0: a525 4dbe 711f e33c 4c79 a6bd fc63 3b3e
000001b0: 9644 453e 0a5b 363b 2dd9 723e 9dfd 863e
000001c0: 7551 1ebe 8cb3 1bbe f485 e43e a492 13bd
000001d0: 8b95 e63e 24a7 4bbe 13da fbbe 2bbc 99be
000001e0: d1ba 88bf db8e 25be 8ecd 3abe a232 b23e
000001f0: aca5 f43b 67f6 d93e ee86 a2be 50a8 9ebd
00000200: f18e 52be 643f 313d a344 513d 5fe9 2c3d
00000210: 6e4b afbe 5277 fe3d 3ebc 31be 8069 ee3d
00000220: f2c4 12bf 915c aa3e d1bc 64be 4575 b83e
00000230: 4d02 123e c8c8 a23d 9bfe 2e3e 47d8 ab3e
00000240: f271 adbe 073b 7abe 06b5 b2be 90b2 0f3f
00000250: 878b f9bd 66ae f03e 3787 fe3d 539a 0f3d
00000260: d8c5 78be d41d 28be cc67 563e 6d29 9d3e
00000270: 5341 62be a8e2 d33e 3657 493d 14f7 09bf
00000280: 56f9 34bf 8fe5 ef3e 568a d23e 155a c0be
00000290: 0d23 5cbe 936c 953e d8b3 3ebe b81f fe3e
000002a0: a59a 2a3d c328 6cbc 688e 24bf a60e 17be
000002b0: 51cf 8b3e 71be 8f3c cf65 8e3d 1eb2 073e
000002c0: 7a9a 8ebe b5dc 8c3d e847 ad3e c561 e0be
000002d0: e030 3cbe f3a5 62be 4c04 1cbf ab42 953d
000002e0: fa23 32be 8615 38be 9236 fd3d fde9 a8be
000002f0: 3a40 24bf 83e1 77be b70c bdbe be7b 973e
00000300: 7567 323e a608 12be a5e8 c8be 8275 f3be
00000310: 4b54 5f3e 7e44 9abe 88b2 d33d 0d29 b23d
00000320: 1a11 d83e c0ae cd3d 0a3c f8be 4e29 a0be
00000330: 07b5 06bf 3859 69be bbb4 c3be 15ba 143f
00000340: cfd1 a43d a24a 2e3f 551d 30bf b45e be3d
00000350: 1ff1 32bf 1083 8dbe 3c34 063f 7186 c13e
00000360: c5ba 30bd fac0 013e 8b96 f93b 2adf 903e
00000370: 1659 993e e29b c73e f845 8abe 5486 39be
00000380: 243e 573c 708e babe d5bc 133e ff5c 893f
00000390: 6e9b c83e d5ff d03e 18db ccbe e1fb cdbe
000003a0: fe16 61be 0622 cfbe 0789 ea3c e43b 4fbf
000003b0: 3097 0c3f 9541 c3be 64c0 4e3e 660c d4be
000003c0: a69e 983e f1e7 8ebe 2296 b8be b0bc 3a3e
000003d0: 2120 323c e096 73be 2e77 2ebf 424b 493e
000003e0: 5c3a 03bf 09b2 db3c 45a4 cb3c 674f 25bf
000003f0: 10b9 c7be cc3e 4fbe a073 563d 965d 21be

network_body._body_endoder.seq_layers.0.bias f4 [128]
0.0 0.0 0.0 0.0 0.0 0.0 0.0 0.0
0.0 0.0 0.0 0.0 0.0 0.0 0.0 0.0
0.0 0.0 0.0 0.0 0.0 0.0 0.0 0.0
0.0 0.0 0.0 0.0 0.0 0.0 0.0 0.0
0.0 0.0 0.0 0.0 0.0 0.0 0.0 0.0
0.0 0.0 0.0 0.0 0.0 0.0 0.0 0.0
0.0 0.0 0.0 0.0 0.0 0.0 0.0 0.0
0.0 0.0 0.0 0.0 0.0 0.0 0.0 0.0
0.0 0.0 0.0 0.0 0.0 0.0 0.0 0.0
0.0 0.0 0.0 0.0 0.0 0.0 0.0 0.0
0.0 0.0 0.0 0.0 0.0 0.0 0.0 0.0
0.0 0.0 0.0 0.0 0.0 0.0 0.0 0.0
0.0 0.0 0.0 0.0 0.0 0.0 0.0 0.0
0.0 0.0 0.0 0.0 0.0 0.0 0.0 0.0
0.0 0.0 0.0 0.0 0.0 0.0 0.0 0.0
0.0 0.0 0.0 0.0 0.0 0.0 0.0 0.0
00000000: 0000 0000 0000 0000 0000 0000 0000 0000
00000010: 0000 0000 0000 0000 0000 0000 0000 0000
00000020: 0000 0000 0000 0000 0000 0000 0000 0000
00000030: 0000 0000 0000 0000 0000 0000 0000 0000
00000040: 0000 0000 0000 0000 0000 0000 0000 0000
00000050: 0000 0000 0000 0000 0000 0000 0000 0000
00000060: 0000 0000 0000 0000 0000 0000 0000 0000
00000070: 0000 0000 0000 0000 0000 0000 0000 0000
00000080: 0000 0000 0000 0000 0000 0000 0000 0000
00000090: 0000 0000 0000 0000 0000 0000 0000 0000
000000a0: 0000 0000 0000 0000 0000 0000 0000 0000
000000b0: 0000 0000 0000 0000 0000 0000 0000 0000
000000c0: 0000 0000 0000 0000 0000 0000 0000 0000
000000d0: 0000 0000 0000 0000 0000 0000 0000 0000
000000e0: 0000 0000 0000 0000 0000 0000 0000 0000
000000f0: 0000 0000 0000 0000 0000 0000 0000 0000
00000100: 0000 0000 0000 0000 0000 0000 0000 0000
00000110: 0000 0000 0000 0000 0000 0000 0000 0000
00000120: 0000 0000 0000 0000 0000 0000 0000 0000
00000130: 0000 0000 0000 0000 0000 0000 0000 0000
00000140: 0000 0000 0000 0000 0000 0000 0000 0000
00000150: 0000 0000 0000 0000 0000 0000 0000 0000
00000160: 0000 0000 0000 0000 0000 0000 0000 0000
00000170: 0000 0000 0000 0000 0000 0000 0000 0000
00000180: 0000 0000 0000 0000 0000 0000 0000 0000
00000190: 0000 0000 0000 0000 0000 0000 0000 0000
000001a0: 0000 0000 0000 0000 0000 0000 0000 0000
000001b0: 0000 0000 0000 0000 0000 0000 0000 0000
000001c0: 0000 0000 0000 0000 0000 0000 0000 0000
000001d0: 0000 0000 0000 0000 0000 0000 0000 0000
000001e0: 0000 0000 0000 0000 0000 0000 0000 0000
000001f0: 0000 0000 0000 0000 0000 0000 0000 0000

network_body._body_endoder.seq_layers.2.weight f4 [128, 128]
-0.03645668 0.0851728 0.028046662 0.13273734 0.11407401 -0.025877293 0.028330864 0.085011125
-0.019328192 -0.066516675 -0.027537027 0.03508396 0.00035185556 -0.007953641 -0.23086691 -0.120649114
-0.053301394 -0.026101995 0.08555941 0.00385504 0.116777964 0.24552886 -0.16678135 -0.20100103
0.11453589 -0.18401413 0.029058684 -0.008218053 0.009070053 0.059593808 0.039634038 -0.1614499
0.057215303 0.006340592 0.0974018 0.001559224 -0.22166793 0.08170911 0.03118765 0.09783335
-0.015055365 -0.06521493 -0.029149044 0.015141425 -0.043347463 -0.053136375 -0.0024645277 0.0913908
-0.033497576 0.12471658 -0.057186846 0.14526063 0.081694186 0.016952084 0.03286748 -0.15431848
-0.03779075 0.033331536 0.07481675 -0.09173579 0.091967024 -0.0038885958 -0.06359527 -0.0971142
-0.046315603 -0.17805201 0.04873272 -0.049293198 -0.074203625 0.088727176 0.1365621 0.16159105
-0.009652387 0.17346634 0.13667712 -0.052562494 -0.008106098 0.05153472 -0.18781058 -0.06478045
-0.08123848 -0.028603686 0.011686907 0.05452101 -0.03764687 0.044595834 -0.14256251 0.0034975067
0.19616193 -0.18493798 -0.076515116 0.009053445 0.18173683 -0.019415144 0.08246594 0.077502705
-0.09975165 -0.020335896 -0.090929165 -0.13137653 -0.06013694 -0.09557539 0.103271 -0.07267165
-0.0044735232 -0.092881955 0.07974284 -0.09380872 -0.01991021 0.13667145 -0.02165357 -0.029007718
-0.074027695 0.04269269 0.10384687 0.09225834 -0.03088086 -0.017078163 0.012489455 -0.04168969
-0.12488889 -0.025141591 -0.0144289825 -0.008522207 0.057211597 0.11705952 -0.028443564 0.07691038
-0.035290036 0.11192827 0.029903658 0.030208116 -0.017206214 0.04977291 0.011830482 -0.03491049
-0.10226455 0.06826585 0.0014312428 0.0072041173 -0.051764548 -0.07018178 -0.021700267 -0.09556686
0.0149259055 0.008138458 -0.06633529 -0.010469353 -0.16924267 -0.07924121 -0.076129965 0.10714045
0.024005514 -0.08132985 0.054929957 -0.023407532 0.011586958 -0.15543197 0.05539217 -0.057123765
-0.028402276 -0.049962364 0.008185094 0.011865839 -0.030535085 0.1317177 -0.049707633 -0.113652304
0.046003617 -0.110483326 0.03259685 0.012712659 -0.14117363 -0.09529885 -0.13678917 0.0037442548
0.033480145 -0.06479431 -0.093622565 -0.050743204 0.087759174 -0.12656069 -0.005787662 -0.036997218
-0.14807154 -0.006010163 0.005604221 -0.0842584 -0.082987815 -0.030084603 -0.039705236 0.029429413
0.043363508 0.10851709 -0.017382592 0.00948371 -0.054229666 0.012377393 0.091945246 0.08421243
0.011854577 0.03541582 -0.15638222 0.06797675 -0.09276729 0.00901522 -0.039114352 0.16526352
0.044861384 0.105046056 0.109879054 -0.08091948 0.008953353 -0.04450824 -0.084308386 -0.1232771
-0.07834182 -0.1477563 -0.0033594044 0.0730065 -0.019141285 -0.12769641 0.024301609 -0.10832266
-0.07661139 -0.04035921 0.015490018 0.00046986557 0.017333636 -0.11471133 -0.0059960997 -0.00024450343
-0.13537842 0.052550822 -0.07599718 0.020906541 0.04579437 -0.045196436 0.06617362 0.068282776
0.048166823 -0.0035778137 -0.112412795 0.03203789 -0.10093357 0.04757828 -0.0066734753 -0.05602316
-0.08346849 0.112538785 0.12335304 -0.13784313 -0.07267632 0.1413543 -0.047474824 0.038673878
00000000: 9a53 15bd 146f ae3d 1dc2 e53c 4cec 073e
00000010: a29f e93d 9efc d3bc 2116 e83c 501a ae3d
00000020: 2856 9ebc e539 88bd 5595 e1bc 33b4 0f3d
00000030: 4179 b839 fd4f 02bc 6068 6cbe e216 f7bd
00000040: 9052 5abd dad3 d5bc c639 af3d d7a4 7c3b
00000050: 4929 ef3d eb6b 7b3e bbc8 2abe 37d3 4dbe
00000060: cb91 ea3d 336e 3cbe 7a0c ee3c 03a5 06bc
00000070: 8f9a 143c a318 743d 4d57 223d 1f53 25be
00000080: 985a 6a3d bec4 cf3b 987a c73d e05e cc3a
00000090: ebfc 62be 1b57 a73d 3e7d ff3c da5c c83d
000000a0: c7aa 76bc 688f 85bd fac9 eebc bd13 783c
000000b0: 1c8d 31bd 87a5 59bd ea83 21bb 1a2b bb3d
000000c0: c134 09bd 686b ff3d c13c 6abd 34bf 143e
000000d0: 484f a73d 19df 8a3c 0da0 063d aa05 1ebe
000000e0: 79ca 1abd a686 083d 8639 993d f9df bbbd
000000f0: 3559 bc3d d0d7 7ebb 3d3e 82bd cfe3 c6bd
00000100: 6eb5 3dbd 4453 36be f69b 473d aae7 49bd
00000110: 12f8 97bd 98b6 b53d efd6 0b3e 2078 253e
00000120: 0c25 1ebc 29a1 313e 16f5 0b3e c54b 57bd
00000130: 70cf 04bc 1216 533d 6b51 40be 9dab 84bd
00000140: 5c60 a6bd 4752 eabc 717a 3f3c 6c51 5f3d
00000150: 9b33 1abd 1faa 363d e8fb 11be 6d36 653b
00000160: acde 483e 6260 3dbe f5b3 9cbd e754 143c
00000170: 3819 3a3e 820c 9fbc e7e3 a83d bdb9 9e3d
00000180: 984a ccbd 7797 a6bc 1239 babd 9287 06be
00000190: 2752 76bd 08bd c3bd bf7f d33d e0d4 94bd
000001a0: a296 92bb e538 bebd 3750 a33d c91e c0bd
000001b0: bd1a a3bc 9af3 0b3e d462 b1bc 98a1 edbc
000001c0: d59b 97bd 88de 2e3d abad d43d f1f1 bc3d
000001d0: dbf9 fcbc 81e7 8bbc 92a0 4c3c cfc2 2abd
000001e0: bfc5 ffbd bdf5 cdbc 8a67 6cbc baa0 0bbc
000001f0: b556 6a3d e7bc ef3d 7a02 e9bc 3083 9d3d
00000200: 498c 10bd a63a e53d 84f8 f43c 0377 f73c
00000210: 0cf4 8cbc aede 4b3d a3d4 413c 4dfe 0ebd
00000220: 1470 d1bd f7ce 8b3d 8a98 bb3a 8410 ec3b
00000230: 1007 54bd 77bb 8fbd c2c4 b1bc 8fb8 c3bd
00000240: c98b 743c 2b57 053c ccda 87bd a687 2bbc
00000250: f34d 2dbe 3749 a2bd 07ea 9bbd 746c db3d
00000260: 36a7 c43c 4490 a6bd 3cfe 603d 27c1 bfbc
00000270: 39d7 3d3c 8f29 1fbe e6e2 623d 9cfa 69bd
00000280: e4ab e8bc 56a5 4cbd c61a 063c f068 423c
00000290: b724 fabc 01e1 063e 3b9a 4bbd 8ac2 e8bd
000002a0: 4a6e 3c3d 1545 e2bd 4684 053d c248 503c
000002b0: d28f 10be 0b2c c3bd 7612 0cbe 2c62 753b
000002c0: 7a22 093d e1b2 84bd 30bd bfbd 1bd8 4fbd
000002d0: 15bb b33d 2099 01be 6ea6 bdbb 658a 17bd
000002e0: 11a0 17be e7f0 c4bb 9da3 b73b ab8f acbd
000002f0: 84f5 a9bd fc73 f6bc f5a1 22bd f415 f13c
00000300: ef9d 313d 353e de3d f065 8ebc 9061 1b3c
00000310: ed1f 5ebd 8dca 4a3c ca4d bc3d 9177 ac3d
00000320: b339 423c 2e10 113d a922 20be 6537 8b3d
00000330: c7fc bdbd 93b4 133c 5f36 20bd d73a 293e
00000340: 92c0 373d 6322 d73d 4508 e13d 1db9 a5bd
00000350: 16b1 123c 464e 36bd e0a9 acbd b478 fcbd
00000360: ad71 a0bd 6d4d 17be 7429 5cbb 6f84 953d
00000370: 2fce 9cbc d9c2 02be 2b14 c73c 45d8 ddbd
00000380: 6fe6 9cbd b34f 25bd d8c9 7d3c 4a58 f639
00000390: 45ff 8d3c c6ed eabd ee7a c4bb b230 80b9
000003a0: a4a0 0abe 883f 573d 69a4 9bbd 3244 ab3c
000003b0: e192 3b3d e61f 39bd 0986 873d d7d7 8b3d
000003c0: 934a 453d c179 6abb ae38 e6bd 2a3a 033d
000003d0: 42b6 cebd 71e1 423d 2bad dabb 8b78 65bd
000003e0: 87f1 aabd bc7a e63d 85a0 fc3d c026 0dbe
000003f0: 53d7 94bd 2ebf 103e f674 42bd 8068 1e3d

network_body._body_endoder.seq_layers.2.bias f4 [128]
0.0 0.0 0.0 0.0 0.0 0.0 0.0 0.0
0.0 0.0 0.0 0.0 0.0 0.0 0.0 0.0
0.0 0.0 0.0 0.0 0.0 0.0 0.0 0.0
0.0 0.0 0.0 0.0 0.0 0.0 0.0 0.0
0.0 0.0 0.0 0.0 0.0 0.0 0.0 0.0
0.0 0.0 0.0 0.0 0.0 0.0 0.0 0.0
0.0 0.0 0.0 0.0 0.0 0.0 0.0 0.0
0.0 0.0 0.0 0.0 0.0 0.0 0.0 0.0
0.0 0.0 0.0 0.0 0.0 0.0 0.0 0.0
0.0 0.0 0.0 0.0 0.0 0.0 0.0 0.0
0.0 0.0 0.0 0.0 0.0 0.0 0.0 0.0
0.0 0.0 0.0 0.0 0.0 0.0 0.0 0.0
0.0 0.0 0.0 0.0 0.0 0.0 0.0 0.0
0.0 0.0 0.0 0.0 0.0 0.0 0.0 0.0
0.0 0.0 0.0 0.0 0.0 0.0 0.0 0.0
0.0 0.0 0.0 0.0 0.0 0.0 0.0 0.0
00000000: 0000 0000 0000 0000 0000 0000 0000 0000
00000010: 0000 0000 0000 0000 0000 0000 0000 0000
00000020: 0000 0000 0000 0000 0000 0000 0000 0000
00000030: 0000 0000 0000 0000 0000 0000 0000 0000
00000040: 0000 0000 0000 0000 0000 0000 0000 0000
00000050: 0000 0000 0000 0000 0000 0000 0000 0000
00000060: 0000 0000 0000 0000 0000 0000 0000 0000
00000070: 0000 0000 0000 0000 0000 0000 0000 0000
00000080: 0000 0000 0000 0000 0000 0000 0000 0000
00000090: 0000 0000 0000 0000 0000 0000 0000 0000
000000a0: 0000 0000 0000 0000 0000 0000 0000 0000
000000b0: 0000 0000 0000 0000 0000 0000 0000 0000
000000c0: 0000 0000 0000 0000 0000 0000 0000 0000
000000d0: 0000 0000 0000 0000 0000 0000 0000 0000
000000e0: 0000 0000 0000 0000 0000 0000 0000 0000
000000f0: 0000 0000 0000 0000 0000 0000 0000 0000
00000100: 0000 0000 0000 0000 0000 0000 0000 0000
00000110: 0000 0000 0000 0000 0000 0000 0000 0000
00000120: 0000 0000 0000 0000 0000 0000 0000 0000
00000130: 0000 0000 0000 0000 0000 0000 0000 0000
00000140: 0000 0000 0000 0000 0000 0000 0000 0000
00000150: 0000 0000 0000 0000 0000 0000 0000 0000
00000160: 0000 0000 0000 0000 0000 0000 0000 0000
00000170: 0000 0000 0000 0000 0000 0000 0000 0000
00000180: 0000 0000 0000 0000 0000 0000 0000 0000
00000190: 0000 0000 0000 0000 0000 0000 0000 0000
000001a0: 0000 0000 0000 0000 0000 0000 0000 0000
000001b0: 0000 0000 0000 0000 0000 0000 0000 0000
000001c0: 0000 0000 0000 0000 0000 0000 0000 0000
000001d0: 0000 0000 0000 0000 0000 0000 0000 0000
000001e0: 0000 0000 0000 0000 0000 0000 0000 0000
000001f0: 0000 0000 0000 0000 0000 0000 0000 0000

action_model._continuous_distribution.log_sigma f4 [1, 2]
0.0 0.0
00000000: 0000 0000 0000 0000

action_model._continuous_distribution.mu.weight f4 [2, 128]
0.013449681 -0.0070861117 0.00017325657 -0.0075861285 -0.05946941 0.017397469 -0.03593998 0.0038273167
0.005607261 -0.006049884 -0.0065967226 -0.019159405 -0.014647211 0.0019166935 -0.0059900894 -0.016961196
-0.00900574 0.0022701365 -0.0045021274 -0.010076029 -0.014422635 0.020037686 0.007074603 0.030206952
0.016210666 0.0011336529 -0.02391174 0.0054457146 0.025999432 0.0038825732 -0.009410999 -0.01033198
0.000723862 0.00636497 0.000564925 0.0056821513 0.019422082 -0.0333648 0.006038874 -0.016731033
-0.023076402 -0.014122434 0.015074449 -0.0038995265 -0.0031555505 0.0045799734 0.0160256 0.026427273
-0.02313145 -0.0072429716 0.0015702809 -0.030498961 -0.004686179 0.005656096 -0.0016388737 0.0011224417
-0.01453881 -0.00023819611 -0.0027720318 -0.01950408 0.00209861 0.004587099 -0.0030763992 -0.004839155
-0.020967662 0.0036550884 0.013304939 0.008692139 0.0068968195 0.014142776 -0.016916946 0.016049419
-0.016752413 0.00017489656 -0.007723679 -0.0051071635 0.0253318 0.013883093 -0.006798342 -7.149161e-05
0.012518699 0.0076064295 -0.012998844 -0.0019420885 -0.011108344 -0.0071950066 -0.021531103 0.014450989
-0.005673616 -0.014940955 0.0045427675 0.013063869 -0.0024683303 0.026121682 0.0077764275 -0.010486537
0.0058037224 -0.0032288213 -0.024465322 0.0076451683 0.0011867748 -0.0049990057 -0.014985956 0.02491797
0.0024856615 0.018378306 0.013251044 0.022766897 -0.016634777 -0.0034012725 0.012371665 -0.01652628
0.03270001 -0.01763342 0.0068881894 -0.020627929 0.0018623591 -0.03163837 0.025936944 0.008880722
-0.018601513 -0.02358564 0.019813098 -0.00015193883 -0.0043133306 -0.016457623 -0.002124328 0.041292883
0.006615694 0.02669075 -0.0031897973 0.0044099037 0.013375892 0.004147741 0.006943002 0.01447199
0.003122992 0.013296242 0.03362773 0.028127998 -0.023359727 -0.00038603097 -0.02725741 -0.014326103
-0.010597551 0.023232212 0.028080171 -0.005029577 0.020953594 -0.0098011475 0.0049240547 -0.0006644058
-0.0023671985 -0.025307922 0.013027042 0.008394169 -0.011719174 -0.01257097 -0.016437268 -0.03120926
0.006012777 -0.009561097 -0.01836285 -0.010645947 0.0022008861 -0.013521631 -0.011867089 -0.020433126
-0.009073914 -0.023777729 0.002148818 0.024681738 0.024773762 -0.016504219 0.0014030988 -0.015410559
-0.01252701 0.014427102 0.009479444 -0.022721237 0.024003856 0.005265321 0.01140688 -0.012592058
0.017051836 0.01697972 0.02086795 -0.006295399 0.010557699 0.0049623083 0.018184312 -0.009069527
0.010597757 0.01991236 0.00210253 0.002287782 -0.037372306 -0.009606056 -0.03500261 -0.015886033
-0.021745237 -0.0118421465 -0.017534977 0.0096232975 -0.02931418 -0.0046401764 -0.018211013 -7.16505e-05
-0.06889199 0.023298906 -0.0022719412 -0.020957334 -0.002942182 -0.0073681385 -0.013287969 -0.0060546603
-0.008214595 0.00024512 0.020173205 -0.0013941255 0.0062388764 0.011623373 -0.010363415 0.030381551
0.0074572894 -0.01413053 -0.0043405485 -0.029750695 -0.02282891 -0.013310066 -0.0027259798 -0.018970035
-0.018890804 0.0003047737 0.008156474 0.008692935 0.008687237 -0.004316221 -0.013478189 0.012401427
0.009100168 -0.010958574 -0.019022753 -0.0039449567 0.008304862 0.0035927452 0.012767431 0.001986148
0.014437996 -0.008423338 -0.0010145417 0.008212803 -0.008127058 -0.0053529507 0.0017110845 -0.008090532
00000000: 0d5c 5c3c 9d32 e8bb 35ac 3539 0f95 f8bb
00000010: 3296 73bd 2385 8e3c cd35 13bd b8d3 7a3b
00000020: 1dbd b73b 1b3e c6bb 5229 d8bb 2ff4 9cbc
00000030: dbfa 6fbc 9039 fb3a 8348 c4bb 35f2 8abc
00000040: d08c 13bc 92c6 143b 9586 93bb ee15 25bc
00000050: ea4c 6cbc 1326 a43c 12d2 e73b 9274 f73c
00000060: 3bcc 843c 1497 943a 8ee2 c3bc f771 b23b
00000070: c3fc d43c c572 7e3b 9730 1abc 7747 29bc
00000080: 8ec1 3d3a 3d91 d03b 7a17 143a 5731 ba3b
00000090: 0f1b 9f3c 87a9 08bd bfe1 c53b 850f 89bc
000000a0: b90a bdbc c861 67bc d2fa 763c 338f 7fbb
000000b0: 5acd 4ebb 9a13 963b 1e48 833c 027e d83c
000000c0: 2b7e bdbc 7356 edbb e2d1 cd3a f5d8 f9bc
000000d0: 858e 99bb c656 b93b 7acf d6ba e51e 933a
000000e0: 3034 6ebc 48c4 79b9 faaa 35bb 05c7 9fbc
000000f0: d588 093b 604f 963b 6a9d 49bb c691 9ebb
00000100: 60c4 abbc 358a 6f3b f5fc 593c 7969 0e3c
00000110: b7fe e13b 1ab7 673c 6895 8abc 127a 833c
00000120: 5b3c 89bc 7064 3739 ea16 fdbb fe59 a7bb
00000130: a384 cf3c ea75 633c a0c4 debb c4ed 95b8
00000140: 3b1b 4d3c 5b3f f93b 1af9 54bc ad8d feba
00000150: c6ff 35bc 17c4 ebbb ff61 b0bc d7c3 6c3c
00000160: bee9 b9bb e8ca 74bc 7fdb 943b d709 563c
00000170: b6c3 21bb 23fd d53c 67d1 fe3b b9cf 2bbc
00000180: 272d be3b a29a 53bb 806b c8bc 5284 fa3b
00000190: 8e8d 9b3a b3ce a3bb a887 75bc c520 cc3c
000001a0: 7be6 223b 1a8e 963c e81a 593c a581 ba3c
000001b0: a845 88bc e2e7 5ebb 86b2 4a3c 1f62 87bc
000001c0: 72f0 053d f673 90bc 52b6 e13b e7fb a8bc
000001d0: 671a f43a 3c97 01bd b779 d43c 7380 113c
000001e0: 3362 98bc ac36 c1bc 144f a23c c551 1fb9
000001f0: d756 8dbb 23d2 86bc 4f38 0bbb ba22 293d
00000200: 77c8 d83b 8fa6 da3c eb0b 51bb f480 903b
00000210: 8f26 5b3c c6e9 873b 1f82 e33b ed1b 6d3c
00000220: 1dab 4c3b 7bd8 593c 3bbd 093d b06c e63c
00000230: e65c bfbc 3364 cab9 ef4a dfbc 08b8 6abc
00000240: 5aa1 2dbc 7b51 be3c 6308 e63c 26cf a4bb
00000250: dfa6 ab3c fe94 20bc f759 a13b 852b 2eba
00000260: 0023 1bbb 8f52 cfbc 606f 553c b287 093c
00000270: c701 40bc 78f6 4dbc 73a7 86bc 90aa ffbc
00000280: d406 c53b 26a6 1cbc b06d 96bc 576c 2ebc
00000290: be3c 103b d589 5dbc 2e6e 42bc 5f63 a7bc
000002a0: c1aa 14bc 83c9 c2bc 2fd3 0c3b 5b31 ca3c
000002b0: 58f2 ca3c db33 87bc 2fe8 b73a 927c 7cbc
000002c0: 173e 4dbc a75f 6c3c ab4f 1b3c e321 babc
000002d0: bca3 c43c b788 ac3b ece3 3a3c eb4e 4ebc
000002e0: 4bb0 8b3c 0e19 8b3c 43f3 aa3c a249 cebb
000002f0: 33fa 2c3c dc9a a23b 44f7 943c 5a98 14bc
00000300: 37a2 2d3c 3f1f a33c 9aca 093b 9dee 153b
00000310: b413 19bd b862 1dbc e65e 0fbd 6d23 82bc
00000320: 1123 b2bc 9005 42bc 83a5 8fbc 09ab 1d3c
00000330: 4b24 f0bc 9f0c 98bb 432f 95bc 1243 96b8
00000340: 3e17 8dbd 59dd be3c d9e4 14bb b7ae abbc
00000350: 9fd1 40bb 6d70 f1bb c8b5 59bc 2c66 c6bb
00000360: 8296 06bc 7383 8039 4742 a53c 17bb b6ba
00000370: 7d6f cc3b f66f 3e3c 50cb 29bc bbe2 f83c
00000380: 475c f43b bd83 67bc 293b 8ebb bbb7 f3bc
00000390: b203 bbbc 7712 5abc 5aa6 32bb 0c67 9bbc
000003a0: e3c0 9abc 09ca 9f39 bba2 053c d06c 0e3c
000003b0: ea54 0e3c 166f 8dbb 9fd3 5cbc 5b2f 4b3c
000003c0: df18 153c 978b 33bc 9bd5 9bbc b244 81bb
000003d0: 1e11 083c 4374 6b3b 7d2e 513c 092a 023b
000003e0: 588d 6c3c 0a02 0abc 5ffa 84ba fe8e 063c
000003f0: 5a27 05bc ce67 afbb 7846 e03a 278e 04bc

action_model._continuous_distribution.mu.bias f4 [2]
0.0 0.0
00000000: 0000 0000 0000 0000

network_body._body_endoder.seq_layers.0.weight f4 [128, 8]
0.67889124 0.5627755 1.2442482 0.2803344 0.10428605 -0.29380876 -0.5779037 0.32560945
-0.15554142 -0.09949554 0.1559225 -0.2512107 -0.24337375 -0.4491019 -0.33087412 0.13079856
0.052873954 0.08904149 0.06984653 -0.13995291 0.12177354 0.03495257 0.24113156 0.4279475
-0.18263963 -0.21400994 -0.011739617 0.64146 0.6934636 -0.1070554 0.4026675 -0.41628703
-0.09432007 -0.14480832 0.492346 0.002824312 -0.5572758 -0.39020222 0.3983854 -0.021811588
0.30233562 -0.2636172 0.05579375 -0.4286066 -0.013882386 0.49088675 -0.22294462 -0.12991503
0.16054511 -0.78181726 -0.2579226 -0.33458754 -0.052809037 -0.16344473 0.0018836234 0.036670644
-0.16538359 -0.2488215 -0.561571 0.77766144 -0.1517015 -0.08262934 -0.24293725 -0.06056215
-0.7654212 -0.31530085 0.4763159 0.33046156 -0.50764704 -0.600858 -0.0736373 -0.25838727
-0.49782786 -0.1405002 -0.5314306 -0.12793072 0.045963578 0.23688844 -0.5861943 0.52539366
0.3067392 -0.47363254 -0.35445642 0.15703781 -0.14939368 0.26719692 -0.05920378 0.43895766
-0.14334719 0.53183836 -0.19117534 -0.14383954 -0.11520294 -0.24438624 -0.28459027 0.0328509
0.27690747 0.00826904 -0.03369814 -0.40121737 -0.88420796 -0.04423623 -0.3411376 -0.0015920596
-0.09684016 -0.60950273 0.535617 -0.5781186 0.65846896 -0.09110039 -0.37328726 0.37532872
-0.35640794 -0.5512116 0.31379884 0.6832446 -0.051440865 -0.3861502 -0.062688015 -0.034398578
-0.56373304 -0.3316192 -0.46002638 0.82887954 -0.24650016 0.51312906 -0.11008723 0.22624345
-0.14383711 -0.14264378 -0.84294283 0.02744593 -0.7505649 0.24817973 0.13374566 -0.47716066
0.07363633 0.5270647 -0.08985968 0.036009666 -0.049836215 0.4396141 -0.09368721 -0.46350363
-0.41846445 0.46642196 0.36921415 -0.6028029 -0.34043887 -0.13904053 -0.42696598 0.74165154
0.5533841 -0.38887113 -0.12760693 -0.49799412 0.2195816 0.071675785 0.37668788 0.62807184
0.14085655 -1.0137979 -0.53916574 0.5464944 -0.66807145 -0.7826974 -0.3104681 -0.021947164
-0.28817362 0.077208154 -0.1395412 -0.57971454 0.44126406 -0.07370137 0.049919628 0.7113167
-0.18020645 0.015896145 -0.4095147 -0.6953597 0.3372883 -0.13887452 -0.06107832 -0.60395646
0.6194862 0.13946572 0.1631022 -0.2698078 -0.44791326 0.13145919 0.1247492 -0.66023386
0.17022271 -0.07831413 0.30763808 -0.1307776 0.052891802 0.019835358 0.13032685 -0.25001055
-0.4314443 -0.3297119 -0.0035894 0.22807308 0.22040032 -0.037704054 0.19204997 0.119411916
-0.28998902 -0.10460209 0.04431991 0.45467243 0.5479157 0.105587885 0.74841213 -0.16077092
-0.13428465 0.07045365 -0.5664143 0.30590293 0.09303282 -0.49114037 0.042788684 -0.050935324
0.3005918 0.19899794 -0.05111782 -0.4246041 0.061750233 -0.40521702 0.2820765 -1.074762
-0.22308503 0.10348203 0.039627995 -0.2388242 0.13812436 0.26083577 0.3837411 0.1353257
0.08765751 0.20831706 0.27083057 0.34650397 -0.10957792 0.1758175 -0.2328701 -0.12012069
0.0049617467 0.013245139 -0.41526067 -0.13870738 -0.6421346 0.4082111 0.23592141 0.046015985
00000000: d1cb 2d3f 0e12 103f 8643 9f3f fe87 8f3e
00000010: ed93 d53d 1a6e 96be 7ff1 13bf 48b6 a63e
00000020: 4046 1fbe 51c4 cbbd 26aa 1f3e b09e 80be
00000030: f836 79be aff0 e5be 5568 a9be 0ff0 053e
00000040: 5c92 583d 625b b63d b30b 8f3d d14f 0fbe
00000050: 6864 f93d 6d2a 0f3d 31eb 763e ef1b db3e
00000060: e205 3bbe 6c25 5bbe 8657 40bc b936 243f
00000070: d586 313f dd3f dbbd 6f2a ce3e 9323 d5be
00000080: e22a c1bd a248 14be c614 fc3e 1818 393b
00000090: a0a9 0ebf 96c8 c7be 2cf9 cb3e 37ae b2bc
000000a0: bccb 9a3e d5f8 86be fd87 643d 5372 dbbe
000000b0: f272 63bc 8255 fb3e 984b 64be 7208 05be
000000c0: f065 243e 2d25 48bf 6e0e 84be 0f4f abbe
000000d0: 4a4e 58bd 0e5e 27be eae3 f63a f533 163d
000000e0: 515a 29be 10cb 7ebe 1ec3 0fbf d214 473f
000000f0: a357 1bbe 9239 a9bd 8bc4 78be 0410 78bd
00000100: a5f2 43bf 1d6f a1be addf f33e 4232 a93e
00000110: 28f5 01bf d4d1 19bf 27cf 96bd 564b 84be
00000120: 4be3 febe 49df 0fbe d60b 08bf 4500 03be
00000130: 4e44 3c3d e292 723e d410 16bf 3380 063f
00000140: ec0c 9d3e f77f f2be 507b b5be 85ce 203e
00000150: a8fa 18be 09ce 883e aa7f 72bd 0fbf e03e
00000160: 9bc9 12be 8f26 083f 78c3 43be ac4a 13be
00000170: 85ef ebbd 6340 7abe d1b5 91be aa8e 063d
00000180: d1c6 8d3e de7a 073c 1007 0abd 5d6c cdbe
00000190: 745b 62bf 0d31 35bd 96a9 aebe a8ac d0ba
000001a0: 2254 c6bd 5f08 1cbf 321e 093f 95ff 13bf
000001b0: 6c91 283f d792 babd 821f bfbe 162b c03e
000001c0: 1a7b b6be 341c 0dbf 3eaa a03e 1ee9 2e3f
000001d0: a8b3 52bd 7bb5 c5be 9362 80bd 86e5 0cbd
000001e0: cf50 10bf fec9 a9be 9488 ebbe 7331 543f
000001f0: 8a6a 7cbe 6d5c 033f 6a75 e1bd 5dac 673e
00000200: 094a 13be 3611 12be 1acb 57bf 49d6 e03c
00000210: 0525 40bf d422 7e3e 9ff4 083e 674e f4be
00000220: a5ce 963d b6ed 063f 5a08 b8bd df7e 133d
00000230: 0f21 4cbd 1915 e13e 14df bfbd 5950 edbe
00000240: f940 d6be dcce ee3e a309 bd3e 4a51 1abf
00000250: 014e aebe a460 0ebe 499b dabe e0dc 3d3f
00000260: 95aa 0d3f 1e1a c7be 64ab 02be 16f9 febe
00000270: 00da 603e c1ca 923d 3cdd c03e 51c9 203f
00000280: b33c 103e 21c4 81bf c406 0abf 0fe7 0b3f
00000290: bb06 2bbf db5e 48bf adf5 9ebe 8aca b3bc
000002a0: 7e8b 93be 4f1f 9e3d e3e3 0ebe 2c68 14bf
000002b0: 5ded e13e bef0 96bd 8678 4c3d da18 363f
000002c0: 0a88 38be a238 823c e9ab d1be 1803 32bf
000002d0: 0db1 ac3e 1f35 0ebe 432d 7abd e49c 1abf
000002e0: a696 1e3f 1ad0 0e3e 4304 273e 3f24 8abe
000002f0: e354 e5be 3d9d 063e 827c ff3d 1605 29bf
00000300: dd4e 2e3e 2963 a0bd bd82 9d3e 90ea 05be
00000310: 13a5 583d c37d a23c 6774 053e 6201 80be
00000320: 44e6 dcbe 00d0 a8be 243c 6bbb fd8b 693e
00000330: 9fb0 613e 916f 1abd bfa8 443e 3c8e f43d
00000340: 7179 94be 9f39 d6bd cb88 353d d3ca e83e
00000350: 3444 0c3f 763e d83d f097 3f3f 22a1 24be
00000360: ea81 09be 014a 903d 8700 11bf 4f9f 9c3e
00000370: fe87 be3d c076 fbbe 3043 2f3d 8fa1 50bd
00000380: 2be7 993e 1ec6 4b3e eb60 51bd b565 d9be
00000390: d0ed 7c3d 9b78 cfbe 556c 903e cd91 89bf
000003a0: 6770 64be 63ee d33d f750 223d 558e 74be
000003b0: 7970 0d3e 448c 853e b779 c43e d292 0a3e
000003c0: c885 b33d 1151 553e 4eaa 8a3e f868 b13e
000003d0: 636a e0bd 8109 343e 8075 6ebe d601 f6bd
000003e0: 2696 a23b 2402 593c 0c9d d4be 4f09 0ebe
000003f0: ef62 24bf 0c01 d13e 6295 713e 427b 3c3d

network_body._body_endoder.seq_layers.0.bias f4 [128]
0.0 0.0 0.0 0.0 0.0 0.0 0.0 0.0
0.0 0.0 0.0 0.0 0.0 0.0 0.0 0.0
0.0 0.0 0.0 0.0 0.0 0.0 0.0 0.0
0.0 0.0 0.0 0.0 0.0 0.0 0.0 0.0
0.0 0.0 0.0 0.0 0.0 0.0 0.0 0.0
0.0 0.0 0.0 0.0 0.0 0.0 0.0 0.0
0.0 0.0 0.0 0.0 0.0 0.0 0.0 0.0
0.0 0.0 0.0 0.0 0.0 0.0 0.0 0.0
0.0 0.0 0.0 0.0 0.0 0.0 0.0 0.0
0.0 0.0 0.0 0.0 0.0 0.0 0.0 0.0
0.0 0.0 0.0 0.0 0.0 0.0 0.0 0.0
0.0 0.0 0.0 0.0 0.0 0.0 0.0 0.0
0.0 0.0 0.0 0.0 0.0 0.0 0.0 0.0
0.0 0.0 0.0 0.0 0.0 0.0 0.0 0.0
0.0 0.0 0.0 0.0 0.0 0.0 0.0 0.0
0.0 0.0 0.0 0.0 0.0 0.0 0.0 0.0
00000000: 0000 0000 0000 0000 0000 0000 0000 0000
00000010: 0000 0000 0000 0000 0000 0000 0000 0000
00000020: 0000 0000 0000 0000 0000 0000 0000 0000
00000030: 0000 0000 0000 0000 0000 0000 0000 0000
00000040: 0000 0000 0000 0000 0000 0000 0000 0000
00000050: 0000 0000 0000 0000 0000 0000 0000 0000
00000060: 0000 0000 0000 0000 0000 0000 0000 0000
00000070: 0000 0000 0000 0000 0000 0000 0000 0000
00000080: 0000 0000 0000 0000 0000 0000 0000 0000
00000090: 0000 0000 0000 0000 0000 0000 0000 0000
000000a0: 0000 0000 0000 0000 0000 0000 0000 0000
000000b0: 0000 0000 0000 0000 0000 0000 0000 0000
000000c0: 0000 0000 0000 0000 0000 0000 0000 0000
000000d0: 0000 0000 0000 0000 0000 0000 0000 0000
000000e0: 0000 0000 0000 0000 0000 0000 0000 0000
000000f0: 0000 0000 0000 0000 0000 0000 0000 0000
00000100: 0000 0000 0000 0000 0000 0000 0000 0000
00000110: 0000 0000 0000 0000 0000 0000 0000 0000
00000120: 0000 0000 0000 0000 0000 0000 0000 0000
00000130: 0000 0000 0000 0000 0000 0000 0000 0000
00000140: 0000 0000 0000 0000 0000 0000 0000 0000
00000150: 0000 0000 0000 0000 0000 0000 0000 0000
00000160: 0000 0000 0000 0000 0000 0000 0000 0000
00000170: 0000 0000 0000 0000 0000 0000 0000 0000
00000180: 0000 0000 0000 0000 0000 0000 0000 0000
00000190: 0000 0000 0000 0000 0000 0000 0000 0000
000001a0: 0000 0000 0000 0000 0000 0000 0000 0000
000001b0: 0000 0000 0000 0000 0000 0000 0000 0000
000001c0: 0000 0000 0000 0000 0000 0000 0000 0000
000001d0: 0000 0000 0000 0000 0000 0000 0000 0000
000001e0: 0000 0000 0000 0000 0000 0000 0000 0000
000001f0: 0000 0000 0000 0000 0000 0000 0000 0000

network_body._body_endoder.seq_layers.2.weight f4 [128, 128]
0.048619203 0.0039036456 0.04309894 0.21743049 0.19413775 -0.036676228 -0.07543558 -0.07993195
-0.11098984 -0.10956051 -0.034742262 0.028097462 -0.008041949 0.049678594 4.2559077e-06 0.068529986
0.089786924 -0.04303416 0.02275812 -0.019628417 0.1055493 -0.04909328 0.030209204 0.14768659
-0.021166028 0.16298479 -0.0051890244 0.015013433 0.0794622 -0.057014633 0.080547534 0.09482611
0.07406922 0.023648346 0.038821965 -0.05219285 -0.11902017 0.063702196 -0.021993797 0.027835129
0.0437892 -0.13108423 0.0731575 -0.048533387 0.028073607 0.02195137 -0.033065654 0.08146657
-0.011806857 -0.0491347 0.06632656 -0.08881247 0.0042140577 -0.0011656649 0.15526082 0.14885393
0.12872568 0.008914284 -0.03708174 0.04395989 -0.037720997 0.2158766 -0.052342508 0.08220418
-0.017727017 -0.09385113 0.057356074 0.044360332 0.011349852 0.10445773 -0.07073747 0.06511341
-0.08880937 0.07601009 -0.0048678056 0.08390205 0.020277552 0.01029119 0.024815511 -0.15960298
-0.02981705 0.080003835 -0.06084494 0.10815208 -0.021479454 -0.040022608 0.13514642 -0.011505045
-0.09482084 -0.10582911 0.016090179 0.04862978 -0.06099299 -0.14020914 -0.13061696 0.085472554
-0.05787838 0.007761714 -0.10257564 0.1303315 0.05477695 -0.04550626 0.04496797 0.0006307258
-0.091805995 0.0970591 0.06649945 -0.08250854 0.08730099 0.037998375 -0.059102025 0.057868287
0.052670226 0.06412057 -0.014273576 -0.010120094 0.0038768442 0.022567166 -0.019672379 -0.08528392
0.077060424 0.098297335 -0.11787426 -0.073969565 0.018298471 -0.05958961 -0.07490724 0.010578762
0.06414996 -0.034609523 -0.05965053 -0.13094313 -0.19197565 -0.15694037 -0.05674444 -0.02299599
-0.070748165 0.058008894 0.01281619 0.0050484287 -0.053573653 0.13385431 0.027538298 0.06255339
-0.003286479 0.005646318 -0.10485496 0.0165026 0.025881337 -0.1502846 -0.023971075 0.061873302
0.07613006 -0.06894818 -0.010077161 -0.12369867 0.00016158013 -0.052203443 0.07048164 0.13920635
-0.019827943 -0.14841813 0.033199042 0.13229351 -0.034502614 -0.11166056 -0.03094951 0.0031840184
0.006165254 0.056269735 0.11339016 0.020393945 0.11962676 0.020106507 0.08819016 -0.11710152
0.006641619 -0.04594893 -0.06342813 0.0565281 -0.03406746 0.05842716 0.03068129 0.08414209
-0.16011986 -0.03953476 -0.19850965 0.023907568 -0.04243866 0.13256936 0.08973187 -0.0874132
0.015719857 0.10153016 -0.07096912 -0.067865014 0.0154695725 -0.006555254 0.059769657 0.08934586
-0.014739703 -0.11834513 0.16367039 -0.2171381 -0.05855221 0.008801397 0.03185695 -0.21247289
-0.033377636 -0.13751096 0.19462919 0.06266749 0.016276198 0.014177654 0.31005841 0.24316344
0.14961305 -0.016018689 -0.11395928 0.07128064 -0.13510484 -0.06382877 -0.14918843 -0.1715395
-0.024978569 -0.07239324 0.09657067 -0.057678882 0.11622883 -0.07084492 -0.01886626 0.10005466
0.03630959 -0.05668494 0.03788184 -0.13392508 0.008272636 -0.16014223 -0.046609707 0.039843835
-0.072340764 -0.0061047403 -0.122749284 -0.07332974 0.056914292 -0.019919489 0.21425079 0.0014723187
-0.083401285 0.0010359837 0.013072877 -0.25022238 -0.16246101 0.075947516 0.031011483 0.021009991
00000000: ee24 473d 4ed4 7f3b 8488 303d 19a6 5e3e
00000010: 0ccc 463e d039 16bd f87d 9abd 5db3 a3bd
00000020: a44e e3bd 4361 e0bd e74d 0ebd a62c e63c
00000030: 61c2 03bc c87b 4b3d f8cd 8e36 7359 8c3d
00000040: 35e2 b73d 9644 30bd 3d6f ba3c c6cb a0bc
00000050: 3b2a d83d 0916 49bd 4b79 f73c 273b 173e
00000060: 6164 adbc 7ce5 263e b108 aabb e7fa 753c
00000070: 14bd a23d 2d88 69bd 1bf6 a43d 3134 c23d
00000080: 9ab1 973d 2dba c13c c803 1f3d 2bc8 55bd
00000090: d9c0 f3bd 4c76 823d 562c b4bc 7f06 e43c
000000a0: 4e5c 333d f23a 06be 99d3 953d f2ca 46bd
000000b0: 9ffa e53c 5cd3 b33c da6f 07bd f2d7 a63d
000000c0: 8c71 41bc 7841 49bd 38d6 873d 50e3 b5bd
000000d0: 1416 8a3b 39c9 98ba b1fc 1e3e 2a6d 183e
000000e0: aad0 033e 380d 123c 06e3 17bd 490f 343d
000000f0: 5581 1abd c10e 5d3e 1965 56bd aa5a a83d
00000100: 4038 91bc 0535 c0bd 34ee 6a3d 2eb3 353d
00000110: bbf4 393c efed d53d cfde 90bd 2e5a 853d
00000120: b0e1 b5bd 2eab 9b3d 1d82 9fbb d7d4 ab3d
00000130: 1c1d a63c 619c 283c e649 cb3c f76e 23be
00000140: e342 f4bc 0dd9 a33d 8b38 79bd d67e dd3d
00000150: aef5 afbc bfee 23bd d363 0a3e a87f 3cbc
00000160: 6e31 c2bd efbc d8bd 8dcf 833c 0530 473d
00000170: c9d3 79bd fc92 0fbe 74c0 05be 3c0c af3d
00000180: e111 6dbd fa55 fe3b 2d13 d2bd 9f75 053e
00000190: cc5d 603d c664 3abd 5630 383d 4b57 253a
000001a0: c804 bcbd ecc6 c63d dd30 883d 3dfa a8bd
000001b0: ddca b23d 2fa4 1b3d f714 72bd 4c07 6d3d
000001c0: bcbc 573d a551 833d b8db 69bc c0ce 25bc
000001d0: a712 7e3b c7de b83c f827 a1bc 56a9 aebd
000001e0: dbd1 9d3d 1d50 c93d 0f68 f1bd 5b7d 97bd
000001f0: ade6 953c 3c14 74bd f868 99bd 8b52 2d3c
00000200: 0e61 833d b7c2 0dbd 1d54 74bd f515 06be
00000210: 4495 44be fab4 20be dc6c 68bd 1662 bcbc
00000220: 6ae4 90bd bc9a 6d3d fffa 513c 4a6d a53b
00000230: 0c70 5bbd 1b11 093e ff97 e13c fe1b 803d
00000240: f861 57bb c004 b93b 33be d6bd 7630 873c
00000250: 1905 d43c 35e4 19be fd5e c4bc dc6e 7d3d
00000260: 14ea 9b3d b434 8dbd ad1a 25bc ba55 fdbd
00000270: d66d 2939 47d3 55bd ae58 903d 1c8c 0e3e
00000280: 366e a2bc ecfa 17be b8fb 073d f377 073e
00000290: 9d52 0dbd 4bae e4bd d489 fdbc f7aa 503b
000002a0: e605 ca3b 187b 663d 1a39 e83d 3411 a73c
000002b0: e0fe f43d 67b6 a43c 0b9d b43d ecd2 efbd
000002c0: f0a1 d93b f234 3cbd 9be6 81bd 028a 673d
000002d0: 528a 0bbd 5151 6f3d 5457 fb3c b052 ac3d
000002e0: 76f6 23be 33ef 21bd 1d46 4bbe ced9 c33c
000002f0: 29d4 2dbd 43c0 073e 58c5 b73d b105 b3bd
00000300: eec6 803c 0bef cf3d 4258 91bd d0fc 8abd
00000310: 1774 7d3c 75cd d6bb 07d1 743d f6fa b63d
00000320: cc7e 71bc ee5e f2bd 3699 273e 7359 5ebe
00000330: 71d4 6fbd bc33 103c 6f7c 023d 7e92 59be
00000340: fdb6 08bd accf 0cbe e04c 473e d057 803d
00000350: a955 853c 6449 683c fabf 9e3e d6ff 783e
00000360: 2a34 193e a039 83bc 7c63 e9bd 96fb 913d
00000370: ec58 0abe a8b8 82bd dac4 18be 0da8 2fbe
00000380: db9f ccbc e842 94bd d8c6 c53d b140 6cbd
00000390: 6109 ee3d 2417 91bd 6a8d 9abc 75e9 cc3d
000003a0: 5db9 143d 782e 68bd fd29 1b3d a823 09be
000003b0: f389 073c 53fc 23be d2e9 3ebd 4a33 233d
000003c0: 6527 94bd 460a c8bb fa63 fbbd e72d 96bd
000003d0: f61e 693d 322e a3bc 8f64 5b3e d1fa c03a
000003e0: 4bce aabd d8c9 873a 9f2f 563c 261d 80be
000003f0: 2e5c 26be 5f8a 9b3d cb0b fe3c 251d ac3c

network_body._body_endoder.seq_layers.2.bias f4 [128]
0.0 0.0 0.0 0.0 0.0 0.0 0.0 0.0
0.0 0.0 0.0 0.0 0.0 0.0 0.0 0.0
0.0 0.0 0.0 0.0 0.0 0.0 0.0 0.0
0.0 0.0 0.0 0.0 0.0 0.0 0.0 0.0
0.0 0.0 0.0 0.0 0.0 0.0 0.0 0.0
0.0 0.0 0.0 0.0 0.0 0.0 0.0 0.0
0.0 0.0 0.0 0.0 0.0 0.0 0.0 0.0
0.0 0.0 0.0 0.0 0.0 0.0 0.0 0.0
0.0 0.0 0.0 0.0 0.0 0.0 0.0 0.0
0.0 0.0 0.0 0.0 0.0 0.0 0.0 0.0
0.0 0.0 0.0 0.0 0.0 0.0 0.0 0.0
0.0 0.0 0.0 0.0 0.0 0.0 0.0 0.0
0.0 0.0 0.0 0.0 0.0 0.0 0.0 0.0
0.0 0.0 0.0 0.0 0.0 0.0 0.0 0.0
0.0 0.0 0.0 0.0 0.0 0.0 0.0 0.0
0.0 0.0 0.0 0.0 0.0 0.0 0.0 0.0
00000000: 0000 0000 0000 0000 0000 0000 0000 0000
00000010: 0000 0000 0000 0000 0000 0000 0000 0000
00000020: 0000 0000 0000 0000 0000 0000 0000 0000
00000030: 0000 0000 0000 0000 0000 0000 0000 0000
00000040: 0000 0000 0000 0000 0000 0000 0000 0000
00000050: 0000 0000 0000 0000 0000 0000 0000 0000
00000060: 0000 0000 0000 0000 0000 0000 0000 0000
00000070: 0000 0000 0000 0000 0000 0000 0000 0000
00000080: 0000 0000 0000 0000 0000 0000 0000 0000
00000090: 0000 0000 0000 0000 0000 0000 0000 0000
000000a0: 0000 0000 0000 0000 0000 0000 0000 0000
000000b0: 0000 0000 0000 0000 0000 0000 0000 0000
000000c0: 0000 0000 0000 0000 0000 0000 0000 0000
000000d0: 0000 0000 0000 0000 0000 0000 0000 0000
000000e0: 0000 0000 0000 0000 0000 0000 0000 0000
000000f0: 0000 0000 0000 0000 0000 0000 0000 0000
00000100: 0000 0000 0000 0000 0000 0000 0000 0000
00000110: 0000 0000 0000 0000 0000 0000 0000 0000
00000120: 0000 0000 0000 0000 0000 0000 0000 0000
00000130: 0000 0000 0000 0000 0000 0000 0000 0000
00000140: 0000 0000 0000 0000 0000 0000 0000 0000
00000150: 0000 0000 0000 0000 0000 0000 0000 0000
00000160: 0000 0000 0000 0000 0000 0000 0000 0000
00000170: 0000 0000 0000 0000 0000 0000 0000 0000
00000180: 0000 0000 0000 0000 0000 0000 0000 0000
00000190: 0000 0000 0000 0000 0000 0000 0000 0000
000001a0: 0000 0000 0000 0000 0000 0000 0000 0000
000001b0: 0000 0000 0000 0000 0000 0000 0000 0000
000001c0: 0000 0000 0000 0000 0000 0000 0000 0000
000001d0: 0000 0000 0000 0000 0000 0000 0000 0000
000001e0: 0000 0000 0000 0000 0000 0000 0000 0000
000001f0: 0000 0000 0000 0000 0000 0000 0000 0000

value_heads.value_heads.extrinsic.weight f4 [1, 128]
0.07841587 0.08290693 -0.051729545 0.05378881 -0.13751855 0.08464983 0.099585384 -0.16251332
0.20672339 -0.1426903 0.172358 -0.122639194 -0.15410061 0.11053401 0.152812 0.14732814
-0.0053427815 0.20402932 -0.010815814 -0.031181261 0.21162131 -0.11258782 -0.088798046 -0.209764
-0.12712196 0.20148093 0.05527404 0.054482073 -0.10096275 -0.20847327 -0.13179663 -0.19764577
-0.0743044 -0.17826124 -0.0011773854 0.16250867 -0.05109772 0.20530868 -0.006563619 0.035276353
0.16231695 0.021601647 0.18561888 0.13069457 0.03806427 -0.11994565 0.19078472 0.024435446
0.16981676 -0.16575265 -0.18690932 -0.20706216 -0.13915914 -0.2003306 -0.1781815 -0.029116705
-0.1914904 -0.04401456 0.1515615 0.06231916 0.03853759 -0.14710078 -0.14947341 0.07911724
0.060165912 -0.14333743 -0.1938692 -0.03986053 0.064866245 -0.029787526 0.20996258 -0.12848666
-0.12416859 0.041667253 0.053034514 -0.13715944 0.05926779 -0.06901227 -0.07961285 -0.047455072
0.10742596 0.08768579 -0.17278567 -0.0882473 0.1537706 0.09844181 0.2093986 -0.1884679
0.025995404 0.030964866 0.08021662 -0.16231123 0.1538389 -0.13103223 -0.048679292 -0.19532168
0.12844828 0.14185646 -0.11134696 -0.159133 -0.056269333 0.12807783 0.08936253 -0.03375207
-0.12664723 -0.009202912 -0.10390799 0.083020926 -0.14767662 0.14048037 0.05890739 0.18614382
-0.10554822 0.14075184 -0.0098338425 0.13255632 0.08419457 0.035378844 -0.15283033 0.06258693
-0.15423846 0.14604232 -0.13359013 0.026231393 0.12271264 -0.012783036 0.023833737 -0.09169939
00000000: 8098 a03d 1ccb a93d 5ce2 53bd a851 5c3d
00000010: aad1 0cbe e45c ad3d 6cf3 cb3d e469 26be
00000020: 4caf 533e 681d 12be 9e7e 303e 422a fbbd
00000030: 8dcc 1dbe a85f e23d c07a 1c3e 30dd 163e
00000040: 8012 afbb 10ed 503e d034 31bc d86f ffbc
00000050: 42b3 583e 7194 e6bd c0db b5bd 60cc 56be
00000060: 422c 02be 0451 4e3e 0867 623d 9828 5f3d
00000070: 8fc5 cebd 047a 55be b2f5 06be a763 4abe
00000080: e82c 98bd 1d8a 36be 8052 9aba ac68 263e
00000090: d84b 51bd 703c 523e a013 d7bb f07d 103d
000000a0: 6a36 263e f0f5 b03c e012 3e3e ccd4 053e
000000b0: 48e9 1b3d 11a6 f5bd 125d 433e d82c c83c
000000c0: 72e4 2d3e 10bb 29be 2865 3fbe 1a08 54be
000000d0: bc7f 0ebe 7723 4dbe 3675 36be 2886 eebc
000000e0: 0f16 44be 9c48 34bd f032 1b3e 6042 7f3d
000000f0: 98d9 1d3d 96a1 16be 8f0f 19be 3808 a23d
00000100: 8870 763d 0cc7 12be a685 46be cc44 23bd
00000110: 98d8 843d f804 f4bc 6e00 573e 0292 03be
00000120: 1a4c febd 48ab 2a3d b83a 593d 8673 0cbe
00000130: c8c2 723d 4e56 8dbd 100c a3bd 4060 42bd
00000140: 2402 dc3d 9c94 b33d baee 30be 00bb b4bd
00000150: 0a76 1d3e dc9b c93d 966c 563e bbfd 40be
00000160: 50f4 d43c 08aa fd3c 9c48 a43d ea34 26be
00000170: f287 1d3e 502d 06be f063 47bd 6802 48be
00000180: f287 033e d242 113e e009 e4bd c3f3 22be
00000190: ac7a 66bd d626 033e b403 b73d 9c3f 0abd
000001a0: d0af 01be d0c7 16bc b6cd d4bd e006 aa3d
000001b0: 8a38 17be 16da 0f3e e048 713d 7c9c 3e3e
000001c0: aa29 d8bd 4021 103e 201e 21bc d8bc 073e
000001d0: 346e ac3d 68e9 103d 8e7f 1cbe 942d 803d
000001e0: b0f0 1dbe 1e8c 153e dacb 08be 38e3 d63c
000001f0: c450 fb3d f06f 51bc f83e c33c e4cc bbbd
