Assets/ML-Agents/Examples/RollerRex/results/rollerrex/My Behavior/My Behavior-2496.onnx (onnx, 73663 bytes, 7 tensors)

action_model._continuous_distribution.log_sigma f4 [1, 2]
00000000: 0000 0000 0000 0000
0.0 0.0

action_model._continuous_distribution.mu.bias f4 [2]
00000000: 0000 0000 0000 0000
0.0 0.0

action_model._continuous_distribution.mu.weight f4 [2, 128]
00000000: ca69 e13b 2a57 563c e3a3 c1bc 65e9 0fbc
00000010: 77af 91bb 0f7e 043c 4b3d ad3b 4354 c1bb
00000020: 1376 a63b 65fb b1bc 75f1 b2bc 9f0e 3c3c
00000030: 1f50 f73c 61de 39bc 72f4 eab9 f057 f4bb
00000040: d85b 203c 57a4 39bc b3ba 52bc 91d1 3e3c
00000050: 334d edbb 7294 b03b 00d5 cf3c 8c17 cb3a
00000060: 0084 97bb 8206 ce3c 227b b2bc 2be9 69bc
00000070: 5076 f0bb a101 123c 1b77 0e3a e887 b33c
00000080: b2f3 8dbc 70fc 0dbc f2c6 b4bc 825b a1bc
00000090: 9403 883c add4 fabb 9aee 8ebb 73d4 333d
000000a0: ef41 033d 58c3 853c 0bda 62bc a240 f1bc
000000b0: 7930 ae3c 3a3b 933b 7aef 703c a408 0dbc
000000c0: e80c a43c 9f43 d1bc 66eb 2dbc bf85 01bc
000000d0: 6412 29bc fd68 e03a b704 74bc b2c4 723c
000000e0: 46ee 253b dbf4 9cb9 5db6 203c c7d0 2dbd
000000f0: 0611 c03c d032 46bc 472d e8ba de07 bcbc
00000100: 8d7f 5bbb 7d28 733c 1df6 673c b321 64bc
00000110: c8e3 ce3b d016 f0bc 11a9 0a3c f05e 57bc
00000120: 1f66 34bc 9de4 4abc 0ef3 1bbc 6edc 953c
00000130: d3c1 d03b 8a51 103a fa2e 603c 792c 873b
00000140: 87a0 483c 9709 24bd 10a0 3bbc e7dd 7bbb
00000150: 95fe 613a e251 db3b 174a 873b ba2f e13a
00000160: 2d1e 6e3c ebcf b5bc 9430 8cbb dcc6 b2bc
00000170: 826b 56bc 6dc7 0a3c ea66 76bb 27e6 ebbb
00000180: b524 e33c 145d b33c 1e49 45bc 1bda d73c
00000190: cf68 95bc bf4a dbbb 7347 babb b21e 2abc
000001a0: b3f7 b0bc 2b64 443c 277a d5bc 7804 9e3b
000001b0: 371c bbb9 78a0 a33b f301 a33c 8d92 eabc
000001c0: cc92 07bc 741b 233b 5fe5 a7bc b2bb 1abc
000001d0: bff0 9f3b cc69 2ebb 40dc 44bc bf5d f93b
000001e0: 1b4b f23a 7b87 3f3b 1623 403c f3c4 41bc
000001f0: 4e48 933c 655e f4bc 8f0c b13c d9f3 923c
00000200: 637a 1cbb 02ad f3ba 5586 0bbd c98e 2e3b
00000210: 5b55 493c 53e8 e1bc 4fc9 24bc 66f0 903a
00000220: 458c 7abb b2f8 9fbb 2b0f 9dbc 854f 773c
00000230: 6163 953b 62fe f13c 3d10 a23c 6d9a 693b
00000240: 03c2 8bb7 d40f 973c be21 453b efaa 813c
00000250: 3ba2 84bb c75c 283c b555 933a d782 653c
00000260: 6bed 38bb 9f92 023d 868f c9bc 1633 81bc
00000270: 5360 db3b 4a57 6fbb 8785 cbba cd1b e2bb
00000280: 5cd6 083d 02a4 163c 3d5b e33c 284a 023c
00000290: 93b6 073c 3850 b2bc e30b eebc 8860 9e3c
000002a0: ee60 343c 27cf c2bc 4e5c 893c b3b3 913c
000002b0: 3f51 ab3c 1cc2 b3bc 25ef 643c d3b3 903c
000002c0: 9bd9 df3c 7b59 12bb a544 123c 1a69 21bc
000002d0: a207 abbb 53bc 33bc ffd5 093d 3388 cb3c
000002e0: 2deb e73c 4748 f73b dceb 093b dbe0 b3bb
000002f0: ae1b 953c 7f8e 633c f68a 0d3c be14 053d
00000300: cb72 cabc 0eba 15bc b77e 763a 8d70 5abc
00000310: 902a 2a3b ea35 b03b 96a1 2ebc 5fb2 d0bb
00000320: 320f f43c 40e0 11bd 8c6f 9e3a 6146 c2bb
00000330: b898 e53a 139b 55bc 02eb 903b dfd6 933b
00000340: aaac b93c c82b f3bb ddc2 703c 31eb a6bc
00000350: f250 d43b da84 2b3c 5764 c03b 42ec 183c
00000360: 65c2 fa3a 1243 dd3c 4bb2 f03b 15db 473c
00000370: 2297 ddbc 0558 a7bc 5bbe 893c 87f4 7fbc
00000380: 9b60 6bbc 18f3 243c 87ad 89bc 09d1 ad3c
00000390: 7745 463c 5dd1 70bc 1ab9 50bc 0599 cfbc
000003a0: bb10 26bd 7f8e db3c 462f 1c3c 6372 f6bb
000003b0: 8317 52bc a3e2 013d eb55 703c 6491 34bd
000003c0: 1906 123d adec 3d3c 3bc4 043c d857 5dbc
000003d0: c8a5 563b acff 063b 5b1b 93bc cdef 5fba
000003e0: 1287 ffb9 075c 153c 20f1 d6bc c1d0 1ebc
000003f0: ae12 913c 2ad0 7abc 88b6 aabb b955 8bbb
0.006879066 0.013082305 -0.023637718 -0.008783673 -0.004445966 0.008086695 0.0052868477 -0.0058999374
0.0050799935 -0.02172632 -0.021843651 0.011478095 0.030189572 -0.011344523 -0.00044814084 -0.007456772
0.009787522 -0.011330686 -0.012861895 0.011646644 -0.007241869 0.00538879 0.025370121 0.0015494688
-0.00462389 0.025149588 -0.02178723 -0.014276783 -0.0073383227 0.008911521 0.0005434618 0.021915391
-0.017328117 -0.008666143 -0.02206752 -0.019696955 0.016603269 -0.0076547475 -0.0043619396 0.04390378
0.0320453 0.016328499 -0.013845931 -0.029449765 0.021263348 0.0044931443 0.014705533 -0.008608017
0.020025685 -0.02554494 -0.010615205 -0.007905423 -0.010319326 0.0017121133 -0.014893702 0.014817404
0.0025319024 -0.0002993707 0.009809104 -0.042435434 0.023445617 -0.012097076 -0.0017713689 -0.02295297
-0.0033492774 0.014841196 0.014157799 -0.01392405 0.0063137747 -0.029307753 0.00846316 -0.013145193
-0.011010676 -0.012383607 -0.009518398 0.018293586 0.006370762 0.00055053143 0.013683075 0.0041251746
0.012245304 -0.040048208 -0.011451736 -0.0038431825 0.00086210045 0.006693111 0.0041287052 0.0017180361
0.014533562 -0.02219387 -0.004278252 -0.02182334 -0.013087155 0.008470398 -0.0037597963 -0.007199067
0.027727464 0.021894969 -0.012041358 0.026349118 -0.018238453 -0.00669226 -0.005684787 -0.010383295
-0.021602487 0.0119867725 -0.026059223 0.00482231 -0.0003568844 0.0049934946 0.01989839 -0.028634334
-0.008274745 0.002488819 -0.020495115 -0.009444164 0.004880994 -0.0026613353 -0.012015402 0.0076100524
0.0018485518 0.002922504 0.011727115 -0.0118267415 0.017978813 -0.029830167 0.021612434 0.017938541
-0.002387666 -0.0018590989 -0.034063656 0.00266354 0.012288417 -0.027576601 -0.010057761 0.0011057972
-0.003823058 -0.0048819417 -0.019172272 0.0150946425 0.004558966 0.029540244 0.019783134 0.0035645023
-1.6660435e-05 0.018440165 0.0030079926 0.015828578 -0.0040476597 0.010276026 0.0011240753 0.014008245
-0.0028217684 0.03187811 -0.02460457 -0.01577143 0.0066948324 -0.0036520534 -0.0015527465 -0.006900287
0.033407554 0.009194376 0.027753467 0.007952251 0.008283275 -0.021766767 -0.029058402 0.019333139
0.011009438 -0.023780419 0.016767647 0.017785883 0.020912765 -0.021943145 0.013973032 0.017663872
0.027325442 -0.0022331167 0.008927499 -0.009851718 -0.0052194158 -0.010970193 0.03365135 0.024845218
0.028310383 0.007546458 0.0021045124 -0.0054894513 0.018201675 0.013888954 0.008639088 0.032490484
-0.02471294 -0.009138597 0.0009403037 -0.013332498 0.002596531 0.005377521 -0.010658642 -0.0063689197
0.029792402 -0.035614252 0.0012087687 -0.0059288 0.0017516827 -0.013037461 0.0044225464 0.0045116986
0.02266534 -0.0074209906 0.0146948965 -0.02037582 0.006479376 0.010468686 0.0058713364 0.009333672
0.001913142 0.02700952 0.007345473 0.012198229 -0.027049605 -0.020427713 0.016814401 -0.015622265
-0.014366294 0.010067724 -0.016806377 0.02121784 0.012101523 -0.014698354 -0.012739444 -0.02534152
-0.0405433 0.026801346 0.009532755 -0.00752096 -0.012822988 0.03171028 0.014668922 -0.044083968
0.035650346 0.011592072 0.008103426 -0.013509713 0.0032752622 0.002059917 -0.01795738 -0.0008542508
-0.00048738025 0.009116179 -0.026238024 -0.0096933255 0.017709102 -0.015308419 -0.0052097477 -0.0042521623

network_body._body_endoder.seq_layers.0.bias f4 [128]
00000000: 0000 0000 0000 0000 0000 0000 0000 0000
00000010: 0000 0000 0000 0000 0000 0000 0000 0000
00000020: 0000 0000 0000 0000 0000 0000 0000 0000
00000030: 0000 0000 0000 0000 0000 0000 0000 0000
00000040: 0000 0000 0000 0000 0000 0000 0000 0000
00000050: 0000 0000 0000 0000 0000 0000 0000 0000
00000060: 0000 0000 0000 0000 0000 0000 0000 0000
00000070: 0000 0000 0000 0000 0000 0000 0000 0000
00000080: 0000 0000 0000 0000 0000 0000 0000 0000
00000090: 0000 0000 0000 0000 0000 0000 0000 0000
000000a0: 0000 0000 0000 0000 0000 0000 0000 0000
000000b0: 0000 0000 0000 0000 0000 0000 0000 0000
000000c0: 0000 0000 0000 0000 0000 0000 0000 0000
000000d0: 0000 0000 0000 0000 0000 0000 0000 0000
000000e0: 0000 0000 0000 0000 0000 0000 0000 0000
000000f0: 0000 0000 0000 0000 0000 0000 0000 0000
00000100: 0000 0000 0000 0000 0000 0000 0000 0000
00000110: 0000 0000 0000 0000 0000 0000 0000 0000
00000120: 0000 0000 0000 0000 0000 0000 0000 0000
00000130: 0000 0000 0000 0000 0000 0000 0000 0000
00000140: 0000 0000 0000 0000 0000 0000 0000 0000
00000150: 0000 0000 0000 0000 0000 0000 0000 0000
00000160: 0000 0000 0000 0000 0000 0000 0000 0000
00000170: 0000 0000 0000 0000 0000 0000 0000 0000
00000180: 0000 0000 0000 0000 0000 0000 0000 0000
00000190: 0000 0000 0000 0000 0000 0000 0000 0000
000001a0: 0000 0000 0000 0000 0000 0000 0000 0000
000001b0: 0000 0000 0000 0000 0000 0000 0000 0000
000001c0: 0000 0000 0000 0000 0000 0000 0000 0000
000001d0: 0000 0000 0000 0000 0000 0000 0000 0000
000001e0: 0000 0000 0000 0000 0000 0000 0000 0000
000001f0: 0000 0000 0000 0000 0000 0000 0000 0000
0.0 0.0 0.0 0.0 0.0 0.0 0.0 0.0
0.0 0.0 0.0 0.0 0.0 0.0 0.0 0.0
0.0 0.0 0.0 0.0 0.0 0.0 0.0 0.0
0.0 0.0 0.0 0.0 0.0 0.0 0.0 0.0
0.0 0.0 0.0 0.0 0.0 0.0 0.0 0.0
0.0 0.0 0.0 0.0 0.0 0.0 0.0 0.0
0.0 0.0 0.0 0.0 0.0 0.0 0.0 0.0
0.0 0.0 0.0 0.0 0.0 0.0 0.0 0.0
0.0 0.0 0.0 0.0 0.0 0.0 0.0 0.0
0.0 0.0 0.0 0.0 0.0 0.0 0.0 0.0
0.0 0.0 0.0 0.0 0.0 0.0 0.0 0.0
0.0 0.0 0.0 0.0 0.0 0.0 0.0 0.0
0.0 0.0 0.0 0.0 0.0 0.0 0.0 0.0
0.0 0.0 0.0 0.0 0.0 0.0 0.0 0.0
0.0 0.0 0.0 0.0 0.0 0.0 0.0 0.0
0.0 0.0 0.0 0.0 0.0 0.0 0.0 0.0

network_body._body_endoder.seq_layers.0.weight f4 [128, 8]
00000000: 8e6c 223e 2926 00bf 3281 20be a2e5 c6be
00000010: c049 0e3e fa5d 033f dc8b 113f a2b7 d43c
00000020: a870 b33e 8073 8ebd fbde 58be 5de0 52be
00000030: 5f55 0e3f 4850 b03d f3f1 3b3f 24e4 16bf
00000040: af1a e33b b6f1 a6be 58d2 3f3e 32d7 583e
00000050: 7159 44be d86d e3bd 581d b6bd 0bbc 073e
00000060: 6c5d ea3e 3fc2 993e bc48 e53e 724a c73e
00000070: 8c27 323e 5396 1fbe 37bd 8dbd 41ab 17bf
00000080: 24f9 23bd ddbc edbe 13fd 903e cb4b 28be
00000090: 4e3c 9bbd fb93 4e3f f364 703e 2cd9 9cbe
000000a0: 9124 51be 5e68 43be 9e86 5f3e 7aa8 ee3e
000000b0: ae76 d03d 14d5 aabe 63ad 0e3f c870 d33e
000000c0: 1038 88bd 1a18 ce3d 5ba8 023f 29f4 163e
000000d0: ee45 47bf 1083 e03d 5440 4abd a6ff 223c
000000e0: 5d55 c6be a888 c33e 3bd0 d53e 0dfb bebe
000000f0: 1fc6 03be 8c4f c13e 00a2 61be 5ecb 89be
00000100: c89e 973e 5074 09bf e26e 9fbe 0452 eabe
00000110: 50d6 e9be 0a6e bebc b28c 323e 03ee 183f
00000120: b212 a33d 7e37 7abe b508 00bf 53bb 4d3f
00000130: fdda cabc 0098 23bf 8504 b5be afe6 613f
00000140: 7702 81be 2ccc b7be b509 2c3f 8e8a 643d
00000150: 3165 3e3e 015b 81be 3e21 28bd 14d5 063f
00000160: 9b01 7c3d 605d 173f 5fed 5dbf ee93 b93d
00000170: b2f2 bfbd 5e5a 043d 6035 1ebe fd3a b8bd
00000180: 13c0 c83e 01ab 87be aca4 1a3f 1ff3 c6bd
00000190: 54a2 483f 631e b3be 58ba 09be 31b4 38be
000001a0: 026e c53e 209e 8d3e 1163 073f 87a4 473f
000001b0: 94aa 47be 2fc4 80be 1683 fcbe 2c16 2e3e
000001c0: e97d 4dbe 079c 4c3f 360f c6bc b79c f63e
000001d0: 859b 2ebf 380b 7e3e c224 17bf 53c1 103e
000001e0: 6af3 d2bd b7c9 e1bd 7c6f d7be 22ce 24bf
000001f0: a114 0d3f 6e6d f6bd fdc4 cc3e d058 713d
00000200: 0489 ae3e f420 073f 10c3 353c 75ba 033f
00000210: 3124 59be fe10 ee3e 07ca 2d3f f1d6 f13d
00000220: 334f aebe 0a61 a0bd 1a6c bf3e 9a9e a7be
00000230: 645c f73e 4836 4e3d 8378 1dbf 8e10 0dbd
00000240: 0a24 233e 12de e53e 3be7 223d 472a 763e
00000250: af3d a33e f7a2 e03e aff1 27bd 43ad 343c
00000260: 5f93 babd afb2 69be b560 303d 78c8 a33e
00000270: eed6 513d ce36 6c3e 65e8 9b3e b4a5 793e
00000280: f52f 883c f7b3 823e bad6 95be 8a75 263e
00000290: f486 23bd 8ad9 91bf 6f26 d6bd c40e 483f
000002a0: 4cff 4abd d8bd 87be 96f3 5fbb a0c6 883c
000002b0: 2106 2a3f 30d8 69bd db79 04bf c39d 22bf
000002c0: 47cb 00bf b713 36be ae72 cd3e 1648 1cbf
000002d0: 2bb6 61bd b726 0abf df2d 07bd 8704 07bc
000002e0: 9016 2bbe 9e65 01bf e97b cabd 1138 8c3f
000002f0: cb2b 75be d619 3abe 0d43 89be b5a3 1dbb
00000300: d7c4 4b3b 2b6c 173f 2fb4 853d e270 313e
00000310: 6241 2c3e 38b5 363e cb79 58be 7dcc 253e
00000320: 4aac be3d 9390 afbe 4a88 ac3d 1afa 98bd
00000330: e635 db3d 371b 50be 7a09 ac3e eed1 d2be
00000340: 27b4 0bbf dc82 bb3c e044 eabd 73d0 193e
00000350: c9f4 8fbe 5513 8a3e 2b18 95bd 5f24 dc3e
00000360: 7476 37be 0ab4 833f 3fa1 4abe 9a01 cebd
00000370: 7515 87be 89d7 00bf 1f10 763e 627e 2c3e
00000380: 09d0 943b 3510 d73e b220 533e 8952 50be
00000390: ecc0 6c3e c923 e23e fad7 093f aabe 13be
000003a0: b916 82bf 9a90 823e 52da 85be cca5 69be
000003b0: 17c3 b7be bef7 4bbd a1c1 32bf 92fd 0d3e
000003c0: a09b b63d ce1e 043e c780 c0be eefb 69be
000003d0: 950d aa3d 785d 963e d8f0 b13e c277 8ebe
000003e0: b39c 1fbf 819e 30bd 70df 593e 13a8 cabe
000003f0: baa3 8c3e ed26 57be 3632 dc3e b5ce b03c
0.15861723 -0.5005823 -0.15674284 -0.3884707 0.13895321 0.5131527 0.56854033 0.02596647
0.35046887 -0.069556236 -0.2117881 -0.205934 0.55599016 0.086090624 0.7341606 -0.58941865
0.006930671 -0.32606286 0.18732584 0.2117584 -0.19174744 -0.111049354 -0.088923156 0.13255326
0.457744 0.3003101 0.44782054 0.38923985 0.17397898 -0.15584688 -0.069208555 -0.5924569
-0.04003252 -0.46433154 0.2831808 -0.16435163 -0.075798616 0.8069455 0.23476009 -0.3063444
-0.20424105 -0.19082782 0.21828696 0.46612912 0.10178886 -0.3336569 0.5573332 0.41296983
-0.06651318 0.10063191 0.5103814 0.14741577 -0.7784108 0.10962498 -0.049377754 0.009948647
-0.38737002 0.38190198 0.4176043 -0.37300912 -0.12868546 0.37756002 -0.22034454 -0.2691297
0.29613328 -0.53693104 -0.31139284 -0.45765698 -0.4567132 -0.02324583 0.17436484 0.5973818
0.0796255 -0.24435231 -0.50013286 0.8036396 -0.024762625 -0.6390381 -0.3535501 0.8824262
-0.25197193 -0.35897958 0.6720231 0.0557962 0.18593289 -0.25264743 -0.041047327 0.5266888
0.06152497 0.59126854 -0.86690325 0.090614185 -0.09372462 0.032312743 -0.15450048 -0.08995626
0.3920904 -0.26497653 0.6040752 -0.097143404 0.78372693 -0.3498412 -0.13449991 -0.18037488
0.38560492 0.27659702 0.5288554 0.77985424 -0.19498664 -0.25149676 -0.4931876 0.17000645
-0.20067562 0.7992558 -0.024177175 0.4816644 -0.68206054 0.24808967 -0.5904046 0.14136247
-0.10300334 -0.11024802 -0.42077243 -0.64377034 0.551096 -0.12032591 0.3999404 0.05892259
0.3408891 0.5278466 0.01109387 0.51456386 -0.21205212 0.4649734 0.67886394 0.11808575
-0.340448 -0.07831009 0.37387162 -0.3273819 0.48312676 0.050344735 -0.6151201 -0.034439616
0.15931717 0.4489599 0.0397713 0.24039565 0.31882998 0.43874332 -0.04100197 0.011027637
-0.0911014 -0.22822069 0.043060977 0.31988883 0.051230364 0.23067781 0.3045074 0.24379617
0.01662443 0.25527927 -0.29265386 0.16255775 -0.039923623 -1.1394513 -0.104565494 0.7814753
-0.049559876 -0.26512027 -0.0034172288 0.016696274 0.664156 -0.057090938 -0.51748437 -0.63521975
-0.50310177 -0.17780958 0.40126556 -0.61047494 -0.05510537 -0.53965324 -0.03300273 -0.0082408255
-0.16707826 -0.5054568 -0.09886915 1.095461 -0.23942487 -0.18173918 -0.26808968 -0.0024053876
0.0031092667 0.59149426 0.06528508 0.17328218 0.16821817 0.17842567 -0.2114021 0.16191287
0.09310205 -0.3428999 0.084244326 -0.07469578 0.1070364 -0.20322882 0.3360098 -0.4117579
-0.54571766 0.022889547 -0.11438918 0.15020923 -0.28116444 0.26967874 -0.0728 0.429965
-0.1791628 1.0289319 -0.19788073 -0.10058899 -0.26383558 -0.5032888 0.24029587 0.16845086
0.0045414013 0.42004552 0.20617941 -0.20343985 0.23120469 0.44167927 0.5384518 -0.14428201
-1.0163184 0.25500947 -0.26143128 -0.22817153 -0.3589103 -0.049796812 -0.69826704 0.1386626
0.08916402 0.12902376 -0.3759825 -0.2285001 0.08303372 0.29368186 0.34754062 -0.27825743
-0.6234848 -0.04311991 0.21276641 -0.39581355 0.27468663 -0.21010943 0.43007058 0.02158294

network_body._body_endoder.seq_layers.2.bias f4 [128]
00000000: 0000 0000 0000 0000 0000 0000 0000 0000
00000010: 0000 0000 0000 0000 0000 0000 0000 0000
00000020: 0000 0000 0000 0000 0000 0000 0000 0000
00000030: 0000 0000 0000 0000 0000 0000 0000 0000
00000040: 0000 0000 0000 0000 0000 0000 0000 0000
00000050: 0000 0000 0000 0000 0000 0000 0000 0000
00000060: 0000 0000 0000 0000 0000 0000 0000 0000
00000070: 0000 0000 0000 0000 0000 0000 0000 0000
00000080: 0000 0000 0000 0000 0000 0000 0000 0000
00000090: 0000 0000 0000 0000 0000 0000 0000 0000
000000a0: 0000 0000 0000 0000 0000 0000 0000 0000
000000b0: 0000 0000 0000 0000 0000 0000 0000 0000
000000c0: 0000 0000 0000 0000 0000 0000 0000 0000
000000d0: 0000 0000 0000 0000 0000 0000 0000 0000
000000e0: 0000 0000 0000 0000 0000 0000 0000 0000
000000f0: 0000 0000 0000 0000 0000 0000 0000 0000
00000100: 0000 0000 0000 0000 0000 0000 0000 0000
00000110: 0000 0000 0000 0000 0000 0000 0000 0000
00000120: 0000 0000 0000 0000 0000 0000 0000 0000
00000130: 0000 0000 0000 0000 0000 0000 0000 0000
00000140: 0000 0000 0000 0000 0000 0000 0000 0000
00000150: 0000 0000 0000 0000 0000 0000 0000 0000
00000160: 0000 0000 0000 0000 0000 0000 0000 0000
00000170: 0000 0000 0000 0000 0000 0000 0000 0000
00000180: 0000 0000 0000 0000 0000 0000 0000 0000
00000190: 0000 0000 0000 0000 0000 0000 0000 0000
000001a0: 0000 0000 0000 0000 0000 0000 0000 0000
000001b0: 0000 0000 0000 0000 0000 0000 0000 0000
000001c0: 0000 0000 0000 0000 0000 0000 0000 0000
000001d0: 0000 0000 0000 0000 0000 0000 0000 0000
000001e0: 0000 0000 0000 0000 0000 0000 0000 0000
000001f0: 0000 0000 0000 0000 0000 0000 0000 0000
0.0 0.0 0.0 0.0 0.0 0.0 0.0 0.0
0.0 0.0 0.0 0.0 0.0 0.0 0.0 0.0
0.0 0.0 0.0 0.0 0.0 0.0 0.0 0.0
0.0 0.0 0.0 0.0 0.0 0.0 0.0 0.0
0.0 0.0 0.0 0.0 0.0 0.0 0.0 0.0
0.0 0.0 0.0 0.0 0.0 0.0 0.0 0.0
0.0 0.0 0.0 0.0 0.0 0.0 0.0 0.0
0.0 0.0 0.0 0.0 0.0 0.0 0.0 0.0
0.0 0.0 0.0 0.0 0.0 0.0 0.0 0.0
0.0 0.0 0.0 0.0 0.0 0.0 0.0 0.0
0.0 0.0 0.0 0.0 0.0 0.0 0.0 0.0
0.0 0.0 0.0 0.0 0.0 0.0 0.0 0.0
0.0 0.0 0.0 0.0 0.0 0.0 0.0 0.0
0.0 0.0 0.0 0.0 0.0 0.0 0.0 0.0
0.0 0.0 0.0 0.0 0.0 0.0 0.0 0.0
0.0 0.0 0.0 0.0 0.0 0.0 0.0 0.0

network_body._body_endoder.seq_layers.2.weight f4 [128, 128]
00000000: 8fa5 c0bc 4ae6 a73c 0ff4 d7bc 098e 783b
00000010: 609e 393d bae6 91bd c2ac 53bd a4bf 6bbc
00000020: 4e8a 603d e077 86bc 3543 9bbd 59dc 33be
00000030: 335b 9bbd d30e 803d 3d53 acbd 7773 6e3d
00000040: b4a4 7ebb 9d8e 083e 6ec7 d3bc 6b2d 00be
00000050: 2d48 e23d c00e 5c3d cd72 37bd 5d35 49be
00000060: 493b acbc 6b54 e63d 2444 9e3d d797 463e
00000070: c4be 2c3d 5660 8f3d 6be5 c7bc 769a 86bd
00000080: 1a7c 8fbc 5c35 3a3c 3084 d3bd 2a65 7abd
00000090: 1823 57bd aea0 d2bd 646d 9a3d 2aaf 5cbd
000000a0: 44b6 c2bd 4429 363d 8786 9abd 3f20 553d
000000b0: f8c5 4c3e 24e1 75be 7ba6 803c 454d 653b
000000c0: a6a4 c53b ad34 b4bd 52c7 233d 3925 cdbd
000000d0: 534b 1fbe 2ca8 073c 2a6e b73c 8266 913d
000000e0: 9b0c 62bd c290 963c 8107 ecbb 55e8 dcbd
000000f0: e03c 163d 711d 833d 63c2 04bd 0550 bfbd
00000100: c9db 0dbe 0c05 7a3d f485 ca3c 3566 283c
00000110: 732d 36bd 7520 62bc c975 223c 55fb f9bc
00000120: 2b53 ae3d 974a 853b a5ea 71be c4bc d4bc
00000130: 66bb 033d 1128 8ebd 8454 e33d 7ff7 213e
00000140: 2145 2ebe 94f4 62bd 1fee 29bd 5212 66bd
00000150: e171 2c3a 5319 2bbe 2a26 333d 0501 42bd
00000160: 7cee 56be 9eb5 5d3d da98 61bc b224 c63b
00000170: 49d2 70be f1d1 b33d 0fdf 303d 8371 de3d
00000180: f1ed 4fbd 3997 3f3c 719e e13d 2a3b 8fbc
00000190: 6de4 a0bd 6e08 8abd 2aa7 a7bb 021e 92bd
000001a0: 963e 183e 4b77 573d f81e efbd 40e6 f2bc
000001b0: 1a78 a3bb e401 b73d 53c6 913d 304e 31be
000001c0: 867d 10bd 94d0 f3bb c2bd ee3d 1317 503c
000001d0: 295c a23d d76f 953c 5d60 94bc ad73 02bd
000001e0: db9d da3d 366c a5bd bf02 75bd 512d 0d3e
000001f0: 42b1 82bd 02cd 443c 2a12 0bbd 1ab0 e0bc
00000200: e43e 94bd b09e b33d 7c40 b03c 4b6e 9abd
00000210: 11ac 64bd 7956 90bd 569d 583c 3fb9 2bbd
00000220: fc78 1e3d a094 b03d 3ed8 f93d 2fd7 a33d
00000230: 60df 5f3d 769e 573d 5c34 5d3d f111 b8bd
00000240: 5273 e73c 1f6e 9bbc c64c 7ebd 6e2d 5ebb
00000250: 9378 633d 27e4 f73c 57ff 14bc fa25 59bc
00000260: 0117 bc3d 473e 05bd cec0 443e 7af7 5bbc
00000270: cf78 d4bd 5b82 12be eda5 dbbd 124c 3bbe
00000280: 58dc 4f3d a6b8 62bd 6a98 d0bd 532d 053c
00000290: 9a5f f23d 9994 34bd d3f9 a8bc fd1c c0bd
000002a0: 96ce 813c 544d a5bd 471b abbd 06e8 2b3e
000002b0: 6ece 10bd 37f2 93bd 3492 00bc 2d3f 0a3d
000002c0: 0c0f 10bd 7a1d 323d d95a 48be b94b 1d3e
000002d0: 5e9a 013e f8d4 bbbd 18c0 823d a609 06bb
000002e0: 4a33 c4bd 801c c93d 563c b9bc c7f9 c73d
000002f0: 1554 43bd dfd2 9bbc 69b3 1b3c a1d7 28be
00000300: b2df 543c 2d7f e1bd d257 85bd 5bb8 b3bc
00000310: 5a18 6fbd 0c8d 13be a8da b9bd c3bf 0cbd
00000320: b21c c03d 0a2f 8bbb 1c2b 8fbd cf3b 413d
00000330: c936 b83d 5073 803d b3ef 0d3d 1c7e 063e
00000340: 2ef7 e63d 0c2e 613d e5ff af3d 9a96 ac3d
00000350: 3e63 e1bd 0a72 d23c 9d6f 183e 97f2 66bc
00000360: e054 ac3d f5c3 ef3b acb4 73bd a3b5 b83c
00000370: 0bcc 203e 3712 a6bc 0c92 3bbb f8f0 e4bd
00000380: 22fb f1bc 06d0 d1bd e332 c7bd a016 22be
00000390: ce4f fbbd 8e9e acbd 3852 02bd e80a 033e
000003a0: 93ae 05bd 66f4 2fbe d09a fabd 84b0 61bd
000003b0: bddd 183d 5462 83bc 8872 b93d 9bba ba3d
000003c0: 32fd 973d ae6f fe3c c1c0 303b 65cb b03c
000003d0: 2686 1bbe 8cbe 073d f5dd 34bd d39a ab3d
000003e0: 54ea c6bc 7446 f93a 6638 be3c 2f37 84bd
000003f0: 9e8f eb3d 0055 843d 7056 ba3d 6144 cd3c
-0.023516444 0.020495553 -0.026361493 0.0037926456 0.045317054 -0.07124086 -0.051678427 -0.014388952
0.054819398 -0.016414583 -0.07581178 -0.17564525 -0.07585754 0.062528275 -0.08414314 0.058215585
-0.0038855495 0.13335653 -0.025851931 -0.12517326 0.11048923 0.053725004 -0.044787217 -0.19649263
-0.021024363 0.1124657 0.077278405 0.1939386 0.042174116 0.070007965 -0.024401387 -0.0657243
-0.01751523 0.011365261 -0.10327947 -0.061131634 -0.052523702 -0.102845535 0.07540396 -0.053877987
-0.09507421 0.044472948 -0.0754519 0.052032705 0.19997394 -0.24011666 0.015704384 0.0034988683
0.0060315905 -0.087991096 0.03998501 -0.10016865 -0.15556078 0.008279841 0.022391398 0.0709963
-0.055187803 0.018379573 -0.007203043 -0.10786501 0.03667915 0.064021 -0.032411944 -0.093414344
-0.13853373 0.06103997 0.024722077 0.010278274 -0.044476938 -0.013801684 0.0099157775 -0.030515352
0.08511957 0.0040677297 -0.23624666 -0.025968917 0.03216114 -0.06941236 0.111001045 0.15817069
-0.17018558 -0.05540903 -0.041486856 -0.056169815 0.00065782486 -0.16708879 0.043737568 -0.047364254
-0.20989412 0.05412828 -0.013769353 0.006046855 -0.23517717 0.087802775 0.043181475 0.108614944
-0.050764028 0.011693769 0.110165484 -0.017484266 -0.07856069 -0.06739889 -0.005116363 -0.0713463
0.14867625 0.052604 -0.11675829 -0.029650807 -0.0049886825 0.089359075 0.071179055 -0.17314982
-0.03527596 -0.007440636 0.11657287 0.012700814 0.079277344 0.018241806 -0.018112356 -0.0318486
0.1067464 -0.0807728 -0.059817072 0.13786818 -0.063814655 0.012011768 -0.03395287 -0.027427722
-0.07238558 0.087705016 0.021515124 -0.07540568 -0.055828158 -0.07047743 0.013221106 -0.04192471
0.0386896 0.08622098 0.12199448 0.080000274 0.054656386 0.052641355 0.054005012 -0.08987797
0.028253231 -0.018973408 -0.062084936 -0.003390159 0.05553491 0.030260159 -0.009094081 -0.013253683
0.09184075 -0.032530095 0.19214174 -0.013425702 -0.10374605 -0.14307539 -0.10725007 -0.18290737
0.050747246 -0.055351876 -0.10185321 0.008128482 0.11834641 -0.044087026 -0.020626938 -0.09380529
0.015845578 -0.0807139 -0.08354812 0.16787729 -0.035353117 -0.07223933 -0.007847358 0.033751655
-0.0351706 0.043485142 -0.19565906 0.15360917 0.12656543 -0.0917148 0.06384295 -0.0020452528
-0.09580095 0.09819889 -0.022611778 0.09764438 -0.04768761 -0.01902145 0.009503224 -0.16488506
0.012992786 -0.11010585 -0.06510891 -0.021938493 -0.058372833 -0.14409274 -0.090749085 -0.034362566
0.09380473 -0.004247551 -0.06990644 0.04717618 0.089948244 0.06271994 0.034652423 0.13134044
0.112776145 0.054975554 0.0859373 0.084271625 -0.11005257 0.025689144 0.14886327 -0.014095924
0.08414626 0.007317061 -0.059498474 0.022547549 0.15702836 -0.020272357 -0.0028620986 -0.11178774
-0.029538695 -0.102447554 -0.09726503 -0.15828943 -0.12271081 -0.084286794 -0.03181669 0.12797129
-0.03263719 -0.17183074 -0.122365594 -0.05509998 0.03732084 -0.016038097 0.09055048 0.091176234
0.0742134 0.031059112 0.002697036 0.021581361 -0.15187892 0.033140704 -0.044156987 0.0837914
-0.024281658 0.0019018189 0.023220252 -0.06455838 0.11502002 0.06461525 0.09098518 0.02505702
