Assets/ML-Agents/Examples/RollerRex/results/rollerrex/My Behavior/My Behavior-6080.onnx (onnx, 73663 bytes, 7 tensors)

action_model._continuous_distribution.log_sigma f4 [1, 2]
0	0x00000000	0.0
1	0x00000000	0.0

action_model._continuous_distribution.mu.bias f4 [2]
0	0x00000000	0.0
1	0x00000000	0.0

action_model._continuous_distribution.mu.weight f4 [2, 128]
0	0x3c879470	0.016550273
1	0xbcdc605a	-0.026901413
2	0x3ba80f23	0.0051287576
3	0x3c03934f	0.008030727
4	0xbbb0163a	-0.0053737434
5	0xbbd9dbfd	-0.006648539
6	0xbc9f23fa	-0.019426335
7	0x3b9bf0d3	0.004758933
8	0xbc4ae6ec	-0.012384158
9	0xbccd1568	-0.025034621
10	0xbb5eb8bf	-0.003398463
11	0xbc8c6929	-0.017139988
12	0xbc112b91	-0.008860485
13	0xba113e43	-0.0005540589
14	0xbc7e79b8	-0.01553195
15	0x3b16234b	0.002290922
16	0x3c37a58b	0.011208902
17	0xbbaa7bc9	-0.0052027446
18	0xbcf93abf	-0.03042352
19	0xbbfe4353	-0.0077594905
20	0x3ad59817	0.0016295937
21	0x3c1fda0f	0.009756579
22	0xb964d697	-0.00021823715
23	0x392feb48	0.0001677695
24	0x3b497ce5	0.003074461
25	0xbc961751	-0.018321665
26	0x3ca65a5b	0.020306757
27	0xbcb79182	-0.02240825
28	0xbba261df	-0.004955515
29	0x3be2f947	0.006926689
30	0xbccc484b	-0.024936816
31	0x3c15426d	0.009110075
32	0x3b281646	0.0025648042
33	0x3b2a41a7	0.0025979073
34	0xbca28043	-0.01983655
35	0x3d22536c	0.03963034
36	0x3d00e185	0.031465072
37	0x3bcc5694	0.006235907
38	0xbc461e18	-0.012092136
39	0x3b984727	0.004647154
40	0xbc3563aa	-0.011071125
41	0x3c80be93	0.015715873
42	0xbcb9248f	-0.02260044
43	0xbd10907e	-0.03529405
44	0x3c098b98	0.008395098
45	0xbc86fe6b	-0.016478738
46	0xbc60e045	-0.013725345
47	0x3c3e4b85	0.011614685
48	0x3985f22a	0.00025548163
49	0xbcde10e3	-0.027107662
50	0x3b9c3098	0.004766535
51	0x3d0238a6	0.031792305
52	0x3ce45a17	0.02787499
53	0xbcbce7f0	-0.023059815
54	0x3c4b05f7	0.012391559
55	0x3c02e0a3	0.007988128
56	0x3c01fee5	0.007934307
57	0x3bc9ce0b	0.0061585954
58	0x3d37b876	0.04485365
59	0xbc0f3513	-0.008740681
60	0x3bfeee15	0.0077798464
61	0xbc235607	-0.009969241
62	0x3c40233a	0.011727149
63	0xbd3ab118	-0.045579046
64	0x3d0970f0	0.03355497
65	0x3d17b2ab	0.037035625
66	0xbc866ac9	-0.016408341
67	0xbc452e52	-0.012034969
68	0x3c16499c	0.009172823
69	0x3924b332	0.00015707014
70	0xbc27d50e	-0.010243667
71	0xbb17afc1	-0.002314553
72	0xbb40d23f	-0.0029422191
73	0x3ccf4d7a	0.025305498
74	0x3c67e76a	0.0141542945
75	0xbc76887b	-0.015047188
76	0xbc919c01	-0.017774584
77	0x3c118281	0.008881212
78	0xbd21c054	-0.03949006
79	0xbb7f94e3	-0.0038998656
80	0xbb54d0ab	-0.0032473009
81	0xbbe5795a	-0.0070029916
82	0x3d28d50b	0.0412188
83	0xbc0d44ef	-0.008622392
84	0xbc8dc818	-0.017307326
85	0xbc858830	-0.01630029
86	0xbc0ee1b3	-0.008720803
87	0x3ba681b4	0.00508138
88	0x3d02b4bf	0.031910654
89	0xbcaf5cd0	-0.021406561
90	0x3c4ad2c4	0.012379352
91	0xbbb1a2df	-0.005421027
92	0xbb1af0eb	-0.0023642133
93	0xba15d5be	-0.0005715749
94	0x3b28312f	0.0025664081
95	0x3a9088b7	0.0011027072
96	0x3d04ca91	0.032419745
97	0x3c8628d1	0.016376885
98	0xbb1a1890	-0.0023513176
99	0x3c07dc81	0.008292318
100	0xbb91e7f4	-0.0044527
101	0xbd13c37b	-0.036075097
102	0xbd3e4653	-0.046453785
103	0x3cbdc931	0.023167225
104	0xbc4fc6c7	-0.01268167
105	0x3c9bc9e1	0.019017162
106	0xbb9e5f6f	-0.004833154
107	0xbd761eb7	-0.060087886
108	0x3cdda862	0.02705783
109	0x3c90ff9f	0.017700015
110	0xbade64cf	-0.0016967299
111	0x3c3a8678	0.011384599
112	0x3cf13ac7	0.029446973
113	0xbc820e4f	-0.015875963
114	0xbbb37520	-0.005476609
115	0xbc9ced0d	-0.019156003
116	0x3b5d71bf	0.0033789722
117	0x3c6ac765	0.014329766
118	0x3aead58f	0.0017916429
119	0x3ca440dc	0.020050459
120	0x3acce500	0.0015632212
121	0x3bc02a1b	0.0058643944
122	0xbb395e1f	-0.002828486
123	0xbc0dbeee	-0.008651478
124	0xbcbd1804	-0.02308274
125	0x3d2dc964	0.04242839
126	0x3d63f9b2	0.05565805
127	0xbc91a1b1	-0.017777296
128	0xbc3e6fd7	-0.011623344
129	0xbc6fdccd	-0.014640045
130	0x3b340cba	0.0027473406
131	0x3b998644	0.004685195
132	0x3abfa0a0	0.0014620014
133	0x3c5e00d0	0.013549998
134	0xbbdfbb85	-0.006827774
135	0x3d001170	0.03126663
136	0x3c7269cf	0.014795735
137	0x3bf3b67b	0.007437525
138	0xbc57dfcd	-0.013175917
139	0xbcf40e05	-0.029791841
140	0xbb0b20a7	-0.002122918
141	0x3cc918af	0.024547903
142	0x3b0ae1b2	0.0021191654
143	0xbcea8c27	-0.028631283
144	0x3bb9a08f	0.005664892
145	0x3b161ea7	0.0022906454
146	0xbc8d03cd	-0.017213726
147	0xbc1f8613	-0.009736556
148	0xbcee2fb5	-0.029075483
149	0xbb8be5ab	-0.004269322
150	0x3be9c6b7	0.0071342844
151	0x39dfdd27	0.00042698646
152	0x3ad77ba8	0.0016440051
153	0x3c1e38e3	0.009657118
154	0xbc70fe23	-0.014709028
155	0x3b62e9ea	0.0034624287
156	0x3c1b5bb4	0.009482313
157	0xbcb914fc	-0.022593014
158	0x3bf5aef5	0.007497663
159	0xbc67993f	-0.014135658
160	0x3c85bb21	0.016324582
161	0xbd252af4	-0.040324166
162	0x3c80c123	0.015717095
163	0x3cab6b49	0.020925181
164	0x3cd0224f	0.025406985
165	0xbccbccbb	-0.024877897
166	0xbd21d448	-0.039509088
167	0xbbaa01a5	-0.0051881843
168	0xbb6a8ad5	-0.0035788317
169	0xbc72ec10	-0.0148267895
170	0xb9e6ff88	-0.00044059404
171	0x3acc889b	0.0015604676
172	0x3c8776cd	0.01653614
173	0xbc3869a7	-0.011255658
174	0x3cd63ec2	0.026152972
175	0xbca219b7	-0.019787652
176	0xbb8a3c75	-0.004218633
177	0xbca9c725	-0.020724842
178	0xbc8fecf4	-0.017569043
179	0xbcdc1420	-0.026865065
180	0x3c607030	0.013698623
181	0x3c96cd8a	0.018408556
182	0x3d109ca7	0.035305645
183	0x3c56033b	0.013062294
184	0x3ca10d5c	0.01965969
185	0xbc4b83b7	-0.01242154
186	0xbceb8a6d	-0.02875253
187	0x3cafe3b0	0.021470875
188	0x3c20a6ae	0.0098053645
189	0x3baebc43	0.005332501
190	0x3c9d92df	0.019235073
191	0xbb5befa0	-0.0033559576
192	0x3be56872	0.0070009762
193	0x3bbd32d6	0.0057738824
194	0xbcaf236c	-0.021379195
195	0xbb7942a8	-0.0038034115
196	0x3c568983	0.013094309
197	0x3bc444bb	0.0059896386
198	0x3d1a0c59	0.037609432
199	0x3b54f502	0.003249467
200	0x3cd5f757	0.026118917
201	0xbc8544ae	-0.0162681
202	0xbb90dbf3	-0.0044207512
203	0xbc600a5d	-0.013674346
204	0x3b227feb	0.0024795483
205	0xbbc18cf2	-0.0059066946
206	0x3c162cc7	0.009165949
207	0xbc15823f	-0.009125291
208	0x3cf60f93	0.030036723
209	0x3c0d8cc9	0.008639523
210	0x3be85345	0.0070900046
211	0x3c48f094	0.01226439
212	0x3cc73e5b	0.024321726
213	0x3c01afeb	0.007915477
214	0x3b07ab2f	0.0020701399
215	0x3ced6ef2	0.028983567
216	0x3cd1325a	0.025536705
217	0xbc2b8892	-0.010469573
218	0x3c653ef8	0.013992064
219	0xbcd58a48	-0.026066914
220	0x3d002f63	0.03129519
221	0x3cff455f	0.031161008
222	0xbb56f2c3	-0.0032798506
223	0x3cc58f64	0.024116226
224	0xbbe1b83a	-0.0068884166
225	0xbbb8c40c	-0.005638605
226	0x39c79b3a	0.0003807189
227	0xbcbd982f	-0.023143856
228	0x3d282929	0.04105488
229	0x3c095dbb	0.0083841635
230	0xbaff1ab7	-0.0019462918
231	0xbb167487	-0.002295764
232	0xbc2ab29b	-0.010418559
233	0xbc3939fd	-0.011305329
234	0x3b97cf37	0.004632856
235	0xbc95dc89	-0.018293636
236	0xbc954b8d	-0.018224502
237	0xbcbb95eb	-0.022898635
238	0x3d546e48	0.051862985
239	0xba83a4bf	-0.0010043605
240	0x38ac58f4	8.218168e-05
241	0x3c33a5b5	0.010964801
242	0x3be32ae8	0.006932605
243	0x3c9a276f	0.018817632
244	0xbc4e837d	-0.012604591
245	0xbc588515	-0.013215323
246	0xbcf24302	-0.029572967
247	0x3cbfdfd7	0.023422165
248	0x3cf51ea5	0.029921839
249	0x3cfc975a	0.030833889
250	0x39ff137d	0.0004865191
251	0x3cca4e1f	0.024695454
252	0xbd02500f	-0.03181463
253	0x3cd2a218	0.025712058
254	0x3c4e5235	0.012592842
255	0x3d42c6ba	0.0475528

network_body._body_endoder.seq_layers.0.bias f4 [128]
0	0x00000000	0.0
1	0x00000000	0.0
2	0x00000000	0.0
3	0x00000000	0.0
4	0x00000000	0.0
5	0x00000000	0.0
6	0x00000000	0.0
7	0x00000000	0.0
8	0x00000000	0.0
9	0x00000000	0.0
10	0x00000000	0.0
11	0x00000000	0.0
12	0x00000000	0.0
13	0x00000000	0.0
14	0x00000000	0.0
15	0x00000000	0.0
16	0x00000000	0.0
17	0x00000000	0.0
18	0x00000000	0.0
19	0x00000000	0.0
20	0x00000000	0.0
21	0x00000000	0.0
22	0x00000000	0.0
23	0x00000000	0.0
24	0x00000000	0.0
25	0x00000000	0.0
26	0x00000000	0.0
27	0x00000000	0.0
28	0x00000000	0.0
29	0x00000000	0.0
30	0x00000000	0.0
31	0x00000000	0.0
32	0x00000000	0.0
33	0x00000000	0.0
34	0x00000000	0.0
35	0x00000000	0.0
36	0x00000000	0.0
37	0x00000000	0.0
38	0x00000000	0.0
39	0x00000000	0.0
40	0x00000000	0.0
41	0x00000000	0.0
42	0x00000000	0.0
43	0x00000000	0.0
44	0x00000000	0.0
45	0x00000000	0.0
46	0x00000000	0.0
47	0x00000000	0.0
48	0x00000000	0.0
49	0x00000000	0.0
50	0x00000000	0.0
51	0x00000000	0.0
52	0x00000000	0.0
53	0x00000000	0.0
54	0x00000000	0.0
55	0x00000000	0.0
56	0x00000000	0.0
57	0x00000000	0.0
58	0x00000000	0.0
59	0x00000000	0.0
60	0x00000000	0.0
61	0x00000000	0.0
62	0x00000000	0.0
63	0x00000000	0.0
64	0x00000000	0.0
65	0x00000000	0.0
66	0x00000000	0.0
67	0x00000000	0.0
68	0x00000000	0.0
69	0x00000000	0.0
70	0x00000000	0.0
71	0x00000000	0.0
72	0x00000000	0.0
73	0x00000000	0.0
74	0x00000000	0.0
75	0x00000000	0.0
76	0x00000000	0.0
77	0x00000000	0.0
78	0x00000000	0.0
79	0x00000000	0.0
80	0x00000000	0.0
81	0x00000000	0.0
82	0x00000000	0.0
83	0x00000000	0.0
84	0x00000000	0.0
85	0x00000000	0.0
86	0x00000000	0.0
87	0x00000000	0.0
88	0x00000000	0.0
89	0x00000000	0.0
90	0x00000000	0.0
91	0x00000000	0.0
92	0x00000000	0.0
93	0x00000000	0.0
94	0x00000000	0.0
95	0x00000000	0.0
96	0x00000000	0.0
97	0x00000000	0.0
98	0x00000000	0.0
99	0x00000000	0.0
100	0x00000000	0.0
101	0x00000000	0.0
102	0x00000000	0.0
103	0x00000000	0.0
104	0x00000000	0.0
105	0x00000000	0.0
106	0x00000000	0.0
107	0x00000000	0.0
108	0x00000000	0.0
109	0x00000000	0.0
110	0x00000000	0.0
111	0x00000000	0.0
112	0x00000000	0.0
113	0x00000000	0.0
114	0x00000000	0.0
115	0x00000000	0.0
116	0x00000000	0.0
117	0x00000000	0.0
118	0x00000000	0.0
119	0x00000000	0.0
120	0x00000000	0.0
121	0x00000000	0.0
122	0x00000000	0.0
123	0x00000000	0.0
124	0x00000000	0.0
125	0x00000000	0.0
126	0x00000000	0.0
127	0x00000000	0.0

network_body._body_endoder.seq_layers.0.weight f4 [128, 8]
0	0xbe42763a	-0.18990412
1	0x3d8b78bb	0.06810137
2	0x3ec595d5	0.38590875
3	0xbd2ddded	-0.042447973
4	0xbc4b5517	-0.012410424
5	0xbf200bc6	-0.62517965
6	0xbe3bc90c	-0.18338412
7	0x3e949aba	0.29024297
8	0x3ca5afad	0.02022537
9	0x3f2bce5d	0.6711176
10	0x3cc5b739	0.024135219
11	0xbe454a1d	-0.19266553
12	0x3c857b89	0.016294258
13	0x3e99211b	0.2990807
14	0x3f05de94	0.5229275
15	0x3f489b5d	0.78362066
16	0xbe200fd5	-0.1563104
17	0x3ea56ee2	0.3231116
18	0xbde00b79	-0.10939688
19	0x3ded2f67	0.11581307
20	0x3dba9bf8	0.0911178
21	0xbea2aa90	-0.31770754
22	0xbeb77a78	-0.35835624
23	0xbf15bcfd	-0.584915
24	0x3ddb00c0	0.106935024
25	0x3dd250e1	0.10269333
26	0x3ec6fd07	0.3886492
27	0xbe5baf3b	-0.21453564
28	0x3e348f93	0.17632894
29	0xbe0bf44a	-0.13667408
30	0x3f0d84ba	0.5528065
31	0xbe7ba7b5	-0.24575694
32	0x3c5d4265	0.013504599
33	0x3f4e300c	0.80542064
34	0xbf4e954a	-0.8069655
35	0xbf461484	-0.77375054
36	0x3ebc6ecd	0.36803284
37	0xbe89bb87	-0.26900885
38	0x3f58d68b	0.84702367
39	0xbe811942	-0.25214583
40	0xbc8b1f1d	-0.01698261
41	0x3e92b818	0.28656077
42	0x3ed04a9d	0.40681925
43	0x3df68a1b	0.1203806
44	0xbe48e0b1	-0.19616963
45	0xbf146714	-0.57969785
46	0x3e830167	0.25587007
47	0x3edf20c2	0.4357968
48	0x3dc92b51	0.09822715
49	0xbeaedbb0	-0.34151983
50	0xbce0c621	-0.027438225
51	0xbe01d912	-0.12680462
52	0xbf51ebb5	-0.82000285
53	0xbf0c1135	-0.54713756
54	0x3ea58623	0.323289
55	0x3d2f887f	0.042854782
56	0x3e7392fc	0.23786539
57	0xbdbe6f39	-0.09298558
58	0x3ede7bf8	0.43453956
59	0xbef143ca	-0.4712203
60	0xbf12b340	-0.57304764
61	0x3ced4d71	0.028967591
62	0x3e9df29c	0.3084916
63	0x3ed111b9	0.40833834
64	0xbe1ea7c7	-0.1549369
65	0x3e7087f1	0.23489358
66	0x3ec56d9c	0.38560188
67	0x3e8bbd39	0.27292803
68	0x3deb7702	0.11497308
69	0x3ee9710d	0.45594063
70	0xbe5fa556	-0.21840414
71	0x3c445389	0.011982807
72	0x3d3289a0	0.04358828
73	0xbdadf793	-0.08494487
74	0xbe70a434	-0.23500139
75	0x3e40e7b9	0.18838395
76	0x3e3c221d	0.18372388
77	0xbeb4e8e8	-0.35333943
78	0x3d423f05	0.04742338
79	0xbeb2ebd8	-0.3494556
80	0x3ca5e514	0.020250835
81	0xbdaf9bc8	-0.08574635
82	0xbea088f2	-0.3135448
83	0xbe5eb064	-0.21746975
84	0xbeb8ba5b	-0.36079678
85	0xbd712cf0	-0.058880746
86	0x3eb46e00	0.35240173
87	0x3f21abfb	0.63153046
88	0xbed3865c	-0.41313446
89	0xbe60a137	-0.21936499
90	0xbe10263f	-0.1407709
91	0x3e9ec35a	0.31008416
92	0xbeb90a20	-0.36140537
93	0xbf30c5a8	-0.690516
94	0xbeddadb9	-0.43296602
95	0xbef27190	-0.47352266
96	0x3e01aa2a	0.12662569
97	0x3edce7fb	0.43145737
98	0x3d0f5dc8	0.035001546
99	0x3f262581	0.64900976
100	0x3e2d3d77	0.16917978
101	0x3e22c587	0.15895663
102	0xbd39f344	-0.04539801
103	0xbea548a1	-0.32281974
104	0x3ec2757a	0.37980253
105	0xbec8e419	-0.39236525
106	0xbe425530	-0.18977809
107	0x3e5f31dd	0.21796365
108	0xbe6dc471	-0.23219468
109	0xbe425466	-0.18977508
110	0xbf026a8b	-0.5094382
111	0x3e4f1cf6	0.20225891
112	0xbe255a74	-0.16147786
113	0xbdf4e876	-0.11958401
114	0x3dc21077	0.09475797
115	0x3c305baa	0.010764042
116	0xbe394a9f	-0.18094872
117	0x3d99b9ee	0.075061664
118	0xbe225153	-0.15851335
119	0x3e06f419	0.13179053
120	0xbe53e3a7	-0.20692311
121	0x3d7498e8	0.059716135
122	0xbea85038	-0.32873702
123	0x3e005604	0.12532812
124	0x3e7941f9	0.24341573
125	0x3ba936e1	0.005164013
126	0x3e8243b6	0.25442284
127	0x3dadeaba	0.08492036
128	0x3f05c0d2	0.52247345
129	0xbf2ee94f	-0.6832475
130	0x3ebff8ea	0.37494594
131	0xbe8aa33b	-0.2707766
132	0x3eb27f1b	0.348626
133	0x3eabed80	0.33579636
134	0xbe6c538c	-0.23078746
135	0xbdad68ab	-0.084672295
136	0xbef9d45e	-0.48794836
137	0xbf23cbb1	-0.63982683
138	0xbefebfbc	-0.49755657
139	0x3b41d3c4	0.0029575685
140	0x3f1b9d73	0.60787123
141	0x3e95c015	0.2924811
142	0x3e9e16e1	0.3087683
143	0x3c57ee9e	0.013179449
144	0x3dc33b02	0.09532739
145	0xbe9f2f16	-0.3109061
146	0x3de5172c	0.1118606
147	0xbecfba59	-0.4057186
148	0xbe9e55c1	-0.309248
149	0x3e8e3b43	0.27779588
150	0xbf17ec2e	-0.59344757
151	0x3dc4469b	0.095837794
152	0xbdc91b0d	-0.09819613
153	0xbf0de305	-0.5542453
154	0xbde2c8dc	-0.11073467
155	0x3e5bf202	0.21479037
156	0x3f1d83a1	0.61528975
157	0xbeff50ff	-0.49866483
158	0xbe9c1483	-0.304844
159	0xbea6d62a	-0.3258527
160	0xbe70e0e3	-0.23523287
161	0xbe5cbd3d	-0.21556564
162	0xbd9df98a	-0.077136114
163	0xbedd264d	-0.43193284
164	0xbedd5207	-0.43226644
165	0xbd7dff3e	-0.062010996
166	0xbf51ea31	-0.8199797
167	0x3dc82ef2	0.09774579
168	0x3d835789	0.064131804
169	0x3eb13cf4	0.34616816
170	0xbd2d9bae	-0.042384796
171	0x3deaf83b	0.114731275
172	0x3ea2b457	0.31778213
173	0xbd88a766	-0.06672554
174	0x3eb29b45	0.34884086
175	0xbe174ada	-0.14774647
176	0xbe2c1917	-0.16806446
177	0x3f4440cc	0.7666137
178	0xbdf7340d	-0.12070475
179	0x3e8dd0c2	0.27698332
180	0xbebe0161	-0.37110427
181	0xbcc7aeb0	-0.02437529
182	0xbe691d4f	-0.22765087
183	0x3dcbf106	0.09958081
184	0xbe05ae50	-0.13054776
185	0x3e134404	0.14381415
186	0xbed6e429	-0.41970947
187	0xbd86e9ab	-0.065875374
188	0x3f386d48	0.7204175
189	0xbe836adf	-0.25667474
190	0xbf016fe7	-0.50561374
191	0xbe5a280d	-0.2130434
192	0x3e061680	0.1309452
193	0x3efde134	0.4958588
194	0x3e9f55fe	0.31120294
195	0xbf5d8ff6	-0.8654779
196	0x3e73b1b7	0.23798262
197	0x3d53cc0c	0.051708266
198	0xbe9f61e9	-0.31129387
199	0xbf02a5b2	-0.5103408
200	0x3e54b475	0.20771964
201	0x3cb10567	0.021609021
202	0x3ed22ca6	0.4104969
203	0xbb3e7a7b	-0.0029064703
204	0xbf35138e	-0.70732963
205	0x3e61e79f	0.22061013
206	0xbe630c37	-0.22172628
207	0xbee90ee4	-0.45519173
208	0xbf0b9b57	-0.54533905
209	0x3de5e30f	0.112249486
210	0x3e6d56d6	0.23177657
211	0x3f180de0	0.5939617
212	0xbeecbb97	-0.4623687
213	0x3d9c62ae	0.07636009
214	0xbe2328b0	-0.1593349
215	0xbe17779a	-0.14791718
216	0xbf0bb8a0	-0.5457859
217	0x3e959d0c	0.2922138
218	0x3ee1fef9	0.4413984
219	0xbd56871b	-0.05237494
220	0x3ee1db3f	0.44112584
221	0x3d7bb094	0.061447695
222	0x3e25be96	0.16185984
223	0x3e916980	0.28400803
224	0x3e353b60	0.17698431
225	0x3c8e3447	0.017358912
226	0x3db33cff	0.087518685
227	0x3e8a0830	0.26959372
228	0x3deda1df	0.1160314
229	0x3ed2bc6a	0.41159374
230	0x3ee4c4b0	0.4468131
231	0xbe9fadfc	-0.31187427
232	0xbdc4c88d	-0.096085645
233	0xbed9b359	-0.42519644
234	0x3e26c835	0.1628731
235	0xbf062162	-0.5239469
236	0xbcb9a5da	-0.022662092
237	0xbe2ce579	-0.16884412
238	0x3d156e36	0.03648206
239	0x3e946a06	0.2898714
240	0xbd0a3c81	-0.033749107
241	0x3ee3c7ad	0.44488278
242	0xbe91872f	-0.2842345
243	0xbeaab0d2	-0.33338028
244	0xbde03715	-0.10948006
245	0xbb8e8925	-0.004349845
246	0x3e801d27	0.2502224
247	0xbea14dab	-0.31504568
248	0xbe5f54a9	-0.21809639
249	0xbe352965	-0.17691572
250	0xbc2a8e1c	-0.010409858
251	0x3df20c95	0.11818806
252	0xbc37c9ee	-0.011217577
253	0x3d8009fd	0.06251905
254	0xbe6c001a	-0.23046914
255	0xbe684fc2	-0.22686675

network_body._body_endoder.seq_layers.2.bias f4 [128]
0	0x00000000	0.0
1	0x00000000	0.0
2	0x00000000	0.0
3	0x00000000	0.0
4	0x00000000	0.0
5	0x00000000	0.0
6	0x00000000	0.0
7	0x00000000	0.0
8	0x00000000	0.0
9	0x00000000	0.0
10	0x00000000	0.0
11	0x00000000	0.0
12	0x00000000	0.0
13	0x00000000	0.0
14	0x00000000	0.0
15	0x00000000	0.0
16	0x00000000	0.0
17	0x00000000	0.0
18	0x00000000	0.0
19	0x00000000	0.0
20	0x00000000	0.0
21	0x00000000	0.0
22	0x00000000	0.0
23	0x00000000	0.0
24	0x00000000	0.0
25	0x00000000	0.0
26	0x00000000	0.0
27	0x00000000	0.0
28	0x00000000	0.0
29	0x00000000	0.0
30	0x00000000	0.0
31	0x00000000	0.0
32	0x00000000	0.0
33	0x00000000	0.0
34	0x00000000	0.0
35	0x00000000	0.0
36	0x00000000	0.0
37	0x00000000	0.0
38	0x00000000	0.0
39	0x00000000	0.0
40	0x00000000	0.0
41	0x00000000	0.0
42	0x00000000	0.0
43	0x00000000	0.0
44	0x00000000	0.0
45	0x00000000	0.0
46	0x00000000	0.0
47	0x00000000	0.0
48	0x00000000	0.0
49	0x00000000	0.0
50	0x00000000	0.0
51	0x00000000	0.0
52	0x00000000	0.0
53	0x00000000	0.0
54	0x00000000	0.0
55	0x00000000	0.0
56	0x00000000	0.0
57	0x00000000	0.0
58	0x00000000	0.0
59	0x00000000	0.0
60	0x00000000	0.0
61	0x00000000	0.0
62	0x00000000	0.0
63	0x00000000	0.0
64	0x00000000	0.0
65	0x00000000	0.0
66	0x00000000	0.0
67	0x00000000	0.0
68	0x00000000	0.0
69	0x00000000	0.0
70	0x00000000	0.0
71	0x00000000	0.0
72	0x00000000	0.0
73	0x00000000	0.0
74	0x00000000	0.0
75	0x00000000	0.0
76	0x00000000	0.0
77	0x00000000	0.0
78	0x00000000	0.0
79	0x00000000	0.0
80	0x00000000	0.0
81	0x00000000	0.0
82	0x00000000	0.0
83	0x00000000	0.0
84	0x00000000	0.0
85	0x00000000	0.0
86	0x00000000	0.0
87	0x00000000	0.0
88	0x00000000	0.0
89	0x00000000	0.0
90	0x00000000	0.0
91	0x00000000	0.0
92	0x00000000	0.0
93	0x00000000	0.0
94	0x00000000	0.0
95	0x00000000	0.0
96	0x00000000	0.0
97	0x00000000	0.0
98	0x00000000	0.0
99	0x00000000	0.0
100	0x00000000	0.0
101	0x00000000	0.0
102	0x00000000	0.0
103	0x00000000	0.0
104	0x00000000	0.0
105	0x00000000	0.0
106	0x00000000	0.0
107	0x00000000	0.0
108	0x00000000	0.0
109	0x00000000	0.0
110	0x00000000	0.0
111	0x00000000	0.0
112	0x00000000	0.0
113	0x00000000	0.0
114	0x00000000	0.0
115	0x00000000	0.0
116	0x00000000	0.0
117	0x00000000	0.0
118	0x00000000	0.0
119	0x00000000	0.0
120	0x00000000	0.0
121	0x00000000	0.0
122	0x00000000	0.0
123	0x00000000	0.0
124	0x00000000	0.0
125	0x00000000	0.0
126	0x00000000	0.0
127	0x00000000	0.0

network_body._body_endoder.seq_layers.2.weight f4 [128, 128]
0	0x3c931eec	0.01795908
1	0x3d568bcd	0.05237942
2	0x3c2de462	0.010613533
3	0xbc155833	-0.009115267
4	0x3d846f9b	0.064665996
5	0x3cf1a4d9	0.02949755
6	0x3d024cf1	0.03181166
7	0x3b36de53	0.0027903512
8	0xbd03602e	-0.032074146
9	0xbe02c0a9	-0.12768807
10	0xbdc83480	-0.097756386
11	0x3da63938	0.08116382
12	0x3d04a0c2	0.032379873
13	0xbe06dd3a	-0.13170329
14	0xbdf7cfc2	-0.121001735
15	0xbb281e13	-0.0025652691
16	0x3d3381cf	0.043824967
17	0xbd902add	-0.070394255
18	0x3dd69afa	0.10478778
19	0xbd45c7ac	-0.048286125
20	0x3ba65968	0.005076576
21	0x3e04bb0f	0.12961982
22	0x3de47792	0.11155619
23	0xbd294245	-0.041322965
24	0xbe0dbdbf	-0.13841914
25	0x3d06f81d	0.032951463
26	0x3c75cec8	0.015002914
27	0xbdbe9f2f	-0.093077056
28	0xbd3e4641	-0.046453718
29	0x3d155029	0.0364534
30	0xbc96f9de	-0.018429693
31	0xbd83d857	-0.06437748
32	0xbca198f0	-0.019726247
33	0x3d8f4a5a	0.06996603
34	0x3e02f058	0.12786996
35	0x3ddcb164	0.10776022
36	0x3e07eaa7	0.13273107
37	0xbd79d624	-0.060995236
38	0xbea5b0e2	-0.32361513
39	0x3c3bef92	0.011470692
40	0xbb8357ed	-0.0040082843
41	0xbc340374	-0.010987151
42	0xbc8dd704	-0.017314442
43	0x3de2f87a	0.110825494
44	0xbe693238	-0.22773063
45	0xbd000342	-0.031253107
46	0x3d952756	0.07282893
47	0x3dbdf005	0.09274296
48	0x3d63a7d5	0.05557998
49	0x3d183815	0.03716286
50	0x3c9d5e6a	0.01921006
51	0xbd10d806	-0.035362266
52	0x3c720a57	0.014772973
53	0xbca47b84	-0.020078428
54	0x3d2c1820	0.042015195
55	0xb9d103ec	-0.00039866508
56	0xbe60b051	-0.2194226
57	0x3dc07a25	0.09398297
58	0x3d7d2a24	0.061807767
59	0x3e4b3a2c	0.1984641
60	0x3d6731c9	0.056443963
61	0xbe76a24c	-0.24085349
62	0x3dd9a308	0.10626799
63	0x3cd410d9	0.02588694
64	0x3d80f396	0.0629646
65	0xbd3eef63	-0.046615016
66	0x3e0ed0ac	0.1394679
67	0xbde1bfa6	-0.11022882
68	0x3bc3d04a	0.0059757577
69	0x3da3db74	0.08000842
70	0x3d2ce1cf	0.042207535
71	0xbe0d6c7e	-0.13810918
72	0xbd8b5f69	-0.068053074
73	0xbc6c7f0a	-0.014434585
74	0x3e113908	0.14181912
75	0x3e070a0f	0.13187431
76	0x3df5ab38	0.11995548
77	0xbd37cbc0	-0.044872046
78	0xbd9e5a28	-0.0773204
79	0xbba09044	-0.0049000103
80	0xbdeb3ac1	-0.11485816
81	0xbd89237e	-0.06696223
82	0x3e49bfb1	0.1970203
83	0xbddcf910	-0.107896924
84	0x3d868b0b	0.06569489
85	0xbdb91a6b	-0.09038242
86	0x3d84cffe	0.06484984
87	0xbd93e4e6	-0.07221393
88	0x3c400d54	0.011721928
89	0x3d73d0db	0.059525352
90	0xbd90adf6	-0.070644304
91	0x3dc71110	0.09720051
92	0xbe01c2c8	-0.1267196
93	0xbc712421	-0.014718086
94	0x3d4e5781	0.05037642
95	0xbcb04b2e	-0.021520223
96	0x3bc04287	0.0058673057
97	0xbd825884	-0.06364539
98	0x3d5d2e04	0.053998962
99	0x3b139c3f	0.002252355
100	0x3bd77d14	0.00657619
101	0xbdf8eccd	-0.12154541
102	0xbd7ed728	-0.062216908
103	0xbd6a245e	-0.05716359
104	0x3d6c102e	0.057632618
105	0x3dc02124	0.09381321
106	0x3bbee397	0.0058254707
107	0xbc801458	-0.0156347
108	0x3d6a2dd4	0.05717261
109	0x3d1730eb	0.036911886
110	0xbddd7265	-0.10812835
111	0x3c4a22c6	0.012337392
112	0x3e1d3a51	0.15354277
113	0xbca7dbce	-0.020490553
114	0xbc8ad841	-0.016948821
115	0x3d75609c	0.059906587
116	0x3df727c7	0.12068134
117	0x3ded288c	0.11579999
118	0x3d50e08f	0.050995406
119	0x3ddee995	0.10884396
120	0x3d80db91	0.06291879
121	0xbb756760	-0.003744565
122	0xbcc4f115	-0.024040738
123	0x3d9d4a22	0.07680155
124	0x3de72776	0.112868235
125	0xbdc65474	-0.09684077
126	0xbc318aff	-0.010836362
127	0x3d8aa65a	0.0677001
128	0x3d3865cc	0.045018956
129	0xbdd49e7e	-0.103817925
130	0xbd78c855	-0.060737927
131	0xbdbe221a	-0.09283848
132	0xbdb2de47	-0.08733802
133	0x3bcda54f	0.00627581
134	0x3e1efc75	0.15525992
135	0xbd4e8b24	-0.050425664
136	0xbc683cc6	-0.014174646
137	0x3d8f8670	0.07008064
138	0xbdce2332	-0.10065307
139	0x3e2dd1b5	0.16974528
140	0xbcd2cf16	-0.025733512
141	0x3d84304a	0.06454523
142	0x3d8ffbec	0.07030472
143	0x3d97ef35	0.07418672
144	0x3d346570	0.04404205
145	0x3d3ca0d7	0.046051826
146	0xbccad475	-0.02475951
147	0xbe76fdba	-0.24120227
148	0x3dc0f1ef	0.09421145
149	0x3dd3e517	0.1034643
150	0x3d98fdd7	0.07470291
151	0xbdef2c86	-0.11678414
152	0x3df96fc5	0.121795215
153	0x3c551c94	0.013007302
154	0xbc3f3b25	-0.011671816
155	0xbdfaaa36	-0.122394964
156	0x3df3836f	0.11890303
157	0x3e1039ef	0.140846
158	0x3d9567db	0.072951995
159	0xbd87715a	-0.06613417
160	0xbd975c30	-0.0739063
161	0x3e0f7191	0.14008166
162	0xbc8dbfc8	-0.017303362
163	0x3e2dd9be	0.16977593
164	0xbd0f7d9c	-0.0350319
165	0xbddf6d7e	-0.10909556
166	0x3d847aa8	0.06468707
167	0x3dcddc6e	0.10051809
168	0x3999f417	0.00029364295
169	0xbd0695e5	-0.032857794
170	0xbdedf822	-0.11619593
171	0x3cd7f7e8	0.026363328
172	0xbd39d6cd	-0.045370866
173	0xbccedc1c	-0.02525144
174	0xbdaee70d	-0.08540163
175	0x3e109ea5	0.14123018
176	0xbd4bf92d	-0.04979818
177	0xbcf3f9dd	-0.02978223
178	0x3c94e947	0.018177642
179	0x3d326e1c	0.04356204
180	0x3c72f2b3	0.014828372
181	0xbbbdf10b	-0.005796557
182	0x3d55e5a8	0.05222097
183	0xbda05d00	-0.07830238
184	0x3cdd4015	0.027008096
185	0x3d5bf209	0.05369762
186	0x3e1d43da	0.15357915
187	0x3c8e65c3	0.017382508
188	0x3db4b744	0.08824018
189	0xbe1809a3	-0.14847426
190	0x3d7899c5	0.06069352
191	0x3d086f17	0.03330907
192	0x3d7985d7	0.060918655
193	0xbd0a1d38	-0.03371927
194	0xbcd2da39	-0.025738822
195	0x3c8f126a	0.017464835
196	0x3dff26e5	0.124585904
197	0x3d970785	0.07374481
198	0x3cf4359d	0.029810721
199	0x3d19e2b3	0.037569713
200	0xbe0ff87e	-0.14059636
201	0x3de5b9c3	0.11217072
202	0x3b9d92f5	0.0048087784
203	0x3d24367d	0.040091027
204	0x3e15089f	0.1455407
205	0x3d5251f3	0.051347684
206	0xbde12d69	-0.109949894
207	0x3bd37c23	0.0064540072
208	0xbcfb7dca	-0.03069963
209	0xbe0b2b39	-0.13590707
210	0xbda6f620	-0.08152413
211	0xbc2f152d	-0.010686201
212	0x3d6bd070	0.05757183
213	0x3d08aa04	0.033365265
214	0xbe5b3560	-0.2140708
215	0xbdb7b839	-0.089706846
216	0x3c4ee122	0.012626918
217	0x3d2c970d	0.04213624
218	0xbd7d3994	-0.06182249
219	0x3cd8461f	0.026400624
220	0xbc98a2cb	-0.018632313
221	0x3dee9901	0.11650277
222	0xbd6ec42c	-0.058292553
223	0x3db5037b	0.088385545
224	0x3cef47d9	0.029209064
225	0xbbc28d1b	-0.0059372312
226	0x3db80001	0.08984376
227	0x3d016ccb	0.031597894
228	0xbd80f7d1	-0.06297267
229	0xbd91fb87	-0.07128053
230	0xbc9b1bfb	-0.01893424
231	0xbd9671ec	-0.073459476
232	0x3d64eed9	0.055891845
233	0xbd0e7729	-0.03478161
234	0xbd8da32e	-0.0691589
235	0x3e2ebf61	0.17065193
236	0xbdfccef0	-0.12344158
237	0x3db18bbb	0.086692296
238	0x3c6c9fc8	0.014442392
239	0x3dbb87bc	0.09156749
240	0x3d77ff41	0.060546163
241	0xbe019b2e	-0.12656853
242	0xbcc5d0e5	-0.02414746
243	0x3de69154	0.11258188
244	0xbc0fc8ea	-0.008775929
245	0x3d881517	0.066446476
246	0xbe04fe80	-0.12987709
247	0x3e2efd92	0.17088917
248	0x3d779a24	0.060449734
249	0xbac34d40	-0.0014900342
250	0xbc7b0611	-0.015321271
251	0xbd879ead	-0.06622062
252	0xbdc252fc	-0.09488484
253	0x3d4eef6f	0.05052131
254	0x3d714b25	0.058909554
255	0xbcd2b18f	-0.025719432
