Assets/ML-Agents/Examples/FirstTRexScene/results/trmodel/My Behavior/My Behavior-2112.onnx (onnx, 69718 bytes, 5 tensors)

action_model._discrete_distribution.branches.0.weight f4 [1, 128]
00000000: 3b4a 26bb 90cc 25bc a6c7 b63b bf6e ad3b
00000010: 485e 473b 68a5 1e3b 9f4d e83b 6f9e 2abc
00000020: 3bf8 183c c8bf aabc a644 18ba ccc3 0a3c
00000030: 2a28 89bb 0d6f f6ba 333f fa3b b021 8b3c
00000040: 9775 8cbb 6752 babb 55bc 23bc 4c97 bd3b
00000050: 6a90 453c a753 89bc 1993 32bc 2a42 71bc
00000060: ad7c 813b 6fa6 5c3c 0fa2 163c 1298 093b
00000070: a544 a2bc 91b1 1639 6f88 95bb ce33 1cbc
00000080: 2263 1f3c be6e 21b8 0620 bd3b 48a2 773b
00000090: d73e b13b 3c43 1c3b 9413 b43a 40c0 9dba
000000a0: a0b9 48bc 0fe1 813c 8898 3e3b f7db ce3b
000000b0: bad3 ef3b 336d 993a 3690 bebb 73da f7bb
000000c0: 78c2 8fbb 375a 17ba 17f7 1cbc 771a 0e3c
000000d0: 8174 8a3b 1c43 82bb f053 d3bc 7c57 22bb
000000e0: 4307 11bb bd63 6d3c 7918 22bc 87fb 47bc
000000f0: a49c a7ba d8f0 9f3c 0a39 c9bb bef6 a6bc
00000100: 5e7e b8bb 5b35 af3a 794f 96bb 8ebb 0ebc
00000110: 330b f8bb 46ca 113c 7dac d4bb cd5f 603b
00000120: a518 d5bb f706 293c 2f29 813b 1e06 1cbc
00000130: 598b 85bb b0ca 1ebc 2fd2 033c a2bd 18bb
00000140: 1775 44bb 4677 20bc 7434 a4ba 1747 baba
00000150: a80a d73c 0896 223c a8b1 743b b05d 3d3c
00000160: a34b 06bc 6a72 4b3a ab0d 24bb ca3b 2ebb
00000170: 887f ed3b be85 0fbc 1f74 1d3c 496c 243c
00000180: ee26 43bc 1799 793c 0772 bbbb d40a 9239
00000190: 68e7 92bc 9e76 4bbb 6362 39bc 6f76 ef3b
000001a0: 6636 cb3a 38e0 33bc a3a3 193b d879 0c3c
000001b0: 50ea 353b 5f8b 963c 97db 113c f31a 9dbc
000001c0: dbc0 ed3b c5e9 e5b9 2687 29bb ed28 283c
000001d0: f23d d33b 5bb7 a33b d996 08bc 769f 46bc
000001e0: 6913 2cba b9d4 b7ba 9f11 8ebb 460f 863b
000001f0: 2d06 59bc 1e3d 2f3c 05ac 7e3c 8a23 1f3c
-0.0025373835 -0.010119572 0.005577999 0.005292743 0.0030421186 0.0024207477 0.0070893313 -0.01041375
0.0093365265 -0.020843402 -0.0005808569 0.008469533 -0.004185696 -0.0018801406 0.0076369285 0.016983837
-0.0042864787 -0.0056860927 -0.009993632 0.0057858583 0.012058357 -0.016763521 -0.010899329 -0.014725247
0.00395163 0.013467415 0.009193911 0.0020995182 -0.019808123 0.00014371263 -0.0045633833 -0.009533836
0.009728225 -3.8488528e-05 0.0057716398 0.0037785936 0.0054091024 0.0023843786 0.0013738745 -0.0012035444
-0.012251288 0.015854387 0.0029082615 0.006312843 0.007318941 0.0011705518 -0.005815531 -0.007563883
-0.004387196 -0.0005773636 -0.009580395 0.008673302 0.004225314 -0.003975285 -0.02579686 -0.0024771383
-0.0022129572 0.0144891115 -0.00989353 -0.012205965 -0.0012787771 0.019524023 -0.006140833 -0.020381328
-0.0056302985 0.0013367342 -0.0045871106 -0.008711709 -0.0075696944 0.008898323 -0.006490289 0.003423679
-0.006503182 0.010316602 0.003941677 -0.009522943 -0.0040754494 -0.009691879 0.008045717 -0.002330639
-0.0029977018 -0.009794062 -0.0012527839 -0.001421186 0.026250198 0.009923466 0.0037337337 0.011557981
-0.008196744 0.00077608845 -0.002503256 -0.002658593 0.007247869 -0.008759914 0.009610205 0.010035583
-0.011911137 0.015234253 -0.00572038 0.00027855358 -0.017932609 -0.0031046043 -0.011314961 0.0073078196
0.0015503883 -0.010978751 0.0023443482 0.008573972 0.002775807 0.018377004 0.008902452 -0.01917789
0.007255656 -0.00043852456 -0.0025867908 0.010263664 0.0064465934 0.004996223 -0.008336746 -0.012122979
-0.00065641716 -0.0014025188 -0.0043355967 0.004091176 -0.013246101 0.010695724 0.015543942 0.009713063

network_body._body_endoder.seq_layers.0.bias f4 [128]
00000000: 0000 0000 0000 0000 0000 0000 0000 0000
00000010: 0000 0000 0000 0000 0000 0000 0000 0000
00000020: 0000 0000 0000 0000 0000 0000 0000 0000
00000030: 0000 0000 0000 0000 0000 0000 0000 0000
00000040: 0000 0000 0000 0000 0000 0000 0000 0000
00000050: 0000 0000 0000 0000 0000 0000 0000 0000
00000060: 0000 0000 0000 0000 0000 0000 0000 0000
00000070: 0000 0000 0000 0000 0000 0000 0000 0000
00000080: 0000 0000 0000 0000 0000 0000 0000 0000
00000090: 0000 0000 0000 0000 0000 0000 0000 0000
000000a0: 0000 0000 0000 0000 0000 0000 0000 0000
000000b0: 0000 0000 0000 0000 0000 0000 0000 0000
000000c0: 0000 0000 0000 0000 0000 0000 0000 0000
000000d0: 0000 0000 0000 0000 0000 0000 0000 0000
000000e0: 0000 0000 0000 0000 0000 0000 0000 0000
000000f0: 0000 0000 0000 0000 0000 0000 0000 0000
00000100: 0000 0000 0000 0000 0000 0000 0000 0000
00000110: 0000 0000 0000 0000 0000 0000 0000 0000
00000120: 0000 0000 0000 0000 0000 0000 0000 0000
00000130: 0000 0000 0000 0000 0000 0000 0000 0000
00000140: 0000 0000 0000 0000 0000 0000 0000 0000
00000150: 0000 0000 0000 0000 0000 0000 0000 0000
00000160: 0000 0000 0000 0000 0000 0000 0000 0000
00000170: 0000 0000 0000 0000 0000 0000 0000 0000
00000180: 0000 0000 0000 0000 0000 0000 0000 0000
00000190: 0000 0000 0000 0000 0000 0000 0000 0000
000001a0: 0000 0000 0000 0000 0000 0000 0000 0000
000001b0: 0000 0000 0000 0000 0000 0000 0000 0000
000001c0: 0000 0000 0000 0000 0000 0000 0000 0000
000001d0: 0000 0000 0000 0000 0000 0000 0000 0000
000001e0: 0000 0000 0000 0000 0000 0000 0000 0000
000001f0: 0000 0000 0000 0000 0000 0000 0000 0000
0.0 0.0 0.0 0.0 0.0 0.0 0.0 0.0
0.0 0.0 0.0 0.0 0.0 0.0 0.0 0.0
0.0 0.0 0.0 0.0 0.0 0.0 0.0 0.0
0.0 0.0 0.0 0.0 0.0 0.0 0.0 0.0
0.0 0.0 0.0 0.0 0.0 0.0 0.0 0.0
0.0 0.0 0.0 0.0 0.0 0.0 0.0 0.0
0.0 0.0 0.0 0.0 0.0 0.0 0.0 0.0
0.0 0.0 0.0 0.0 0.0 0.0 0.0 0.0
0.0 0.0 0.0 0.0 0.0 0.0 0.0 0.0
0.0 0.0 0.0 0.0 0.0 0.0 0.0 0.0
0.0 0.0 0.0 0.0 0.0 0.0 0.0 0.0
0.0 0.0 0.0 0.0 0.0 0.0 0.0 0.0
0.0 0.0 0.0 0.0 0.0 0.0 0.0 0.0
0.0 0.0 0.0 0.0 0.0 0.0 0.0 0.0
0.0 0.0 0.0 0.0 0.0 0.0 0.0 0.0
0.0 0.0 0.0 0.0 0.0 0.0 0.0 0.0

network_body._body_endoder.seq_layers.0.weight f4 [128, 1]
00000000: 70c1 28bf 85ed 45be d576 ffbd 1a22 4abf
00000010: 0221 63bf 95c4 cb3e e464 8f3f 02a8 a53f
00000020: 322b ec3e 70cc 34bf 3cd6 95bf b5b2 6c3e
00000030: e9d3 86be e8e1 913d 6d6f 14bf 900b 81bf
00000040: 05c8 073f 7da7 253f 9e9d b5bf da08 893f
00000050: 8341 b2bf 0836 92bf db09 043e 1461 c93f
00000060: f62f 71be 2bf6 f53e a7b2 20bf a814 40be
00000070: bb2f 823e 2edf ca3e 8fb8 423f c409 60be
00000080: e00b 91bf 7e44 42bf 6866 093e a6c4 0c3f
00000090: 6713 febf 5b80 fcbe 256c 28bf e1cb d6bd
000000a0: 09af 353f 5247 653f a9c3 88bf 3eae 06bd
000000b0: 30e5 15bf 1fa1 46bf 1699 abbe fa18 c0bf
000000c0: a669 1d3f 6cab 1a3f cbd8 babe 4758 abbe
000000d0: 9e75 0bbe dbad 293f 3fbe 9abf 2c2d b6be
000000e0: 2fdd 623f 7886 31be 534f c0be b7cf 59bf
000000f0: f4c5 c0be a7c5 e6bf 89ea dc3f b1f3 7c3e
00000100: 3394 cbbf 7ff3 8c3f 368f eb3e e37b 973f
00000110: 21d6 f23e eb8f dbbf a2d1 a53e a4d3 3d3f
00000120: b277 8abf 1a06 1fc0 d25b 2bbf 9ac7 283f
00000130: ceaa ac3f 237b 1fc0 dd0a 293f 2501 5ebf
00000140: 5775 c23f 221b a7be 3879 25bf 1a52 e1bf
00000150: 0be6 32bf 173a d7bf 33ef 023f c10a ca3f
00000160: 2566 82bf 48e6 9fba 2383 d2bf 46a3 df3e
00000170: 3167 c53f 119d 0a3f ced2 323f 5585 2c3f
00000180: bc99 b7bf fd9c 0abf 5541 823f 18c7 c63f
00000190: 66d7 61bf a1e7 0440 aa67 c13e d2c3 3cbf
000001a0: 2a95 5b3d 5d2e 75bf b9ae ae3f 035c 0fbf
000001b0: 1150 3f3f 5637 513f ca7f 0840 9fcd 93bf
000001c0: d0ac 14bf cf76 8abf b371 a73e 3240 a03f
000001d0: 1789 b53e d5ee 9b3f c2cb 18bf c385 18bf
000001e0: 6f60 e1be 4b85 253f 082f 983e a3ce 0d40
000001f0: c64a cbbe 7e05 b7bd 2664 a73f f34a 81bf
-0.6592016 -0.19328888 -0.12473837 -0.78958285 -0.8872224 0.39798418 1.1202664 1.2941897
0.46126705 -0.70624447 -1.1706004 0.23115046 -0.2633355 0.07123166 -0.5798252 -1.0081654
0.5303958 0.6470869 -1.4188726 1.0705826 -1.3926243 -1.1422739 0.12894385 1.5732751
-0.23553452 0.48039374 -0.627726 -0.1875788 0.2542704 0.39623398 0.76062864 -0.21878725
-1.1331749 -0.7588576 0.13417971 0.5498756 -1.9849671 -0.49316677 -0.65790015 -0.104881056
0.7097021 0.8956195 -1.0684711 -0.032881014 -0.5855284 -0.775896 -0.33515233 -1.5007622
0.6148933 0.6041782 -0.36493525 -0.33465788 -0.13619086 0.6628091 -1.2089309 -0.35581338
0.8861875 -0.17336452 -0.3756052 -0.8508257 -0.37651026 -1.8029069 1.7259074 0.24702336
-1.5904602 1.1011809 0.460077 1.1834682 0.47428992 -1.7153295 0.323865 0.7415106
-1.0817778 -2.4847474 -0.6693698 0.6592957 1.3489625 -2.4918907 0.660322 -0.86720496
1.5192059 -0.32637888 -0.6463809 -1.760318 -0.6988227 -1.6814603 0.5114624 1.5784532
-1.0187422 -0.0012199366 -1.644627 0.43679255 1.5422117 0.54145914 0.6985291 0.6739095
-1.4343791 -0.54145795 1.0176188 1.5529509 -0.88219297 2.0766375 0.37774402 -0.737363
0.05360905 -0.9577387 1.3647071 -0.55999774 0.74731547 0.8172506 2.1327996 -1.1547126
-0.5807619 -1.0817508 0.32703933 1.2519591 0.35456154 1.2182261 -0.5968591 -0.59579104
-0.44018885 0.64656514 0.29723382 2.215737 -0.39705485 -0.089365944 1.3077438 -1.0100998

network_body._body_endoder.seq_layers.2.bias f4 [128]
00000000: 0000 0000 0000 0000 0000 0000 0000 0000
00000010: 0000 0000 0000 0000 0000 0000 0000 0000
00000020: 0000 0000 0000 0000 0000 0000 0000 0000
00000030: 0000 0000 0000 0000 0000 0000 0000 0000
00000040: 0000 0000 0000 0000 0000 0000 0000 0000
00000050: 0000 0000 0000 0000 0000 0000 0000 0000
00000060: 0000 0000 0000 0000 0000 0000 0000 0000
00000070: 0000 0000 0000 0000 0000 0000 0000 0000
00000080: 0000 0000 0000 0000 0000 0000 0000 0000
00000090: 0000 0000 0000 0000 0000 0000 0000 0000
000000a0: 0000 0000 0000 0000 0000 0000 0000 0000
000000b0: 0000 0000 0000 0000 0000 0000 0000 0000
000000c0: 0000 0000 0000 0000 0000 0000 0000 0000
000000d0: 0000 0000 0000 0000 0000 0000 0000 0000
000000e0: 0000 0000 0000 0000 0000 0000 0000 0000
000000f0: 0000 0000 0000 0000 0000 0000 0000 0000
00000100: 0000 0000 0000 0000 0000 0000 0000 0000
00000110: 0000 0000 0000 0000 0000 0000 0000 0000
00000120: 0000 0000 0000 0000 0000 0000 0000 0000
00000130: 0000 0000 0000 0000 0000 0000 0000 0000
00000140: 0000 0000 0000 0000 0000 0000 0000 0000
00000150: 0000 0000 0000 0000 0000 0000 0000 0000
00000160: 0000 0000 0000 0000 0000 0000 0000 0000
00000170: 0000 0000 0000 0000 0000 0000 0000 0000
00000180: 0000 0000 0000 0000 0000 0000 0000 0000
00000190: 0000 0000 0000 0000 0000 0000 0000 0000
000001a0: 0000 0000 0000 0000 0000 0000 0000 0000
000001b0: 0000 0000 0000 0000 0000 0000 0000 0000
000001c0: 0000 0000 0000 0000 0000 0000 0000 0000
000001d0: 0000 0000 0000 0000 0000 0000 0000 0000
000001e0: 0000 0000 0000 0000 0000 0000 0000 0000
000001f0: 0000 0000 0000 0000 0000 0000 0000 0000
0.0 0.0 0.0 0.0 0.0 0.0 0.0 0.0
0.0 0.0 0.0 0.0 0.0 0.0 0.0 0.0
0.0 0.0 0.0 0.0 0.0 0.0 0.0 0.0
0.0 0.0 0.0 0.0 0.0 0.0 0.0 0.0
0.0 0.0 0.0 0.0 0.0 0.0 0.0 0.0
0.0 0.0 0.0 0.0 0.0 0.0 0.0 0.0
0.0 0.0 0.0 0.0 0.0 0.0 0.0 0.0
0.0 0.0 0.0 0.0 0.0 0.0 0.0 0.0
0.0 0.0 0.0 0.0 0.0 0.0 0.0 0.0
0.0 0.0 0.0 0.0 0.0 0.0 0.0 0.0
0.0 0.0 0.0 0.0 0.0 0.0 0.0 0.0
0.0 0.0 0.0 0.0 0.0 0.0 0.0 0.0
0.0 0.0 0.0 0.0 0.0 0.0 0.0 0.0
0.0 0.0 0.0 0.0 0.0 0.0 0.0 0.0
0.0 0.0 0.0 0.0 0.0 0.0 0.0 0.0
0.0 0.0 0.0 0.0 0.0 0.0 0.0 0.0

network_body._body_endoder.seq_layers.2.weight f4 [128, 128]
00000000: fa87 8f3c fe61 a2bc 41e2 e03d af37 d7bd
00000010: 8bea 583c 6e27 d2bd 649e 833d 1896 f7bc
00000020: 2163 e43d 7e11 ce3d ad20 5d3d b0ca 663c
00000030: d6e7 063e c854 e0bd 7f80 ae3d 6f3b ddbd
00000040: 66a3 8f3c d8aa e7bd aa77 ac3d 2d87 543d
00000050: 2c3f b73d de8c 2a3e 3894 1cbd 0cd6 f3bc
00000060: f424 e63d 82bc f1bd 12af 363d e9cd 203d
00000070: dbf2 213b a214 2f3d 2dd7 d9bd 9665 243c
00000080: 2000 aebd 2893 0dbe 3972 fcbd 6187 17bd
00000090: 862b 9f3b edf3 19bd 51c0 f13d 9e1b c33d
000000a0: 9d29 213e 3cd1 953d 910f 58bd dedf 33bc
000000b0: ff33 aebd c2de 69be 7eda 9cbd 7b0c a0bc
000000c0: e915 943b 47e1 133c 8456 d2bd 03eb c7bc
000000d0: 2ab4 f53b 8075 183d 0d30 a53c 71f0 c3bd
000000e0: 18ee ae3c 5d83 3abd 80eb 333c 9620 dd3c
000000f0: 7c97 a6bc 833a 8e3d c486 8f3d 3833 003d
00000100: fd71 4abd a92a cc3b e2ab f1bd 2b7a 23bd
00000110: 6040 a0bd a11c be3d 7573 17bd bcb3 ce3d
00000120: a352 1c3b b435 afbd 029c a33d 80a6 463c
00000130: a20c 053d 1dc3 18be 6dc8 afbd 12a5 19bd
00000140: 1894 4a3d 4580 21bd 746c b8bc 5ba6 1e3e
00000150: f531 73bc 1546 de3d fc65 73bd e3c1 09be
00000160: 8d54 a43c a80c 63bc e11c dc3c 6be7 be3c
00000170: 4ed6 153c eb08 29bd 0521 483d 2699 0d3d
00000180: b0ac 9e3d 6f20 c0bd d226 c9bd a29d ff3c
00000190: 8657 e7bd 9c07 bb3c 06a8 eabd 83e4 d23b
000001a0: 5a39 8f3d 4944 2fbd 9717 8bbd 494b 00be
000001b0: f061 bf3d f2a0 0bbd aedd e2bd 9fce 5abd
000001c0: 5f9d 023d 02bb c93d 9007 373d 27cd c43d
000001d0: 3146 4a3d e554 90bd 5287 acbc 2a4c 0bbd
000001e0: e742 d9bd f92e 583e cbb9 2d3e 80af 90bc
000001f0: e0d1 253e fa21 f7bd 9e2a 253e 2736 82bc
00000200: 45e5 cb3c 3f14 323c 05dd b73d cccb 213e
00000210: 03f1 38be 9d5e c83d 0a60 c7bd 3c79 973c
00000220: c722 aebd a75f 2f3d b1c6 f4bd 3c6d da3d
00000230: 46d9 8c3d fb38 353d e0bc a9bd a600 d3bd
00000240: 908b 3d3d 06e3 923c 5b2c 71bd b63b 01bb
00000250: 5dcd c0bd bb81 493d 0ed5 6f3d b63e 74bd
00000260: 5e6d 353d 81f0 dbbd b848 3fbd b136 4dbe
00000270: 5ac7 57bd 7b48 b9bc 4e6e 8fbd bc31 e1bd
00000280: b3e7 65bb 2b65 3a3e b731 3b3e f1c1 ab3d
00000290: 966d fdbd e216 4c3d 1214 f2bc e985 113c
000002a0: 646e d63c eaa8 9c3d 9be9 01be c2d6 f8bc
000002b0: 31eb 8a3c b4c2 0f3e 8fb1 903d 0a84 5d3e
000002c0: 773a a33d e058 8b3d faac 83bd 6169 69bd
000002d0: 0eb1 f53d 7640 b33d 2a2b ec3d ff38 f63b
000002e0: 400b 893d d230 86bd 55b9 8cbd 35f0 2a3c
000002f0: cf80 363d b87d 95bd 58a3 0ebe 2262 853d
00000300: 2f9e 79bc f4a9 7e3c 1fcc 9e3d dd18 aebd
00000310: 6916 35bd fb1d b63d 694a c13b 26fc 3fbd
00000320: b876 263e e5fa 2e3d 4acd 6cbd eef8 b0bd
00000330: 32ad ccbd 4225 833e f040 e53b 49dd 60bd
00000340: e99a 8ebe 5ae2 a6bd d47e 1b3d ec59 5ebc
00000350: 8b87 e0bd 6e16 1ebe 1498 97bd 6d6f fc3c
00000360: 9447 e4bc aba7 e53c 7ebc 57be 1179 b8bd
00000370: 44a0 603e 5a76 06bc db69 dcbc 46d4 a5bd
00000380: 3ee2 f5bd b691 113e 0be9 d73c b040 db3c
00000390: 03c4 dfbb 610e 8cbd bfb1 923d 25c8 a8be
000003a0: 11b7 033d 97cc 413e 7a5f f13d 4a77 a4bc
000003b0: e3a9 f039 9ffd 0bbc b4b0 efbd 54f6 733c
000003c0: 9149 11bd 64c8 dcbc 3376 12bd 67a1 09be
000003d0: 126e 2e3d 2a97 ed3c 0cd3 f23c 79ab 34bd
000003e0: 2331 13bb fa2f ebbd eaa9 05bd 02b2 f43d
000003f0: 5657 19be 26c7 5abb 42d3 ad3c 2490 043e
0.017520893 -0.019822117 0.109806545 -0.10508668 0.013239513 -0.10261427 0.06426695 -0.030222937
0.1115172 0.1006193 0.05398624 0.01408641 0.13174376 -0.10953671 0.085206024 -0.10802352
0.01753397 -0.11311883 0.084212616 0.051886726 0.08947596 0.16655299 -0.03822729 -0.029765151
0.11237517 -0.11803533 0.044600554 0.03925887 0.0024711404 0.042744286 -0.10636745 0.010033986
-0.084961176 -0.13825667 -0.12326474 -0.03699434 0.0048574833 -0.03758614 0.118042596 0.09526752
0.1573853 0.07315299 -0.05274922 -0.010978667 -0.08506011 -0.22838882 -0.076588616 -0.019537201
0.0045192135 0.009025878 -0.10270408 -0.024404055 0.007498284 0.03722143 0.020164514 -0.09567345
0.021353766 -0.045535434 0.010981441 0.026993077 -0.020335905 0.06944754 0.070081264 0.031298846
-0.049425114 0.0062306714 -0.11800362 -0.03991143 -0.078247786 0.09282804 -0.036975343 0.10092875
0.0023852966 -0.08555165 0.079887405 0.012124658 0.03248275 -0.1491818 -0.0858315 -0.03751094
0.04945764 -0.039428968 -0.022512652 0.15493147 -0.014843454 0.10853211 -0.05942343 -0.13452868
0.020059848 -0.013857998 0.02686924 0.023303708 0.0091453325 -0.04126827 0.048859615 0.03456988
0.07747781 -0.09381186 -0.098218575 0.031203095 -0.11295991 0.022830777 -0.11457829 0.006435932
0.06993361 -0.04278973 -0.06791609 -0.12528719 0.09344852 -0.034089036 -0.11077438 -0.053419705
0.031888362 0.09850122 0.044684947 0.09609442 0.049383346 -0.07047442 -0.02106062 -0.034008183
-0.10608464 0.21111669 0.16965406 -0.01766181 0.16193342 -0.120670274 0.16129538 -0.015894962
0.024889598 0.010869085 0.08977703 0.15800399 -0.18060689 0.09783671 -0.09735115 0.018490426
-0.08502727 0.04281583 -0.1195196 0.10665366 0.06877379 0.044243794 -0.08287978 -0.10302858
0.046275675 0.017930519 -0.05888019 -0.0019719428 -0.0941417 0.049195986 0.058552794 -0.05963012
0.044293754 -0.10739232 -0.04670021 -0.20040394 -0.05268035 -0.02261757 -0.07003461 -0.10995814
-0.003508073 0.18202655 0.18280683 0.08386601 -0.123744175 0.04982651 -0.029550586 0.008882024
0.026175685 0.07649405 -0.1268677 -0.030375842 0.016957851 0.14039117 0.070651166 0.216324
0.07970136 0.06804061 -0.06429477 -0.056985263 0.11996661 0.08752529 0.115316704 0.0075141187
0.06691599 -0.065522805 -0.06871287 0.010433246 0.044556435 -0.072993696 -0.13929498 0.06512858
-0.015235468 0.01554345 0.07753777 -0.08500836 -0.044210825 0.08892437 0.005898763 -0.046871327
0.16256225 0.04271974 -0.057812966 -0.086412296 -0.09993972 0.25614363 0.0069962665 -0.054898534
-0.27852562 -0.08148642 0.03796275 -0.013571244 -0.10963353 -0.15438244 -0.074020535 0.03081485
-0.027866162 0.028034052 -0.21067998 -0.090074666 0.21936136 -0.008206928 -0.026905945 -0.080971286
-0.12006043 0.1421574 0.02635624 0.026764244 -0.0068287863 -0.0683868 0.071628086 -0.32965198
0.032157008 0.18925701 0.11785789 -0.020076413 0.00045902943 -0.008544355 -0.11703625 0.014890272
-0.03547055 -0.026951022 -0.035757255 -0.13440476 0.04258544 0.029002745 0.02964165 -0.04410884
-0.0022459708 -0.1148376 -0.032632746 0.11948015 -0.14974722 -0.0033382862 0.0212189 0.1294561
