Assets/ML-Agents/Examples/FirstTRexScene/results/trmodel/My Behavior/My Behavior-4224.onnx (onnx, 213233 bytes, 7 tensors)

action_model._continuous_distribution.log_sigma f4 [1, 39]
00000000: 0000 0000 0000 0000 0000 0000 0000 0000
00000010: 0000 0000 0000 0000 0000 0000 0000 0000
00000020: 0000 0000 0000 0000 0000 0000 0000 0000
00000030: 0000 0000 0000 0000 0000 0000 0000 0000
00000040: 0000 0000 0000 0000 0000 0000 0000 0000
00000050: 0000 0000 0000 0000 0000 0000 0000 0000
00000060: 0000 0000 0000 0000 0000 0000 0000 0000
00000070: 0000 0000 0000 0000 0000 0000 0000 0000
00000080: 0000 0000 0000 0000 0000 0000 0000 0000
00000090: 0000 0000 0000 0000 0000 0000
0.0 0.0 0.0 0.0 0.0 0.0 0.0 0.0
0.0 0.0 0.0 0.0 0.0 0.0 0.0 0.0
0.0 0.0 0.0 0.0 0.0 0.0 0.0 0.0
0.0 0.0 0.0 0.0 0.0 0.0 0.0 0.0
0.0 0.0 0.0 0.0 0.0 0.0 0.0

action_model._continuous_distribution.mu.bias f4 [39]
00000000: 0000 0000 0000 0000 0000 0000 0000 0000
00000010: 0000 0000 0000 0000 0000 0000 0000 0000
00000020: 0000 0000 0000 0000 0000 0000 0000 0000
00000030: 0000 0000 0000 0000 0000 0000 0000 0000
00000040: 0000 0000 0000 0000 0000 0000 0000 0000
00000050: 0000 0000 0000 0000 0000 0000 0000 0000
00000060: 0000 0000 0000 0000 0000 0000 0000 0000
00000070: 0000 0000 0000 0000 0000 0000 0000 0000
00000080: 0000 0000 0000 0000 0000 0000 0000 0000
00000090: 0000 0000 0000 0000 0000 0000
0.0 0.0 0.0 0.0 0.0 0.0 0.0 0.0
0.0 0.0 0.0 0.0 0.0 0.0 0.0 0.0
0.0 0.0 0.0 0.0 0.0 0.0 0.0 0.0
0.0 0.0 0.0 0.0 0.0 0.0 0.0 0.0
0.0 0.0 0.0 0.0 0.0 0.0 0.0

action_model._continuous_distribution.mu.weight f4 [39, 128]
00000000: bd21 e1bb 3062 7d3c 443c 353b 7b91 c0bb
00000010: 7dab 793c 9498 be3a 9f42 233c 873b 44bc
00000020: 0a1d 36bc 4ee0 863c 339e a73b a351 813c
00000030: 0271 573c 87b5 d0bc 8a0f 32bc d505 b33c
00000040: 3146 46bc dbe2 38bc 1bc8 e33c 1d48 dd3b
00000050: c716 6c3b 3fd0 9e3c a77d d9bb abdf 0e3b
00000060: 64a2 123d 97f4 38bc 2a1a 953c 1029 5abb
00000070: f81c 343c 875e 7e3b 87f8 56bc 6924 9dbc
00000080: d504 023d e723 f1ba fd30 90bc c5c8 8abb
00000090: e755 513b 73e7 3ebc a38e d1bc 8d9e a5bc
000000a0: c327 b739 ee2e 0dbd 7c73 953b 32ba bc3a
000000b0: d05b b73c a268 893c 3e40 bf3c e7d5 0bbd
000000c0: 6d87 043b ed8a f5bb 6028 d9bc acf1 ca3b
000000d0: 2297 7fbc de12 87bc d0b3 463b be04 373c
000000e0: 66b3 253d ade9 b1bc 6f8d 18bc 75be fb3c
000000f0: 1205 ed3c 6398 08bc 6e9d 41bd d8fe 6f3c
00000100: 931c 403c 79cf bd3b 00b9 eabb b2c0 533b
00000110: 37fb c63c 79f3 48bc a65d 113b c22a 723b
00000120: 9928 0dbc f2cf c13c 677d 043b abdf cb38
00000130: 4bad 093d a874 4cbc 9b56 3f3c d3fc b33c
00000140: 7f26 b43c 9701 7539 6dd5 ebbb d379 1a3c
00000150: 28e0 da3b 17a9 12bc d746 d23a 3169 c63b
00000160: cb9e f9bc 4aaf bb3c 7380 f73b 0261 dc3b
00000170: ac8d 2cbc 02ee e53c 07e0 8639 03e2 e23a
00000180: abe6 6f3c d001 863c 34a6 b73c 558b adbb
00000190: 3852 10bc d50f fb3b db07 133c a2f6 293c
000001a0: 28cc 5cbc 13e1 793c 8bec e1bb b366 e3bb
000001b0: 884b 4c3b bb24 6a3c 43f8 df3c 4d62 523c
000001c0: 4257 2b3d 6f74 81bc d386 ef3c 2834 c7bb
000001d0: 4eff 0839 b6e0 20bd b765 5b3b 92ba 903c
000001e0: cd05 3e3c a34c e23c bb3b 743c d0bb 773c
000001f0: dfda 64bc d9bf 01bd 978c 2a3a e721 f23b
00000200: 3a2a f83c cb9c d7ba 8361 1b3c 67d1 52bc
00000210: 3498 8d3c d71b 7bbb 7315 08bb 8dd8 563d
00000220: 2981 933c 236f df3c f801 783c 178a cc3c
00000230: 6589 f93b 7722 cdba c73f c6ba c46c 8ebc
00000240: 0fff 0fbc a35c cbbb 4a0a 6e3c c807 023d
00000250: ba27 bbbc d212 dc3b 5bc5 1b3c ac42 1b3c
00000260: 492d 1bbc 6711 b73c a33f 0c3b 10e8 62bb
00000270: 98f2 f13b 7079 443d 85e2 31bd e3ae dcba
00000280: b521 aa3c b066 fb3c d2e2 85bc 3c84 1f3d
00000290: 5618 133c 9f73 1c3c 2f41 ff3a 1fcc 9cbc
000002a0: dbcb 0dbc db26 ccbb bbb6 c73b 7525 12bc
000002b0: 8b46 e6bc dcfc cb3c bb74 9ebc 3b0f eaba
000002c0: 439d ffbb 674c a9bb 2c7a 933b a742 173b
000002d0: 937d 02bd 2b57 cd3c 44a0 233c 555c 353b
000002e0: d199 43bc 671a 303c 003a b9bc 8f14 48bc
000002f0: cf30 c13b 0528 4ebc b033 ad3c e751 15bc
00000300: 3f74 a2bc 4985 01bb 77eb a93c adeb 71bc
00000310: 4f6a fcbb 973c e23a 32e6 75bb b016 5a3c
00000320: 5cec 833c 2504 87bc 5b29 13bd 6b37 14bb
00000330: e266 be3b 1ed0 a7bc 2b83 52bb 4731 803b
00000340: 4b87 a23b 1b21 91bb c1dc 0dbc eac1 7d3c
00000350: ff95 c63c 08c5 8b3c 8fba e2ba 8224 2d3c
00000360: a72d 6abc 7306 2ebb d514 043c c0a7 febc
00000370: 4afb aa3b bfb1 fbba e36a c0bc d136 1e3c
00000380: 4f4c 763a f6fb 0bbc 582f 6e3c 8b37 a33a
00000390: f37b b6bb ffff 7cbc 25e1 b2bc c2c8 573c
000003a0: d6fe c8bc f243 733b a61d 09bc ae18 90bc
000003b0: 2b00 453b d299 ebbb a7d9 f6bb 0e39 8d3b
000003c0: 3bdb 053b eb53 86b9 e235 afba fbe4 8bbc
000003d0: 5ab5 6a3c 20d8 a3bc afe5 e0bb 3894 e13b
000003e0: bcf8 37bb 38a7 4fbb 7f58 76bb 2992 0bbc
000003f0: 7b3e 14bc be8f 8a3c 138f 2f3c bb8c fbbb
-0.006870477 0.015465304 0.002765433 -0.0058767176 0.01523864 0.0014541321 0.009964614 -0.011977083
-0.011115322 0.016464379 0.0051152944 0.015785998 0.013149502 -0.025477184 -0.010867963 0.021853367
-0.012101696 -0.011284555 0.027805379 0.0067529813 0.0036024319 0.019386409 -0.0066372934 0.0021800797
0.0357994 -0.0112887835 0.018200953 -0.0033288635 0.010993235 0.0038813667 -0.013120777 -0.0191824
0.03174289 -0.001839754 -0.017601484 -0.0042353594 0.003194207 -0.0116518615 -0.02558071 -0.020217204
0.00034934105 -0.034468584 0.004560886 0.0014398752 0.022382647 0.016773526 0.023346063 -0.03413954
0.0020222322 -0.007493368 -0.02650851 0.0061933603 -0.015599998 -0.016488489 0.003031958 0.011170564
0.04045429 -0.02171787 -0.009311064 0.030730465 0.028933082 -0.008337113 -0.047269277 0.014648162
0.011725563 0.005792555 -0.007163167 0.00323109 0.02428971 -0.01226508 0.0022181063 0.0036951755
-0.008615636 0.023658726 0.0020216347 9.721456e-05 0.03361253 -0.012478985 0.011678363 0.021971142
0.021991013 0.00023365613 -0.007197073 0.009428459 0.0066795535 -0.008951447 0.001604284 0.0060550203
-0.030471226 0.022910733 0.007553154 0.0067254314 -0.010531824 0.028067593 0.00025725385 0.0017309788
0.014642398 0.016358286 0.022418119 -0.0052961507 -0.008808665 0.0076617994 0.008974041 0.010373743
-0.013476409 0.015251416 -0.006894653 -0.006939733 0.003117295 0.014290984 0.02734006 0.01284082
0.041831262 -0.01580259 0.029239094 -0.0060792156 0.00013065079 -0.0392768 0.0033477375 0.017667089
0.011598063 0.027624434 0.014906819 0.015120462 -0.013968199 -0.0316771 0.0006505935 0.0073892954
0.030293573 -0.0016449926 0.009483698 -0.012867308 0.01728449 -0.0038316154 -0.0020764738 0.052452613
0.018005924 0.027274674 0.015137188 0.02496819 0.0076152557 -0.001565053 -0.0015125208 -0.017385848
-0.008788838 -0.0062061115 0.01452882 0.031745702 -0.022846092 0.0067161107 0.009507502 0.009476345
-0.009471246 0.022347165 0.0021400235 -0.0034623183 0.0073836558 0.047967374 -0.043428916 -0.0016836788
0.020768026 0.030688614 -0.016343508 0.038944468 0.00897797 0.009549051 0.0019474382 -0.019140301
-0.00865456 -0.006230218 0.006094781 -0.008920063 -0.02810981 0.024900846 -0.01934277 -0.0017857322
-0.0078007295 -0.0051665786 0.004500648 0.00230805 -0.03185804 0.025065979 0.009986941 0.0027673442
-0.011938528 0.010748482 -0.022610664 -0.012211933 0.005895711 -0.012582784 0.02114281 -0.009113765
-0.019830821 -0.0019763282 0.020742161 -0.014765662 -0.0077031027 0.0017260489 -0.003752124 0.013311073
0.016103916 -0.016481468 -0.03592811 -0.002261604 0.0058106044 -0.02048498 -0.003212164 0.0039121243
0.004959976 -0.0044289953 -0.008658589 0.015488127 0.024241446 0.017061725 -0.001729803 0.010567786
-0.014293111 -0.0026554137 0.008061607 -0.031085849 0.0052179443 -0.0019202753 -0.023488468 0.009656624
0.0009395526 -0.008543959 0.014537655 0.0012452466 -0.005568975 -0.015441894 -0.021835873 0.013170423
-0.024535578 0.0037119356 -0.008368885 -0.017589893 0.0030059915 -0.0071899677 -0.0075332704 0.00430978
0.002042486 -0.00025620995 -0.0013367499 -0.01707696 0.014325464 -0.020000517 -0.006863318 0.006884124
-0.0028071841 -0.0031685364 -0.003758937 -0.008518734 -0.0090481 0.016914245 0.010715264 -0.0076766885

network_body._body_endoder.seq_layers.0.bias f4 [128]
00000000: 0000 0000 0000 0000 0000 0000 0000 0000
00000010: 0000 0000 0000 0000 0000 0000 0000 0000
00000020: 0000 0000 0000 0000 0000 0000 0000 0000
00000030: 0000 0000 0000 0000 0000 0000 0000 0000
00000040: 0000 0000 0000 0000 0000 0000 0000 0000
00000050: 0000 0000 0000 0000 0000 0000 0000 0000
00000060: 0000 0000 0000 0000 0000 0000 0000 0000
00000070: 0000 0000 0000 0000 0000 0000 0000 0000
00000080: 0000 0000 0000 0000 0000 0000 0000 0000
00000090: 0000 0000 0000 0000 0000 0000 0000 0000
000000a0: 0000 0000 0000 0000 0000 0000 0000 0000
000000b0: 0000 0000 0000 0000 0000 0000 0000 0000
000000c0: 0000 0000 0000 0000 0000 0000 0000 0000
000000d0: 0000 0000 0000 0000 0000 0000 0000 0000
000000e0: 0000 0000 0000 0000 0000 0000 0000 0000
000000f0: 0000 0000 0000 0000 0000 0000 0000 0000
00000100: 0000 0000 0000 0000 0000 0000 0000 0000
00000110: 0000 0000 0000 0000 0000 0000 0000 0000
00000120: 0000 0000 0000 0000 0000 0000 0000 0000
00000130: 0000 0000 0000 0000 0000 0000 0000 0000
00000140: 0000 0000 0000 0000 0000 0000 0000 0000
00000150: 0000 0000 0000 0000 0000 0000 0000 0000
00000160: 0000 0000 0000 0000 0000 0000 0000 0000
00000170: 0000 0000 0000 0000 0000 0000 0000 0000
00000180: 0000 0000 0000 0000 0000 0000 0000 0000
00000190: 0000 0000 0000 0000 0000 0000 0000 0000
000001a0: 0000 0000 0000 0000 0000 0000 0000 0000
000001b0: 0000 0000 0000 0000 0000 0000 0000 0000
000001c0: 0000 0000 0000 0000 0000 0000 0000 0000
000001d0: 0000 0000 0000 0000 0000 0000 0000 0000
000001e0: 0000 0000 0000 0000 0000 0000 0000 0000
000001f0: 0000 0000 0000 0000 0000 0000 0000 0000
0.0 0.0 0.0 0.0 0.0 0.0 0.0 0.0
0.0 0.0 0.0 0.0 0.0 0.0 0.0 0.0
0.0 0.0 0.0 0.0 0.0 0.0 0.0 0.0
0.0 0.0 0.0 0.0 0.0 0.0 0.0 0.0
0.0 0.0 0.0 0.0 0.0 0.0 0.0 0.0
0.0 0.0 0.0 0.0 0.0 0.0 0.0 0.0
0.0 0.0 0.0 0.0 0.0 0.0 0.0 0.0
0.0 0.0 0.0 0.0 0.0 0.0 0.0 0.0
0.0 0.0 0.0 0.0 0.0 0.0 0.0 0.0
0.0 0.0 0.0 0.0 0.0 0.0 0.0 0.0
0.0 0.0 0.0 0.0 0.0 0.0 0.0 0.0
0.0 0.0 0.0 0.0 0.0 0.0 0.0 0.0
0.0 0.0 0.0 0.0 0.0 0.0 0.0 0.0
0.0 0.0 0.0 0.0 0.0 0.0 0.0 0.0
0.0 0.0 0.0 0.0 0.0 0.0 0.0 0.0
0.0 0.0 0.0 0.0 0.0 0.0 0.0 0.0

network_body._body_endoder.seq_layers.0.weight f4 [128, 243]
00000000: 86bf 7bbc 6bb6 aabd 4b0f 48bd 99e0 9dbd
00000010: a354 9fbd 6547 de3d 06a2 003d 62b8 8ebd
00000020: 4350 87bd 7189 e1bd 4423 90bb 01f1 d5bd
00000030: 0ce9 bb3b a0ec 0dbe d004 a63d 33fc 4fbc
00000040: dd50 a13d f82b bebd ab6b b03b 483f 56bd
00000050: f1af 163c 16f8 67bc 9940 d3bc 4878 e73c
00000060: a6a3 84bc e632 4f3d ab07 aeba 1835 85bd
00000070: d518 50bd 7ba6 673b 97a8 583d d9a5 d2bc
00000080: bed6 e6bc d5bf 173d c6b2 bf3d 3059 b93c
00000090: 7408 0ebd def6 823d 5c19 413d 2867 9f3c
000000a0: e465 55bd 6e2e a1bd be70 8a3c 0ecd 7ebd
000000b0: 5f46 103d b33b e4bd d53a 83b8 ec50 2b3d
000000c0: e84f 95bd 1096 993c ee84 033e e762 91ba
000000d0: 9a3b e4bc 7fbb a0bb 2f70 15bd 0373 273d
000000e0: 5e31 2b3d bb7e febc 387b 3d3d b061 88bc
000000f0: 9309 ff3c 68bf cdbb 76f3 8c3c 7b97 d1bd
00000100: 26a4 bcbd 214e 543d 13a1 e23a edc7 683c
00000110: 6b3b c93d 8e24 213d c7d4 24bb a8fb 603c
00000120: bc06 15bc 895b 883d fd69 213d 4c44 013b
00000130: a986 88bd 8939 463d feb7 45bc 7abc ce3c
00000140: ced3 043c da79 883d d148 28bc d6ee ea3c
00000150: 70c1 fdbb 1e3a 1c3d 4b1f dc3d 0b9d b4bd
00000160: 05b7 e0bc 182c b23d 8397 0dbd eed3 20bd
00000170: 9dc7 fabd 5a6d 1cbd 8512 dfbd acc1 f43d
00000180: e39a 53bc 7077 e13c b643 37bd 21d3 b1bc
00000190: 503d 753d 894a 4b3b c48c 003d 2c84 79bd
000001a0: ad19 66bd 0f03 533d d8dc 823d ec00 f5bb
000001b0: 2fa6 8d3d c78d 08bd ab69 ea3d d8b1 5c3d
000001c0: dfa7 d7bc ca55 973d 9f1a 8cbd e104 003e
000001d0: add2 83bd c976 9bbd 55e9 943d 24d5 a53d
000001e0: 8afc 233e 0311 ae3d 8f51 75bd c1c5 f9bd
000001f0: 40b3 ad3d dce0 bd3d a96f 76bc 3656 623d
00000200: a9ad 9b3c bafc 29bb cd95 47bc 7d20 853d
00000210: 475f ea3d dd7e fdbb acfa 2cbd 3758 933c
00000220: 19c2 ffbb e4b6 923d 4c63 8bbd a587 15bd
00000230: 37d6 52bd b45a b6bc aa4d 0a3d 1f05 553d
00000240: 2e77 e73b 3746 89bd 670f 2fbd 3afe 4fbd
00000250: ed51 543d e161 19bd 7b0d fa3c 07cb b43d
00000260: 9c00 80bc d5a8 813d ac89 823d 901a e0bd
00000270: 4e79 223c efc3 ed3b 9cc0 f23d eb10 593c
00000280: 9e20 16bd d80a a93d 29ce 75bd 1f74 0a3d
00000290: c26d a0bd 65c4 60bd aa83 86bd a2bc 95bd
000002a0: 7b2e 46bc 6635 e53c 92de 6ebd f8a4 a63d
000002b0: c4fe 023d f25b 34bc aa3e a43d 01d2 15be
000002c0: 6e59 80bd a767 dabb fcf3 5ebd 1505 40be
000002d0: 6b25 983d 3fe9 f03b d68b 453d 8b5b e5bb
000002e0: e87c 283d 4d86 bb3b f316 c23d 98af 2c3c
000002f0: 2741 97bc d488 423d 7de2 293d 61af 08bd
00000300: 06e7 31bd 1058 18bd 4fc6 e6bc 3885 4ebd
00000310: 1564 1c3d 5738 65bd 30e2 d93c eaf2 db3d
00000320: a730 273d 0c52 b43c e0dc 9b3d b0fd 2d3d
00000330: db01 153d 9712 063e ccac a5bd 9ecd dabb
00000340: f45d 243d b55a 4dbd 324f 473c 0463 c3bc
00000350: 2ec8 123d f9fe 06be 5a00 8f3d 44bb 883d
00000360: 71cf bcbb a314 c7bd 8d43 a8bc 9fce c9bc
00000370: 0a71 63bd 69fd 0fbd e387 3abd 97b9 853d
00000380: 1ce4 22bd bcb4 11bd 7e94 8fbd 7335 00be
00000390: dbd1 433d b0e4 07bd 15ba 2e3d 344c ddbd
000003a0: e5f4 0b3c 74d7 1ebe 073e 65bb 9523 b0bc
000003b0: 411f ebbc ecca a6bb ae3e 883c a04b 943d
000003c0: 97ab bcbc e984 dabc af1a 643c 11c6 d93d
000003d0: e198 0d3d e680 85bd 25fe bdbd eb1d e2bb
000003e0: 7415 053e e5bd e3ba 7335 8bbd 0ecd 383e
000003f0: 82c3 ec3c eb84 ccbc 38d6 433c 97d9 7d3c
-0.015365487 -0.08335575 -0.04884271 -0.07708854 -0.07779815 0.10853461 0.031404518 -0.06968762
-0.066071056 -0.11012543 -0.0043987352 -0.104463585 0.0057345685 -0.13859797 0.08106387 -0.012694406
0.078767516 -0.0928573 0.005383929 -0.052306443 0.009197221 -0.014158269 -0.025787639 0.028255597
-0.016191315 0.05058565 -0.0013277432 -0.065042675 -0.05080493 0.0035347033 0.052895155 -0.025713848
-0.028178569 0.03704818 0.0936027 0.022625536 -0.03467603 0.063947424 0.047143325 0.019458368
-0.052099124 -0.07870184 0.016899463 -0.062207274 0.03522336 -0.11144199 -6.257525e-05 0.04182522
-0.072906315 0.018748313 0.12843677 -0.0011092097 -0.027860451 -0.004905164 -0.03648394 0.040881168
0.041795127 -0.03106629 0.04626009 -0.016648144 0.031132495 -0.006278921 0.017205935 -0.10233971
-0.09210996 0.051832322 0.0017290435 0.014207822 0.09825786 0.039341502 -0.002515124 0.0137318745
-0.009095844 0.06658084 0.03940772 0.0019724546 -0.066663094 0.048394714 -0.012067793 0.025236357
0.008107139 0.06663866 -0.010271267 0.028678339 -0.007744007 0.038141362 0.10748156 -0.08819016
-0.02743102 0.086998165 -0.03456832 -0.039264612 -0.122451045 -0.038190223 -0.10892204 0.119510025
-0.012915346 0.027522773 -0.04474231 -0.02170712 0.059872925 0.0031019768 0.031384245 -0.060917065
-0.05617683 0.05151659 0.06389779 -0.0074769165 0.06916463 -0.033338334 0.11445936 0.053880543
-0.026325164 0.0738941 -0.06841015 0.12501861 -0.064366676 -0.07591016 0.07271067 0.08097294
0.16014305 0.084993385 -0.059892233 -0.12195922 0.08481455 0.09271404 -0.01504127 0.055258
0.019003706 -0.002593799 -0.012181711 0.06500337 0.11443954 -0.0077360705 -0.042231247 0.0179864
-0.0078051207 0.0716379 -0.06806049 -0.036506314 -0.051473822 -0.022260047 0.033765472 0.052006837
0.007063768 -0.067028455 -0.0427393 -0.05077956 0.051835943 -0.03744686 0.030524006 0.08827787
-0.01562529 0.0633103 0.06373915 -0.109425664 0.009916617 0.007256023 0.118531436 0.013248662
-0.0366522 0.082540214 -0.060011063 0.033802148 -0.07833435 -0.054874796 -0.06568082 -0.073113695
-0.012096043 0.027979564 -0.05831773 0.08136934 0.031981245 -0.01100825 0.08019765 -0.14630891
-0.06267057 -0.0066651884 -0.0544319 -0.18751939 0.07429012 0.007352024 0.04822906 -0.006999438
0.041134745 0.005722797 0.094770335 0.010539912 -0.018463684 0.04749377 0.04147576 -0.03337038
-0.04343321 -0.037193358 -0.028170733 -0.050420016 0.038181383 -0.055961933 0.026597112 0.107396916
0.040817883 0.02201178 0.07610488 0.042478263 0.036378723 0.13093029 -0.08089599 -0.0066773435
0.040128663 -0.050135333 0.012164878 -0.023850925 0.035835437 -0.13183202 0.06982489 0.06676343
-0.0057620336 -0.09720733 -0.020540023 -0.024634657 -0.055527724 -0.03515378 -0.045539748 0.06529539
-0.039768323 -0.035572752 -0.070107445 -0.1252039 0.047807556 -0.033177078 0.04265793 -0.1080555
0.008542274 -0.15511876 -0.0034979598 -0.021501342 -0.028701426 -0.005090108 0.01663145 0.07240987
-0.02303104 -0.026674705 0.0139223775 0.10633481 0.034569625 -0.06518726 -0.0927699 -0.006900539
0.12996465 -0.0017375319 -0.06797304 0.18046972 0.02890182 -0.024965724 0.011952929 0.015493772

network_body._body_endoder.seq_layers.2.bias f4 [128]
00000000: 0000 0000 0000 0000 0000 0000 0000 0000
00000010: 0000 0000 0000 0000 0000 0000 0000 0000
00000020: 0000 0000 0000 0000 0000 0000 0000 0000
00000030: 0000 0000 0000 0000 0000 0000 0000 0000
00000040: 0000 0000 0000 0000 0000 0000 0000 0000
00000050: 0000 0000 0000 0000 0000 0000 0000 0000
00000060: 0000 0000 0000 0000 0000 0000 0000 0000
00000070: 0000 0000 0000 0000 0000 0000 0000 0000
00000080: 0000 0000 0000 0000 0000 0000 0000 0000
00000090: 0000 0000 0000 0000 0000 0000 0000 0000
000000a0: 0000 0000 0000 0000 0000 0000 0000 0000
000000b0: 0000 0000 0000 0000 0000 0000 0000 0000
000000c0: 0000 0000 0000 0000 0000 0000 0000 0000
000000d0: 0000 0000 0000 0000 0000 0000 0000 0000
000000e0: 0000 0000 0000 0000 0000 0000 0000 0000
000000f0: 0000 0000 0000 0000 0000 0000 0000 0000
00000100: 0000 0000 0000 0000 0000 0000 0000 0000
00000110: 0000 0000 0000 0000 0000 0000 0000 0000
00000120: 0000 0000 0000 0000 0000 0000 0000 0000
00000130: 0000 0000 0000 0000 0000 0000 0000 0000
00000140: 0000 0000 0000 0000 0000 0000 0000 0000
00000150: 0000 0000 0000 0000 0000 0000 0000 0000
00000160: 0000 0000 0000 0000 0000 0000 0000 0000
00000170: 0000 0000 0000 0000 0000 0000 0000 0000
00000180: 0000 0000 0000 0000 0000 0000 0000 0000
00000190: 0000 0000 0000 0000 0000 0000 0000 0000
000001a0: 0000 0000 0000 0000 0000 0000 0000 0000
000001b0: 0000 0000 0000 0000 0000 0000 0000 0000
000001c0: 0000 0000 0000 0000 0000 0000 0000 0000
000001d0: 0000 0000 0000 0000 0000 0000 0000 0000
000001e0: 0000 0000 0000 0000 0000 0000 0000 0000
000001f0: 0000 0000 0000 0000 0000 0000 0000 0000
0.0 0.0 0.0 0.0 0.0 0.0 0.0 0.0
0.0 0.0 0.0 0.0 0.0 0.0 0.0 0.0
0.0 0.0 0.0 0.0 0.0 0.0 0.0 0.0
0.0 0.0 0.0 0.0 0.0 0.0 0.0 0.0
0.0 0.0 0.0 0.0 0.0 0.0 0.0 0.0
0.0 0.0 0.0 0.0 0.0 0.0 0.0 0.0
0.0 0.0 0.0 0.0 0.0 0.0 0.0 0.0
0.0 0.0 0.0 0.0 0.0 0.0 0.0 0.0
0.0 0.0 0.0 0.0 0.0 0.0 0.0 0.0
0.0 0.0 0.0 0.0 0.0 0.0 0.0 0.0
0.0 0.0 0.0 0.0 0.0 0.0 0.0 0.0
0.0 0.0 0.0 0.0 0.0 0.0 0.0 0.0
0.0 0.0 0.0 0.0 0.0 0.0 0.0 0.0
0.0 0.0 0.0 0.0 0.0 0.0 0.0 0.0
0.0 0.0 0.0 0.0 0.0 0.0 0.0 0.0
0.0 0.0 0.0 0.0 0.0 0.0 0.0 0.0

network_body._body_endoder.seq_layers.2.weight f4 [128, 128]
00000000: 6a90 a03d 547a 27be 3e30 183e 4597 d73d
00000010: d879 8abd e783 f63d e155 06be e026 04be
00000020: 4fc8 89bd fcef aabd 2472 d63d 528d 823c
00000030: b340 02be 1fbe 9e3c c8ff e53d 5d94 febd
00000040: 99d1 30bd 67da a23d 82d1 31be 1dda 88bd
00000050: d75f b13d d9f6 81bd e1df ba3d 5a5a 273d
00000060: 9869 3e3e 24bf 10be 8a66 a43e 1c26 303d
00000070: d37d 443d 5b73 a9bd a1f7 3fbd 28f7 f5bd
00000080: 3020 bebc df36 9b3d 7cee d43d f020 e93c
00000090: c7b1 88bd 47b3 723d 865a 003e abff b1bd
000000a0: 7f2e 23bc 1494 a73d c498 6cbd ab6f c9ba
000000b0: a91c aa3d 52ea e63c 6fd7 e83d c082 293d
000000c0: 5bee 04bd e83a 3cbd 75ae e3bd f08b d53c
000000d0: d22a 063e 1c6e 5b3c 850f b03b d21f 2abd
000000e0: 0dfc 663d 3735 c33d d817 a2bd 54f1 f5bc
000000f0: c6ef d7bd c357 5cbd 591c dbbd fad2 88bd
00000100: 328b 0abd 1034 043c 1aed 01be 25f1 cb3d
00000110: 0023 d2bd 1135 0cbd 5382 06bb 6231 c2bc
00000120: 44b7 8a3d c9a0 8dbd c564 8b3c 040d 36be
00000130: 1147 80bc 9728 c43d 1c12 693d fe18 b0bc
00000140: f9b4 c0bd 9266 b83c 3590 d4bd caf1 ac3d
00000150: 3a00 763b f0d3 333e 46ff 0fbc 284f e2bd
00000160: b1c0 14bb 792d b33d e3d7 60be f276 8cbc
00000170: 6993 53bd 7787 febd 9825 a5bb d4d2 cb3c
00000180: ae52 e6bb 711a 01be 120a 083d e14f 4abe
00000190: 744c 14bd fc25 6cbd 9ec5 253e 3fc5 783d
000001a0: ee22 3dbc 2d44 d5bc ac19 0abe 4a62 a7bd
000001b0: 2ee5 bcbd c354 2abe 01f6 e83c e24a 513d
000001c0: 8b12 9d3c 24d2 6f3d adde 1cbe 27aa 91bd
000001d0: ac7b 843d 1e6a 7cbd 9138 32be c9ef dcbd
000001e0: e0e7 db3d b8b0 9a3d 04e8 39bc 6033 56bd
000001f0: 1321 9f3d b45b ba3d 7fe8 a33d b64a e03d
00000200: 434d 483d 7c0d 70be 1679 c4bc 8ca1 ad3c
00000210: 33ce 46be b6e4 97bd 9c64 04be b386 54bd
00000220: 932f 11be c989 b9bd 0d78 0a3d ae85 adbd
00000230: 3e9b c83d fa74 4ebd 1124 b53d b895 173e
00000240: 867a de3d 0ccb 9dbd 16c1 9bbd 67b3 273e
00000250: f631 bc3c ce35 ff3c d275 443d 8481 0fbe
00000260: 9c17 233d 51ac 54be 7ae6 243e 4aed 92bd
00000270: 8967 3a3d 6729 debd 4675 883d f765 bdbc
00000280: cf7e 843b a14a c0bd c11d e4bc e5a4 26be
00000290: 5162 4c3d ae0e e7bc dbd8 123d 2331 223d
000002a0: e0df 203e 6603 cfbc 3081 e33d b9d5 f63c
000002b0: f885 02bc 9875 edbd 4f48 00be 398e 4abd
000002c0: 7206 48bd 7cff 303c 6b81 63bd 6aac 3c3d
000002d0: d727 713c fc55 5f3e c597 f6bc d04b 6cbd
000002e0: 9fb1 9ebb 0cce 41bd 52af 1dbb d7c2 ab3d
000002f0: 0ac5 103e 73cd 91bc dee1 d13d db8f 2f3d
00000300: 1c13 893d 34a1 0f3e 3686 b6bd 8822 2d3c
00000310: 6e06 f13d b37d c83c 55fe 3e3e b5cb c93d
00000320: b04a bbbd 6ba4 a73c da7e ca3d d999 4d3e
00000330: 9237 cfbd edfb 0dbd d896 82bd 59cd d9bd
00000340: 066c 25be 9107 84bc 60a3 adbd 4bb9 ec3d
00000350: af1d a2bd 70c4 87bb 4334 433d c635 e53c
00000360: e129 ee3d c133 21bd 4c59 b03d df14 e63d
00000370: 0d7a d23d 1cef 3fbc aace b4bc 5563 08be
00000380: a944 cebd 363f b03d 024c 0f3e 1c3e b9bd
00000390: 8fd4 acbd f235 89bd b808 3a3c f20e 1dbe
000003a0: 1ddd 963c 474c 8cbd 4d52 b2bd ef12 41bd
000003b0: 0610 023d 05f5 693d 4c03 5f3d f411 f0bd
000003c0: 11c7 2dbe 7158 ec3b b4d9 c7bd 86ea bdbd
000003d0: 1aa7 1ebe 8751 053d 4149 d0bc 3e3f c73d
000003e0: 80fd 1ebd 888b 8b3d 99c7 263e 9de9 b2bc
000003f0: 713c b63d 56d2 da3c c57f 5dbd 2504 72bd
0.07840045 -0.16355258 0.14862153 0.10526899 -0.06761521 0.12036877 -0.13118698 -0.12905455
-0.06727659 -0.08346555 0.10470989 0.015936527 -0.12719993 0.019377766 0.11230427 -0.12430642
-0.043168638 0.07951813 -0.17365077 -0.06682227 0.08660858 -0.063459106 0.09124733 0.04085765
0.18594968 -0.14135414 0.3210948 0.043005094 0.047971558 -0.082739554 -0.046867017 -0.12010032
-0.023208708 0.07578825 0.1039705 0.028458089 -0.06674533 0.059253003 0.12534532 -0.08691343
-0.009959816 0.081825405 -0.057762876 -0.0015368363 0.08306248 0.028187905 0.11369216 0.04138446
-0.032453876 -0.045954615 -0.111172594 0.026067704 0.13102272 0.013392951 0.005372944 -0.041534252
0.056392718 0.09531634 -0.07914704 -0.0300223 -0.1054378 -0.053794634 -0.10698766 -0.066808656
-0.033824153 0.008069053 -0.12688103 0.09958104 -0.10260582 -0.034230296 -0.0020524457 -0.023705188
0.067732364 -0.06915433 0.017015824 -0.17778403 -0.015658887 0.095780544 0.056902036 -0.021496292
-0.09409518 0.022509847 -0.10379068 0.08444555 0.0037536756 0.17561316 -0.008788889 -0.11050254
-0.002269786 0.087489076 -0.21957354 -0.017146561 -0.051654253 -0.124281816 -0.005039882 0.024880804
-0.007028899 -0.12607743 0.03321273 -0.19757034 -0.036205724 -0.057653412 0.16188666 0.060734984
-0.011543972 -0.026033485 -0.13486356 -0.08173044 -0.092234 -0.16633897 0.028437616 0.051096804
0.019173881 0.058550015 -0.15319319 -0.07112532 0.06468901 -0.06162464 -0.17404391 -0.10787923
0.10737586 0.07553238 -0.011346821 -0.05229509 0.0776998 0.09099522 0.080033295 0.1095175
0.048901808 -0.23442644 -0.02398352 0.021195196 -0.19414596 -0.0741667 -0.12929004 -0.05188627
-0.14178304 -0.090594836 0.033805896 -0.08472763 0.09795235 -0.050404526 0.0884477 0.14803207
0.10863213 -0.07704744 -0.076051876 0.1637703 0.022973042 0.031153586 0.047963925 -0.1401425
0.039817438 -0.20768858 0.16103545 -0.071741655 0.045508895 -0.108477406 0.06662993 -0.02311991
0.004043437 -0.09389234 -0.027846219 -0.1627384 0.04989845 -0.028205242 0.03585134 0.03959764
0.15710402 -0.025270175 0.11108625 0.030131208 -0.007966511 -0.11594695 -0.12527584 -0.04945204
-0.04883427 0.0108031 -0.055543344 0.046062864 0.014718971 0.21810144 -0.030101666 -0.057689488
-0.0048429514 -0.047315642 -0.0024060798 0.08386772 0.14137664 -0.017798161 0.10248159 0.0428618
0.06693098 0.14026338 -0.089123175 0.010567315 0.117688045 0.024474 0.18651707 0.09853307
-0.09145105 0.020464143 0.09887476 0.2007822 -0.10118021 -0.034664083 -0.063764274 -0.1063487
-0.16154489 -0.01611689 -0.08478427 0.11558779 -0.07915818 -0.00414329 0.047657263 0.027979743
0.116290815 -0.039355997 0.08610782 0.112344496 0.102771856 -0.011714723 -0.022071201 -0.13319142
-0.1007169 0.086058065 0.13993838 -0.090450495 -0.0843898 -0.066997424 0.011354618 -0.15337732
0.018415982 -0.06850486 -0.08707104 -0.047137197 0.031753562 0.057118434 0.054446504 -0.11722174
-0.16970469 0.0072126915 -0.097583205 -0.092732474 -0.15493432 0.032548454 -0.025425555 0.09728859
-0.038815975 0.06813723 0.16287078 -0.021839911 0.08898247 0.026711624 -0.05407693 -0.059085984
