Assets/ML-Agents/Examples/FirstTRexScene/results/trmodel/My Behavior/My Behavior-2240.pt (torch, 152375 bytes, 12 tensors)

network_body._body_endoder.seq_layers.0.weight f4 [128, 9]
0	0x3eccc096	0.3999068
1	0x3ed6e68a	0.41972762
2	0xbeb0d080	-0.34534073
3	0x3e3917a4	0.18075424
4	0x3dbdfeb8	0.09277099
5	0x3e042180	0.12903404
6	0x3eadd8a6	0.33954352
7	0x3dcf8290	0.10132325
8	0x3ee545d4	0.44779837
9	0xbd54b8e6	-0.051934145
10	0xbeb43683	-0.3519784
11	0x3de39880	0.111130714
12	0x3ed3f9ac	0.41401422
13	0xbdb7508b	-0.08950909
14	0xbec1a25a	-0.37819177
15	0xbe6183cc	-0.22022933
16	0x3e96d484	0.29459012
17	0x3e59d892	0.21274021
18	0xbee4fe17	-0.44725105
19	0xbdef442c	-0.11682925
20	0x3ea6a6c4	0.32549107
21	0xbdde8247	-0.10864692
22	0xbeb2148f	-0.3478131
23	0xbe3ba84c	-0.18325919
24	0xbe1e1a03	-0.1543961
25	0x3e61fb93	0.22068624
26	0x3e74b92e	0.23898765
27	0xbea93fa6	-0.33056372
28	0x3f1eae84	0.6198504
29	0xbe6e5f88	-0.2327863
30	0x3e4d4504	0.20045859
31	0x3e76583f	0.240571
32	0xbe16fd68	-0.14745104
33	0xbe8848da	-0.2661808
34	0xbdffae6a	-0.12484439
35	0x3ebf6783	0.3738366
36	0x3cb99836	0.022655588
37	0xbe731426	-0.23738155
38	0xbe968c3e	-0.2940387
39	0xbeaf6047	-0.3425314
40	0x3ec4d24b	0.3844169
41	0x3dcac762	0.099013105
42	0xbe860181	-0.26173022
43	0x3ec629be	0.38703722
44	0x3ed24c00	0.41073608
45	0x3e65d554	0.2244466
46	0x3ea98a14	0.33113158
47	0xbf04e8e4	-0.5191786
48	0xbee5c2dc	-0.44875228
49	0xbeb24512	-0.3481832
50	0xbe01b0cf	-0.12665103
51	0xbe0e666e	-0.13906261
52	0xbeec8390	-0.46194124
53	0x3edb9dbe	0.42893785
54	0x3d8aa8c6	0.06770472
55	0x3e5a8e9b	0.21343462
56	0x3e17506a	0.1477677
57	0xbea083fa	-0.3135069
58	0x3ea7e9b8	0.327955
59	0x3e749533	0.2388504
60	0x3e1d4889	0.15359701
61	0xbea198ab	-0.3156179
62	0x3eb03e10	0.3442235
63	0xbf052086	-0.5200275
64	0xbe44ebea	-0.19230619
65	0x3e06313c	0.13104719
66	0x3e2b9e07	0.16759501
67	0xbc5035bf	-0.012708127
68	0x3e614637	0.21999441
69	0x3f1e4d8b	0.6183707
70	0x3ec71fa2	0.3889132
71	0xbe3c5b2e	-0.18394157
72	0x3f0661e2	0.5249311
73	0xbe06b87d	-0.13156314
74	0xbde70d4a	-0.112818316
75	0xbe1ece15	-0.15508302
76	0xbf00185c	-0.5003717
77	0xbe023572	-0.127157
78	0xbef1896a	-0.4717515
79	0x3e9275de	0.2860555
80	0x3e1d08e6	0.15335426
81	0xbe6fc20e	-0.2341387
82	0x3f13092f	0.5743589
83	0xbe0543b6	-0.13014111
84	0x3e6abc8a	0.22923484
85	0x3dfcc2e7	0.12341862
86	0xbec00d56	-0.37510175
87	0x3f0b0138	0.54298735
88	0x3e22e620	0.15908098
89	0x3ea45e8f	0.32103392
90	0x3d99ea5c	0.07515404
91	0x3dce4722	0.10072161
92	0x3d347c46	0.04406383
93	0xbd977cd7	-0.07396858
94	0x3ec7a744	0.389948
95	0xbe2dc802	-0.16970828
96	0x3e325ec4	0.17418963
97	0xbe59e78a	-0.21279731
98	0x3e907e2e	0.28221267
99	0xbe9503e2	-0.29104525
100	0x3dc688b3	0.09694042
101	0xbf2aff2b	-0.66795605
102	0x3edbb4de	0.42911428
103	0xbe554fd4	-0.20831233
104	0x3ede115a	0.43372613
105	0x3e6d20b2	0.23157004
106	0x3e9d469c	0.30717933
107	0xbe3db5e7	-0.18526421
108	0x3df49666	0.11942749
109	0x3dc5854f	0.09644567
110	0x3e02de20	0.12780046
111	0x3db823a8	0.08991176
112	0x3ef84683	0.48491296
113	0xbf478bb4	-0.77947545
114	0x3ec56867	0.38556215
115	0x3cc3a66c	0.023883067
116	0xbde78a8e	-0.11305724
117	0xbde3ab8c	-0.11116704
118	0xbe7b4633	-0.24538498
119	0xbf14bf20	-0.58104134
120	0xbdc4c512	-0.09607901
121	0x3dc35bf2	0.095390216
122	0xbf4d3e16	-0.8017286
123	0xbedb27ab	-0.42803702
124	0xbc5bd87c	-0.013418313
125	0x3e703b70	0.23460174
126	0xbf342480	-0.70368195
127	0x3e67dd22	0.22642949
128	0x3bcc0626	0.006226319
129	0xbeda2f0b	-0.42614016
130	0xbde93a34	-0.113880545
131	0xbc1a296e	-0.009409292
132	0xbe1527a2	-0.145659
133	0xbf0df770	-0.55455685
134	0x3ece4357	0.4028575
135	0x3ef6a002	0.4816895
136	0x3ed4cd03	0.41562662
137	0x3e11541e	0.14192244
138	0xbe036ccd	-0.12834473
139	0xbea7441d	-0.32669154
140	0x3ea290ba	0.31751043
141	0xbe294b3c	-0.16532606
142	0x3e80d4e5	0.25162426
143	0x3f5d0c33	0.8634674
144	0xbe16fb5a	-0.1474432
145	0xbc2369a0	-0.009973913
146	0x3ebdbd74	0.37058604
147	0xbecad07c	-0.39612186
148	0x3eb8427c	0.35988224
149	0x3ea2826e	0.31740135
150	0x3efc9927	0.49335596
151	0x3d5716aa	0.05251185
152	0xbe60bcd4	-0.21947032
153	0xbed785f3	-0.42094383
154	0xbe4bfe18	-0.19921148
155	0x3e459b93	0.19297628
156	0x3ef064d6	0.46951932
157	0x3b6bddc2	0.0035990332
158	0x3d7688ab	0.06018893
159	0xbd90168a	-0.07035549
160	0xbe3dfeaf	-0.18554185
161	0xbd1dba05	-0.03850748
162	0x3e08f770	0.1337564
163	0x3eb3fc54	0.3515345
164	0xbf1cd902	-0.6126863
165	0xbe0f5df2	-0.14000681
166	0xbdbd03ec	-0.09229264
167	0xbe952dfc	-0.29136646
168	0xbf0281c4	-0.50979257
169	0xbe110af8	-0.1416434
170	0x3eca9080	0.3956337
171	0xbcd6b6ca	-0.026210207
172	0xbcd41918	-0.025890872
173	0xbe9f224c	-0.31080854
174	0xbdef48ea	-0.11683829
175	0xbeb82682	-0.3596688
176	0xbe9c5ff7	-0.30541965
177	0xbeb24d2f	-0.3482451
178	0xbd36e757	-0.044654217
179	0x3f259810	0.64685154
180	0xbe797113	-0.2435954
181	0x3d0eedee	0.034894876
182	0x3ec51398	0.3849151
183	0xbe098902	-0.1343117
184	0xbe45234a	-0.19251743
185	0x3da5dc5f	0.08098673
186	0x3e8719ce	0.26386875
187	0xbe853b94	-0.26022017
188	0xbf014be4	-0.50506425
189	0xbd0ecd9c	-0.034864053
190	0xbedd0dc6	-0.4317457
191	0xbeaacf37	-0.33361217
192	0xbcefa18f	-0.029251842
193	0x3ecbc4cc	0.39798582
194	0xbef24b87	-0.47323248
195	0xbea5ea0b	-0.32405123
196	0xbda564db	-0.08075877
197	0xbe095983	-0.13413052
198	0xbeca5e20	-0.39524937
199	0x3def9dbc	0.11700007
200	0x3ef4095c	0.4766339
201	0xbdb6a0a2	-0.08917357
202	0xbeb648d0	-0.35602427
203	0xbb89b7c0	-0.004202813
204	0x3e8591aa	0.26087695
205	0xbf13a28f	-0.5766992
206	0xbf626902	-0.8844148
207	0xbe7b54e3	-0.245441
208	0xbdaa1bef	-0.08306109
209	0x3f23d326	0.6399406
210	0xbd624352	-0.055239983
211	0x3e176d74	0.14787847
212	0xbd900c79	-0.07033629
213	0x3cb74fdb	0.022376945
214	0x3e1760e9	0.14783062
215	0xbde32d4a	-0.110926226
216	0xbec7b69f	-0.39006516
217	0x3de0a128	0.10968238
218	0xbe7af884	-0.24508864
219	0x3f35e762	0.7105619
220	0x3f00e874	0.50354695
221	0xbd091ce7	-0.03347483
222	0xbed6b988	-0.41938424
223	0xbf2c2d07	-0.67256206
224	0xbe530bb2	-0.2060993
225	0x3e2f6474	0.17128164
226	0xbea8eed2	-0.32994705
227	0x3d026dfa	0.031843163
228	0xbd9b90cb	-0.075959764
229	0xbe032dcc	-0.12810439
230	0x3d7e9be2	0.06216038
231	0xbe482ee2	-0.19549134
232	0xbe53c0aa	-0.20678964
233	0x3e37093b	0.17874615
234	0x3cd97226	0.026543688
235	0xbedae84c	-0.42755353
236	0x3e531033	0.20611648
237	0x3dca2f97	0.09872358
238	0xbe14ed38	-0.14543617
239	0xbea48acc	-0.32137144
240	0x3dfb7e7f	0.122799866
241	0x3e381a3c	0.17978758
242	0x3e836b9a	0.2566803
243	0xbe655268	-0.22394717
244	0x3e0b5b47	0.13609038
245	0xbf463160	-0.7741909
246	0x3dc6d2bf	0.097081654
247	0xbee73470	-0.45157194
248	0xbeb26f38	-0.34850478
249	0x3e295cc1	0.16539289
250	0xbe6b5c8a	-0.2298452
251	0xbddc0d68	-0.107447445
252	0x3de48c3b	0.11159559
253	0x3e4a8238	0.19776237
254	0xbe92846c	-0.28616655
255	0xbdab04ff	-0.08350562

network_body._body_endoder.seq_layers.0.bias f4 [128]
0	0x00000000	0.0
1	0x00000000	0.0
2	0x00000000	0.0
3	0x00000000	0.0
4	0x00000000	0.0
5	0x00000000	0.0
6	0x00000000	0.0
7	0x00000000	0.0
8	0x00000000	0.0
9	0x00000000	0.0
10	0x00000000	0.0
11	0x00000000	0.0
12	0x00000000	0.0
13	0x00000000	0.0
14	0x00000000	0.0
15	0x00000000	0.0
16	0x00000000	0.0
17	0x00000000	0.0
18	0x00000000	0.0
19	0x00000000	0.0
20	0x00000000	0.0
21	0x00000000	0.0
22	0x00000000	0.0
23	0x00000000	0.0
24	0x00000000	0.0
25	0x00000000	0.0
26	0x00000000	0.0
27	0x00000000	0.0
28	0x00000000	0.0
29	0x00000000	0.0
30	0x00000000	0.0
31	0x00000000	0.0
32	0x00000000	0.0
33	0x00000000	0.0
34	0x00000000	0.0
35	0x00000000	0.0
36	0x00000000	0.0
37	0x00000000	0.0
38	0x00000000	0.0
39	0x00000000	0.0
40	0x00000000	0.0
41	0x00000000	0.0
42	0x00000000	0.0
43	0x00000000	0.0
44	0x00000000	0.0
45	0x00000000	0.0
46	0x00000000	0.0
47	0x00000000	0.0
48	0x00000000	0.0
49	0x00000000	0.0
50	0x00000000	0.0
51	0x00000000	0.0
52	0x00000000	0.0
53	0x00000000	0.0
54	0x00000000	0.0
55	0x00000000	0.0
56	0x00000000	0.0
57	0x00000000	0.0
58	0x00000000	0.0
59	0x00000000	0.0
60	0x00000000	0.0
61	0x00000000	0.0
62	0x00000000	0.0
63	0x00000000	0.0
64	0x00000000	0.0
65	0x00000000	0.0
66	0x00000000	0.0
67	0x00000000	0.0
68	0x00000000	0.0
69	0x00000000	0.0
70	0x00000000	0.0
71	0x00000000	0.0
72	0x00000000	0.0
73	0x00000000	0.0
74	0x00000000	0.0
75	0x00000000	0.0
76	0x00000000	0.0
77	0x00000000	0.0
78	0x00000000	0.0
79	0x00000000	0.0
80	0x00000000	0.0
81	0x00000000	0.0
82	0x00000000	0.0
83	0x00000000	0.0
84	0x00000000	0.0
85	0x00000000	0.0
86	0x00000000	0.0
87	0x00000000	0.0
88	0x00000000	0.0
89	0x00000000	0.0
90	0x00000000	0.0
91	0x00000000	0.0
92	0x00000000	0.0
93	0x00000000	0.0
94	0x00000000	0.0
95	0x00000000	0.0
96	0x00000000	0.0
97	0x00000000	0.0
98	0x00000000	0.0
99	0x00000000	0.0
100	0x00000000	0.0
101	0x00000000	0.0
102	0x00000000	0.0
103	0x00000000	0.0
104	0x00000000	0.0
105	0x00000000	0.0
106	0x00000000	0.0
107	0x00000000	0.0
108	0x00000000	0.0
109	0x00000000	0.0
110	0x00000000	0.0
111	0x00000000	0.0
112	0x00000000	0.0
113	0x00000000	0.0
114	0x00000000	0.0
115	0x00000000	0.0
116	0x00000000	0.0
117	0x00000000	0.0
118	0x00000000	0.0
119	0x00000000	0.0
120	0x00000000	0.0
121	0x00000000	0.0
122	0x00000000	0.0
123	0x00000000	0.0
124	0x00000000	0.0
125	0x00000000	0.0
126	0x00000000	0.0
127	0x00000000	0.0

network_body._body_endoder.seq_layers.2.weight f4 [128, 128]
0	0x3da9dbf8	0.08293909
1	0xbddac530	-0.10682142
2	0x3d6c21e4	0.057649508
3	0xbd923cee	-0.07140528
4	0xbcf26e37	-0.02959357
5	0xbde307d4	-0.110854775
6	0xbd37b391	-0.044848982
7	0xbc8f5d17	-0.017500443
8	0xba904e17	-0.0011009601
9	0x3b9584c9	0.0045629484
10	0x3da4a1d5	0.080386795
11	0xbd1b8e6b	-0.037977617
12	0xbb2c8328	-0.0026323292
13	0xbd328211	-0.043581072
14	0xbcf80359	-0.030275034
15	0x3e2cb7c4	0.16866976
16	0xbe907ab6	-0.2821862
17	0xbd194445	-0.037418623
18	0xbe1c15de	-0.15242717
19	0xbe7b18ef	-0.2452123
20	0xbd018a60	-0.031626105
21	0x3e23cfb8	0.15997207
22	0x3d99b85e	0.075058684
23	0x3ce86ef4	0.02837322
24	0x3e205f14	0.1566127
25	0xbd34981d	-0.04409038
26	0xbdf1afc1	-0.118011005
27	0x3d15a265	0.036531825
28	0xbd87cbe0	-0.06630683
29	0x3da5ab54	0.08089319
30	0xbd03ba6d	-0.03216021
31	0xbd8c07b7	-0.06837409
32	0x3dcfc3e1	0.10144783
33	0xbd3177b2	-0.04332704
34	0xbd4d13d9	-0.050067756
35	0x3cde0ed9	0.02710669
36	0xbe5b0509	-0.2138864
37	0xbe58ff7c	-0.2119121
38	0x3d8a0e59	0.06741018
39	0xbcc5c816	-0.02414326
40	0xbd20b3bd	-0.03923391
41	0xbb802dd8	-0.003911715
42	0xbdba3ef9	-0.09094042
43	0xbd5dffa4	-0.054198876
44	0x3d7a3113	0.061081957
45	0x3dfc37eb	0.12315353
46	0xbdebbaef	-0.11510264
47	0x3bdf9298	0.0068228953
48	0x3c0f5201	0.008747579
49	0x3d3d8e40	0.04627824
50	0xbe411ebc	-0.1885938
51	0x3d77f072	0.06053204
52	0xbdb5eabb	-0.08882662
53	0x3e207f86	0.15673646
54	0xbc92dc42	-0.017927293
55	0x3d1ad68d	0.037802268
56	0x3e02bda8	0.1276766
57	0x3b377b5b	0.002799711
58	0x3de10f4b	0.10989245
59	0xbe068de4	-0.13140064
60	0x3c8d41d9	0.017243313
61	0xbd974027	-0.07385283
62	0xbd01a171	-0.031648103
63	0xba41fef5	-0.0007400357
64	0x3d85245c	0.065010756
65	0x3d512508	0.051060706
66	0xbcd8035e	-0.026368793
67	0xbdcff8bf	-0.101548664
68	0xbd8cb421	-0.06870294
69	0x3ddc0019	0.10742206
70	0x3db8f3fe	0.09030913
71	0xbd12c7dc	-0.035835132
72	0xbd9c052e	-0.076181754
73	0xbba66c22	-0.0050788084
74	0x3d02c298	0.03192386
75	0x3c2d9f0d	0.010597003
76	0xbd92b7a4	-0.07163933
77	0xbdc98587	-0.098399214
78	0xbe0449b2	-0.12918738
79	0xbdbac2a7	-0.09119158
80	0xbca60060	-0.02026385
81	0xbe3d2b9f	-0.18473671
82	0x3d5c7ead	0.053831745
83	0x3d5dbcd0	0.054135144
84	0x3cf9208d	0.03041103
85	0x3bdfd8dc	0.0068312716
86	0xbd8b1879	-0.06791777
87	0xbc4c5f91	-0.012473957
88	0x3e2dc7cc	0.16970748
89	0x3ce523d1	0.02797118
90	0x3d857d4f	0.06518041
91	0x3e10167e	0.1407108
92	0x3db9dad5	0.09074942
93	0xbd9978bc	-0.074937314
94	0x3d48ad5f	0.048993465
95	0xbda5ec12	-0.081016675
96	0xbe4dfac8	-0.20115197
97	0x3e0e4ec6	0.13897237
98	0x3c720f4f	0.014774158
99	0xbd11c4d2	-0.035588093
100	0xbc6e9b63	-0.014563414
101	0xbe05619d	-0.13025518
102	0xbe03f964	-0.12888104
103	0x3e07f3c2	0.1327658
104	0x3d020ed4	0.031752422
105	0xbd6884f9	-0.056767438
106	0x3e091825	0.13388117
107	0x3a3f6c5b	0.0007302218
108	0xbde3efdf	-0.11129736
109	0xbd43f330	-0.047839344
110	0xbdefbe6a	-0.117062405
111	0xbdb0c588	-0.08631426
112	0x3dcc3892	0.099717274
113	0xbd5df94f	-0.054192837
114	0x3c8a84c1	0.016909005
115	0xbd83b1f3	-0.064304255
116	0xbd2817ee	-0.041038446
117	0x3dd487df	0.10377478
118	0x3d62f457	0.055408802
119	0xbcf9521c	-0.03043466
120	0xbde68d6c	-0.11257443
121	0x3d525a8d	0.051355887
122	0xbe06c7a8	-0.131621
123	0x3ce23033	0.027610874
124	0xbcb5e98f	-0.022206096
125	0xbd32b835	-0.043632705
126	0xbdbdc4b9	-0.092660375
127	0x3dc62773	0.09675493
128	0x3e9a4b18	0.30135417
129	0x3c81c3bc	0.015840404
130	0xbd80ef4a	-0.06295641
131	0xbe209deb	-0.15685241
132	0x3de4b32a	0.11166985
133	0xbdf658dd	-0.12028668
134	0xbcf6b0bc	-0.03011357
135	0xbe18d720	-0.14925814
136	0x3d6b5705	0.057456035
137	0x3cc79c2a	0.024366457
138	0x3d22792d	0.039666343
139	0xbc30ac4b	-0.010783265
140	0xbd8f7e9d	-0.070065714
141	0x3db46369	0.088080235
142	0x3d3c909b	0.046036344
143	0xbc87d05d	-0.016578848
144	0x3e1c2a08	0.15250409
145	0x3d53e4e2	0.05173195
146	0xbd859411	-0.06522382
147	0x3dab1580	0.0835371
148	0x3e4029de	0.18765971
149	0xbe3f57a8	-0.18685782
150	0x3db64d24	0.08901432
151	0xbd21352a	-0.03935734
152	0x3e0c484c	0.13699454
153	0xbd4f30cb	-0.050583642
154	0xbc9da3a8	-0.019243076
155	0xbe128573	-0.1430872
156	0x3cbd57a6	0.023113083
157	0x3d02b49b	0.03191052
158	0x3df93680	0.12168598
159	0x3e054d3e	0.13017747
160	0xbd1679eb	-0.036737364
161	0xbdccb21f	-0.099949114
162	0xbbbc939f	-0.0057549025
163	0x3e1fe10e	0.15613195
164	0xbcbf5126	-0.023354124
165	0x3d1a60e2	0.03769005
166	0xbdc73be2	-0.097282186
167	0xbdf880c6	-0.121339366
168	0xbd23e253	-0.04001076
169	0x3dc6b338	0.09702152
170	0xbda0674b	-0.078322016
171	0x3e420f8e	0.18951246
172	0x3d8d1d5a	0.06890364
173	0x3dc7071a	0.097181514
174	0xbd4d77df	-0.050163146
175	0xba7ec871	-0.0009719199
176	0x3d12bc05	0.03582384
177	0x3d8fa16a	0.07013209
178	0x3d90c9dd	0.07069752
179	0xbcb70960	-0.022343338
180	0xbc528dfe	-0.012851236
181	0xbcf6e9d4	-0.030140795
182	0x3d113c5d	0.035457958
183	0x3d391fb4	0.04519625
184	0x3d90a44f	0.070625894
185	0x3d46149d	0.048359502
186	0x3e199ec9	0.15001978
187	0x3db14cfb	0.08657261
188	0x3d20e42c	0.0392801
189	0xbdd78f20	-0.10525346
190	0x3be4e5f7	0.0069854218
191	0x3ddee3b0	0.10883272
192	0xbdd064fb	-0.101755105
193	0xbe253d7e	-0.16136739
194	0xbb30c43b	-0.0026972431
195	0x3d314982	0.043282993
196	0x3cb22e64	0.021750636
197	0x3e4834b2	0.19551352
198	0x3dac882d	0.08424411
199	0x3d0fd897	0.035118666
200	0xbcb7ace7	-0.022421313
201	0x3dba8bf5	0.09108726
202	0xbdfedb84	-0.12444213
203	0xbd30be5e	-0.0431503
204	0xbd3ec823	-0.046577584
205	0xbcf2aea8	-0.029624298
206	0x3e264415	0.16236909
207	0xbd9447db	-0.07240268
208	0xbdb13a90	-0.08653748
209	0x3d5b17ba	0.053489424
210	0xbd4a7f50	-0.04943782
211	0xbd4cca07	-0.049997356
212	0xbe1a8def	-0.15093206
213	0x3c99e7b0	0.018787235
214	0x3d444941	0.047921423
215	0x3e0b2b92	0.1359084
216	0x3e44811b	0.19189875
217	0xbdcfaad7	-0.10140007
218	0xbe1b80e7	-0.15185891
219	0xbd6f7bcc	-0.05846767
220	0x3c51fdc9	0.012816855
221	0x3e1c0d85	0.15239532
222	0xbdd349e6	-0.103168294
223	0x3cb5b0c2	0.022179011
224	0x3d9c3515	0.07627312
225	0xbd5d3a27	-0.054010537
226	0x3de05f02	0.10955621
227	0xbda2d860	-0.079514265
228	0xbdfa49c2	-0.122210994
229	0x3d0f2d69	0.034955416
230	0xbd02724e	-0.03184729
231	0xbc329f39	-0.010902219
232	0xbdb215bb	-0.08695551
233	0xbd8a41e7	-0.06750851
234	0x3bd5ffad	0.006530723
235	0xbd6fa468	-0.0585064
236	0x3dcdaf27	0.10043173
237	0xbdbbf77a	-0.09178062
238	0x3dfb6a49	0.12276132
239	0xbdc4320c	-0.09579858
240	0x3d20a702	0.03922177
241	0x3e5f829c	0.21827167
242	0xbccbdbcd	-0.024885083
243	0xbe028566	-0.127462
244	0x3d2e7b6b	0.04259817
245	0x3d006283	0.031343948
246	0x3d6fe332	0.05856628
247	0x3c015161	0.007892937
248	0xbcba1905	-0.022717008
249	0x3daff603	0.08591845
250	0x3d4b42b9	0.04962418
251	0x3d579f68	0.052642256
252	0x3da11d0f	0.078668706
253	0xbdaa9b3a	-0.08330388
254	0xbe6eccec	-0.23320359
255	0xbcb66cbf	-0.022268651

network_body._body_endoder.seq_layers.2.bias f4 [128]
0	0x00000000	0.0
1	0x00000000	0.0
2	0x00000000	0.0
3	0x00000000	0.0
4	0x00000000	0.0
5	0x00000000	0.0
6	0x00000000	0.0
7	0x00000000	0.0
8	0x00000000	0.0
9	0x00000000	0.0
10	0x00000000	0.0
11	0x00000000	0.0
12	0x00000000	0.0
13	0x00000000	0.0
14	0x00000000	0.0
15	0x00000000	0.0
16	0x00000000	0.0
17	0x00000000	0.0
18	0x00000000	0.0
19	0x00000000	0.0
20	0x00000000	0.0
21	0x00000000	0.0
22	0x00000000	0.0
23	0x00000000	0.0
24	0x00000000	0.0
25	0x00000000	0.0
26	0x00000000	0.0
27	0x00000000	0.0
28	0x00000000	0.0
29	0x00000000	0.0
30	0x00000000	0.0
31	0x00000000	0.0
32	0x00000000	0.0
33	0x00000000	0.0
34	0x00000000	0.0
35	0x00000000	0.0
36	0x00000000	0.0
37	0x00000000	0.0
38	0x00000000	0.0
39	0x00000000	0.0
40	0x00000000	0.0
41	0x00000000	0.0
42	0x00000000	0.0
43	0x00000000	0.0
44	0x00000000	0.0
45	0x00000000	0.0
46	0x00000000	0.0
47	0x00000000	0.0
48	0x00000000	0.0
49	0x00000000	0.0
50	0x00000000	0.0
51	0x00000000	0.0
52	0x00000000	0.0
53	0x00000000	0.0
54	0x00000000	0.0
55	0x00000000	0.0
56	0x00000000	0.0
57	0x00000000	0.0
58	0x00000000	0.0
59	0x00000000	0.0
60	0x00000000	0.0
61	0x00000000	0.0
62	0x00000000	0.0
63	0x00000000	0.0
64	0x00000000	0.0
65	0x00000000	0.0
66	0x00000000	0.0
67	0x00000000	0.0
68	0x00000000	0.0
69	0x00000000	0.0
70	0x00000000	0.0
71	0x00000000	0.0
72	0x00000000	0.0
73	0x00000000	0.0
74	0x00000000	0.0
75	0x00000000	0.0
76	0x00000000	0.0
77	0x00000000	0.0
78	0x00000000	0.0
79	0x00000000	0.0
80	0x00000000	0.0
81	0x00000000	0.0
82	0x00000000	0.0
83	0x00000000	0.0
84	0x00000000	0.0
85	0x00000000	0.0
86	0x00000000	0.0
87	0x00000000	0.0
88	0x00000000	0.0
89	0x00000000	0.0
90	0x00000000	0.0
91	0x00000000	0.0
92	0x00000000	0.0
93	0x00000000	0.0
94	0x00000000	0.0
95	0x00000000	0.0
96	0x00000000	0.0
97	0x00000000	0.0
98	0x00000000	0.0
99	0x00000000	0.0
100	0x00000000	0.0
101	0x00000000	0.0
102	0x00000000	0.0
103	0x00000000	0.0
104	0x00000000	0.0
105	0x00000000	0.0
106	0x00000000	0.0
107	0x00000000	0.0
108	0x00000000	0.0
109	0x00000000	0.0
110	0x00000000	0.0
111	0x00000000	0.0
112	0x00000000	0.0
113	0x00000000	0.0
114	0x00000000	0.0
115	0x00000000	0.0
116	0x00000000	0.0
117	0x00000000	0.0
118	0x00000000	0.0
119	0x00000000	0.0
120	0x00000000	0.0
121	0x00000000	0.0
122	0x00000000	0.0
123	0x00000000	0.0
124	0x00000000	0.0
125	0x00000000	0.0
126	0x00000000	0.0
127	0x00000000	0.0

action_model._continuous_distribution.log_sigma f4 [1, 2]
0	0x00000000	0.0
1	0x00000000	0.0

action_model._continuous_distribution.mu.weight f4 [2, 128]
0	0x3c2d5015	0.010578175
1	0xbd3d9216	-0.046281897
2	0x3cc87567	0.024470044
3	0x39b9d7f8	0.0003544686
4	0xbc0d6e9a	-0.0086323265
5	0xbcb84d25	-0.022497723
6	0xbb77e7d7	-0.0037827396
7	0x3c91a35a	0.017778087
8	0xbb7e7cb3	-0.003883165
9	0x3b347ff7	0.0027542093
10	0x3be6e4b3	0.007046306
11	0xbc853d32	-0.016264532
12	0xbc802c8d	-0.015646243
13	0x3c1ed2af	0.009693786
14	0xbc76e620	-0.0150695145
15	0xbca583a3	-0.02020437
16	0xbc442d74	-0.0119737275
17	0x3bf16850	0.0073671713
18	0xbcaad027	-0.020851208
19	0x3c815331	0.015786739
20	0x3bd27b5a	0.006423396
21	0x3c08c3ab	0.008347432
22	0x3b5f0217	0.0034028345
23	0x3c8d9b57	0.017285986
24	0x3cb5e4a7	0.022203756
25	0xbabe1493	-0.0014501981
26	0x3c1f5ad3	0.009726244
27	0x3cc9c32f	0.024629204
28	0xbcfb0fa2	-0.030647103
29	0xbbb6d8d4	-0.005580047
30	0xbbe62d60	-0.007024452
31	0x3c02fbaa	0.007994572
32	0xba14c37d	-0.0005674882
33	0xbcb90d8a	-0.022589464
34	0xbaa55b6e	-0.0012615749
35	0x3889b137	6.565678e-05
36	0x3c9d61e0	0.01921171
37	0xbc572145	-0.013130491
38	0xbbfbe66a	-0.0076873796
39	0xbd06d97b	-0.03292225
40	0xbc75cf1d	-0.015002993
41	0xbc81ad9a	-0.01582985
42	0xbc950bb7	-0.018194063
43	0x3c8b0f42	0.016975049
44	0x3cb077e5	0.021541545
45	0xbb8c12d2	-0.0042747045
46	0x3c988d0c	0.018621944
47	0x3c251afd	0.010077235
48	0xbbae5423	-0.0053200885
49	0xbbb0acb8	-0.0053916834
50	0xb9c7a58d	-0.00038079583
51	0xbbd6b700	-0.006552577
52	0xbcaa16dd	-0.020762855
53	0x397e829b	0.00024271982
54	0xbc433817	-0.011915228
55	0xbc624a38	-0.01381164
56	0x3bd44f37	0.0064791697
57	0x3cf8512b	0.030312141
58	0x3ae28a88	0.0017283717
59	0x3c002917	0.007822297
60	0xbc8e7e03	-0.017394071
61	0x39e4f8a5	0.00043672803
62	0xba145c06	-0.00056594645
63	0xbb42981b	-0.0029692713
64	0xbc48ba62	-0.012251468
65	0xbcc2e605	-0.023791322
66	0x3c5967c3	0.013269368
67	0x3b18532e	0.0023242938
68	0x3c0fa5e4	0.008767579
69	0x3c014b49	0.007891485
70	0x3c14d48e	0.00908388
71	0xbc8fae5d	-0.017539198
72	0x3c0a7957	0.008451781
73	0x3ccbc0a6	0.024872135
74	0xbc91e1f9	-0.017807947
75	0xbc869b85	-0.01643158
76	0x3cbae347	0.022813452
77	0x3c32a880	0.010904431
78	0xbbaf9a33	-0.005358958
79	0x3c3734bb	0.0111820055
80	0x3c2ea2cb	0.01065893
81	0x3cb65034	0.02225504
82	0xbc8040a7	-0.015655829
83	0x3b950d1a	0.004548681
84	0xbb80d3ab	-0.003931483
85	0xbc3d275b	-0.011545028
86	0xbcaa08e7	-0.020756198
87	0xbc0c050e	-0.008546127
88	0xbc9bf21f	-0.01903635
89	0xbc232f4c	-0.009960007
90	0x3c4e459a	0.0125898365
91	0x3bb76cbb	0.0055976785
92	0xbb44dd43	-0.0030039109
93	0xbb63a7fa	-0.0034737573
94	0xbb886813	-0.0041627972
95	0xbd3ade77	-0.045622315
96	0xbc28a074	-0.010292161
97	0x3c418c87	0.0118132895
98	0xbb342c42	-0.00274922
99	0xbc083eab	-0.008315722
100	0xbd09d5f3	-0.033651303
101	0x3ca45c34	0.020063497
102	0x3ce689c2	0.02814186
103	0x3cc534d2	0.024073038
104	0x3bb7e0f3	0.005611533
105	0xbc51e60b	-0.012811194
106	0x3bc1aad3	0.0059102564
107	0xbc270800	-0.010194778
108	0x3bc708f2	0.0060740644
109	0x3d1bb2b5	0.038012225
110	0x3a635a47	0.0008672815
111	0x3c4e41e0	0.012588948
112	0x3cbd375d	0.023097688
113	0x3bbdf53f	0.005797058
114	0xbccb5b42	-0.024823789
115	0x3bfa0ab8	0.0076306723
116	0x3cd8be4f	0.026457934
117	0xbcb7c969	-0.022434907
118	0x3c1c922f	0.009556337
119	0x3cc638f8	0.024197087
120	0x3cd83aed	0.026395286
121	0x3c15f59c	0.009152796
122	0xbc7d7e92	-0.015472071
123	0xbcbe7808	-0.023250595
124	0xbbcfed5b	-0.0063454336
125	0xbbdffec8	-0.006835792
126	0x3c0777ba	0.008268291
127	0x3d0bf9f3	0.034173917
128	0xbb29444c	-0.0025828062
129	0xbc5f425f	-0.013626664
130	0x3c77fc48	0.015135832
131	0xba9b1a3e	-0.0011833382
132	0x3a25c361	0.0006323364
133	0xbb1c7838	-0.0023875367
134	0xbc870e8b	-0.016486427
135	0x3c624b03	0.0138118295
136	0xbcc35c27	-0.023847653
137	0x3c83b120	0.01607567
138	0xbc830134	-0.015991785
139	0x3c8d689a	0.017261792
140	0xbc001093	-0.007816452
141	0x3bbead04	0.005818965
142	0x3cb99175	0.022652367
143	0xbcb20536	-0.021731
144	0xbc9187d9	-0.017764973
145	0x3b894337	0.004188921
146	0x3aa910d1	0.0012898688
147	0x3c3d91c3	0.011570397
148	0x3d2e2983	0.042520057
149	0xbc493840	-0.012281477
150	0x3c5c3b4a	0.01344187
151	0x3cda0423	0.0266133
152	0xbc592dfa	-0.013255591
153	0xbbf6b65f	-0.0075290645
154	0xbbc41d73	-0.005984956
155	0x3b04c0a7	0.0020256431
156	0xbcbc7881	-0.02300668
157	0x3cb71e28	0.022353247
158	0xbc1303c0	-0.008973062
159	0x3bd2315f	0.006414577
160	0xbce694ed	-0.028147185
161	0xb891f443	-6.959636e-05
162	0x3c6fec1f	0.014643698
163	0xba7b2aa2	-0.0009581243
164	0xbcdeac87	-0.027181877
165	0xbcba67e2	-0.022754613
166	0x3c9f38c1	0.019436242
167	0x3aa085b0	0.0012246873
168	0xbc687d92	-0.014190095
169	0xbc5694d8	-0.013097011
170	0xbd197e83	-0.037474167
171	0x3c147476	0.00906097
172	0xbafdcf9f	-0.0019364244
173	0x3aa23649	0.0012375797
174	0xbc8461f0	-0.016159981
175	0xbd14f919	-0.03637037
176	0x3cdb032f	0.026734916
177	0x39978be5	0.00028905194
178	0x3ce2d337	0.027688606
179	0xbbd2974b	-0.006426727
180	0x3cfee3e2	0.031114522
181	0x3cc2619a	0.02372818
182	0x3c5b5737	0.013387493
183	0x3c5ac168	0.013351776
184	0xbc6e6be2	-0.014552088
185	0xbb9dab46	-0.004811677
186	0xbbad0fba	-0.005281416
187	0xbd0b7047	-0.034042623
188	0x3c4cb474	0.012494195
189	0xbb35b6d2	-0.0027727378
190	0xbba4489e	-0.0050135395
191	0x3c1f60e6	0.009727692
192	0x39fbf44f	0.00048056475
193	0xbc1120fb	-0.008857961
194	0xbc4d1903	-0.01251817
195	0xbb898878	-0.0041971765
196	0x3c0e0bac	0.008669775
197	0xbcb262f9	-0.02177571
198	0xbb3ad145	-0.0028506082
199	0x3ba1b9af	0.0049354653
200	0x3b53febf	0.0032347885
201	0xbb18e5fc	-0.002333044
202	0xbcdfd5c5	-0.027323613
203	0x3c9aa811	0.018878968
204	0xbcd3c7ad	-0.025852049
205	0xbb19ec0f	-0.002348665
206	0xbcc0528d	-0.023476863
207	0xbc15745c	-0.0091219805
208	0xbc99bdb3	-0.018767213
209	0xbcef063a	-0.029177774
210	0xbb6ac498	-0.0035822745
211	0xbc259b6b	-0.010107855
212	0x3a81c928	0.0009901868
213	0x3d4a3153	0.049363445
214	0xbcca27ff	-0.024677275
215	0x3c82473a	0.015903104
216	0xbaefdd2a	-0.0018300165
217	0x3c2e2f08	0.01063133
218	0x3cd784c0	0.026308417
219	0xbc6b5257	-0.014362893
220	0x3b010a4b	0.0019689973
221	0x3c53b0a3	0.012920531
222	0xbcb55a3e	-0.022137757
223	0xbba60ab7	-0.0050671953
224	0x3c1fb070	0.009746656
225	0x3c120f0f	0.008914723
226	0xbcfb8d18	-0.030706927
227	0x3b759b40	0.003747657
228	0xbc15c0fb	-0.009140248
229	0xbc2aae16	-0.010417482
230	0xbab5cf73	-0.0013871029
231	0xbc78af9d	-0.015178588
232	0xbb6bfcd3	-0.003600885
233	0x3a656f2f	0.00087522244
234	0x3bbf8b44	0.005845459
235	0x3ceaffaa	0.028686363
236	0x3cd0b07d	0.025474781
237	0x3b8727cb	0.0041246167
238	0x3be173df	0.006880268
239	0x3c1d4600	0.009599209
240	0x3cc9f5ca	0.024653334
241	0xba0e6326	-0.00054316444
242	0x3ba833ab	0.0051331124
243	0xbc92a47c	-0.017900698
244	0xbc8308cf	-0.015995411
245	0x3c9d77bb	0.019222131
246	0x3cbac2cb	0.022797963
247	0xbcaa9d06	-0.020826828
248	0x3c56fe1d	0.013122109
249	0x3cd4cc87	0.025976432
250	0xbc836a87	-0.016042007
251	0xba64b955	-0.00087251264
252	0xbc3ed4ac	-0.011647385
253	0xbacc2615	-0.0015575314
254	0x3cb9047f	0.022585152
255	0xbb90e50e	-0.0044218367

action_model._continuous_distribution.mu.bias f4 [2]
0	0x00000000	0.0
1	0x00000000	0.0

network_body._body_endoder.seq_layers.0.weight f4 [128, 9]
0	0xbf49372e	-0.7859982
1	0xbeb5bc6e	-0.35495323
2	0xbf418d80	-0.75606537
3	0x3e49c497	0.197039
4	0xbec27490	-0.37979555
5	0x3f1c7c46	0.61127126
6	0x3e4041cb	0.18775098
7	0xbe435bc4	-0.19077975
8	0xbe9e54dc	-0.30924118
9	0xbd8e258a	-0.06940754
10	0x3ea64f0f	0.32482192
11	0x3c05c1e4	0.008163903
12	0x3ed53c47	0.4164755
13	0x3d3936d0	0.04521829
14	0x3e15e425	0.14637811
15	0x3bc3d927	0.0059768143
16	0xbdc9eb6f	-0.098593585
17	0x3d362a1c	0.044473752
18	0xbea7b061	-0.32751754
19	0xbd122f7a	-0.03568981
20	0x3eb027bc	0.34405315
21	0xbe8f31c2	-0.2796765
22	0x3e919681	0.28435138
23	0x3ec6c048	0.38818574
24	0x3e84f0fe	0.25965112
25	0xbf50008f	-0.8125085
26	0x3ecd2728	0.40068936
27	0x3d8f4720	0.06995988
28	0xbdbe9566	-0.09305839
29	0xbeb435f4	-0.35197413
30	0xbf449e88	-0.768044
31	0x3c20b870	0.009809598
32	0x3e7e51ca	0.24835888
33	0xbe54622c	-0.20740575
34	0xbe002b46	-0.12516508
35	0xbd0933c4	-0.033496633
36	0x3cd66824	0.026172705
37	0x3ea1f918	0.31635356
38	0x3ec85087	0.39123937
39	0xbce513e6	-0.02796359
40	0x3d73ec56	0.05955156
41	0xbf27e3d8	-0.65582037
42	0x3f6b9426	0.9202293
43	0xbe66e522	-0.22548345
44	0x3ec624df	0.38700005
45	0xbe5ab4e4	-0.21358067
46	0xbed0c710	-0.40776873
47	0xbe3344ba	-0.17506686
48	0xbca83c64	-0.020536609
49	0xbe75ce3c	-0.24004453
50	0xbe094c4b	-0.1340801
51	0xbd81baae	-0.063344344
52	0xbf16a9a2	-0.5885259
53	0x3e0551e4	0.1301952
54	0x3ea2ef38	0.31823134
55	0x3e6479db	0.22312109
56	0x3ebcc21e	0.3686685
57	0x3d5390a4	0.051651612
58	0x3e2c1458	0.16804636
59	0xbea94f4c	-0.3306831
60	0xbd4272bf	-0.04747271
61	0xbe73f85e	-0.23825213
62	0xbec61ada	-0.3869236
63	0xbf226494	-0.6343472
64	0xbd7914a2	-0.060810693
65	0x3eeb20c0	0.45923424
66	0x3d1e1f0e	0.038603835
67	0x3ed66a0f	0.4187779
68	0xbd11b958	-0.03557715
69	0x3e0d0202	0.13770297
70	0x3e00bee8	0.12572825
71	0xbeea6507	-0.45780203
72	0xbd9e36e3	-0.077253126
73	0xbe52fb98	-0.20603788
74	0x3e05ffdb	0.13085882
75	0x3c43cfe8	0.011951424
76	0xbdfa23e3	-0.12213876
77	0xbe8ce0c0	-0.2751522
78	0x3e20da0b	0.15708177
79	0xbe12fff4	-0.14355451
80	0x3f41babf	0.75675577
81	0xbe8ec2a8	-0.27882886
82	0x3cceb432	0.025232408
83	0xbe44dd0e	-0.1922495
84	0xbe1609e3	-0.14652209
85	0x3ed8feda	0.42381936
86	0x3ec2980c	0.38006628
87	0x3df32f3c	0.118742436
88	0xbe4eafae	-0.20184204
89	0x3e468197	0.19385372
90	0x3e1db1c8	0.1539985
91	0x3d23d0de	0.039994113
92	0x3d4436c2	0.047903784
93	0xbe7ff64b	-0.24996297
94	0x3eddcec2	0.43321806
95	0xbe88dd63	-0.26731405
96	0x3e130dec	0.1436078
97	0x3e57ccf6	0.2107428
98	0xbef769c8	-0.48322892
99	0xbe4cb016	-0.19989046
100	0x3e978d0f	0.29599807
101	0xbe9a5c4a	-0.30148536
102	0x3d137e6a	0.03600923
103	0xbd0bdd64	-0.03414668
104	0x3e6261d8	0.22107637
105	0x3c855a2c	0.016278349
106	0x3ee21e08	0.44163537
107	0xbe347dce	-0.17626116
108	0xbe9d9520	-0.30777836
109	0xbee66bb0	-0.45004034
110	0x3d3bb24c	0.045824334
111	0xbc007ede	-0.0078427475
112	0xbed937f4	-0.424255
113	0xbe284d98	-0.1643585
114	0x3ef35eba	0.47533208
115	0xbd9f211e	-0.077699885
116	0xbf322658	-0.6958976
117	0x3f009974	0.5023415
118	0x3e643f06	0.22289667
119	0xbe95ec1a	-0.29281694
120	0xbd98e32a	-0.07465203
121	0x3ebe43bf	0.3716106
122	0xbda598dc	-0.08085796
123	0xbe6e70d7	-0.23285232
124	0xbf051216	-0.5198072
125	0x3eea6a33	0.4578415
126	0xbe3df94a	-0.18552127
127	0x3f4eb3d0	0.8074312
128	0x3f20dc75	0.6283639
129	0xbed05378	-0.40688682
130	0xbdc26b9b	-0.0949318
131	0x3f252681	0.6451188
132	0xbecbe06f	-0.39819667
133	0xbd8f2450	-0.06989348
134	0x3dfac333	0.122442625
135	0xbf08e786	-0.53478277
136	0x3e8777a5	0.2645847
137	0xbecc1686	-0.39860934
138	0xbf4fba27	-0.8114342
139	0xbf18b9d2	-0.5965854
140	0x3e7786a2	0.24172452
141	0xbecc244e	-0.39871448
142	0x3e7cf907	0.24704371
143	0x3e7773ce	0.2416527
144	0x3951d3d7	0.0002001071
145	0x3e78d80f	0.2430117
146	0xbe038d2c	-0.12846822
147	0x3e70353b	0.23457806
148	0x3dbb7352	0.09152855
149	0x3d35c306	0.044375442
150	0xbf567b2e	-0.8378171
151	0x3de0861a	0.10963078
152	0x3d9d6ed7	0.07687157
153	0x3eb8ab68	0.36068273
154	0xbd7e3817	-0.06206521
155	0xbdf1f34b	-0.118139826
156	0x3e28024e	0.16407129
157	0xbd4bdeb3	-0.04977293
158	0x3e05daca	0.13071743
159	0x3db040c3	0.08606102
160	0x3dabfce6	0.08397846
161	0xbdd0624e	-0.10175
162	0xbe84b104	-0.25916302
163	0xbea9ded2	-0.3317781
164	0x3f24a344	0.64311624
165	0x3e558eb8	0.20855224
166	0x3da3a2bf	0.07990026
167	0xbd89a180	-0.06720257
168	0xbeaeb520	-0.34122562
169	0xbe08af9d	-0.13348241
170	0x3d9fdadf	0.07805418
171	0xbe70ff82	-0.23534968
172	0xbe68cfcf	-0.22735523
173	0xbe078b7c	-0.13236803
174	0xbec07967	-0.37592623
175	0x3f0893bb	0.5335042
176	0xbd8349ad	-0.06410537
177	0x3ec5b1f0	0.38612318
178	0x3ecc6224	0.39918625
179	0xbd075265	-0.033037562
180	0xbeeed0c0	-0.4664364
181	0xbecae65b	-0.39628872
182	0x3e3626da	0.17788258
183	0x3e35cb07	0.1775323
184	0xbe3ee984	-0.18643767
185	0x3c762c30	0.015025184
186	0xbe418013	-0.18896513
187	0xbb8f6a40	-0.0043766797
188	0xbe0c53c4	-0.13703829
189	0x3cc87ff6	0.024475079
190	0x3eff0640	0.49809456
191	0xbec04c3e	-0.37558168
192	0xbe39f747	-0.18160735
193	0xbee4ec1b	-0.44711384
194	0x3f0d4175	0.55178005
195	0x3e6b6dd0	0.22991109
196	0x3ce67eb6	0.028136592
197	0xbdfc61e0	-0.12323356
198	0x3f0624ea	0.52400076
199	0xbe690344	-0.22755152
200	0xb70c779e	-8.372501e-06
201	0x3e97e96e	0.2967028
202	0x3f272b3c	0.65300345
203	0x3df69f37	0.120420866
204	0xbc8d1dbe	-0.017226096
205	0x3eb01c3b	0.34396538
206	0x3d84fa38	0.06493038
207	0xbea8e2d2	-0.3298555
208	0xbd2b1833	-0.041771125
209	0xbf4cd68a	-0.8001486
210	0x3e6a0c0a	0.22856155
211	0x3ee22e13	0.44175777
212	0xbe579096	-0.21051249
213	0x3e981d61	0.29709914
214	0x3e0d5d8e	0.1380522
215	0x3eaa6aec	0.332847
216	0x3cb38d02	0.021917824
217	0xbedbee70	-0.4295535
218	0xbe96fd48	-0.29490113
219	0x3dfa1a1c	0.12212011
220	0xbefa05db	-0.48832592
221	0x3ad1fe94	0.0016021305
222	0x3f510de0	0.81661797
223	0x3e04f94c	0.12985724
224	0xbd9184cd	-0.07105408
225	0xbd0ab3c7	-0.033862855
226	0xbe370837	-0.17874227
227	0xbea5dee4	-0.32396615
228	0x3e9918a5	0.29901615
229	0xbc02e533	-0.007989216
230	0x3c23247e	0.009957431
231	0xbcea3d6a	-0.028593738
232	0x3e916964	0.2840072
233	0xbe2e718e	-0.17035505
234	0xbda56f6b	-0.08077892
235	0x3ecabb9a	0.39596254
236	0x3e315a57	0.17319618
237	0x3f084896	0.5323576
238	0xbebb14bc	-0.36539257
239	0x3f703d4e	0.93843544
240	0x3e50b9d0	0.20383382
241	0xbe0fa69e	-0.14028403
242	0x3db69f27	0.08917075
243	0x3e5aacca	0.21354976
244	0x3c628da3	0.013827714
245	0xbe93f670	-0.28898954
246	0xbe5edc90	-0.21763825
247	0x3e8e21ae	0.2776007
248	0x3f29ffc9	0.6640592
249	0x3cf3244f	0.0296804
250	0xbf00b1d7	-0.5027136
251	0x3bc39738	0.0059689544
252	0x3e0518ca	0.12997738
253	0x3f1acff8	0.60473585
254	0x3f377a90	0.7167139
255	0x3e3d418c	0.18482035

network_body._body_endoder.seq_layers.0.bias f4 [128]
0	0x00000000	0.0
1	0x00000000	0.0
2	0x00000000	0.0
3	0x00000000	0.0
4	0x00000000	0.0
5	0x00000000	0.0
6	0x00000000	0.0
7	0x00000000	0.0
8	0x00000000	0.0
9	0x00000000	0.0
10	0x00000000	0.0
11	0x00000000	0.0
12	0x00000000	0.0
13	0x00000000	0.0
14	0x00000000	0.0
15	0x00000000	0.0
16	0x00000000	0.0
17	0x00000000	0.0
18	0x00000000	0.0
19	0x00000000	0.0
20	0x00000000	0.0
21	0x00000000	0.0
22	0x00000000	0.0
23	0x00000000	0.0
24	0x00000000	0.0
25	0x00000000	0.0
26	0x00000000	0.0
27	0x00000000	0.0
28	0x00000000	0.0
29	0x00000000	0.0
30	0x00000000	0.0
31	0x00000000	0.0
32	0x00000000	0.0
33	0x00000000	0.0
34	0x00000000	0.0
35	0x00000000	0.0
36	0x00000000	0.0
37	0x00000000	0.0
38	0x00000000	0.0
39	0x00000000	0.0
40	0x00000000	0.0
41	0x00000000	0.0
42	0x00000000	0.0
43	0x00000000	0.0
44	0x00000000	0.0
45	0x00000000	0.0
46	0x00000000	0.0
47	0x00000000	0.0
48	0x00000000	0.0
49	0x00000000	0.0
50	0x00000000	0.0
51	0x00000000	0.0
52	0x00000000	0.0
53	0x00000000	0.0
54	0x00000000	0.0
55	0x00000000	0.0
56	0x00000000	0.0
57	0x00000000	0.0
58	0x00000000	0.0
59	0x00000000	0.0
60	0x00000000	0.0
61	0x00000000	0.0
62	0x00000000	0.0
63	0x00000000	0.0
64	0x00000000	0.0
65	0x00000000	0.0
66	0x00000000	0.0
67	0x00000000	0.0
68	0x00000000	0.0
69	0x00000000	0.0
70	0x00000000	0.0
71	0x00000000	0.0
72	0x00000000	0.0
73	0x00000000	0.0
74	0x00000000	0.0
75	0x00000000	0.0
76	0x00000000	0.0
77	0x00000000	0.0
78	0x00000000	0.0
79	0x00000000	0.0
80	0x00000000	0.0
81	0x00000000	0.0
82	0x00000000	0.0
83	0x00000000	0.0
84	0x00000000	0.0
85	0x00000000	0.0
86	0x00000000	0.0
87	0x00000000	0.0
88	0x00000000	0.0
89	0x00000000	0.0
90	0x00000000	0.0
91	0x00000000	0.0
92	0x00000000	0.0
93	0x00000000	0.0
94	0x00000000	0.0
95	0x00000000	0.0
96	0x00000000	0.0
97	0x00000000	0.0
98	0x00000000	0.0
99	0x00000000	0.0
100	0x00000000	0.0
101	0x00000000	0.0
102	0x00000000	0.0
103	0x00000000	0.0
104	0x00000000	0.0
105	0x00000000	0.0
106	0x00000000	0.0
107	0x00000000	0.0
108	0x00000000	0.0
109	0x00000000	0.0
110	0x00000000	0.0
111	0x00000000	0.0
112	0x00000000	0.0
113	0x00000000	0.0
114	0x00000000	0.0
115	0x00000000	0.0
116	0x00000000	0.0
117	0x00000000	0.0
118	0x00000000	0.0
119	0x00000000	0.0
120	0x00000000	0.0
121	0x00000000	0.0
122	0x00000000	0.0
123	0x00000000	0.0
124	0x00000000	0.0
125	0x00000000	0.0
126	0x00000000	0.0
127	0x00000000	0.0

network_body._body_endoder.seq_layers.2.weight f4 [128, 128]
0	0xbd4c1cb1	-0.04983205
1	0xbceceaa6	-0.028920483
2	0x3b9faacf	0.004872657
3	0x3ddfadb2	0.109218016
4	0x3d213f1f	0.039366838
5	0xbe122a57	-0.14273964
6	0xbe08f8dc	-0.13376182
7	0x3e19214b	0.14954107
8	0xbdd14ab6	-0.10219328
9	0x3dae9bc8	0.08525807
10	0xbd8b9c2c	-0.06816897
11	0xbcbf6fa4	-0.023368664
12	0x3db3dc73	0.08782282
13	0xbc7ad6ad	-0.015309972
14	0x3dd7831e	0.105230555
15	0xbdd72f4d	-0.10507069
16	0xbe0b4c6b	-0.1360337
17	0xbd4e7b7e	-0.05041074
18	0xbdd095b7	-0.10184806
19	0x3c2cb508	0.010541208
20	0x3c2b16ad	0.010442418
21	0xbdce7536	-0.1008095
22	0x3c5c35ac	0.013440531
23	0xbe28e6ab	-0.16494243
24	0xbdbf693a	-0.09346242
25	0xbcfbd235	-0.030739883
26	0xbd64582b	-0.055748146
27	0x3de10553	0.10987344
28	0x3cec29b9	0.028828489
29	0xbd9e6439	-0.0773396
30	0xbdaec71d	-0.085340716
31	0x3bfcdcda	0.0077167572
32	0xbd6e884b	-0.058235448
33	0x3d426c87	0.04746678
34	0xbd7a29c0	-0.061074972
35	0x3d936557	0.071970634
36	0xbe239393	-0.15974264
37	0xbdfcf0d8	-0.12350625
38	0xbd312abb	-0.04325364
39	0xbda1139e	-0.0786507
40	0xbd0fa2cd	-0.03506737
41	0x3de2e1ec	0.110782474
42	0x3dd0cf28	0.10195762
43	0xbd18fc7a	-0.037350155
44	0x3e1cd4c0	0.15315533
45	0x3d6b3392	0.05742223
46	0x3d0251cb	0.031816285
47	0xbe099533	-0.13435821
48	0xbe3c30bf	-0.1837797
49	0xbce9a0f0	-0.028519124
50	0x3da72545	0.081614055
51	0xbe0ce9e9	-0.13761105
52	0x3cb9e3fb	0.022691717
53	0x3cde095d	0.027104074
54	0x3dd3bad2	0.103383675
55	0xbd0e3276	-0.034716092
56	0xbd500f42	-0.0507958
57	0xbe0b7b8f	-0.13621353
58	0x3d7e28b9	0.062050555
59	0x3d150c2e	0.03638857
60	0xbdc1058b	-0.09424885
61	0xbe353c6b	-0.17698829
62	0xbd7e080c	-0.062019393
63	0x3cee7283	0.029107338
64	0x3d12d89e	0.035851113
65	0x3d948149	0.07251222
66	0x3ddf1843	0.108932994
67	0x3e1b7605	0.1518174
68	0xbca78ae1	-0.020451965
69	0x3d92d100	0.0716877
70	0xbe107157	-0.14105736
71	0xbe37fe5f	-0.17968129
72	0x3e033362	0.1281257
73	0xbd19a18d	-0.037507582
74	0xbdde64d1	-0.10859073
75	0xbc275d4e	-0.010215117
76	0x3dee8906	0.11647229
77	0xbe0368b8	-0.12832916
78	0xbd26ea5d	-0.04075085
79	0x3d94dd12	0.07268728
80	0x3bdab843	0.0066747977
81	0x3dba85b9	0.09107537
82	0xbd8e44d0	-0.06946719
83	0xbd51c74a	-0.051215447
84	0xbd0d2d8b	-0.03446726
85	0xbdd61d34	-0.10454789
86	0xbc8fb273	-0.017541146
87	0xbe16fb0d	-0.14744206
88	0xbc1ee975	-0.009699215
89	0x3d2b8591	0.041875426
90	0xbda21e06	-0.07915883
91	0x3d26265d	0.04056393
92	0xbd83248c	-0.06403455
93	0x3ce02f00	0.027366161
94	0x3d89eb7d	0.06734369
95	0x3c00b48b	0.007855545
96	0x3bd5d262	0.0065253237
97	0xbdb79c08	-0.089653075
98	0xbccb38f5	-0.024807433
99	0x3dc763bd	0.097358204
100	0x3d865b86	0.065604255
101	0xbe4497ec	-0.19198579
102	0xbe1a0421	-0.15040638
103	0xbe01e75a	-0.1268591
104	0xbd17fe99	-0.037108038
105	0x3da241af	0.079226844
106	0xbdbf0c26	-0.09328489
107	0xbe0665f4	-0.1312483
108	0xbdd574c3	-0.10422661
109	0xbcc3836d	-0.02386638
110	0x3dc24855	0.094864525
111	0x3d5dd87c	0.054161534
112	0xbe0bc6aa	-0.13650003
113	0xbdd308b1	-0.10304392
114	0x3cb10c63	0.021612352
115	0xbd8b013b	-0.06787344
116	0xbcf5f04c	-0.030021809
117	0x3cde1b0d	0.027112508
118	0x3d3a0a74	0.045420125
119	0x3dc78051	0.09741271
120	0x3c3bbdb2	0.011458801
121	0xbddafb75	-0.10692493
122	0x3c6e8d06	0.01455999
123	0xba720830	-0.00092327874
124	0xbd2ae539	-0.04172251
125	0x3dce99cf	0.100879304
126	0xbe0d71b3	-0.13812904
127	0xbcc50b16	-0.024053138
128	0x3d96fb1f	0.07372116
129	0xbc5bf1e1	-0.013424368
130	0xbdd53402	-0.1041031
131	0x3dfaee16	0.122524425
132	0x3cd4735f	0.02593392
133	0x3de1a2ab	0.110173546
134	0xbdb22615	-0.0869867
135	0x3d4c6df6	0.049909554
136	0x3df1abd6	0.11800353
137	0x3d12b50e	0.0358172
138	0xbc6ebd2b	-0.014571468
139	0xbd1cc819	-0.038276765
140	0xbd17055d	-0.03687035
141	0x3997d142	0.00028956874
142	0xbe55cedf	-0.20879696
143	0xbd257fb3	-0.040404987
144	0x3de93ea4	0.11388901
145	0x3dcedc5d	0.10100625
146	0x3cb8187c	0.022472613
147	0xbd95ad53	-0.073084496
148	0x3d1fc057	0.03900179
149	0xbd071bc8	-0.03298548
150	0xbc688c24	-0.014193568
151	0xbd5e6d35	-0.054303367
152	0x3bc1f050	0.00591854
153	0xbd328574	-0.043584302
154	0xbdb87bc4	-0.090079814
155	0xbd946b34	-0.0724701
156	0x3dfec673	0.12440195
157	0xbd8e6bd6	-0.06954162
158	0xbd5825c0	-0.052770376
159	0x3c48b820	0.01225093
160	0xbba52570	-0.0050398633
161	0x3c938b55	0.018010775
162	0x3e4759da	0.1946787
163	0x3d9d9a95	0.076955
164	0x3c77e5ac	0.015130442
165	0x3e32dc53	0.1746686
166	0x3cd5d91b	0.0261045
167	0xbd82dd2e	-0.06389843
168	0xbd0fab7c	-0.03507565
169	0xbcb82fbe	-0.022483703
170	0xbd82824f	-0.06372511
171	0xbd392706	-0.04520323
172	0xbd9ce15e	-0.07660173
173	0x3c0785c5	0.008271639
174	0xbdfbd035	-0.12295572
175	0xbccf0ee5	-0.025275657
176	0xbdfa8704	-0.122327834
177	0x3bf3a86f	0.0074358503
178	0x3c77afc7	0.015117592
179	0x3e35bbe0	0.1774745
180	0xbcb781ea	-0.022400815
181	0x3e5752d6	0.21027693
182	0xbe34f9d1	-0.17673422
183	0xbd9bca7d	-0.07606981
184	0x3c11dea5	0.00890318
185	0x3e01aadb	0.12662832
186	0x3c4b6964	0.012415264
187	0xbdfa0039	-0.12207074
188	0xbda0c48b	-0.078499876
189	0x3d35ccde	0.04438483
190	0xbcacd6ba	-0.021098483
191	0x3c219c48	0.0098639205
192	0x3d7a6dcd	0.06113987
193	0x3db711ba	0.08938928
194	0x3d44ea34	0.048074916
195	0xbcfdd231	-0.030984016
196	0x3c92ba46	0.017911088
197	0x3d945e07	0.07244497
198	0xbd504120	-0.050843358
199	0x3d786d69	0.060651217
200	0xbdf65021	-0.12027002
201	0xbdcf5edd	-0.101255156
202	0x3dd59578	0.104288995
203	0xbe463572	-0.19356325
204	0x3cc913d2	0.024545584
205	0x3d0d55b4	0.03450556
206	0xbd8bdb69	-0.068289585
207	0x3d9f40f8	0.07776064
208	0xbc80eff5	-0.01573942
209	0xbde28608	-0.11060721
210	0x3ba9e0f3	0.0051842867
211	0x3da34d88	0.07973772
212	0xbc8538ca	-0.01626243
213	0xbb61cd86	-0.0034454777
214	0x3d01f918	0.031731695
215	0xbcc0a113	-0.023514306
216	0x3ce75094	0.028236665
217	0x3d84e201	0.06488419
218	0xbb19aa33	-0.0023447394
219	0x3dcf2c0a	0.10115822
220	0x3cd16e1f	0.025565205
221	0x3c8d589b	0.017254164
222	0xbd26e789	-0.040748153
223	0x3d5084c8	0.05090788
224	0xbd0a5637	-0.033773627
225	0x3e13e0ef	0.14441274
226	0x3d500d29	0.0507938
227	0xbe212338	-0.15736091
228	0x3d8b80ab	0.06811651
229	0xbbfb0602	-0.0076606283
230	0x3db59dfa	0.08868022
231	0x3dc2f1e8	0.09518796
232	0xbd98b7c7	-0.07456928
233	0xbd8e2a84	-0.06941703
234	0xbe042ecf	-0.12908481
235	0xbe147c55	-0.14500554
236	0x3d72fc75	0.059322793
237	0x3d12b133	0.03581352
238	0xbb307da7	-0.0026930363
239	0xbcf4368d	-0.029811168
240	0xbcd7b60b	-0.026331922
241	0xbe4cc1d3	-0.19995813
242	0x3e048b77	0.12943827
243	0x3dbf207f	0.0933237
244	0x3e10589c	0.14096302
245	0xbd84fa42	-0.064930454
246	0x3dac3795	0.08409039
247	0x3d282870	0.04105419
248	0xbd9b7366	-0.0759037
249	0xbe557fe1	-0.20849563
250	0x3e45649a	0.19276658
251	0x3c10ebe6	0.008845305
252	0xbdf146ac	-0.11781058
253	0x3e19fd60	0.15038061
254	0xbe417cd7	-0.18895279
255	0xbe6dc5f9	-0.23220052

network_body._body_endoder.seq_layers.2.bias f4 [128]
0	0x00000000	0.0
1	0x00000000	0.0
2	0x00000000	0.0
3	0x00000000	0.0
4	0x00000000	0.0
5	0x00000000	0.0
6	0x00000000	0.0
7	0x00000000	0.0
8	0x00000000	0.0
9	0x00000000	0.0
10	0x00000000	0.0
11	0x00000000	0.0
12	0x00000000	0.0
13	0x00000000	0.0
14	0x00000000	0.0
15	0x00000000	0.0
16	0x00000000	0.0
17	0x00000000	0.0
18	0x00000000	0.0
19	0x00000000	0.0
20	0x00000000	0.0
21	0x00000000	0.0
22	0x00000000	0.0
23	0x00000000	0.0
24	0x00000000	0.0
25	0x00000000	0.0
26	0x00000000	0.0
27	0x00000000	0.0
28	0x00000000	0.0
29	0x00000000	0.0
30	0x00000000	0.0
31	0x00000000	0.0
32	0x00000000	0.0
33	0x00000000	0.0
34	0x00000000	0.0
35	0x00000000	0.0
36	0x00000000	0.0
37	0x00000000	0.0
38	0x00000000	0.0
39	0x00000000	0.0
40	0x00000000	0.0
41	0x00000000	0.0
42	0x00000000	0.0
43	0x00000000	0.0
44	0x00000000	0.0
45	0x00000000	0.0
46	0x00000000	0.0
47	0x00000000	0.0
48	0x00000000	0.0
49	0x00000000	0.0
50	0x00000000	0.0
51	0x00000000	0.0
52	0x00000000	0.0
53	0x00000000	0.0
54	0x00000000	0.0
55	0x00000000	0.0
56	0x00000000	0.0
57	0x00000000	0.0
58	0x00000000	0.0
59	0x00000000	0.0
60	0x00000000	0.0
61	0x00000000	0.0
62	0x00000000	0.0
63	0x00000000	0.0
64	0x00000000	0.0
65	0x00000000	0.0
66	0x00000000	0.0
67	0x00000000	0.0
68	0x00000000	0.0
69	0x00000000	0.0
70	0x00000000	0.0
71	0x00000000	0.0
72	0x00000000	0.0
73	0x00000000	0.0
74	0x00000000	0.0
75	0x00000000	0.0
76	0x00000000	0.0
77	0x00000000	0.0
78	0x00000000	0.0
79	0x00000000	0.0
80	0x00000000	0.0
81	0x00000000	0.0
82	0x00000000	0.0
83	0x00000000	0.0
84	0x00000000	0.0
85	0x00000000	0.0
86	0x00000000	0.0
87	0x00000000	0.0
88	0x00000000	0.0
89	0x00000000	0.0
90	0x00000000	0.0
91	0x00000000	0.0
92	0x00000000	0.0
93	0x00000000	0.0
94	0x00000000	0.0
95	0x00000000	0.0
96	0x00000000	0.0
97	0x00000000	0.0
98	0x00000000	0.0
99	0x00000000	0.0
100	0x00000000	0.0
101	0x00000000	0.0
102	0x00000000	0.0
103	0x00000000	0.0
104	0x00000000	0.0
105	0x00000000	0.0
106	0x00000000	0.0
107	0x00000000	0.0
108	0x00000000	0.0
109	0x00000000	0.0
110	0x00000000	0.0
111	0x00000000	0.0
112	0x00000000	0.0
113	0x00000000	0.0
114	0x00000000	0.0
115	0x00000000	0.0
116	0x00000000	0.0
117	0x00000000	0.0
118	0x00000000	0.0
119	0x00000000	0.0
120	0x00000000	0.0
121	0x00000000	0.0
122	0x00000000	0.0
123	0x00000000	0.0
124	0x00000000	0.0
125	0x00000000	0.0
126	0x00000000	0.0
127	0x00000000	0.0

value_heads.value_heads.extrinsic.weight f4 [1, 128]
0	0xbdbd9ba8	-0.09258205
1	0x3d8f3fdc	0.06994602
2	0x3df9f644	0.122051746
3	0xbe490648	-0.19631302
4	0xbd993da8	-0.07482463
5	0x3c8551e0	0.016274393
6	0xbdaf645e	-0.085640654
7	0x3e0e2168	0.13879931
8	0xbd2fbdc0	-0.04290557
9	0xbe54249f	-0.20717095
10	0x3e432516	0.19057116
11	0xbcf112f8	-0.02942799
12	0x3e497ebc	0.19677252
13	0xbbbc95a0	-0.0057551414
14	0x3de0c06c	0.109742016
15	0x3db0beb8	0.08630127
16	0xbde32b75	-0.11092273
17	0x3d818248	0.06323677
18	0x3e376cee	0.17912647
19	0x3e4fd2ac	0.20295209
20	0x3e2e97ba	0.17050067
21	0xbe2e267f	-0.17006873
22	0xbd50aec0	-0.050947905
23	0x3d907bd4	0.07054868
24	0xbe20eb18	-0.15714681
25	0x3cc80360	0.024415672
26	0x3c4fe6b0	0.0126892775
27	0xbd962318	-0.07330912
28	0xbe287d12	-0.1645396
29	0xbd35d808	-0.044395477
30	0x3e298364	0.16554028
31	0x3db060cc	0.086122125
32	0xbdd006cb	-0.10157546
33	0xbe1a9558	-0.15096033
34	0xbdfbec0f	-0.12300884
35	0xbd99c554	-0.075083405
36	0x3c9e2460	0.019304454
37	0xbdacbfa2	-0.084349886
38	0x3de7df80	0.11321926
39	0x3d92a080	0.07159519
40	0xbd901e44	-0.07037023
41	0xbdb9fb9b	-0.09081193
42	0xbde2c285	-0.11072258
43	0x3d5fe610	0.054662764
44	0x3d3f0020	0.04663098
45	0x3d82f9e8	0.06395322
46	0xbdda22ed	-0.10651193
47	0x3d4ee378	0.0505099
48	0x3dec0e3c	0.115261525
49	0xbe0b417d	-0.135992
50	0x3e4014d2	0.18757942
51	0xbdc8152d	-0.09769664
52	0x3e329c26	0.17442378
53	0x3e43d0e8	0.1912266
54	0xbe1b74ce	-0.15181276
55	0xbe3dc700	-0.18532944
56	0xba597000	-0.00082945824
57	0xbdc7b03e	-0.097504124
58	0xbe43b48d	-0.19111843
59	0xbda29002	-0.079376236
60	0x3db3550c	0.08756456
61	0xbd0cce10	-0.034376204
62	0xbe2bca5a	-0.1677641
63	0x3c12c060	0.008956999
64	0x3dd451cc	0.10367164
65	0x3aa31580	0.0012442321
66	0xbcafd428	-0.021463469
67	0xbd0c66b8	-0.034277648
68	0x3dd6fed0	0.104978204
69	0x3e14544c	0.14485282
70	0x3dc70334	0.09717408
71	0xbbd71660	-0.0065639466
72	0xbdecf0bf	-0.11569356
73	0xbddf7004	-0.10910037
74	0xbe413990	-0.18869615
75	0x3dcd55f0	0.10026157
76	0x3d90422c	0.07043871
77	0xbcb9d9f0	-0.022686929
78	0xbdc80d96	-0.09768216
79	0x3c7b0cb0	0.015322849
80	0xbd43592c	-0.047692463
81	0x3dffb360	0.12485385
82	0xbcc3d1b0	-0.023903698
83	0x3e093862	0.13400415
84	0x3c981058	0.01856248
85	0x3e3ece00	0.1863327
86	0xbc93a5b8	-0.018023357
87	0xbd7c0614	-0.061529234
88	0x3e13fede	0.14452693
89	0x3ddc24d8	0.10749215
90	0xbcc5fd48	-0.024168625
91	0x3e0e3a9e	0.13889548
92	0xbb4bd840	-0.0031104237
93	0x3e5b1b1c	0.2139706
94	0x3dab055c	0.083506316
95	0xbe282b90	-0.16422868
96	0xbdc4411f	-0.09582733
97	0x3e4bfda4	0.19920975
98	0xbdd60f64	-0.10452154
99	0x3d52e538	0.05148813
100	0x3e2ae3ec	0.16688508
101	0x3e4da59e	0.20082709
102	0x3dfabad0	0.12242663
103	0xbe4d2e35	-0.20037158
104	0xbd80c68e	-0.06287871
105	0x3d10cb20	0.035349965
106	0xbe03d58c	-0.1287443
107	0xbdbd957f	-0.0925703
108	0xbdcf6b8e	-0.10127936
109	0xbd21c610	-0.039495528
110	0xbe25df50	-0.16198468
111	0xbe00c304	-0.12574393
112	0xbcaae700	-0.020862103
113	0xbe498438	-0.19679344
114	0x3d56e2f8	0.052462548
115	0xbe0fc40c	-0.1403963
116	0x3cf4af68	0.029868796
117	0xbd1c2014	-0.03811653
118	0xbdff5601	-0.12467576
119	0xbe0366fe	-0.12832257
120	0xbe18e8a0	-0.1493249
121	0x3dc12894	0.09431568
122	0xbe26e115	-0.162968
123	0xbd1dbfc0	-0.038512945
124	0x3d4599e8	0.04824248
125	0x3e060ad6	0.13090071
126	0x3cabe458	0.020982906
127	0xba947100	-0.001132518
