Assets/ML-Agents/Examples/FirstTRexScene/results/trmodel/My Behavior/My Behavior-5824.onnx (onnx, 213233 bytes, 7 tensors)

action_model._continuous_distribution.log_sigma f4 [1, 39]
00000000: 0000 0000 0000 0000 0000 0000 0000 0000
00000010: 0000 0000 0000 0000 0000 0000 0000 0000
00000020: 0000 0000 0000 0000 0000 0000 0000 0000
00000030: 0000 0000 0000 0000 0000 0000 0000 0000
00000040: 0000 0000 0000 0000 0000 0000 0000 0000
00000050: 0000 0000 0000 0000 0000 0000 0000 0000
00000060: 0000 0000 0000 0000 0000 0000 0000 0000
00000070: 0000 0000 0000 0000 0000 0000 0000 0000
00000080: 0000 0000 0000 0000 0000 0000 0000 0000
00000090: 0000 0000 0000 0000 0000 0000
0.0 0.0 0.0 0.0 0.0 0.0 0.0 0.0
0.0 0.0 0.0 0.0 0.0 0.0 0.0 0.0
0.0 0.0 0.0 0.0 0.0 0.0 0.0 0.0
0.0 0.0 0.0 0.0 0.0 0.0 0.0 0.0
0.0 0.0 0.0 0.0 0.0 0.0 0.0

action_model._continuous_distribution.mu.bias f4 [39]
00000000: 0000 0000 0000 0000 0000 0000 0000 0000
00000010: 0000 0000 0000 0000 0000 0000 0000 0000
00000020: 0000 0000 0000 0000 0000 0000 0000 0000
00000030: 0000 0000 0000 0000 0000 0000 0000 0000
00000040: 0000 0000 0000 0000 0000 0000 0000 0000
00000050: 0000 0000 0000 0000 0000 0000 0000 0000
00000060: 0000 0000 0000 0000 0000 0000 0000 0000
00000070: 0000 0000 0000 0000 0000 0000 0000 0000
00000080: 0000 0000 0000 0000 0000 0000 0000 0000
00000090: 0000 0000 0000 0000 0000 0000
0.0 0.0 0.0 0.0 0.0 0.0 0.0 0.0
0.0 0.0 0.0 0.0 0.0 0.0 0.0 0.0
0.0 0.0 0.0 0.0 0.0 0.0 0.0 0.0
0.0 0.0 0.0 0.0 0.0 0.0 0.0 0.0
0.0 0.0 0.0 0.0 0.0 0.0 0.0

action_model._continuous_distribution.mu.weight f4 [39, 128]
00000000: 73bf 16ba 9712 b43c 73d5 b83c 7daf 7cbc
00000010: d7c9 313c 1c9a 383b ab2c f23c b8d8 21bc
00000020: 8797 8c3c 5ce5 99bc c478 88bc 6f3e 0a3c
00000030: 4c63 373b 8789 57ba 6f62 cc3a 8905 8bbc
00000040: c055 83bb 376e 203c dd56 6ebb 9cec 313c
00000050: 0948 413c 099e 8dbb 3b2f ffbc 57e6 9d3b
00000060: d318 e5bc dfa5 1dbc 2d1b 45bc 1f1a 5cbc
00000070: 85ea f2bc db7d 333b 735d 293d 521b 3e3c
00000080: ee3a 1c3d 121d 50bb 8fc2 fc3b 1d20 72bc
00000090: d3a7 283b ae43 053c 3a59 62bb 452d 833c
000000a0: 876f 3dbc 336b e53c e6b3 203b 6a9d 093c
000000b0: f16f 34bc 1915 903b 1801 c23a 7136 903c
000000c0: ef1d d93c 7260 363b 38e2 cebb d725 f8bb
000000d0: 4f21 8e3c 1156 243c c273 ac3c a070 0dba
000000e0: b3bc c5bb 8962 c639 eae7 c13a c705 1abd
000000f0: 3390 483c 3af9 613b 407a f6bb 47b8 d4bb
00000100: c535 b9bc d2f4 4d3c 5ea3 ccbb 5c62 823c
00000110: 6960 9fbc ed1a 9ebc d8e6 fcb9 96f7 3fbc
00000120: 1810 d4ba 2597 a0bc 23e6 95bc f9b7 cb3c
00000130: ffda 8ebb 6391 f4bc 968a 943c 36e4 afbc
00000140: 7f04 91bc 63d7 e1bc 6f59 45bb 41a9 0c3d
00000150: e2b0 59bc 4f51 2e3a d8aa 1ebc 9bef e9bc
00000160: 30c8 cdbb 8f0d a4b7 0a88 9cbc e480 9a3c
00000170: b81d babc f53b 7cba 179c 8dbc 8fa3 3c3c
00000180: 73b4 2db9 520a 09bb 8337 a2bc 152a 56bc
00000190: d898 f9bb baf3 653c 30d2 563d 73e5 743c
000001a0: 33d3 fcbb da7d 7f3b 5f75 b5bb 3f4a bbbb
000001b0: f3b6 0d3b b859 18bc 1bb1 d4bb f15a 093c
000001c0: d887 b63b 73c5 68bc 9c93 2abc 47a0 76bc
000001d0: 4b9d 913c 3111 c1bc 85e1 51bc 1f01 9b3c
000001e0: 7b9a 13bc 158e 9a3c fde2 fa3c e1ce 22bc
000001f0: 1bd9 ddbb abf7 6dbd cfa5 b8bc a594 6bbc
00000200: f8c9 3d3c 6f3c 4d3c f8ec 783c 42bb 1fbc
00000210: ef44 9dba 0b99 9fbb 5058 d7bb 347a 11bd
00000220: b3a2 af3c 8fff 113c c295 82ba cc8d 213c
00000230: 2bb8 923b ffdb 8d3c 676b e13c 546b c73b
00000240: c000 74bb 9eb0 bdbb b45e 29bc ef3c 7ebc
00000250: 3f9e 4dbd 4b1c 513c abe0 de3a 7bb4 c9bb
00000260: 7346 aa3b 339d d6bb 440d a0ba fb57 5d3b
00000270: 32c6 c9ba f081 4c3c 96c7 91bc 4dd5 523c
00000280: 793f 2d3c 65fc 50bc 9df0 873a 60b3 653c
00000290: 524a 87ba a0dd fe3c ea5b f43b ec91 a1bc
000002a0: ac5e 263d 100e 71bc dfc5 a13c e324 97bb
000002b0: e3c1 24bc b07b 133c 8edd bf3c 870a 91bc
000002c0: 4355 bebc b3dc 653c 15bd 193c 5130 b7bc
000002d0: 43ea 78bc cbc4 cbbc 1ddf e4bc 5f69 103c
000002e0: 9918 cbbc 8f99 55bc 1517 6cbc 0e61 ca3c
000002f0: 7afe 0d3c dd45 dabb d7d4 133c 5041 acbc
00000300: 80bc 25bc 7754 0ebc 7ca1 91bb 1272 c03c
00000310: a508 563c 00f4 e13c aa23 3d3c 1138 483c
00000320: 5f38 683b e8e6 9e3b a844 bdbb ada2 a03b
00000330: 53d2 8bbb d8a7 80bb 6f7a 01bc 8027 6d3c
00000340: 3141 21bd 1b60 5cbc 0b96 a5bc ace1 34bc
00000350: 579d ea3c 82ae 9abb c862 98bc 5063 7dbc
00000360: 2b33 703c 676c 8abb 186f 83bc 4fd8 27bc
00000370: fced 12bc 28fc 5a3c 351b 1dbd f081 93bb
00000380: 7a71 8c3a 4383 eb3b 5a7a d7bc 6bb9 79bc
00000390: ba57 a93c 3bab 213c c52f 94bb fa2a bebb
000003a0: 6722 a6bc 19d0 c03c a3f0 3d3d d741 d43c
000003b0: a71b 54bc 970f b0bc e227 95bc 033b acba
000003c0: 117d bdba 6196 a23a 17c8 d33c 0fba b739
000003d0: 8b07 0fba b33a 87bc fe91 9c3c 6711 84bc
000003e0: fd04 4c3c 2d5b e03b 6b9c 8e3b a082 513c
000003f0: 8963 2dbb 183d 5ebc 8ce8 bdbc 8dcf 76bc
-0.0005750574 0.02198152 0.022562718 -0.015422699 0.010851345 0.0028168028 0.029562315 -0.00987833
0.017162098 -0.018786125 -0.016659148 0.008437737 0.002798277 -0.00082220923 0.00155933 -0.016970413
-0.004008025 0.009791902 -0.0036367693 0.010859635 0.01179696 -0.004321818 -0.03115045 0.0048187184
-0.027965939 -0.009622066 -0.012030405 -0.013433962 -0.029652843 0.0027388248 0.041348886 0.011603193
0.038142137 -0.0031755609 0.007713623 -0.014778164 0.0025734797 0.008133812 -0.0034538046 0.016012797
-0.011562235 0.028005218 0.002452129 0.008399347 -0.011013017 0.0043970463 0.0014801351 0.017604085
0.026503531 0.0027828482 -0.0063135885 -0.0075728702 0.017349867 0.010030285 0.021051291 -0.00053955056
-0.0060344576 0.00037838917 0.0014793847 -0.037603166 0.012241411 0.0034480826 -0.0075218976 -0.006491694
-0.022608647 0.012570577 -0.006245061 0.015916042 -0.019455152 -0.019299949 -0.00048237178 -0.011716744
-0.0016179113 -0.019603321 -0.018298214 0.024867998 -0.0043596025 -0.029854482 0.01813249 -0.021471124
-0.01770234 -0.027568525 -0.003011312 0.0343411 -0.013286801 0.0006649689 -0.009684287 -0.028556636
-0.0062799677 -1.9556637e-05 -0.019107837 0.018860288 -0.02271925 -0.00096219714 -0.017286344 0.011513605
-0.00016565788 -0.0020910692 -0.01980186 -0.013071557 -0.0076170973 0.01403516 0.052446544 0.014947283
-0.0077156066 0.0038984925 -0.0055376734 -0.005715638 0.0021623939 -0.009298734 -0.006490839 0.0083834985
0.005570393 -0.014207232 -0.010411169 -0.0150528615 0.017775198 -0.023567768 -0.012810116 0.018921433
-0.009008999 0.018866578 0.030625815 -0.009937019 -0.0067702658 -0.058097523 -0.022540001 -0.014378701
0.011583798 0.0125266155 0.0151932165 -0.009749236 -0.0011998693 -0.004870539 -0.006571807 -0.035516933
0.021439886 0.008911028 -0.0009962844 0.009860467 0.004477521 0.017316816 0.027517034 0.0060857926
-0.0037231892 -0.0057888767 -0.01033752 -0.015517457 -0.050199743 0.012763093 0.0017004212 -0.006155548
0.0051963865 -0.0065495013 -0.0012210985 0.0033774364 -0.001539415 0.012482151 -0.017795365 0.012868238
0.010574215 -0.012755488 0.0010371391 0.014019817 -0.0010321832 0.031111538 0.007457246 -0.019722901
0.04061763 -0.014712825 0.019747673 -0.0046125515 -0.010055992 0.009001657 0.023421075 -0.017705215
-0.023234015 0.01402967 0.00938346 -0.022361906 -0.015192571 -0.024874112 -0.02793842 0.008814185
-0.024792003 -0.0130370995 -0.0144098 0.024704482 0.008666629 -0.0066611604 0.009022913 -0.021027237
-0.010115743 -0.00868713 -0.0044442993 0.023491893 0.013063584 0.027582169 0.0115441475 0.0122203985
0.003543399 0.0048493035 -0.0057760067 0.004902205 -0.004267016 -0.0039262585 -0.007902726 0.01447475
-0.039368812 -0.013450648 -0.020213148 -0.0110401325 0.028639479 -0.00472051 -0.01860179 -0.0154655725
0.014660637 -0.0042243483 -0.016044185 -0.010244443 -0.008967873 0.013365783 -0.038356025 -0.0045015737
0.0010714971 0.0071872785 -0.026303459 -0.015241961 0.020671714 0.009867485 -0.004522296 -0.005803463
-0.020280076 0.023536729 0.046372067 0.025910301 -0.012946046 -0.021491809 -0.018207494 -0.0013140145
-0.0014456828 0.0012404436 0.025852246 0.00035043104 -0.0005456141 -0.016507482 0.019112583 -0.01612158
0.012452361 0.0068468065 0.0043521426 0.012787491 -0.0026457033 -0.013564371 -0.023182176 -0.015064132

network_body._body_endoder.seq_layers.0.bias f4 [128]
00000000: 0000 0000 0000 0000 0000 0000 0000 0000
00000010: 0000 0000 0000 0000 0000 0000 0000 0000
00000020: 0000 0000 0000 0000 0000 0000 0000 0000
00000030: 0000 0000 0000 0000 0000 0000 0000 0000
00000040: 0000 0000 0000 0000 0000 0000 0000 0000
00000050: 0000 0000 0000 0000 0000 0000 0000 0000
00000060: 0000 0000 0000 0000 0000 0000 0000 0000
00000070: 0000 0000 0000 0000 0000 0000 0000 0000
00000080: 0000 0000 0000 0000 0000 0000 0000 0000
00000090: 0000 0000 0000 0000 0000 0000 0000 0000
000000a0: 0000 0000 0000 0000 0000 0000 0000 0000
000000b0: 0000 0000 0000 0000 0000 0000 0000 0000
000000c0: 0000 0000 0000 0000 0000 0000 0000 0000
000000d0: 0000 0000 0000 0000 0000 0000 0000 0000
000000e0: 0000 0000 0000 0000 0000 0000 0000 0000
000000f0: 0000 0000 0000 0000 0000 0000 0000 0000
00000100: 0000 0000 0000 0000 0000 0000 0000 0000
00000110: 0000 0000 0000 0000 0000 0000 0000 0000
00000120: 0000 0000 0000 0000 0000 0000 0000 0000
00000130: 0000 0000 0000 0000 0000 0000 0000 0000
00000140: 0000 0000 0000 0000 0000 0000 0000 0000
00000150: 0000 0000 0000 0000 0000 0000 0000 0000
00000160: 0000 0000 0000 0000 0000 0000 0000 0000
00000170: 0000 0000 0000 0000 0000 0000 0000 0000
00000180: 0000 0000 0000 0000 0000 0000 0000 0000
00000190: 0000 0000 0000 0000 0000 0000 0000 0000
000001a0: 0000 0000 0000 0000 0000 0000 0000 0000
000001b0: 0000 0000 0000 0000 0000 0000 0000 0000
000001c0: 0000 0000 0000 0000 0000 0000 0000 0000
000001d0: 0000 0000 0000 0000 0000 0000 0000 0000
000001e0: 0000 0000 0000 0000 0000 0000 0000 0000
000001f0: 0000 0000 0000 0000 0000 0000 0000 0000
0.0 0.0 0.0 0.0 0.0 0.0 0.0 0.0
0.0 0.0 0.0 0.0 0.0 0.0 0.0 0.0
0.0 0.0 0.0 0.0 0.0 0.0 0.0 0.0
0.0 0.0 0.0 0.0 0.0 0.0 0.0 0.0
0.0 0.0 0.0 0.0 0.0 0.0 0.0 0.0
0.0 0.0 0.0 0.0 0.0 0.0 0.0 0.0
0.0 0.0 0.0 0.0 0.0 0.0 0.0 0.0
0.0 0.0 0.0 0.0 0.0 0.0 0.0 0.0
0.0 0.0 0.0 0.0 0.0 0.0 0.0 0.0
0.0 0.0 0.0 0.0 0.0 0.0 0.0 0.0
0.0 0.0 0.0 0.0 0.0 0.0 0.0 0.0
0.0 0.0 0.0 0.0 0.0 0.0 0.0 0.0
0.0 0.0 0.0 0.0 0.0 0.0 0.0 0.0
0.0 0.0 0.0 0.0 0.0 0.0 0.0 0.0
0.0 0.0 0.0 0.0 0.0 0.0 0.0 0.0
0.0 0.0 0.0 0.0 0.0 0.0 0.0 0.0

network_body._body_endoder.seq_layers.0.weight f4 [128, 243]
00000000: fe74 d4bc a9d5 d5bd 11f9 3b3d 0d38 10be
00000010: 4787 7ebd d562 103c 4554 18bd aa24 c3bc
00000020: 7bb2 c4bc 708a 0d3d 3e6c b13d 4d40 2bbc
00000030: 64ec 383d 3665 51bd 548f 113d db82 f93b
00000040: 8c9f 76bd b8b9 15be 2aef 92bc 7f60 90bc
00000050: 6bcd 473d 63b8 db3d 8296 aa3c db09 99bd
00000060: fe29 163e 916f 3abd 0841 e736 298c 353d
00000070: c2da 06be 12be babd b793 823c e5b2 2e3d
00000080: 240a bbbd a966 5f3c b073 61bc 4b80 1a3d
00000090: c66e 363d e470 583d 8d9d 52bd a566 a03d
000000a0: 493a bcbd 905f 26bc 89bd a8bc 59d4 ddbd
000000b0: 3729 79bc 67ce 573d 60c8 cabc 396d 2a3d
000000c0: 1c54 863d 0e43 dabd 21c9 213d 754c 81bc
000000d0: 0d42 be3d 6062 97bd 32a1 67bc 9d24 923c
000000e0: 2c97 623d 7b28 923d 54b3 f13c 699f df3d
000000f0: 1a53 db3c eb19 e5bd 3e8d a6bd 6e6b 2e3d
00000100: c989 003b bf8a 88bd 3fc3 cdbd aa24 183d
00000110: dbd6 1a3c 9837 c93d 5ac4 b1bb d95a 643d
00000120: 1ca0 503d 6e7f d43d ed4a a2bd a30f b33d
00000130: 3451 4fbd 03e1 9cbc 82fb 76bd 4571 8f3d
00000140: 5524 fdbd 6cef a8bb 3209 acbd df7a 0dbc
00000150: 8284 3e3d d3c0 01bd 9f0d 653d 0269 99bd
00000160: 8bb8 08be ba57 b8bb a807 c4bd 5a2c 593c
00000170: 04e3 6a3d c276 afbd df78 623c a141 bc3c
00000180: c988 38be c6a2 2c3d 126d 3ebd a90d 61bd
00000190: ce6b eb3c c931 f6bd 07a3 28bd 3e57 5b3d
000001a0: 8590 cdbc 04d2 62bc c046 183c 6a41 0cbd
000001b0: 95d1 ecbc f2a6 1cbb 40aa aa3c 099a c4bb
000001c0: f738 af3d 1df6 2d3d 832f 34ba e6a9 94bc
000001d0: 63da 5dbd 07fa fb3d e735 e7bd 44c4 8b3b
000001e0: 1708 7c3d 7706 2e3d 6302 e9bc b768 13bd
000001f0: 27e8 98bc f632 93bd 83e1 87bd e4b5 cebc
00000200: acf1 d93d 638c cc3c 2c4d 99bc 6c72 073c
00000210: b922 89bd 0558 82bd c389 243d 3eb7 b3bc
00000220: 5c0d de3d 5541 7dbd 62f1 203e 65b7 6bbe
00000230: 4fb7 7dbd c98e 15be 76ce f1bd 3ec5 31bd
00000240: 1c90 8cbd 727b 563d ea77 263d 64f2 d13d
00000250: af3f fa3c d6a4 f83c 8fbc a23c dec1 61bd
00000260: ee50 0e3d c655 8f3d 4923 8dbc 694e 9b3c
00000270: 156f 8a3b 7f7b 2c3d a5e0 223c b0a7 553d
00000280: 2046 45bc 029a bdbc e7d2 fb3c 7434 f8bc
00000290: 2609 c1bc 7105 93bd 04ee 863d 5d49 94bc
000002a0: 6d97 b93d 6be1 a6bd 1569 43bd 740a ab3b
000002b0: 7d9b 93bd 288b 93bc 5359 3ebd 356b 34bd
000002c0: da12 00bd 91f2 35bc 4c37 42bd 2942 ef3d
000002d0: 76af 31bd 4f86 74bc fa3b e6bc 7763 06be
000002e0: d81a 37bc cddd 3e3d db38 0f3c 7832 dfbd
000002f0: f6f4 b1bb 537d fd3b 39e1 75bc 135b 013e
00000300: 159d 29bd 5805 fe38 aaef 58bc de08 683d
00000310: b63b 89bd b151 7d3c b706 0dbe 3637 55b9
00000320: 4751 f5bd 8401 873c eb07 693d 7541 91bd
00000330: 0c3f 873d dfe0 d6bd 6c0b 41bd fbca bf3c
00000340: bf78 51bd a56b 56be 696e c8bd 54a9 623c
00000350: 7d6d fa3d 4848 ed3d 8304 38be 121c 25bd
00000360: 3ab0 093d f7c7 0a3d ea15 dabd e517 40bc
00000370: 64e2 eb3c c1de af3c 5ac2 34bc 2e5b c83d
00000380: b2b5 34bb 6ff4 91bc 5130 b83c 9385 17bd
00000390: df90 a83d e63c afbd 663d d6bd 910a 6abd
000003a0: 97a2 28be 95e7 1ebd c55f 913c edec 8e3d
000003b0: c7a8 14bc 6395 59bd 504b 2f3e 278a f53c
000003c0: 07c9 4ebd 5111 70bd 0a65 36bd b912 4e3d
000003d0: bb88 ba3d be0a a2bc 066d ae3d db38 e8bb
000003e0: a73b c83b 584a 873d cda2 5d3d df5c 743d
000003f0: d1a8 85bd 592f 26bc 55ba d23c 63f1 133d
-0.025934692 -0.10441143 0.045891825 -0.14083882 -0.06214073 0.008812626 -0.03718974 -0.023821194
-0.024010887 0.034555852 0.08663224 -0.010452342 0.045147315 -0.051121913 0.03553708 0.007614476
-0.06021075 -0.14621627 -0.017936308 -0.017624138 0.048779886 0.10728528 0.02082372 -0.07472583
0.14664456 -0.045516554 6.891907e-06 0.04432312 -0.13169387 -0.09118284 0.015939577 0.042651076
-0.091327935 0.013635316 -0.013760492 0.037720006 0.044539236 0.052842036 -0.051419783 0.07832078
-0.091908045 -0.01015462 -0.02059819 -0.10831518 -0.01520758 0.052687075 -0.02475375 0.04160807
0.06559011 -0.10657321 0.039498452 -0.015783528 0.09289942 -0.073918104 -0.014137553 0.017839724
0.05531995 0.07136627 0.029504456 0.10919077 0.026773024 -0.11186584 -0.081324086 0.04258292
0.0019613376 -0.06667089 -0.10047006 0.03714434 0.00945064 0.09825057 -0.0054250183 0.0557507
0.050933942 0.10375868 -0.07924447 0.08743217 -0.05061455 -0.019150263 -0.06029845 0.07004026
-0.123604454 -0.0051554944 -0.08400191 -0.008635252 0.046513088 -0.031678032 0.055921193 -0.07490732
-0.13351648 -0.005625692 -0.09571773 0.013255203 0.057345405 -0.08567573 0.013822763 0.022980513
-0.1802093 0.04214742 -0.046490736 -0.054944668 0.028737929 -0.120212145 -0.0411711 0.053549998
-0.025093326 -0.013844017 0.009294212 -0.03424207 -0.02890853 -0.0023903218 0.020833135 -0.0059998077
0.08555787 0.04247104 -0.0006873535 -0.01814742 -0.054163348 0.12303548 -0.11289578 0.00426534
0.061531153 0.042486634 -0.02844352 -0.035988536 -0.018665386 -0.071874544 -0.0663481 -0.025233217
0.106417984 0.024969285 -0.018713556 0.008267026 -0.06696076 -0.06364445 0.040170442 -0.021937963
0.10842392 -0.061829884 0.1571708 -0.23019178 -0.061942395 -0.1460525 -0.118069574 -0.043400995
-0.06863424 0.05236382 0.040641703 0.102513105 0.030547945 0.030352037 0.019865302 -0.055116527
0.03474515 0.06998782 -0.01722874 0.018958287 0.004224668 0.042109963 0.009941255 0.052161872
-0.012040645 -0.023144726 0.030740215 -0.03029845 -0.023563933 -0.07178772 0.06588367 -0.018101389
0.09062085 -0.08148464 -0.047707636 0.005219752 -0.072073914 -0.01801069 -0.046471905 -0.044047553
-0.03126798 -0.011105196 -0.047416016 0.11682541 -0.043380223 -0.0149246 -0.02810477 -0.1312388
-0.011175834 0.046598244 0.008741583 -0.10898298 -0.005430813 0.007735887 -0.015007311 0.12632398
-0.04140957 0.00012112659 -0.013240734 0.05664908 -0.06700842 0.015461371 -0.13772093 -0.0002033383
-0.11978393 0.016480215 0.056892317 -0.07092563 0.06603822 -0.104921095 -0.047130033 0.023412218
-0.051140543 -0.209395 -0.09786684 0.013834316 0.122279145 0.11586052 -0.17970471 -0.040309973
0.03361533 0.033882108 -0.10648711 -0.011724447 0.028794475 0.021468522 -0.011032665 0.09783016
-0.002757412 -0.01781675 0.022483977 -0.03699262 0.08230757 -0.08556537 -0.104609296 -0.057138983
-0.16468273 -0.038795073 0.017745862 0.06978784 -0.009073443 -0.053120982 0.17118573 0.029973103
-0.050484683 -0.058610264 -0.044529952 0.050310824 0.091081105 -0.019780513 0.08516888 -0.007086856
0.0061106267 0.06605977 0.054110337 0.05965888 -0.0652634 -0.0101431245 0.025723616 0.036118876

network_body._body_endoder.seq_layers.2.bias f4 [128]
00000000: 0000 0000 0000 0000 0000 0000 0000 0000
00000010: 0000 0000 0000 0000 0000 0000 0000 0000
00000020: 0000 0000 0000 0000 0000 0000 0000 0000
00000030: 0000 0000 0000 0000 0000 0000 0000 0000
00000040: 0000 0000 0000 0000 0000 0000 0000 0000
00000050: 0000 0000 0000 0000 0000 0000 0000 0000
00000060: 0000 0000 0000 0000 0000 0000 0000 0000
00000070: 0000 0000 0000 0000 0000 0000 0000 0000
00000080: 0000 0000 0000 0000 0000 0000 0000 0000
00000090: 0000 0000 0000 0000 0000 0000 0000 0000
000000a0: 0000 0000 0000 0000 0000 0000 0000 0000
000000b0: 0000 0000 0000 0000 0000 0000 0000 0000
000000c0: 0000 0000 0000 0000 0000 0000 0000 0000
000000d0: 0000 0000 0000 0000 0000 0000 0000 0000
000000e0: 0000 0000 0000 0000 0000 0000 0000 0000
000000f0: 0000 0000 0000 0000 0000 0000 0000 0000
00000100: 0000 0000 0000 0000 0000 0000 0000 0000
00000110: 0000 0000 0000 0000 0000 0000 0000 0000
00000120: 0000 0000 0000 0000 0000 0000 0000 0000
00000130: 0000 0000 0000 0000 0000 0000 0000 0000
00000140: 0000 0000 0000 0000 0000 0000 0000 0000
00000150: 0000 0000 0000 0000 0000 0000 0000 0000
00000160: 0000 0000 0000 0000 0000 0000 0000 0000
00000170: 0000 0000 0000 0000 0000 0000 0000 0000
00000180: 0000 0000 0000 0000 0000 0000 0000 0000
00000190: 0000 0000 0000 0000 0000 0000 0000 0000
000001a0: 0000 0000 0000 0000 0000 0000 0000 0000
000001b0: 0000 0000 0000 0000 0000 0000 0000 0000
000001c0: 0000 0000 0000 0000 0000 0000 0000 0000
000001d0: 0000 0000 0000 0000 0000 0000 0000 0000
000001e0: 0000 0000 0000 0000 0000 0000 0000 0000
000001f0: 0000 0000 0000 0000 0000 0000 0000 0000
0.0 0.0 0.0 0.0 0.0 0.0 0.0 0.0
0.0 0.0 0.0 0.0 0.0 0.0 0.0 0.0
0.0 0.0 0.0 0.0 0.0 0.0 0.0 0.0
0.0 0.0 0.0 0.0 0.0 0.0 0.0 0.0
0.0 0.0 0.0 0.0 0.0 0.0 0.0 0.0
0.0 0.0 0.0 0.0 0.0 0.0 0.0 0.0
0.0 0.0 0.0 0.0 0.0 0.0 0.0 0.0
0.0 0.0 0.0 0.0 0.0 0.0 0.0 0.0
0.0 0.0 0.0 0.0 0.0 0.0 0.0 0.0
0.0 0.0 0.0 0.0 0.0 0.0 0.0 0.0
0.0 0.0 0.0 0.0 0.0 0.0 0.0 0.0
0.0 0.0 0.0 0.0 0.0 0.0 0.0 0.0
0.0 0.0 0.0 0.0 0.0 0.0 0.0 0.0
0.0 0.0 0.0 0.0 0.0 0.0 0.0 0.0
0.0 0.0 0.0 0.0 0.0 0.0 0.0 0.0
0.0 0.0 0.0 0.0 0.0 0.0 0.0 0.0

network_body._body_endoder.seq_layers.2.weight f4 [128, 128]
00000000: 1976 84bd 4bcf f53c 092b 233e c9dd 29be
00000010: e4bf 86bd 3024 b5bd 563b ad3d 8891 713d
00000020: 1d8d d63c 4fb2 dfbd 5469 e53d cacc 6c3d
00000030: 3f66 483e f7f4 a6bc f4c3 d5bd 3383 0c3c
00000040: 2dce 613d 15d4 a83c 3100 193e 3e24 d3bc
00000050: bcba 67bb 3774 bebc 156a 353e 56b6 12be
00000060: 7b56 53bc 26ab debd 1f05 293c 0ca0 e93c
00000070: 9c57 cdbd 7947 aabd 991f 583d f29c d3bc
00000080: b7cd 9f3d be3c 263c c564 e33c 4aa4 c1bc
00000090: fa73 1abe d612 c8bd ede2 5ebe 87e0 1a3d
000000a0: 4a44 07bd 7a42 20bd 7881 85bc 5cdf 0fbe
000000b0: 7c14 5fbd e7c7 a43c 7abb 263c 6ded b5bd
000000c0: 8256 b53c 7313 c63d f33b 203e d317 a0bd
000000d0: 5007 d6bd 24a0 d6bd 11ad f7bc faa4 25bc
000000e0: ad03 af3c 0708 723d 56d1 ec3d 8ec3 233a
000000f0: 1b6e 8d3d f1b1 db3d 041f aa3d 5d1d fc3c
00000100: b0c6 98bc ad9d 0b3d d1c9 dbbd 1c79 7cbd
00000110: 7294 1a3d 11ba 3dbc eb31 4ebb bada b53a
00000120: 2938 523d cdf8 5c3e 9e35 cabc c16e 8cbd
00000130: cb59 b93d 94a0 103e 7369 d6bc a33a f8bd
00000140: e5b3 24bd ccea 6cba 284b 6bbd 1ddc 2ebd
00000150: be7c 5a3d 4718 cabd 0ec8 873d 2fd2 4bbe
00000160: 48c1 eabc 3c77 6e3d 676a 9b3c e474 cfbd
00000170: 9364 883d b5a9 7ebd 4bb2 18be 980c 82bc
00000180: d156 b0ba bd5e 27be 9153 403e 99fa a8bd
00000190: 85ce aaba b577 2c3d 0fc2 a0bd 5202 d93a
000001a0: c2f9 c43d c5c0 a93d 80fb e1bd e5c9 343e
000001b0: f5a6 a83d 799f 03be 0cd6 83bc 2b7c c63c
000001c0: 4572 f1bd f658 ee3c 7dda 95bd 68ce 2abd
000001d0: ba06 2ebe 922f f5bc 83c9 2bbe 48b9 1fbd
000001e0: ccee c43b 2b36 b03d efab 1abe 8a15 0f3e
000001f0: 2116 7dbc fb67 5c3d 8b5b a8bd e4c1 4a3b
00000200: 0e5e 1bbd 5d2d 7abc 9ac5 ebbc 59a2 be3c
00000210: f7be d53c e3ec 83bd 90a4 1ebd f023 30bd
00000220: 8cee 9d3a 20a3 ac3d 8992 2abd 8b69 233e
00000230: 0304 34bc 5f5f 753c ea03 893d 5422 3d3c
00000240: 7ab5 d53d 7877 36bc a0e3 993d 3418 f63c
00000250: 5b27 61bd 426d 9bbe a4e1 33bd c8ea c43d
00000260: 43a0 0bbd fd60 f3bd 6e69 a03d 1353 b1bd
00000270: 84ec 5cbd a16d b939 7efa 373d cb90 d7bc
00000280: 8bd2 fcbd b2c2 10bd 3a20 ef3c 9b8c 43bd
00000290: 85df 4f3e 77fc b8bd efa6 acbd da1c 03be
000002a0: 1bf0 84be 0bc2 703d ac1e bc3d 7cb7 0f3d
000002b0: 5a73 9fbc 996a c23d 312e d83d 16d3 a93e
000002c0: e89e 12be d6a0 803c 72b7 0b3d 7f28 7cbe
000002d0: c547 14be fbd3 e83d 1f4c 1b3d 4006 06bd
000002e0: fbe8 30bd 0715 313d 5f30 793d cae8 85bd
000002f0: 34a9 083d f3e9 213d fda9 91bd 21c5 18bb
00000300: c0c3 45bd fde7 22bd 5f01 2d3e beb5 d63d
00000310: 0232 7c3c 4a4f df3c 8949 fbbd 2c15 943d
00000320: 9466 d8bc cd2a db3d 5b71 1e3c d6cb 2ebe
00000330: 4ffc fcbd 781d 09bd c1b7 94be 05f4 8fbd
00000340: 80ad eebc 3ea2 04be 4b17 583d 8e3e 00bd
00000350: e2b1 563d ad78 2e3d a546 32be 50fd 20be
00000360: 26c2 ecbc adad 83bd b1b0 27be 9864 693d
00000370: ded0 2e3e 389a e63b 01e5 353d 7111 ffbc
00000380: 9856 cdbd d256 703c 4285 d63d be61 8e3d
00000390: f901 73bd f7b5 f3bc b9f2 223e 1f45 003d
000003a0: 1ed9 c03c a356 73bd 9536 07be cc9a 4bbd
000003b0: 3a7d 143d b8aa 87bd 06ef 11bd 4c19 d03b
000003c0: 9ff8 a73d 3a31 ec3c 750b b93d c57e 55bd
000003d0: 435d 62be 2d16 8d3d 12c8 33be 80a5 143c
000003e0: ef49 553d b3ec 8ebc 24be 4dbc b99b 25bd
000003f0: 1b4b 3d3d cd86 823c 0a32 203e 7f20 3c3d
-0.06467838 0.030006072 0.15934385 -0.1658851 -0.06579569 -0.08844793 0.08458583 0.05897668
0.026190335 -0.109226815 0.1120173 0.05781249 0.19570254 -0.02038048 -0.10437766 0.008576202
0.055128265 0.020608941 0.1494148 -0.025774118 -0.0035359105 -0.023248775 0.17716248 -0.14327368
-0.0128990365 -0.10872488 0.010316162 0.0285187 -0.10026476 -0.083144136 0.05276451 -0.025831673
0.07802909 0.010146318 0.027758012 -0.02363791 -0.15083304 -0.09769218 -0.21766253 0.037811782
-0.03302411 -0.039125897 -0.016297087 -0.14050049 -0.054462895 0.020114852 0.010176534 -0.08883176
0.022135977 0.096716784 0.15647869 -0.07817044 -0.104506135 -0.10479763 -0.030233892 -0.010110134
0.021364057 0.059089687 0.11563365 0.00062470965 0.069057666 0.10727299 0.08306697 0.03077572
-0.01864943 0.03408592 -0.10731853 -0.061638936 0.037739225 -0.011580006 -0.003146286 0.001387439
0.05132309 0.21579285 -0.02468377 -0.06857062 0.0905033 0.14123756 -0.026173329 -0.12120559
-0.040210623 -0.0009037673 -0.05744472 -0.042690385 0.05334162 -0.09867912 0.06629954 -0.19904397
-0.028656617 0.05821918 0.018971635 -0.10129717 0.06659808 -0.062173564 -0.14911763 -0.015875146
-0.0013453608 -0.16344734 0.18781878 -0.08250923 -0.0013031518 0.04210635 -0.07849514 0.0016556478
0.0961795 0.08288721 -0.11034298 0.17655142 0.082349695 -0.12853803 -0.016093276 0.02422913
-0.11789373 0.029095154 -0.07317064 -0.04170075 -0.16994753 -0.02992991 -0.1677609 -0.038995057
0.006009912 0.08604082 -0.1510465 0.1397306 -0.0154471705 0.0538101 -0.082205854 0.0030938322
-0.037931494 -0.0152696045 -0.028780747 0.023270773 0.026092036 -0.06441667 -0.038731158 -0.043003023
0.0012049242 0.08429551 -0.041643653 0.1595823 -0.010987285 0.0149763515 0.066902 0.011543829
0.104350045 -0.011136882 0.07514119 0.030040838 -0.054969173 -0.30356795 -0.04391636 0.096150935
-0.034088384 -0.118837334 0.07832609 -0.08658423 -0.053936496 0.0003536763 0.044916622 -0.02631416
-0.123448454 -0.035341926 0.029190172 -0.047741514 0.2030011 -0.09032529 -0.084302776 -0.12803975
-0.25964436 0.058778804 0.09185538 0.035087094 -0.019464184 0.09492988 0.10555685 0.33168858
-0.1431843 0.015701693 0.034110494 -0.24624823 -0.14480503 0.11368557 0.03791439 -0.032720804
-0.043190937 0.043232944 0.060837146 -0.065385416 0.03336449 0.039529752 -0.07112501 -0.0023310857
-0.048282385 -0.039772023 0.16895054 0.10483883 0.015392782 0.027259488 -0.12269885 0.07230601
-0.0264161 0.10701523 0.009670581 -0.17069945 -0.123528115 -0.03347537 -0.29046443 -0.07028965
-0.029135466 -0.12952515 0.05275659 -0.031309657 0.052415736 0.042595554 -0.17409761 -0.15721631
-0.028901171 -0.064296104 -0.16375996 0.0569807 0.17071864 0.0070374273 0.04440785 -0.031136246
-0.10026282 0.014669137 0.10474636 0.069522366 -0.059328053 -0.029749854 0.15912904 0.03131592
0.02354103 -0.059408795 -0.13204415 -0.049708173 0.036252238 -0.06624359 -0.03562834 0.006350672
0.082017176 0.028832067 0.090353884 -0.05212285 -0.22105889 0.06888995 -0.1755679 0.009072661
0.05207246 -0.017446851 -0.01255754 -0.04043171 0.046214204 0.015933419 0.15644088 0.04592943
