Assets/ML-Agents/Examples/FirstTRexScene/results/trmodel/My Behavior/My Behavior-3968.onnx (onnx, 74175 bytes, 7 tensors)

action_model._continuous_distribution.log_sigma f4 [1, 2]
000000 00 00 00 00 00 00 00 00
       0.0 0.0

action_model._continuous_distribution.mu.bias f4 [2]
000000 00 00 00 00 00 00 00 00
       0.0 0.0

action_model._continuous_distribution.mu.weight f4 [2, 128]
000000 cd e7 ae bc 8b d5 bb 3a 37 f0 d4 bc 4a 43 b6 3b
       -0.021350766 0.0014330609 -0.02599345 0.0055622207
000010 a7 c7 ae 3a 3f 17 bc bc 75 4e 74 bb 9f b0 a7 bc
       0.0013334648 -0.022960303 -0.003727821 -0.020469962
000020 a0 cc 91 bc 8b f1 75 b9 f3 11 80 3b 5b 00 ac ba
       -0.017797768 -0.00023455003 0.0039083897 -0.0013122665
000030 f5 4f e7 bb 15 3f 91 bc a9 b2 13 bc 0b ef 82 bc
       -0.007059092 -0.017730275 -0.009014764 -0.015983125
000040 6b 91 4e bb 1f 58 ad 3b f3 78 07 bd f2 d2 70 bb
       -0.0031519781 0.005290046 -0.03307433 -0.0036746827
000050 ac 99 c3 ba af 49 35 bb 13 92 8a 3b 0f f5 78 3c
       -0.0014923117 -0.0027662327 0.004228839 0.015195145
000060 7e f9 bc bc f4 69 12 bc 4d 99 35 bc e2 fb c8 bb
       -0.023068186 -0.008936394 -0.011083913 -0.0061335424
000070 90 e2 ef 3b df fc 8c ba 80 c0 fe 3b af 2c 05 3a
       0.0073207095 -0.0010756514 0.0077744126 0.0005080206
000080 d3 01 71 bc 52 ff 80 3b bf a3 d0 3c d7 24 64 bc
       -0.014709908 0.0039366866 0.025468705 -0.013924799
000090 1f 96 09 bd 78 35 f8 bc c5 24 d8 3b f0 b8 cf bb
       -0.033590432 -0.030298933 0.00659618 -0.006339185
0000a0 51 26 a6 3c 88 1a df ba 4f 84 b0 bc cf 77 19 bc
       0.020281943 -0.0017021457 -0.021547465 -0.0093669435
0000b0 b8 72 ec bc fe 45 1e bc 18 b8 15 bc 73 1d 2c bb
       -0.028863296 -0.009660242 -0.00913813 -0.002626267
0000c0 7b 25 bf 3c 92 c6 e6 3c ae 73 13 bd 58 c8 df 3c
       0.023333302 0.028170858 -0.035998993 0.027317211
0000d0 e0 30 67 3c db dc c9 3c b2 d6 bc 3c 5b 13 a5 3c
       0.014110774 0.024641445 0.023051593 0.020150831
0000e0 01 95 06 bc ba 67 a3 bc b5 f2 90 3b e8 91 6c 3b
       -0.008214236 -0.019946922 0.004423464 0.003609771
0000f0 49 fe bb 3c c3 32 52 3c 0d 7a 0b bc 23 46 6d 3c
       0.022948401 0.012829485 -0.008512986 0.014482054
000100 38 56 84 3b 93 9b 00 bd 60 3c b1 3c 4f d4 86 3c
       0.0040385984 -0.031398367 0.021635234 0.016458659
000110 d3 b4 0f 3d 8f 86 f7 bc ed 94 49 3b 03 90 65 bc
       0.035084557 -0.03021553 0.0030758933 -0.014011386
000120 65 51 94 3b 12 6b 7d bc 85 28 43 bc ab 71 17 ba
       0.0045263045 -0.015467422 -0.011911516 -0.0005777131
000130 0f 33 b2 3b 3c 5d 2d 3b 6c 11 c3 3c 0f 72 8d b9
       0.0054382156 0.0026453277 0.023812018 -0.00026978596
000140 b7 06 59 3c 20 f4 b3 3c 65 c4 eb 3b db a2 2d 3d
       0.01324623 0.021966994 0.007195043 0.04239164
000150 f9 d1 48 3c 9b 56 dd 3b bf 84 28 bb df 53 5a bc
       0.012257093 0.006754709 -0.0025713888 -0.0133256605
000160 72 f2 c1 bc f3 94 c2 3c 05 bc 80 bb b0 0e 74 bc
       -0.023675177 0.023752665 -0.0039286637 -0.01489608
000170 70 0c f5 3b e3 fd db 3b 5b af 3a 3c 89 83 94 bc
       0.0074782893 0.0067136153 0.011394347 -0.018129127
000180 46 a8 86 bb 4f be 86 3c c8 20 d9 3c c0 b8 03 3d
       -0.004109415 0.016448168 0.02650489 0.032158613
000190 a7 b1 19 bb 8e eb a5 3c 95 dd 51 bc 62 d0 5b 3b
       -0.0023451836 0.020253923 -0.012809177 0.0033540954
0001a0 b2 fe f4 3b 98 74 d9 bc eb 2c f7 bc eb f0 e6 bc
       0.007476651 -0.026544854 -0.030172786 -0.02819105
0001b0 4d fa 27 bd bf b3 c2 bb c5 15 c6 3a f0 17 c1 3c
       -0.04101019 -0.0059418376 0.0015112689 0.023570985
0001c0 df 8c c8 bc fb f5 96 bb 46 14 00 bd bd 22 25 bb
       -0.024481235 -0.00460696 -0.031269334 -0.0025197708
0001d0 0b da a6 bb 40 c1 c8 3c a3 93 3c bb 89 f5 94 3b
       -0.0050919107 0.024506211 -0.0028774522 0.0045458716
0001e0 ed 54 22 bd 19 20 8d bc 96 74 29 bc 48 8a 77 3c
       -0.039631773 -0.01722722 -0.010342738 0.015108652
0001f0 91 59 27 bc 91 0f ae bc 13 a4 ae 3c 4f 4c 2c 3d
       -0.010214225 -0.021247657 0.021318471 0.04206496
000200 7b e6 13 3d c3 48 1c bb c9 a8 8a bb 2d 1f 50 3b
       0.036108475 -0.002384708 -0.0042315465 0.0031756863
000210 37 6d 26 3c 98 d5 40 3c 4d 3e 95 bc ae 16 b7 3b
       0.010157875 0.011769675 -0.018218184 0.0055874204
000220 f6 73 86 3c ff 6d d5 bc 32 10 7d 3b 05 a3 6a 3d
       0.016412716 -0.026053427 0.003861439 0.057284374
000230 99 b1 02 3d 60 1d f8 bb 67 3e 1e bc 0d d5 68 3c
       0.03190765 -0.007571861 -0.009658433 0.0142109515
000240 18 d5 5e 3b 83 23 cf bc 63 14 8b 3c c3 d4 16 bc
       0.0034001525 -0.025285488 0.016977495 -0.009206
000250 58 f2 a0 3c 28 ee e9 bb d5 5b 29 bc 27 02 46 bb
       0.019646809 -0.007138986 -0.010336836 -0.0030213685
000260 97 6d f9 3c d3 12 4a 3b 98 45 42 3c 57 44 77 bb
       0.030447764 0.0030833974 0.011857413 -0.0037729943
000270 bb b2 61 bc af d2 1b 3d c7 ab 0f bd ea dc d2 bc
       -0.013775523 0.03804272 -0.03507593 -0.025740106
000280 35 ba b0 bc b5 b0 18 bc 9b 22 97 bc a7 ad 10 bc
       -0.021573165 -0.009319474 -0.018449118 -0.008830464
000290 f5 7e fd 3b ff e5 81 bc 0b 19 9e 3c 45 2a 87 bc
       0.0077360817 -0.015856741 0.01929905 -0.016499648
0002a0 f1 b5 0e bc b0 2d e2 bb f5 a2 0f bc 5f 56 b5 bc
       -0.00871037 -0.006902419 -0.008766879 -0.022135912
0002b0 e9 7c 46 3c cb ea 2a 3c 08 e4 46 bc a8 2f 06 bb
       0.012114742 0.010431956 -0.012139328 -0.0020475183
0002c0 6b d7 a5 bb 18 03 90 3b 02 b1 4f bc e7 40 4a 3b
       -0.00506108 0.0043949 -0.012676479 0.0030861439
0002d0 05 be e9 bb 4a f8 6a bc de fb 8c bb 33 7b 13 3c
       -0.007133248 -0.014341423 -0.004302486 0.009001541
0002e0 87 3a eb bc 06 23 2b 3c 9a 6e 2a 3c 7b 8b bf 3c
       -0.028714431 0.010445362 0.010402346 0.02338194
0002f0 82 1a 8d 3c 7a 27 fc 3c 68 36 e9 bc a2 4d 4b bb
       0.017224554 0.030780543 -0.028468326 -0.0031021615
000300 33 33 26 bc 0b 49 b6 bb 1b 5a 11 bb 4b 9d 17 3c
       -0.010144043 -0.0055629066 -0.0022178951 0.00925381
000310 25 01 5e 3b 45 6b 8d 3c 1a bf d7 3c 6a 7b 50 3c
       0.0033875194 0.017263064 0.026336242 0.012724737
000320 25 bd 50 3b 27 18 42 bb 0c 21 ac 3c 6e b6 b9 3b
       0.003185102 -0.0029616447 0.021011852 0.0056674993
000330 72 ec 8d 3c 84 d0 8c 3c 53 7f cb 3c 68 fc 57 bc
       0.01732466 0.017189272 0.024840986 -0.013182737
000340 09 7f 42 3b 63 76 24 bc bf ae 46 bc 08 0f d6 3c
       0.002967777 -0.010037991 -0.012126624 0.026130214
000350 ed 1d cd 3b 85 10 6a bc 2f 0d f0 bc c5 a0 37 3c
       0.006259671 -0.014286165 -0.029303161 0.011207764
000360 af e3 35 3c d2 38 5f 3c d7 85 3d 3d 45 d1 70 b9
       0.011101647 0.013624387 0.046270218 -0.00022966143
000370 e3 f5 2f 3a 30 3e 83 bc 90 9f 53 3b 8e 0b 88 bc
       0.000671236 -0.016020864 0.0032291152 -0.016607072
000380 53 f5 97 bc f2 22 ba 3a 43 8f 20 bc ab 3b ce 3a
       -0.018549597 0.0014201088 -0.009799781 0.0015734335
000390 6f f4 aa 3c 07 81 bd bc 0b 17 38 bc 9f 24 cb 3c
       0.020868508 -0.023132814 -0.011235963 0.024797736
0003a0 a5 b4 43 3c fd 66 01 bc 74 37 42 ba cb b4 52 bc
       0.0119449245 -0.0078980895 -0.0007408776 -0.012860487
0003b0 e2 27 b8 bb 16 1d a3 bc a2 a7 30 bc 53 ac 4f bc
       -0.005619989 -0.01991133 -0.010782154 -0.012675363
0003c0 32 6b 4e 3c a8 c6 77 3c ca 67 d0 3c 1f ae 76 3c
       0.0125988 0.015123047 0.025440115 0.015056162
0003d0 cb 85 b9 bb ff 03 08 bc 6a f5 8a 3c 2a a0 d3 bb
       -0.0056617013 -0.008301734 0.016962726 -0.006458302
0003e0 9d b2 6a 3c 0f 18 2c 3c 39 a2 03 bc 37 90 8b 3b
       0.014324811 0.010503783 -0.008034282 0.004259135
0003f0 e6 a5 01 bd ac f8 9e bb 47 22 38 3c ff 3b 0b 3d
       -0.031652354 -0.0048514213 0.011238641 0.033992764

network_body._body_endoder.seq_layers.0.bias f4 [128]
000000 00 00 00 00 00 00 00 00 00 00 00 00 00 00 00 00
       0.0 0.0 0.0 0.0
000010 00 00 00 00 00 00 00 00 00 00 00 00 00 00 00 00
       0.0 0.0 0.0 0.0
000020 00 00 00 00 00 00 00 00 00 00 00 00 00 00 00 00
       0.0 0.0 0.0 0.0
000030 00 00 00 00 00 00 00 00 00 00 00 00 00 00 00 00
       0.0 0.0 0.0 0.0
000040 00 00 00 00 00 00 00 00 00 00 00 00 00 00 00 00
       0.0 0.0 0.0 0.0
000050 00 00 00 00 00 00 00 00 00 00 00 00 00 00 00 00
       0.0 0.0 0.0 0.0
000060 00 00 00 00 00 00 00 00 00 00 00 00 00 00 00 00
       0.0 0.0 0.0 0.0
000070 00 00 00 00 00 00 00 00 00 00 00 00 00 00 00 00
       0.0 0.0 0.0 0.0
000080 00 00 00 00 00 00 00 00 00 00 00 00 00 00 00 00
       0.0 0.0 0.0 0.0
000090 00 00 00 00 00 00 00 00 00 00 00 00 00 00 00 00
       0.0 0.0 0.0 0.0
0000a0 00 00 00 00 00 00 00 00 00 00 00 00 00 00 00 00
       0.0 0.0 0.0 0.0
0000b0 00 00 00 00 00 00 00 00 00 00 00 00 00 00 00 00
       0.0 0.0 0.0 0.0
0000c0 00 00 00 00 00 00 00 00 00 00 00 00 00 00 00 00
       0.0 0.0 0.0 0.0
0000d0 00 00 00 00 00 00 00 00 00 00 00 00 00 00 00 00
       0.0 0.0 0.0 0.0
0000e0 00 00 00 00 00 00 00 00 00 00 00 00 00 00 00 00
       0.0 0.0 0.0 0.0
0000f0 00 00 00 00 00 00 00 00 00 00 00 00 00 00 00 00
       0.0 0.0 0.0 0.0
000100 00 00 00 00 00 00 00 00 00 00 00 00 00 00 00 00
       0.0 0.0 0.0 0.0
000110 00 00 00 00 00 00 00 00 00 00 00 00 00 00 00 00
       0.0 0.0 0.0 0.0
000120 00 00 00 00 00 00 00 00 00 00 00 00 00 00 00 00
       0.0 0.0 0.0 0.0
000130 00 00 00 00 00 00 00 00 00 00 00 00 00 00 00 00
       0.0 0.0 0.0 0.0
000140 00 00 00 00 00 00 00 00 00 00 00 00 00 00 00 00
       0.0 0.0 0.0 0.0
000150 00 00 00 00 00 00 00 00 00 00 00 00 00 00 00 00
       0.0 0.0 0.0 0.0
000160 00 00 00 00 00 00 00 00 00 00 00 00 00 00 00 00
       0.0 0.0 0.0 0.0
000170 00 00 00 00 00 00 00 00 00 00 00 00 00 00 00 00
       0.0 0.0 0.0 0.0
000180 00 00 00 00 00 00 00 00 00 00 00 00 00 00 00 00
       0.0 0.0 0.0 0.0
000190 00 00 00 00 00 00 00 00 00 00 00 00 00 00 00 00
       0.0 0.0 0.0 0.0
0001a0 00 00 00 00 00 00 00 00 00 00 00 00 00 00 00 00
       0.0 0.0 0.0 0.0
0001b0 00 00 00 00 00 00 00 00 00 00 00 00 00 00 00 00
       0.0 0.0 0.0 0.0
0001c0 00 00 00 00 00 00 00 00 00 00 00 00 00 00 00 00
       0.0 0.0 0.0 0.0
0001d0 00 00 00 00 00 00 00 00 00 00 00 00 00 00 00 00
       0.0 0.0 0.0 0.0
0001e0 00 00 00 00 00 00 00 00 00 00 00 00 00 00 00 00
       0.0 0.0 0.0 0.0
0001f0 00 00 00 00 00 00 00 00 00 00 00 00 00 00 00 00
       0.0 0.0 0.0 0.0

network_body._body_endoder.seq_layers.0.weight f4 [128, 9]
000000 87 78 37 be aa ab fe be 54 92 ed 3d 6e d7 d9 bd
       -0.17917071 -0.49740344 0.116001755 -0.10636793
000010 68 1e b9 be 64 05 37 3e c7 1e 8c 3e 04 81 c6 be
       -0.3615601 0.1787315 0.2736723 -0.38770306
000020 bf d3 b1 be 50 48 36 be 3a be 08 be 18 fd 23 be
       -0.34731862 -0.17801023 -0.13353816 -0.16014516
000030 56 9f ce be ad b7 83 3d 7f 3d c8 bd 22 0f 1b be
       -0.4035594 0.06431518 -0.097773544 -0.15142491
000040 3b 76 a8 3e 48 0e 1e be 2a a4 4e be 9b 1f ce 3d
       0.32902703 -0.15435135 -0.20179811 0.10064622
000050 4b c2 f1 3d 5c 68 41 3d 05 3b 11 bd 4e 12 5b be
       0.118046366 0.047218665 -0.035456676 -0.21393701
000060 83 b8 5f bd be 4a 09 3f 00 1c 12 bf 50 0f 06 bc
       -0.054619323 0.5362967 -0.57073975 -0.008182362
000070 d4 c4 e9 be dc 93 94 3e e6 29 94 3e 08 75 69 3e
       -0.4565798 0.29019058 0.28938216 0.2279855
000080 57 5d cb bd 34 3f b6 bd ac 2b 0e bd 0e 5b dc bd
       -0.099299125 -0.08898774 -0.034709617 -0.10759555
000090 6b b8 66 3e f0 60 a3 be 2c 18 0e be de 8e 1d be
       0.22531287 -0.31909895 -0.13876408 -0.15386531
0000a0 3a 69 a4 be 82 b8 2f 3d e8 f9 9a 3e d6 50 ab 3c
       -0.32111531 0.04290057 0.30268788 0.020912569
0000b0 12 59 14 3f 8e e8 1d be c8 b1 8d be 9a 18 38 3d
       0.5794841 -0.15420744 -0.276747 0.044945337
0000c0 32 2b 79 be 6b e6 6e be 16 25 37 3f 1f 06 2e 3f
       -0.24332884 -0.23330085 0.71540964 0.6797809
0000d0 ce 06 6d 3e 6a 7f 20 bf 3f 1f 93 3d f8 64 47 be
       0.23147127 -0.6269442 0.07183694 -0.1947211
0000e0 cf 80 36 bf 9a 24 ae bd f7 10 6a 3d fc 70 0f bf
       -0.71290296 -0.08503075 0.057145085 -0.56031775
0000f0 9f b9 40 be 24 20 6a be 43 21 3a 3e bc 95 32 3e
       -0.18820809 -0.22863823 0.18176751 0.17439932
000100 1a 51 b6 be 78 be a4 be 27 7c 5f bd 57 db dd bd
       -0.3560875 -0.32176566 -0.05456176 -0.108328514
000110 a7 38 3f 3e b7 a4 e6 bd 23 f6 b7 3e 6a 0e 6c 3e
       0.18673955 -0.112618856 0.35929975 0.23052374
000120 08 5e 71 3e c3 98 14 3f be 3e cc 3e 00 96 f3 bd
       0.23571026 0.58045596 0.39891618 -0.118938446
000130 fc 90 08 3f 83 9c 8e be 24 cf ac be e3 da 70 bd
       0.5334623 -0.27853784 -0.33751786 -0.058802497
000140 66 80 9e 3e a8 5a bf be 06 5a f8 3d a0 be 9c 3e
       0.30957335 -0.37373853 0.121265456 0.30614185
000150 ab e7 35 be 18 be 53 3d ac c7 dc 3e 0c 63 a3 bd
       -0.17764156 0.05169496 0.43121088 -0.07977876
000160 c4 65 84 be 97 25 8d 3e a6 18 c5 bd cf a1 7d 3e
       -0.2585889 0.2756774 -0.09623842 0.24768756
000170 92 d3 03 be 5a 5b a5 3c 63 eb 47 3e 9e c5 98 3e
       -0.12873676 0.020185161 0.19523387 0.2983827
000180 20 bf 71 bd a6 ef c3 3e 64 3e 8c 3e 24 7f ff bd
       -0.05902016 0.38268775 0.2739135 -0.12475422
000190 d7 d0 4a bd 96 63 7e 3e a0 9e 07 bf 42 2d ff bd
       -0.04951557 0.24842677 -0.5297642 -0.12459804
0001a0 94 68 af be ca d6 cf 3d ae 32 15 3e 8f a0 99 3e
       -0.34259474 0.1014839 0.14570114 0.3000531
0001b0 22 ba 24 bd c8 73 07 3e 47 1f 1a 3f 06 e0 eb 3d
       -0.040216573 0.13227761 0.60203975 0.115173385
0001c0 ae 77 b4 be 12 d0 c5 3e 8e c4 98 3e fa ea 5f 3e
       -0.35247558 0.38635308 0.2983746 0.2186698
0001d0 0b d2 a9 be ec 71 85 be 70 04 d6 3d 9e 25 f8 3e
       -0.33168063 -0.26063478 0.10450065 0.484662
0001e0 33 37 a7 3e 3f da 36 bd a6 64 46 3e 56 8f 33 be
       0.326593 -0.04464173 0.19374332 -0.17535147
0001f0 fa c1 8f 3d 0b 9a a9 3e b8 45 00 bf 58 91 e4 3c
       0.0701942 0.33125338 -0.5010638 0.027901337
000200 6b 7d 1e 3e ec 37 7e be bb a3 b6 bd 2f 33 3e 3e
       0.1547753 -0.2482602 -0.08917948 0.18574212
000210 52 ce 8d 3e 04 e8 20 bb a2 e0 15 bd 9e 9e 92 3d
       0.27696472 -0.0024552355 -0.03659118 0.0715916
000220 6c d8 b8 bd e8 40 8a be e0 df d5 bd c4 f2 5d be
       -0.09025654 -0.27002645 -0.104430914 -0.21674639
000230 3a 7d f5 3d 14 ba ca be d4 6e a7 be 84 1c 11 be
       0.11986776 -0.3959509 -0.32701743 -0.14171034
000240 fc 56 23 bf 60 42 b5 3d ac c9 3d 3e 95 25 0a 3f
       -0.638046 0.08850551 0.18533963 0.53963596
000250 aa 19 a6 3e 63 b5 bb be 28 5f a2 be e4 b5 e9 3e
       0.32441455 -0.36661825 -0.31713223 0.45646584
000260 30 97 8c bd dd 58 a3 3e cb 18 4b be 4b c7 1e be
       -0.06864774 0.31903735 -0.19833677 -0.15505712
000270 0a c5 56 3e a4 ca 2e 3e 58 05 6c be 57 c1 91 3c
       0.20973602 0.17069489 -0.23048913 0.017792387
000280 ee 9d ea bd e7 51 6f be ac aa 3e bf 8d d9 0d 3f
       -0.11455904 -0.23371087 -0.74479175 0.5541008
000290 28 4a f3 3e 23 b2 cb be ff c7 66 be 87 17 4c be
       0.47517514 -0.39784345 -0.2253723 -0.1993085
0002a0 3e af 9f be e0 71 f0 3d fc e1 de 3e dc c1 49 3c
       -0.31188387 0.1174047 0.43531787 0.012314286
0002b0 47 09 b0 3e 77 12 00 3d fc 48 54 bd 47 17 30 bf
       0.34382078 0.03126761 -0.051827416 -0.6878552
0002c0 60 9a d6 bd ff 5c 0e 3e 4a 96 03 bf 2a 07 11 bf
       -0.104786634 0.13902663 -0.514012 -0.56651556
0002d0 da e6 95 be 34 d8 08 bf 17 28 33 3f 00 df 43 3e
       -0.29277688 -0.534549 0.6998305 0.19128036
0002e0 2a 66 4c 3c 2c 53 b5 3d a1 7d 17 3e bc b4 22 3e
       0.01247553 0.088537544 0.14794017 0.15889257
0002f0 3e 79 43 3f 5c 7a 3c 3e f0 80 27 3d 90 9f 37 3d
       0.76356876 0.18406051 0.04089445 0.044829905
000300 16 f6 55 3e 4e 5f fd be 5f 6c c0 3e b9 82 29 3d
       0.20894656 -0.49486774 0.3758268 0.041384432
000310 f0 ad b2 be f3 de ea 3d 3e f8 b2 bd b8 6b 3d be
       -0.3489833 0.114683054 -0.08738755 -0.18498123
000320 b7 31 d0 3e 66 99 f3 be df b8 9a 3d b2 cd d8 bc
       0.4066293 -0.4757797 0.075547926 -0.02646527
000330 aa 1e b8 be 3e 31 79 3e 6e bb 24 bf af 99 2a 3e
       -0.35960895 0.2433519 -0.64348495 0.16660188
000340 e7 e3 fc 3d 66 26 f0 3e c4 4b 57 3e ee dd 14 be
       0.123481564 0.46904296 0.21024996 -0.14537784
000350 1f cc 37 be 44 f2 c8 be 6c 30 bc 3e e8 84 36 3e
       -0.1794896 -0.39247334 0.36755693 0.17824137
000360 96 49 ec 3c eb b2 cc be 46 55 42 3d 9c b5 f7 be
       0.028843682 -0.39980254 0.047444604 -0.48380744
000370 d3 c9 af be 7a 8f be be 40 ca 5a be a0 0e 67 be
       -0.34333667 -0.3721884 -0.21366215 -0.22564173
000380 69 1b 84 be 4b ef 1f bc ec c0 29 be 4b e1 cf 3d
       -0.25802162 -0.009761642 -0.165775 0.10150393
000390 80 85 d0 be 66 38 26 3e 12 4e 09 3e bf 64 e7 be
       -0.40726852 0.16232452 0.13408688 -0.4519405
0003a0 ac 5a 72 be 5c d0 ca 3e 2f 0b 51 3f 77 ae 54 3e
       -0.23667401 0.3961209 0.8165769 0.20769678
0003b0 b1 fc 98 3e fe ab b0 3e fe 73 b3 be 48 1b 98 be
       0.29880288 0.3450622 -0.35049433 -0.29708314
0003c0 3d 85 96 be 6b b3 18 3e 47 36 01 3f d6 aa 87 3e
       -0.29398528 0.14912193 0.50473446 0.26497525
0003d0 8e ed a1 3d f2 01 34 bf 60 98 a6 bb ab 23 1a 3f
       0.07906638 -0.7031547 -0.0050840825 0.60210675
0003e0 5e 62 0c 3f da 27 fa 3e 7f 2f 9a bd 53 d6 53 bd
       0.54837596 0.4885853 -0.075285904 -0.051718067
0003f0 e4 8c 5b be e6 46 c2 be 60 3f c2 3e c2 33 0c be
       -0.21440464 -0.37944716 0.37938976 -0.13691619

network_body._body_endoder.seq_layers.2.bias f4 [128]
000000 00 00 00 00 00 00 00 00 00 00 00 00 00 00 00 00
       0.0 0.0 0.0 0.0
000010 00 00 00 00 00 00 00 00 00 00 00 00 00 00 00 00
       0.0 0.0 0.0 0.0
000020 00 00 00 00 00 00 00 00 00 00 00 00 00 00 00 00
       0.0 0.0 0.0 0.0
000030 00 00 00 00 00 00 00 00 00 00 00 00 00 00 00 00
       0.0 0.0 0.0 0.0
000040 00 00 00 00 00 00 00 00 00 00 00 00 00 00 00 00
       0.0 0.0 0.0 0.0
000050 00 00 00 00 00 00 00 00 00 00 00 00 00 00 00 00
       0.0 0.0 0.0 0.0
000060 00 00 00 00 00 00 00 00 00 00 00 00 00 00 00 00
       0.0 0.0 0.0 0.0
000070 00 00 00 00 00 00 00 00 00 00 00 00 00 00 00 00
       0.0 0.0 0.0 0.0
000080 00 00 00 00 00 00 00 00 00 00 00 00 00 00 00 00
       0.0 0.0 0.0 0.0
000090 00 00 00 00 00 00 00 00 00 00 00 00 00 00 00 00
       0.0 0.0 0.0 0.0
0000a0 00 00 00 00 00 00 00 00 00 00 00 00 00 00 00 00
       0.0 0.0 0.0 0.0
0000b0 00 00 00 00 00 00 00 00 00 00 00 00 00 00 00 00
       0.0 0.0 0.0 0.0
0000c0 00 00 00 00 00 00 00 00 00 00 00 00 00 00 00 00
       0.0 0.0 0.0 0.0
0000d0 00 00 00 00 00 00 00 00 00 00 00 00 00 00 00 00
       0.0 0.0 0.0 0.0
0000e0 00 00 00 00 00 00 00 00 00 00 00 00 00 00 00 00
       0.0 0.0 0.0 0.0
0000f0 00 00 00 00 00 00 00 00 00 00 00 00 00 00 00 00
       0.0 0.0 0.0 0.0
000100 00 00 00 00 00 00 00 00 00 00 00 00 00 00 00 00
       0.0 0.0 0.0 0.0
000110 00 00 00 00 00 00 00 00 00 00 00 00 00 00 00 00
       0.0 0.0 0.0 0.0
000120 00 00 00 00 00 00 00 00 00 00 00 00 00 00 00 00
       0.0 0.0 0.0 0.0
000130 00 00 00 00 00 00 00 00 00 00 00 00 00 00 00 00
       0.0 0.0 0.0 0.0
000140 00 00 00 00 00 00 00 00 00 00 00 00 00 00 00 00
       0.0 0.0 0.0 0.0
000150 00 00 00 00 00 00 00 00 00 00 00 00 00 00 00 00
       0.0 0.0 0.0 0.0
000160 00 00 00 00 00 00 00 00 00 00 00 00 00 00 00 00
       0.0 0.0 0.0 0.0
000170 00 00 00 00 00 00 00 00 00 00 00 00 00 00 00 00
       0.0 0.0 0.0 0.0
000180 00 00 00 00 00 00 00 00 00 00 00 00 00 00 00 00
       0.0 0.0 0.0 0.0
000190 00 00 00 00 00 00 00 00 00 00 00 00 00 00 00 00
       0.0 0.0 0.0 0.0
0001a0 00 00 00 00 00 00 00 00 00 00 00 00 00 00 00 00
       0.0 0.0 0.0 0.0
0001b0 00 00 00 00 00 00 00 00 00 00 00 00 00 00 00 00
       0.0 0.0 0.0 0.0
0001c0 00 00 00 00 00 00 00 00 00 00 00 00 00 00 00 00
       0.0 0.0 0.0 0.0
0001d0 00 00 00 00 00 00 00 00 00 00 00 00 00 00 00 00
       0.0 0.0 0.0 0.0
0001e0 00 00 00 00 00 00 00 00 00 00 00 00 00 00 00 00
       0.0 0.0 0.0 0.0
0001f0 00 00 00 00 00 00 00 00 00 00 00 00 00 00 00 00
       0.0 0.0 0.0 0.0

network_body._body_endoder.seq_layers.2.weight f4 [128, 128]
000000 cd b2 86 3d 0f 70 54 3c 8c 7d c1 3c 7d a1 57 bd
       0.06577072 0.01296617 0.023619436 -0.05264424
000010 83 00 d9 3d 25 02 b5 bd ed 8e 1f 3c 84 9a 50 bc
       0.10595801 -0.088383 0.009738666 -0.012732152
000020 7e ee ca bb 4b 0b a4 bd 56 53 0e bd cc 54 2e 3d
       -0.0061929813 -0.080099665 -0.034747444 0.042561337
000030 be 5e d2 3c 35 50 cf 3d 20 6b 82 b9 b4 46 3e 3e
       0.025679942 0.1012272 -0.00024875347 0.18581659
000040 c6 dc f5 3c 29 98 03 3d b1 8f 87 3d ac 02 a7 bd
       0.0300125 0.032127533 0.06619204 -0.081548065
000050 3a 23 49 3d 2c 45 c5 3c e1 5f 91 3c 53 0b 79 3c
       0.04910586 0.024080835 0.017745914 0.015200454
000060 34 30 0f bc d8 3a 1c 3c 18 ab 7e 3d 55 4b dc 3d
       -0.00873952 0.009535514 0.062174886 0.10756556
000070 63 a1 15 be f1 d3 d5 bd 30 69 5b bd f8 c5 63 3d
       -0.14612345 -0.10440815 -0.05356711 0.05560872
000080 df 3c 5a 3e 2e a4 81 3d cb 00 9a bc a4 81 e3 bc
       0.21312283 0.06330143 -0.018799206 -0.027771778
000090 00 f7 84 bd ca fe 26 be 95 57 cb 3d 08 fc da bd
       -0.06492424 -0.16308132 0.09928814 -0.106926024
0000a0 aa 6a 8d 3c 29 08 66 bd f8 f5 e7 3c 31 0d 2f 3d
       0.017262775 -0.056160126 0.02831553 0.04273719
0000b0 f3 17 01 3e fb 0c 2c 3d 3f 17 74 3d c5 e4 b0 3d
       0.12606792 0.042004567 0.05959248 0.08637384
0000c0 60 86 10 3e e0 68 86 3c 25 82 54 be 75 43 aa 3d
       0.1411376 0.01640743 -0.20752771 0.08313648
0000d0 db 39 25 bb 59 ef 92 3d c7 45 3f bd a3 d3 e9 3d
       -0.0025211486 0.07174558 -0.046697404 0.114173196
0000e0 9a 4a 38 be 6e 42 01 be fc 60 79 3e 49 29 ab bd
       -0.17997208 -0.12622997 0.24353403 -0.08357484
0000f0 79 07 cb bd cc 96 bb 3d 64 99 5b bb 3d e8 db bc
       -0.09913535 0.091596216 -0.0033508176 -0.026844138
000100 db 43 cb 3d a4 50 0d 3d c1 d1 5c be 1a e1 88 bc
       0.09925052 0.034500733 -0.2156439 -0.0167089
000110 54 a4 07 bd 21 f0 51 bd 71 aa fc bc 2c 8b ef bd
       -0.0331157 -0.051254395 -0.030842992 -0.11696467
000120 b1 c2 ba bc 8c 34 91 bd 4a 88 5e bd a5 b9 80 ba
       -0.022797914 -0.07090101 -0.054329194 -0.0009820951
000130 22 b8 49 bd 68 4d cb 3d 79 bb 41 bb d9 81 44 bd
       -0.04924787 0.099268734 -0.0029561205 -0.047975395
000140 4e db 26 3e 3a bc 80 be a4 53 23 3e f3 69 b5 bc
       0.16294596 -0.25143605 0.15949875 -0.022145247
000150 15 68 f1 3d 7b af 82 3c 87 77 da bb 60 80 a2 3d
       0.1178743 0.015952816 -0.006667081 0.07934642
000160 a3 93 36 3e 99 8c 5c bc 5e 23 a9 bd af f9 43 bd
       0.17829756 -0.0134612555 -0.08258699 -0.04784554
000170 93 86 03 be 29 2a b3 3d 73 ec b7 bd fd bc bc 3d
       -0.12844305 0.08748276 -0.08980646 0.09215734
000180 af cf 10 bd ad 96 00 be 38 eb 82 bc d3 5c cd 3d
       -0.035354313 -0.12557478 -0.015981302 0.100274704
000190 3a 41 b8 3d a5 95 2d 3e 7f f0 32 3d 28 93 d4 bc
       0.08996816 0.16951616 0.043686386 -0.025949076
0001a0 89 e2 e3 bd 89 5b dd bc f6 14 6a 3d 2d 45 8e bd
       -0.111271925 -0.027021186 0.057148896 -0.06946788
0001b0 a8 dd da bd 9f e1 41 bd 29 7a 33 bd a0 69 97 bc
       -0.10686809 -0.04733431 -0.043817673 -0.018482983
0001c0 63 91 47 bd 18 e0 bb bd 14 d4 be 3d 51 d4 10 be
       -0.048722636 -0.09173602 0.093177944 -0.14143492
0001d0 5f 9a f1 bc a9 5f 8f b9 26 b4 8f 3c 49 06 8c 3d
       -0.029492555 -0.00027346358 0.017541956 0.06837136
0001e0 ec 08 19 3d 0e 5e 06 bd 53 90 2c bd 26 4a 19 be
       0.037362024 -0.03280454 -0.042129826 -0.14969692
0001f0 ce a3 91 bc fa b5 1a 3e 24 02 24 be 70 3d da bd
       -0.017778303 0.15108481 -0.16016442 -0.106562495
000200 9d 0b 98 bd 43 e5 8e 3d fa 4e 42 3d cf 68 86 3d
       -0.0742409 0.06977322 0.0474386 0.065629594
000210 91 45 31 3d 5c f5 1c 3d 4b 63 f1 3d a6 bb 1c bd
       0.043279234 0.03831993 0.11786517 -0.038264893
000220 13 2c f5 bd d9 a2 0d bb 2e c9 6c 3e b1 f9 09 bd
       -0.11971297 -0.0021611957 0.23123619 -0.03368539
000230 fe 1a e6 3d 71 e3 83 3d 43 a9 2a be d1 4c a4 bd
       0.11235617 0.064398654 -0.1666613 -0.08022464
000240 be e4 34 bd 18 9d 0a be 24 36 44 3c 43 e0 4b bb
       -0.044163458 -0.13536489 0.011975799 -0.0031109012
000250 e2 b5 0f 3e d8 36 03 3e b4 69 21 bb 19 df f9 bd
       0.14034227 0.1281389 -0.0024629654 -0.122007556
000260 f3 c4 93 3d 3f c0 a3 bb 9e 74 b5 bc 6e 29 54 bd
       0.072152995 -0.0049972828 -0.022150334 -0.051797323
000270 ae 84 99 bb b4 f2 79 3d 61 94 c5 3d 00 f6 03 bd
       -0.004685006 0.061022475 0.09647442 -0.032217026
000280 9f 29 cb bc 48 4c f9 bd 65 a5 6b 3d 8d cd a2 bd
       -0.02480012 -0.121727526 0.05753078 -0.07949362
000290 0b 87 41 3d e0 bd e7 3d 1f d9 62 3c a4 87 87 bc
       0.047247928 0.11315513 0.013845711 -0.01654417
0002a0 c3 88 58 bc b5 b5 47 bd 82 52 21 bd f0 06 f0 bb
       -0.0132162 -0.048757274 -0.039385326 -0.0073250458
0002b0 3a 80 e5 bd 31 fa 5a 3d 57 c5 a2 bd 1d 51 e0 3d
       -0.11206098 0.053461257 -0.07947796 0.10952971
0002c0 b3 6c 8f 3c 8c 9c 06 3e a2 37 3e be d3 df b3 bc
       0.017507887 0.13145655 -0.1857591 -0.021957314
0002d0 a0 57 20 bc db 91 4a be 3c 60 1b bd cd f1 87 3d
       -0.009786516 -0.19782202 -0.037933573 0.06637917
0002e0 36 65 21 3e d4 5b 13 bd 53 af 81 bc c4 39 37 be
       0.15761265 -0.035976246 -0.015830671 -0.1789313
0002f0 80 28 09 bd e6 6d d6 bc a0 95 ba 3e 8e df 26 3a
       -0.03348589 -0.02617545 0.3644228 0.00063657097
000300 47 32 e9 bd 85 9a 0a bd a4 2c 8a bd 36 8a 13 3e
       -0.11386543 -0.033838768 -0.06746796 0.14408192
000310 e2 e1 51 bd 9b 69 2c 3e de de a4 3d 28 bf 4a be
       -0.05124081 0.1683716 0.08050321 -0.19799483
000320 50 a0 b7 bc 99 f7 0b bd 32 74 c7 3b 22 0c 62 be
       -0.02241531 -0.034171674 0.0060868496 -0.22074941
000330 6b 0e de bc 70 00 28 3c 8d b7 60 3e fc da 06 bd
       -0.027106484 0.010254011 0.21945019 -0.032923684
000340 91 29 24 bd 18 25 a3 bd 3e 69 cb bc ae a3 e4 bd
       -0.040078703 -0.079660594 -0.024830457 -0.11164032
000350 68 a8 d7 3d c6 6a cb 3b bc 52 a7 3d c6 ca 5c 3c
       0.10530168 0.0062077967 0.08170077 0.013476079
000360 c8 bc be 3c 9b 69 6d 3d 1f 89 1d 3e b3 57 08 be
       0.023283377 0.05796204 0.15384339 -0.13314705
000370 37 0b f3 bd cc 26 e5 bd 22 ad 50 bd ba 16 3d 3e
       -0.118673734 -0.111890405 -0.050946362 0.18465701
000380 f2 db 54 ba ee b7 6a bd c8 03 58 3c 11 9d a8 3d
       -0.00081199326 -0.057304315 0.013184495 0.08233083
000390 3a 9c 1e 3e 23 7f 87 3c 34 fc e7 3d ff 00 0c bd
       0.15489283 0.016540116 0.11327401 -0.034180637
0003a0 72 27 be 3d f4 7d cf bd a9 c7 53 3c 28 f6 f5 3d
       0.09284867 -0.101314455 0.012926021 0.12009841
0003b0 35 ff 01 3e 77 fc 13 be 09 68 7b be e9 f6 91 3d
       0.1269501 -0.14451776 -0.24551405 0.071271725
0003c0 18 48 42 bd c8 b5 cc 3d 3c 8d 8e 3d 40 e1 9a bc
       -0.047432035 0.099956095 0.06960532 -0.018906236
0003d0 0b 21 80 3d 11 16 16 3e 2d c1 c4 3c fc 52 03 3e
       0.062563024 0.14656855 0.024017895 0.12824625
0003e0 2f 85 aa bd 47 2a 1d be 77 1b 82 bd 05 11 43 bd
       -0.08326184 -0.15348159 -0.06352895 -0.047623653
0003f0 2f 93 be 3c 18 65 77 3d 59 a4 7a be 43 6f ae bc
       0.023263542 0.060399145 -0.24476756 -0.021293288
