Assets/ML-Agents/Examples/FirstTRexScene/results/trmodel/My Behavior/My Behavior-384.pt (torch, 411191 bytes, 12 tensors)

network_body._body_endoder.seq_layers.0.weight f4 [128, 243]
00000000: 46a4 acbd 4689 b4bc c7d5 393d 7685 943c
00000010: 5fca e0bc 8206 babc e13c ffbd 66c5 943c
00000020: 8a0d b13d 407a dabd 3f3e 7e3a c84c b1bc
00000030: 1b8b 723b f686 0abd 6f70 e0bc bf35 a1bd
00000040: 1f60 d23c eee0 043d 2617 daba 65b8 09bd
00000050: 16eb 0c3d 5811 edbb 738b a93c fd42 2fbd
00000060: 6cc7 f9bd 82f8 babc e595 e23d 1197 53bd
00000070: 5a23 473c e033 e4bd 839a 06bd a9d9 1b3d
00000080: f11d b23c 36df 68bd 07b6 9cbd de3a 8a3c
00000090: 1a14 cebd 66bf 67bd b0e2 103b 3344 80bd
000000a0: a596 583d 645c edbd 2d7e 1abe 30c5 acbc
000000b0: fec4 bebd ace4 15bd 7cfb 4cbd 8a00 c3bd
000000c0: 153d 80bc 55a3 9cbc 6374 0a3d 50b0 e6bd
000000d0: d1c7 b0bc db75 453d cc61 4bbd fa38 983c
000000e0: 9837 7b3d ab48 a739 05b6 c23d 4877 893d
000000f0: a393 c93d cefd d3bc daad 463c cdeb c23c
00000100: 8133 4d3d 7888 903c 6c61 79bd fef1 03be
00000110: f75a 783d 0eaf 073b 6916 533b 87cf 2b3d
00000120: b4ca f6bc d12b e0bd 31be a6bd bbb1 3dbd
00000130: f832 013d d6d1 11bd 71f2 973c 5450 7c3d
00000140: 4bda 2bbd db16 65bb 924c 70bd 1cbb cf3d
00000150: 68e2 a4bc 5294 68bd 1aa7 d4bc e7e8 38bd
00000160: 391f d0bc 2315 1f3c d3a7 613d f82a 863d
00000170: 2841 9dbd 5b5d 5ebd 0e49 03bc 79bf 9eba
00000180: 96b8 393d fd21 f6ba d9ac 94bc ba5f ef3c
00000190: 5ee3 16bc 32a8 8dbc 91d3 063e 2a46 353c
000001a0: d69e a93d be8f 2a3c 0dd6 29bc e063 a53d
000001b0: 237d 603d 9def 883b c357 26be b61d 553c
000001c0: b47d c9bc 416b 85bd 09d0 ca3d 4826 613d
000001d0: 92bd 3dbd adf0 18bd 2173 453d cd51 58bd
000001e0: e777 cc3c c117 743d d714 33bd 1e01 1a3d
000001f0: b282 6cbd 21f1 2fbc 6928 a3bd 90bd b8bb
00000200: 2dda 2fbd c306 883b 3e2e cfbd 7e64 af3d
00000210: d32e b2bc 7f0d 1f3d b72d 1d3c 73d1 a1bc
00000220: 424b 94bc e732 58bd b1b3 ffba a385 cd3d
00000230: b6ff bcbd f0cd 303d 4bc8 3bbd 04e0 dc3b
00000240: 5a66 08bd b3bc eb3d 7b7d c0bc cc5d 3f3d
00000250: 2e5a 7e3d aedd 68bd 97ec 3d3c 4ba4 9c3c
00000260: 555a 92bd b734 01be e0e1 87bd 29c8 f4bc
00000270: 21a0 843d ba53 0e3d fca6 91bc 271f 61bd
00000280: 660d 153d c32c 20be 585d 1cbc e983 41bc
00000290: 2ca3 cc3d 0a0f a8bd 82aa 93bd 1781 a93d
000002a0: 5c8c e9bd ffe1 30be 658e 7cbc 535e cd3c
000002b0: 012d 083e c62e 483d fa17 183d f057 b43c
000002c0: b56e 28bc b826 d93c a7c1 573d ceba 4e3d
000002d0: 0e6c dabc 506d 79bb 585b d93b 5ad6 06bb
000002e0: 5ed2 8cbc e614 ae3d 35a0 c13d 67f2 153e
000002f0: 943f 6fbd b052 30bd 53b3 7c3d 1955 84bd
00000300: e4e4 42bc 5baa 533c 5f90 903b a5c1 96bd
00000310: 1f46 a7bd 009a 923c a75e 6abc 982d 3d3c
00000320: c9e5 81bc ef5a a7bc 257b e83d 396c 1a3d
00000330: dd9c 9d3c 31bf 12bc 1646 2d3d 4e81 9abd
00000340: 5665 85bd 690a c03d d379 1a3c 949e e5bb
00000350: 40d2 74bd 00ec 33bd 6cfb 2fbd 43cb fbbc
00000360: 4a65 59bc e8f6 b83d efe5 e13d 505a 9b3c
00000370: 2114 84bd 46fc aa3c 4e03 143c a877 873d
00000380: 5d85 d4bd cb71 cbbc 583c 243e 17fe 3f3a
00000390: 4777 8d3c 46ac 973d c867 b63d 6221 95bd
000003a0: 8107 0bbe aaed 36bd bce7 aabd 3370 683d
000003b0: f62c b73c 1dea 8dbd 530c 86bd 095c 7e3d
000003c0: 527e 873a ab9f afbc 19be fd3d 2441 15bd
000003d0: 8b99 8bbd 235f 503d dbc9 e43d decd f1bc
000003e0: 03e2 c93b cf65 79bd 8c01 c2bd aeee 4a3d
000003f0: fce8 51bd 9581 fc3c 8cd0 b03c c51c 4cbd
-0.0842977 -0.022038113 0.04536989 0.018130045 -0.027440248 -0.022708181 -0.124627836 0.018160533
0.086451605 -0.106678486 0.00096986064 -0.021643057 0.0037009183 -0.033820115 -0.027397363 -0.078715794
0.0256806 0.032441072 -0.0016638979 -0.033623118 0.034403883 -0.0072347336 0.020696377 -0.042788494
-0.1219624 -0.022823576 0.11063746 -0.05165774 0.012154425 -0.11142707 -0.032862198 0.038049374
0.021742793 -0.056853496 -0.076519065 0.016873773 -0.10062428 -0.056579016 0.0022107773 -0.06263008
0.05287804 -0.11589888 -0.15087195 -0.02109012 -0.09314917 -0.03659503 -0.05004452 -0.09521587
-0.015654126 -0.019120852 0.0338024 -0.11264098 -0.021579655 0.0482081 -0.049653813 0.018581856
0.061332315 0.00031906864 0.09507374 0.06712204 0.098426126 -0.02587786 0.01212641 0.02379408
0.050097946 0.017643198 -0.060883924 -0.12885281 0.060633626 0.0020703706 0.0032209402 0.04194596
-0.030125953 -0.10945857 -0.08141745 -0.046312075 0.03154275 -0.035600506 0.018548222 0.061600044
-0.041956227 -0.003495625 -0.058666773 0.1014311 -0.02012749 -0.056782074 -0.025958586 -0.045143988
-0.025405513 0.009709629 0.05509169 0.065511644 -0.07678443 -0.05428825 -0.008013023 -0.0012111507
0.04534205 -0.001877844 -0.018148826 0.02922045 -0.009209482 -0.017292116 0.13166644 0.011064092
0.08282249 0.010410247 -0.010365975 0.0807569 0.05480684 0.0041789548 -0.16244416 0.013007572
-0.024596073 -0.06514598 0.09902961 0.05496815 -0.046323366 -0.0373389 0.0482055 -0.052812386
0.024959518 0.059592966 -0.043721046 0.03759872 -0.05774183 -0.010738642 -0.07966692 -0.005637832
-0.042932678 0.0041511967 -0.10116242 0.08564089 -0.021750843 0.03883123 0.009593419 -0.019753193
-0.018102292 -0.05278292 -0.0019508508 0.10035255 -0.092284605 0.043165147 -0.04584531 0.006740572
-0.033300735 0.11510601 -0.023497334 0.04672031 0.06209772 -0.056852035 0.011592052 0.01912131
-0.07146136 -0.12617765 -0.06634879 -0.0298806 0.06475855 0.034747817 -0.01777982 -0.05496135
0.03638973 -0.15642075 -0.009543739 -0.011811235 0.0999206 -0.082059935 -0.07210256 0.08276575
-0.114037246 -0.1727371 -0.015414809 0.025069391 0.13298418 0.04887273 0.03713224 0.022014588
-0.010280301 0.02650772 0.052674916 0.05047112 -0.026662853 -0.003805954 0.0066332035 -0.002057454
-0.017190155 0.0850008 0.09454385 0.1464325 -0.058410242 -0.043047607 0.061694454 -0.064615436
-0.011895392 0.012919034 0.0044117416 -0.073611535 -0.081676714 0.017895699 -0.014304793 0.011546515
-0.01585664 -0.020429103 0.11351613 0.037700865 0.019239837 -0.008956716 0.042303167 -0.07544194
-0.06513469 0.093769856 0.009428459 -0.0070074294 -0.059770823 -0.04392624 -0.042964384 -0.030736571
-0.013268778 0.09031469 0.110301845 0.018963963 -0.06449152 0.020872246 0.009033991 0.066146195
-0.103769995 -0.024834534 0.16038644 0.0007323934 0.01726879 0.074059054 0.089065135 -0.07281758
-0.13577081 -0.044660248 -0.08344981 0.056747627 0.022360306 -0.06929419 -0.065453194 0.06209949
0.0010337329 -0.02143844 0.12389774 -0.036439076 -0.06816395 0.05087198 0.111713134 -0.02951711
0.006160976 -0.060888108 -0.09472951 0.04954403 -0.05124758 0.030823508 0.021583818 -0.049832124

network_body._body_endoder.seq_layers.0.bias f4 [128]
00000000: 0000 0000 0000 0000 0000 0000 0000 0000
00000010: 0000 0000 0000 0000 0000 0000 0000 0000
00000020: 0000 0000 0000 0000 0000 0000 0000 0000
00000030: 0000 0000 0000 0000 0000 0000 0000 0000
00000040: 0000 0000 0000 0000 0000 0000 0000 0000
00000050: 0000 0000 0000 0000 0000 0000 0000 0000
00000060: 0000 0000 0000 0000 0000 0000 0000 0000
00000070: 0000 0000 0000 0000 0000 0000 0000 0000
00000080: 0000 0000 0000 0000 0000 0000 0000 0000
00000090: 0000 0000 0000 0000 0000 0000 0000 0000
000000a0: 0000 0000 0000 0000 0000 0000 0000 0000
000000b0: 0000 0000 0000 0000 0000 0000 0000 0000
000000c0: 0000 0000 0000 0000 0000 0000 0000 0000
000000d0: 0000 0000 0000 0000 0000 0000 0000 0000
000000e0: 0000 0000 0000 0000 0000 0000 0000 0000
000000f0: 0000 0000 0000 0000 0000 0000 0000 0000
00000100: 0000 0000 0000 0000 0000 0000 0000 0000
00000110: 0000 0000 0000 0000 0000 0000 0000 0000
00000120: 0000 0000 0000 0000 0000 0000 0000 0000
00000130: 0000 0000 0000 0000 0000 0000 0000 0000
00000140: 0000 0000 0000 0000 0000 0000 0000 0000
00000150: 0000 0000 0000 0000 0000 0000 0000 0000
00000160: 0000 0000 0000 0000 0000 0000 0000 0000
00000170: 0000 0000 0000 0000 0000 0000 0000 0000
00000180: 0000 0000 0000 0000 0000 0000 0000 0000
00000190: 0000 0000 0000 0000 0000 0000 0000 0000
000001a0: 0000 0000 0000 0000 0000 0000 0000 0000
000001b0: 0000 0000 0000 0000 0000 0000 0000 0000
000001c0: 0000 0000 0000 0000 0000 0000 0000 0000
000001d0: 0000 0000 0000 0000 0000 0000 0000 0000
000001e0: 0000 0000 0000 0000 0000 0000 0000 0000
000001f0: 0000 0000 0000 0000 0000 0000 0000 0000
0.0 0.0 0.0 0.0 0.0 0.0 0.0 0.0
0.0 0.0 0.0 0.0 0.0 0.0 0.0 0.0
0.0 0.0 0.0 0.0 0.0 0.0 0.0 0.0
0.0 0.0 0.0 0.0 0.0 0.0 0.0 0.0
0.0 0.0 0.0 0.0 0.0 0.0 0.0 0.0
0.0 0.0 0.0 0.0 0.0 0.0 0.0 0.0
0.0 0.0 0.0 0.0 0.0 0.0 0.0 0.0
0.0 0.0 0.0 0.0 0.0 0.0 0.0 0.0
0.0 0.0 0.0 0.0 0.0 0.0 0.0 0.0
0.0 0.0 0.0 0.0 0.0 0.0 0.0 0.0
0.0 0.0 0.0 0.0 0.0 0.0 0.0 0.0
0.0 0.0 0.0 0.0 0.0 0.0 0.0 0.0
0.0 0.0 0.0 0.0 0.0 0.0 0.0 0.0
0.0 0.0 0.0 0.0 0.0 0.0 0.0 0.0
0.0 0.0 0.0 0.0 0.0 0.0 0.0 0.0
0.0 0.0 0.0 0.0 0.0 0.0 0.0 0.0

network_body._body_endoder.seq_layers.2.weight f4 [128, 128]
00000000: 0ddb d5bc 9404 54bd a368 d33a 0600 a33d
00000010: fcef d5bc 7c27 503c 303b 173d 348c 653d
00000020: f117 2a3e 336f bcbd b70c 553d e58a 493d
00000030: 6187 5ebb 3b84 8a3c 1871 b3bc 0fc4 2a3c
00000040: f8b1 1abd 3ce7 4ebe d478 22bd 1f5d 893a
00000050: 1b4e a33e b7f6 803d 5a35 ffbd 03c4 c4bd
00000060: ee6f 663d b3b0 da3d 9f3b 3e3d 8f68 5dbd
00000070: 3933 84ba 7a6e 803d c99a 5cbb f8ce e0bc
00000080: a624 903d 95d7 ef3b 915c af3d 3509 03be
00000090: cec1 5a3b 1e46 3f3e 76fb 73bd 5fbc 8e3d
000000a0: 026b dbbc 3562 3d3d 129c c23d 92c6 9d3d
000000b0: d031 4abd bc01 993d 9770 b43c 5522 253d
000000c0: 8c2e f33c 992c 82bd 6762 533c b717 c93d
000000d0: 4b16 6ebd 20d6 143e 880c 1a3d 9046 f4bb
000000e0: bc9a b73d fcfc 983d 855d 36bd 47fb bf3d
000000f0: aa6b 043e 1582 3f3d a227 a33c 12ba c3bc
00000100: f1f5 52be 22b1 bfbc 7e84 fcbc 12a2 9a3d
00000110: fde9 3c3c dbba 583c c69b fabb 6699 86bd
00000120: b696 bdbd c38c a83d 1001 833e ea40 ec3c
00000130: 2fc7 61bd f491 51bc 69ba 883d 0148 3e3d
00000140: 3974 02bd 52a9 ebbd f401 663d b4cb 643c
00000150: 3738 4a3e 17ca c0bc 4fa2 823c 53d3 69bd
00000160: 0944 5f3e 170f 12bd 4da9 fdbc a3ea 573d
00000170: ea14 dbbc 21a8 71bd 0cfb 12bd eab0 9f3d
00000180: 9b45 4e3d 7a8e 3cbd 20aa a8bd 61c9 ce3d
00000190: 4c35 debd 31f8 e3bd db13 a03d 1d51 5ebd
000001a0: 353e c3bd 445d af3d 12e7 503d c29c 003e
000001b0: e3e6 dcbb 2b55 183e 3b00 a33d d1cf 5ebd
000001c0: cee5 663e e3b3 edbc ad54 003d 10ad 8d3d
000001d0: 51d5 923d 016b 9bbd aab1 093d bafb 4d3c
000001e0: 6c0e 933d 7082 053e 371f d83c f663 32be
000001f0: 16c9 523d 63bb 82bd 4fed 13bc e864 6f3d
00000200: 9fae dfbd 831a a4bc ec00 a73d e321 963c
00000210: 19a3 9a3d 9a76 f53d fdf5 18be 8128 59bd
00000220: cb4a e4bd bc9a 12bd a73d 54bc 7ee5 eb3d
00000230: 55d3 f23c ef86 703c 798c aabd 45af 053e
00000240: 80e1 d83c b7f5 36bd e4cf 7ebb 3185 06bd
00000250: beba 103d 4885 4e3d 3d45 88bd 6186 0abd
00000260: e1d5 d5bc 16f3 8b3d e34e 323d d048 0a3e
00000270: 3193 92bd 7a76 c73c c747 38be dd2a 0bbd
00000280: d51b ae3b a39b 03be 1d00 1e3d 1dd8 a83c
00000290: 3805 da3d fdd5 4ebb b7d5 bc3c 9db5 0e3e
000002a0: 95b6 073d 98ed 263d fb12 823d ab79 07bd
000002b0: ec8f 9bbd e229 2a3a 041c 24be 2bf5 693d
000002c0: 7eee ac3d 5126 a2bc 4317 6a3e fa87 e939
000002d0: a90d 5dbc a4d6 513c 7851 553e 2459 ac3d
000002e0: cfe9 373e d0eb 7dbc d5ad 21be 2f6b f8bd
000002f0: ec38 d0bc 8682 8cbd 0edc b03d 00e6 7dbc
00000300: bfad a4bb c8c2 bfbd cbd5 8b3d fee1 f13d
00000310: def3 8c3c b0c2 9c3a 48d6 8fbd 3210 53be
00000320: 889b 24be ee34 4c3d ac88 16be afab efbb
00000330: 2f5e 93bd 115f 71bd a3d5 cc3d a6c7 023d
00000340: a402 e63c e89f 33bd fd21 bbbd 42c0 b9bc
00000350: 857b 97bd a2ec bb3c 1524 8c3d 1474 9dbb
00000360: 09b7 743c 2eef 4d3d 4396 cabd e40b f8bc
00000370: ce0c c43c ec9b 313d b630 c7b9 1960 d9bc
00000380: 0bdf 81bd 5226 c83c 8d4c 2dbd 0b7c 683c
00000390: a3da 123e c606 f33d 36f1 5b3e c4e5 cfba
000003a0: f302 5ebb fcb2 2ebd a1ef a8bc 854a d5bb
000003b0: 22c9 a9bd f801 11be ab82 6f3c 45c7 ec3d
000003c0: 9537 56bd 1315 86bd 2cd5 4d3d c859 14be
000003d0: 4c01 0c3e d151 b73d 2561 483d 8531 b83d
000003e0: 14d0 b1bc 871d 9bbd 34cf b43d a34f 843d
000003f0: 8959 ec3d 7a74 5cbd 320c 5dbe 30c3 853d
-0.026105428 -0.05176218 0.0016129207 0.07958989 -0.02611541 0.012704726 0.03692168 0.05604191
0.16610695 -0.09200897 0.05201408 0.049204726 -0.0033955204 0.016908756 -0.021904513 0.010422721
-0.03776738 -0.20205396 -0.039666012 0.0010480023 0.31895527 0.06297057 -0.12461348 -0.09607699
0.05625909 0.10678234 0.046443578 -0.054054793 -0.0010086066 0.06271072 -0.0033661595 -0.02744244
0.0703824 0.0073194006 0.085625775 -0.12796481 0.0033379677 0.18679091 -0.059565984 0.06969523
-0.026784424 0.046236236 0.09502424 0.0770389 -0.04936391 0.07471034 0.022026343 0.040315945
0.029685281 -0.063561626 0.012901879 0.09818976 -0.05812673 0.14534807 0.037609607 -0.007454701
0.0896506 0.07470128 -0.04452278 0.09374099 0.12931696 0.046754915 0.01991636 -0.023892436
-0.20601632 -0.023399893 -0.030824896 0.07550444 0.0115303965 0.013228144 -0.007647964 -0.06572227
-0.092572615 0.08229973 0.25586748 0.028839547 -0.055121597 -0.012791146 0.0667618 0.046455387
-0.03184912 -0.11506905 0.056154206 0.013964582 0.19748007 -0.023533864 0.015946535 -0.0570863
0.21803297 -0.035658922 -0.030964518 0.052714 -0.026743371 -0.05899823 -0.03588395 0.077974156
0.05035935 -0.046034314 -0.08235574 0.10097004 -0.10850009 -0.11131323 0.07816287 -0.054276574
-0.095333494 0.08562711 0.051001616 0.12559798 -0.006741391 0.14876239 0.07959028 -0.054397408
0.22548601 -0.02901644 0.031330753 0.06917775 0.07169593 -0.07588769 0.0336167 0.012572223
0.07180485 0.13038039 0.026382072 -0.17420945 0.0514613 -0.063833974 -0.009028747 0.05844584
-0.10921978 -0.020032173 0.08154473 0.018326705 0.0755064 0.11985512 -0.14937587 -0.053017143
-0.11147078 -0.035792097 -0.012954152 0.115183815 0.029641787 0.014680608 -0.08327574 0.13055141
0.026474714 -0.044667926 -0.0038881237 -0.032841865 0.03533434 0.050420076 -0.06653831 -0.03381956
-0.026102962 0.06833474 0.043532263 0.13504338 -0.07156981 0.024348486 -0.17996131 -0.033976424
0.0053133764 -0.1285234 0.038574327 0.020610863 0.10645527 -0.0031560652 0.023051126 0.13936467
0.03313311 0.04075393 0.063512765 -0.033075016 -0.0759581 0.00064912264 -0.16026312 0.057118576
0.08443926 -0.019793661 0.22860436 0.00044542534 -0.013492026 0.012807522 0.20831859 0.0841544
0.17960285 -0.015498117 -0.15788968 -0.12129819 -0.025417767 -0.06860833 0.08635722 -0.015496731
-0.005025595 -0.093633235 0.06827887 0.11810683 0.017206129 0.0011959877 -0.07023293 -0.20611647
-0.16074955 0.049855165 -0.14700574 -0.0073141675 -0.071956985 -0.058928553 0.100016855 0.03192868
0.028077431 -0.04385367 -0.09137342 -0.022674683 -0.07396606 0.022939984 0.068428196 -0.0048050974
0.014936217 0.050276928 -0.098919414 -0.030279107 0.023931887 0.04336159 -0.0003799253 -0.02653508
-0.0634137 0.024432335 -0.042309333 0.01418973 0.14341216 0.11866526 0.21478733 -0.0015861322
-0.003387627 -0.04265116 -0.020622076 -0.0065091276 -0.08290316 -0.14160907 0.014618556 0.11561445
-0.0522991 -0.06546988 0.050252125 -0.14487374 0.1367237 0.08951152 0.04892077 0.0899382
-0.021705665 -0.07573991 0.08828583 0.06460502 0.11540515 -0.05382202 -0.21586683 0.0653137

network_body._body_endoder.seq_layers.2.bias f4 [128]
00000000: 0000 0000 0000 0000 0000 0000 0000 0000
00000010: 0000 0000 0000 0000 0000 0000 0000 0000
00000020: 0000 0000 0000 0000 0000 0000 0000 0000
00000030: 0000 0000 0000 0000 0000 0000 0000 0000
00000040: 0000 0000 0000 0000 0000 0000 0000 0000
00000050: 0000 0000 0000 0000 0000 0000 0000 0000
00000060: 0000 0000 0000 0000 0000 0000 0000 0000
00000070: 0000 0000 0000 0000 0000 0000 0000 0000
00000080: 0000 0000 0000 0000 0000 0000 0000 0000
00000090: 0000 0000 0000 0000 0000 0000 0000 0000
000000a0: 0000 0000 0000 0000 0000 0000 0000 0000
000000b0: 0000 0000 0000 0000 0000 0000 0000 0000
000000c0: 0000 0000 0000 0000 0000 0000 0000 0000
000000d0: 0000 0000 0000 0000 0000 0000 0000 0000
000000e0: 0000 0000 0000 0000 0000 0000 0000 0000
000000f0: 0000 0000 0000 0000 0000 0000 0000 0000
00000100: 0000 0000 0000 0000 0000 0000 0000 0000
00000110: 0000 0000 0000 0000 0000 0000 0000 0000
00000120: 0000 0000 0000 0000 0000 0000 0000 0000
00000130: 0000 0000 0000 0000 0000 0000 0000 0000
00000140: 0000 0000 0000 0000 0000 0000 0000 0000
00000150: 0000 0000 0000 0000 0000 0000 0000 0000
00000160: 0000 0000 0000 0000 0000 0000 0000 0000
00000170: 0000 0000 0000 0000 0000 0000 0000 0000
00000180: 0000 0000 0000 0000 0000 0000 0000 0000
00000190: 0000 0000 0000 0000 0000 0000 0000 0000
000001a0: 0000 0000 0000 0000 0000 0000 0000 0000
000001b0: 0000 0000 0000 0000 0000 0000 0000 0000
000001c0: 0000 0000 0000 0000 0000 0000 0000 0000
000001d0: 0000 0000 0000 0000 0000 0000 0000 0000
000001e0: 0000 0000 0000 0000 0000 0000 0000 0000
000001f0: 0000 0000 0000 0000 0000 0000 0000 0000
0.0 0.0 0.0 0.0 0.0 0.0 0.0 0.0
0.0 0.0 0.0 0.0 0.0 0.0 0.0 0.0
0.0 0.0 0.0 0.0 0.0 0.0 0.0 0.0
0.0 0.0 0.0 0.0 0.0 0.0 0.0 0.0
0.0 0.0 0.0 0.0 0.0 0.0 0.0 0.0
0.0 0.0 0.0 0.0 0.0 0.0 0.0 0.0
0.0 0.0 0.0 0.0 0.0 0.0 0.0 0.0
0.0 0.0 0.0 0.0 0.0 0.0 0.0 0.0
0.0 0.0 0.0 0.0 0.0 0.0 0.0 0.0
0.0 0.0 0.0 0.0 0.0 0.0 0.0 0.0
0.0 0.0 0.0 0.0 0.0 0.0 0.0 0.0
0.0 0.0 0.0 0.0 0.0 0.0 0.0 0.0
0.0 0.0 0.0 0.0 0.0 0.0 0.0 0.0
0.0 0.0 0.0 0.0 0.0 0.0 0.0 0.0
0.0 0.0 0.0 0.0 0.0 0.0 0.0 0.0
0.0 0.0 0.0 0.0 0.0 0.0 0.0 0.0

action_model._continuous_distribution.log_sigma f4 [1, 39]
00000000: 0000 0000 0000 0000 0000 0000 0000 0000
00000010: 0000 0000 0000 0000 0000 0000 0000 0000
00000020: 0000 0000 0000 0000 0000 0000 0000 0000
00000030: 0000 0000 0000 0000 0000 0000 0000 0000
00000040: 0000 0000 0000 0000 0000 0000 0000 0000
00000050: 0000 0000 0000 0000 0000 0000 0000 0000
00000060: 0000 0000 0000 0000 0000 0000 0000 0000
00000070: 0000 0000 0000 0000 0000 0000 0000 0000
00000080: 0000 0000 0000 0000 0000 0000 0000 0000
00000090: 0000 0000 0000 0000 0000 0000
0.0 0.0 0.0 0.0 0.0 0.0 0.0 0.0
0.0 0.0 0.0 0.0 0.0 0.0 0.0 0.0
0.0 0.0 0.0 0.0 0.0 0.0 0.0 0.0
0.0 0.0 0.0 0.0 0.0 0.0 0.0 0.0
0.0 0.0 0.0 0.0 0.0 0.0 0.0

action_model._continuous_distribution.mu.weight f4 [39, 128]
00000000: 6354 bfb9 9eff 1dbc 2980 aa3c 40f5 d73c
00000010: db3a 453b 2a50 96bc 350a 103c 4aec 323b
00000020: ce29 3a3c 6d7c a8bc 8e1d 073a 1ee9 2f3c
00000030: 48ab 2bbb f326 18bd 4780 9cbc a1e1 8fba
00000040: 8e91 be3c 534a a4bb 3f82 edbc 8ea5 943a
00000050: abb4 c73b 0315 513c 6235 d7bc 9e48 c53c
00000060: fd63 e3bc fdee 02bc a587 4f3c 00ae f8bc
00000070: 83e1 a4bc b31e 0e3b cf5a fb3c a2c2 ebbc
00000080: 217d 153c 3f72 32ba f74e 44bb 8fa1 b83c
00000090: 37b8 af3a 4289 793d 1b24 a5bc 4b45 f7bb
000000a0: d0e2 3cbd c5ba e73c 080d e0bc f474 c33c
000000b0: 3d61 61bb 261f 8dbb 0828 3ebc da01 203b
000000c0: f475 0abd 2ab8 cf3b fa06 adba 0b7c 51bc
000000d0: 3a51 e43c d0ae fc3a 8101 00bd 8a35 30bc
000000e0: 8a4f fbbb 7bef e4b9 aa96 943c 958a 4dbc
000000f0: 8c8a a5ba dcc0 203c 5c56 99bc 0334 753c
00000100: 1d99 783b ec54 113d 3243 f03c 78e8 60bb
00000110: 24df c3bb a0c0 b8bc 82b6 823c 9180 c9bb
00000120: 2b29 96bb d5a1 7b3c be5e a23b 4f60 2939
00000130: 2578 32bb 5d38 fa3b fb8b 71bc 05d8 d53c
00000140: 3447 973c 78d7 e93b da2a 6bbc e7ac 843c
00000150: c2b9 a9bc 2c49 1abc 0c36 be3a 87b4 83bc
00000160: 4dc1 30bb 450d ae3c 611e 1c3a 832f 903c
00000170: 608c eebc ff1d 51bb 9753 31bb cc1f 82bc
00000180: db0a acbb 0d6c f73b ffbf 22bc 1654 9fb9
00000190: f092 dc3a bb4e f9bc 639a 1bbc 3e6d c9bc
000001a0: 82bc 803b 833c 363d a5ce c03c bbc3 803c
000001b0: b3da 75bb 618b 953c fbb7 f9bc f3a7 86ba
000001c0: 70d2 d9bb 11b6 023d 80ff 833c 7430 1c3c
000001d0: e201 cd3c 982e cd3c 0a6e 5c3c 6b76 d0bc
000001e0: cb6f 103b 10fe 0abc 28b5 a03c 91fa 883c
000001f0: ad96 71bc 7243 773c 04a5 b0bb 2aa2 793c
00000200: 75b3 14bb 58eb 823b c16f b4bb d6f5 a03b
00000210: 0137 82bb f18a 47bc 876b bbbc 3c11 8b3b
00000220: 12bf c53b 8646 bd3c 2a82 1ebb c35a 93bc
00000230: f344 833c b865 8e3c 850a a43c 4af9 6bbb
00000240: 13e3 5c3d b70c 49bc 675a aebb 8773 233c
00000250: 1b39 c0bc edc9 7c3c bfea e3bb cfa6 a5bc
00000260: 20d4 b4bc 7b88 dbba 65a2 563c ab99 dabb
00000270: 2015 383c 5f1c 163d bbab 7c3b 93b5 903b
00000280: 2542 68bc 361c 29bd 739f 4abc cb5e 1d3c
00000290: e9d8 b6bb 1998 313d 9211 d83c c864 933c
000002a0: 67bd c83c e54e 06bb e0fb 92bc eb0f bdbc
000002b0: ee8e 84bb fafb 133b ae3b 803b 832d 733b
000002c0: 6c7e 853b 9f85 b43b 9f4f 7b3c 1b08 eb3c
000002d0: 9b4d 33ba b8a8 703c cb2c fbbb 8748 17bd
000002e0: dab3 b33c d406 1e3c f027 e239 9b7e 15bc
000002f0: ac42 9938 5cfa 173d c3ca c3bc 5b0f 7fbc
00000300: dac6 9d3b fe7c 483b 0cdd 383c 3908 993c
00000310: abb3 423a 4f9e e43a 396e 9c3b 408b 87bc
00000320: 5892 07bd 1bf7 08bc 87c2 823b 5ee7 0f3b
00000330: b3e7 dbbb f0a3 d03c 1b28 a9bc f353 16bc
00000340: 28fa 753c d5dc 97bc 968e 94bc 9f83 8b3c
00000350: 0bb4 a9bc b3fc 01bc ad7a 99bc 943a 8fbc
00000360: a7bf e53b f844 abbc b312 1dbc 82bf 693b
00000370: d184 a63b 059c 7bbb 5355 e9bc 27b1 c63c
00000380: d082 d0bb 0df8 6fbc e650 a03c f32f 5a3c
00000390: 669b 9a3b d22d 753c c70a 81bc b813 97bc
000003a0: 9f00 0bba 5027 033c 8067 97bc 305b 463b
000003b0: 0ba0 1aba 87d3 8b3c 877b 56bc 83d1 40bc
000003c0: c8c3 94bb 4ce0 97bc afd0 2fbb f335 52bc
000003d0: 33f5 0fbc 50aa 133c 9877 52bc 1f05 04bc
000003e0: 1821 433b 90e1 91bb d0b5 7fbc b526 b53b
000003f0: 1198 bcbc 2303 073c 37bd bbbc f6e3 b8bc
-0.00036493232 -0.009643463 0.020813065 0.026362062 0.0030094895 -0.018348772 0.008791496 0.0027301484
0.011362506 -0.020567143 0.00051542453 0.010736732 -0.002619462 -0.03714652 -0.019104136 -0.0010977277
0.023262765 -0.005013743 -0.02899277 0.0011340843 0.0060945353 0.012761357 -0.026270572 0.024082478
-0.027757639 -0.00799155 0.0126666175 -0.030356407 -0.020127064 0.0021685779 0.03068295 -0.028779332
0.009124071 -0.0006807185 -0.0029954293 0.022537975 0.0013406341 0.060921915 -0.020158818 -0.007546102
-0.046114743 0.0282873 -0.027349964 0.023859479 -0.0034390234 -0.0043066917 -0.011606224 0.0024415166
-0.033803895 0.0063390927 -0.0013200932 -0.012785922 0.027870763 0.0019278172 -0.031251434 -0.010754952
-0.007669394 -0.00043665976 0.018138248 -0.012545248 -0.0012629791 0.009811606 -0.018717937 0.014966014
0.003793306 0.03548138 0.029328916 -0.003431825 -0.005977528 -0.022552788 0.015956167 -0.0061493595
-0.0045825443 0.015358408 0.004955142 0.00016152974 -0.0027232256 0.0076361136 -0.014742847 0.026103983
0.01846657 0.0071362816 -0.014353478 0.016195728 -0.020718459 -0.00941686 0.0014511957 -0.016077293
-0.0026970685 0.021246562 0.00059554545 0.01760078 -0.02911967 -0.0031908748 -0.002705788 -0.015884303
-0.0052503175 0.0075507225 -0.009933471 -0.00030389492 0.0016828459 -0.03043305 -0.009497258 -0.024588224
0.003928722 0.044491302 0.023536036 0.015718332 -0.0037514388 0.018254938 -0.030483237 -0.0010273441
-0.0066474006 0.031911913 0.016113043 0.0095330365 0.025025312 0.025046632 0.01345397 -0.025447091
0.002203929 -0.008483425 0.019617632 0.016721042 -0.014745397 0.015091764 -0.005390765 0.015236417
-0.0022689973 0.0039953403 -0.005506486 0.0049121184 -0.003973842 -0.012179122 -0.022878421 0.004243998
0.0060347402 0.023104917 -0.002418647 -0.017987614 0.016024088 0.017382488 0.020024547 -0.0036006742
0.053927492 -0.012271098 -0.0053208354 0.009976274 -0.02346473 0.015429002 -0.006955474 -0.020221142
-0.022073805 -0.0016749048 0.013100241 -0.0066711507 0.011235505 0.03664815 0.0038554508 0.0044161766
-0.014175926 -0.04128667 -0.012367117 0.00960512 -0.005580057 0.043357942 0.026375566 0.017992392
0.024504377 -0.0020493802 -0.017942369 -0.02307888 -0.004045359 0.002258061 0.0039133644 0.0037105985
0.0040739086 0.005509093 0.015338807 0.028690388 -0.0006839872 0.014688663 -0.007665252 -0.0369344
0.021936346 0.009645183 0.00043135835 -0.009124423 7.308027e-05 0.037103996 -0.023900395 -0.015567626
0.0048149647 0.003059208 0.01128317 0.018680679 0.00074272853 0.0017442199 0.0047738818 -0.016545892
-0.03309855 -0.008359696 0.0039904746 0.0021957974 -0.0067109703 0.025468796 -0.020649007 -0.0091752885
0.015013255 -0.018537918 -0.018134397 0.017030535 -0.020715734 -0.007933783 -0.018735254 -0.017483987
0.007011372 -0.02090691 -0.009586978 0.0035667126 0.005081751 -0.0038392555 -0.028483069 0.024254395
-0.0063632503 -0.014646542 0.019569825 0.013317096 0.004718232 0.014964538 -0.01575221 -0.01844202
-0.0005302522 0.008004978 -0.01848197 0.0030266754 -0.0005898482 0.017068638 -0.013090975 -0.0117687015
-0.0045399405 -0.01853957 -0.0026827266 -0.012830245 -0.008786487 0.009012774 -0.012845896 -0.008057862
0.0029774364 -0.004451938 -0.015607312 0.005528296 -0.02302173 0.008240494 -0.022917373 -0.022569638

action_model._continuous_distribution.mu.bias f4 [39]
00000000: 0000 0000 0000 0000 0000 0000 0000 0000
00000010: 0000 0000 0000 0000 0000 0000 0000 0000
00000020: 0000 0000 0000 0000 0000 0000 0000 0000
00000030: 0000 0000 0000 0000 0000 0000 0000 0000
00000040: 0000 0000 0000 0000 0000 0000 0000 0000
00000050: 0000 0000 0000 0000 0000 0000 0000 0000
00000060: 0000 0000 0000 0000 0000 0000 0000 0000
00000070: 0000 0000 0000 0000 0000 0000 0000 0000
00000080: 0000 0000 0000 0000 0000 0000 0000 0000
00000090: 0000 0000 0000 0000 0000 0000
0.0 0.0 0.0 0.0 0.0 0.0 0.0 0.0
0.0 0.0 0.0 0.0 0.0 0.0 0.0 0.0
0.0 0.0 0.0 0.0 0.0 0.0 0.0 0.0
0.0 0.0 0.0 0.0 0.0 0.0 0.0 0.0
0.0 0.0 0.0 0.0 0.0 0.0 0.0

network_body._body_endoder.seq_layers.0.weight f4 [128, 243]
00000000: b0b9 e43c 1780 6dbd 6d70 963b 7222 37bc
00000010: 9ae6 1e3d 8d12 f4b9 0a00 9f3d 9312 10bd
00000020: 5a87 3cbd c74f 13bd 2986 99bd ce76 b03d
00000030: 6e0b cdbd ae2c 9b3c 55e0 59bd 4085 9ebb
00000040: da80 e8bd 8ebc 9fbd a190 883c 1201 97bd
00000050: 80be d53d e34b b1bc 6382 edbb b767 913d
00000060: 9daf 96bb c3c1 103d 0916 293e ac50 66bd
00000070: 9ec2 d8bc f3d2 003b 49fb 06bd 5a6b 973c
00000080: 0c53 b03b 978a 10bb fb35 033d 9d9d 74bd
00000090: 6e3b c5bd 10a1 a33c 3df1 493d 5482 82bc
000000a0: d1cf 2dbc 1c3d 1e3a b045 61bd dc74 d43c
000000b0: 4ee2 3a3c d486 78bc c4fa 5a3d f881 8b3c
000000c0: 7a4a 613d 136f 84bd fd35 88bd 9f28 c6bc
000000d0: cf1d e5bd d6e8 6bbd 1d6c 9dbd 367a cabd
000000e0: 49af 473b 56cc 0ebe 2e61 263d e7fd fcbb
000000f0: c58b 403c aa9c a23d f401 bc3c d920 23bd
00000100: ae4b 073b 6da7 d9bd c5d6 b9bd 11d7 943d
00000110: 7b05 c4bc 1045 18be 678d 8c3c dd91 c6bc
00000120: 4651 5cbd a7bc 9cbc 9617 f23d 59fb 623d
00000130: 2956 bbbb a6aa 0c3e 96ac 123c 0164 153e
00000140: 2247 f1bc 838d 143d 5906 dd38 26a0 06bc
00000150: e13e cfbd 4faf 5a3d e8de 20bb 77ab 3c3d
00000160: 0754 933b 98e2 aa3d bc5c 4ebd b317 293d
00000170: 783f ee3c 7979 72bd 0395 863d 588e d43c
00000180: 1994 b9bc 7e06 c6bd 3b38 25bd 0959 813d
00000190: fd4b 1abd d5dc 6c3d 3214 653d b502 0bbb
000001a0: 3468 9c3d 02ad 0c3e d861 e3bd 8547 fabd
000001b0: 3960 0f3d 4276 19be 5c63 75ba d8a5 3cbd
000001c0: 53e3 5b3b 8045 27bd 9ba8 813d 2e26 a5bd
000001d0: 7d92 d33d 70e5 3ebd 3297 34bb b468 d63c
000001e0: af31 943d 26bb 993d 3f77 2c3a 8e67 653d
000001f0: a4b8 863d c358 e93c edfb 63bd 65cb 9f3d
00000200: e251 6d3d 2ccd 043c ee10 923c 9081 95bd
00000210: c6de 2fbd d5c7 453d 1874 09bd 5b1d 393c
00000220: f53e 253c 7f6e 47bb e3ad 85bd 9d96 1b3d
00000230: c114 f4bb 2228 d3bd c0a5 3abc 8106 94bd
00000240: f200 423d bb17 d0bc f020 983a 56b2 003e
00000250: f1b5 4f3d 7628 85bc 302d fa3d 25d0 1abd
00000260: d210 233d 35b2 fb3d ccba 71bc d14d e23d
00000270: 3d09 c33c 41c7 b3bd ec33 143d f3d9 96bc
00000280: dd81 bf3c 1585 0cbd 5e80 813d 38ab 03bd
00000290: cf4b 42bd 6311 6f3d 4ecf afbc 3e50 aabc
000002a0: b7e8 77bd 4b02 a7bd 368b 993b f665 f1bd
000002b0: 35a6 173d a4b2 49bd d903 323c b9ff 19bd
000002c0: 397c b33d 003d 9f3c a5e7 a1bd b5d1 523d
000002d0: 20d4 32bd 3d7d 58bc 1f43 a6bc 6d23 e53c
000002e0: 85b8 cd3c 9050 e7bc e4ce aabd fdfb 43bd
000002f0: 2c6f febc 253a 17bd 6faf 90bd 59ac 09bc
00000300: 1088 ce3d 7119 5dbc c211 133d 44d5 183d
00000310: 8874 88bd 2ee1 0dbd f232 2a3d b950 96bc
00000320: 61ec d83c e0f0 253d a167 bd3d 1bb9 b13d
00000330: 156d e13c 1360 cc3d 9ee4 743d 731f 6ebb
00000340: 1a52 733c ccc0 47bd f843 633c 1b2b 9a3c
00000350: 974a 603d 0b48 103e 145b a63c 67c4 1dbd
00000360: c7d6 ba3c ac51 983d a991 2a3d 9839 143b
00000370: 7e0b 413d 4df2 a5bd f85f bcbd 1d06 80bd
00000380: 1208 803d 6c07 253e 0886 6d3c 2273 b23d
00000390: 3009 10bc f85b 953d 7dd6 023d ce21 e0bd
000003a0: 7efe 863d 1b95 f2bd 35f6 3cbd b81e e73b
000003b0: 13e5 bf3b 6bc1 353d 0fc5 23bd 4749 02be
000003c0: 6f63 26be 1f5a 50bd c8e5 b93d 9f9a b03d
000003d0: ba10 943d 8b8f 0cbd 3ca1 343d 1016 0ebe
000003e0: efba 67bd 7946 c1bc e5dc c2bc ae68 a9ba
000003f0: c307 053e 317e be3b 78b3 bf3a eadb b4bb
0.027920574 -0.057983484 0.004591039 -0.011177646 0.038794138 -0.00046553128 0.07763679 -0.035173964
-0.04602752 -0.035964753 -0.07496292 0.0861641 -0.10011946 0.018942203 -0.053192455 -0.004837662
-0.113527015 -0.07799636 0.016670527 -0.07373251 0.104367256 -0.02164263 -0.0072482093 0.0709986
-0.0045985715 0.035341036 0.16512312 -0.05622928 -0.026459988 0.0019656986 -0.032954488 0.018483806
0.0053809937 -0.0022055262 0.0320339 -0.059720624 -0.09630476 0.019974262 0.04930233 -0.015931286
-0.010608629 0.00060363277 -0.0549981 0.02593463 0.011406494 -0.015168864 0.053461805 0.017029747
0.055002667 -0.06466498 -0.066509224 -0.024189292 -0.11187326 -0.057595097 -0.076866366 -0.09886591
0.0030469468 -0.13945135 0.04062002 -0.007720697 0.011752074 0.079400375 0.02295015 -0.039826248
0.0020644474 -0.10627637 -0.09074167 0.07267583 -0.023928395 -0.14870095 0.01715727 -0.024239475
-0.053788446 -0.019132925 0.11820905 0.055415485 -0.005717058 0.13736972 0.0089522805 0.1458893
-0.029452864 0.03626777 0.000105392835 -0.008216893 -0.10119415 0.053389844 -0.0024546925 0.04606196
0.004496101 0.083440006 -0.050381407 0.041282367 0.029082999 -0.059197877 0.065713905 0.025946781
-0.022653626 -0.09669207 -0.04033683 0.0631581 -0.037670124 0.05782779 0.055927463 -0.002121133
0.07637063 0.13737872 -0.111026466 -0.122206725 0.035003874 -0.14986518 -0.0009360814 -0.0460566
0.0033552244 -0.040837765 0.06330987 -0.08063923 0.10330675 -0.046605527 -0.002755594 0.026172973
0.07236039 0.07506399 0.00065790483 0.05600696 0.06578186 0.028484708 -0.055660177 0.07802466
0.057939418 0.008105557 0.017830338 -0.07300103 -0.042937063 0.048286278 -0.03355798 0.011298503
0.010085811 -0.003043085 -0.06527307 0.037985433 -0.007448763 -0.10310389 -0.011392057 -0.07227803
0.047364183 -0.02540194 0.0011606496 0.1256803 0.050710622 -0.016254645 0.1221565 -0.03779616
0.039810963 0.1228985 -0.0147540085 0.110499986 0.023808116 -0.08778239 0.03618233 -0.018414473
0.023377353 -0.034306604 0.06323312 -0.03214571 -0.047435578 0.05836619 -0.021461155 -0.020790216
-0.06052467 -0.08154734 0.0046857847 -0.11787026 0.03702374 -0.04924263 0.010865175 -0.03759739
0.08763928 0.019438267 -0.07905511 0.051469523 -0.04365933 -0.013213453 -0.020295678 0.027970994
0.0251124 -0.028236657 -0.083402425 -0.047847737 -0.03105887 -0.036920685 -0.07064711 -0.008402907
0.100845456 -0.013494835 0.035905607 0.03731276 -0.066628516 -0.034638576 0.04155249 -0.018349038
0.026479902 0.04051292 0.09248281 0.08677884 0.027517835 0.09979262 0.05978834 -0.0036334663
0.0148511175 -0.04876785 0.0138711855 0.018819382 0.054758634 0.14089982 0.020307101 -0.038517382
0.022807492 0.07437453 0.04164282 0.0022617336 0.0471301 -0.08102856 -0.09197992 -0.06251166
0.06251539 0.16116112 0.014497288 0.08713366 -0.008791253 0.07292932 0.031942833 -0.10943948
0.06591509 -0.11844846 -0.04613324 0.0070532225 0.005856165 0.04437391 -0.03998285 -0.12723266
-0.16248868 -0.050867196 0.090770304 0.08623242 0.07229753 -0.03431658 0.044099078 -0.13875604
-0.05657476 -0.023593174 -0.023786971 -0.0012924874 0.12991242 0.005813383 0.0014625629 -0.00551938

network_body._body_endoder.seq_layers.0.bias f4 [128]
00000000: 0000 0000 0000 0000 0000 0000 0000 0000
00000010: 0000 0000 0000 0000 0000 0000 0000 0000
00000020: 0000 0000 0000 0000 0000 0000 0000 0000
00000030: 0000 0000 0000 0000 0000 0000 0000 0000
00000040: 0000 0000 0000 0000 0000 0000 0000 0000
00000050: 0000 0000 0000 0000 0000 0000 0000 0000
00000060: 0000 0000 0000 0000 0000 0000 0000 0000
00000070: 0000 0000 0000 0000 0000 0000 0000 0000
00000080: 0000 0000 0000 0000 0000 0000 0000 0000
00000090: 0000 0000 0000 0000 0000 0000 0000 0000
000000a0: 0000 0000 0000 0000 0000 0000 0000 0000
000000b0: 0000 0000 0000 0000 0000 0000 0000 0000
000000c0: 0000 0000 0000 0000 0000 0000 0000 0000
000000d0: 0000 0000 0000 0000 0000 0000 0000 0000
000000e0: 0000 0000 0000 0000 0000 0000 0000 0000
000000f0: 0000 0000 0000 0000 0000 0000 0000 0000
00000100: 0000 0000 0000 0000 0000 0000 0000 0000
00000110: 0000 0000 0000 0000 0000 0000 0000 0000
00000120: 0000 0000 0000 0000 0000 0000 0000 0000
00000130: 0000 0000 0000 0000 0000 0000 0000 0000
00000140: 0000 0000 0000 0000 0000 0000 0000 0000
00000150: 0000 0000 0000 0000 0000 0000 0000 0000
00000160: 0000 0000 0000 0000 0000 0000 0000 0000
00000170: 0000 0000 0000 0000 0000 0000 0000 0000
00000180: 0000 0000 0000 0000 0000 0000 0000 0000
00000190: 0000 0000 0000 0000 0000 0000 0000 0000
000001a0: 0000 0000 0000 0000 0000 0000 0000 0000
000001b0: 0000 0000 0000 0000 0000 0000 0000 0000
000001c0: 0000 0000 0000 0000 0000 0000 0000 0000
000001d0: 0000 0000 0000 0000 0000 0000 0000 0000
000001e0: 0000 0000 0000 0000 0000 0000 0000 0000
000001f0: 0000 0000 0000 0000 0000 0000 0000 0000
0.0 0.0 0.0 0.0 0.0 0.0 0.0 0.0
0.0 0.0 0.0 0.0 0.0 0.0 0.0 0.0
0.0 0.0 0.0 0.0 0.0 0.0 0.0 0.0
0.0 0.0 0.0 0.0 0.0 0.0 0.0 0.0
0.0 0.0 0.0 0.0 0.0 0.0 0.0 0.0
0.0 0.0 0.0 0.0 0.0 0.0 0.0 0.0
0.0 0.0 0.0 0.0 0.0 0.0 0.0 0.0
0.0 0.0 0.0 0.0 0.0 0.0 0.0 0.0
0.0 0.0 0.0 0.0 0.0 0.0 0.0 0.0
0.0 0.0 0.0 0.0 0.0 0.0 0.0 0.0
0.0 0.0 0.0 0.0 0.0 0.0 0.0 0.0
0.0 0.0 0.0 0.0 0.0 0.0 0.0 0.0
0.0 0.0 0.0 0.0 0.0 0.0 0.0 0.0
0.0 0.0 0.0 0.0 0.0 0.0 0.0 0.0
0.0 0.0 0.0 0.0 0.0 0.0 0.0 0.0
0.0 0.0 0.0 0.0 0.0 0.0 0.0 0.0

network_body._body_endoder.seq_layers.2.weight f4 [128, 128]
00000000: 9709 a6bd 6484 0abe 2f24 5fbd 9577 0c3e
00000010: 9b48 bcbd e515 0dbc 7126 a53d a325 113c
00000020: 6256 89bd fcd9 513d 172e a9bc 3433 eb3d
00000030: d0ec a6bc 7e6c 60bd e17a e9bc 3bb7 be3d
00000040: 1a88 c5bc d694 863d 2ef3 04be 8ce4 90bd
00000050: cae5 393d a9fd 1a3d 548b 29bd 171e 59be
00000060: 448d 013d a1ce 09bc 480c c83d 3223 14bd
00000070: 547c 293e b8ff e6bc 7a80 edbd 3ba4 38bd
00000080: f324 993d f40c c0bc 5f7f 5cbb 8d8a 123d
00000090: a810 053d 3fa8 04bd 7108 013d 629e 063d
000000a0: bc49 113d 01ad a8bd 7f0b 1fbe d051 873d
000000b0: ad2b 9dbc 8a8d d4bd d9d1 213e 6037 a6bd
000000c0: 827e aebd 7fdc b93d 211c 63bd d3f4 f93c
000000d0: 314a ddbd e83a 053e cbe0 463e f3bf dabc
000000e0: a690 e53d ee27 873d e565 4d3d d9d5 e5bc
000000f0: c2ba 39be 1ec6 45bd ddf9 d4bd 31fe 42be
00000100: 6694 9abd cdc9 063e b46b 9dbb 1070 6fbc
00000110: 3f31 41bd ebcc 1fbe 340a 80bd 233b af3d
00000120: f5f3 bbbc a188 20bd 60ba 093d e4a1 1d3e
00000130: 293c 95bc f986 a2bd f86e b2bb 7605 85bd
00000140: 9bf7 56bd 3060 b33c cd25 c1bc 5e75 02bd
00000150: ba3e 563d 56e5 7e3d 64ee e6bd 88e7 973d
00000160: 7357 f53d 72a6 423d 37c5 d93d 1c1f 3b3d
00000170: edbc fb3d 717d 54bd 9810 f43c 3311 ec3d
00000180: 4ed0 68bd 927c c6bd 2f22 bbbd c9b5 c339
00000190: 1071 fbba 1781 ebbd ee9b 8bbd 3b98 69bd
000001a0: fc67 9d3d f940 07be 0e9d adbc 6db8 9b3d
000001b0: c24f 313e bd7a e03d 32cf d6bd 56e8 d7bc
000001c0: 5090 1e3c fb55 4c3e d4c1 a0bd 53e4 03be
000001d0: 60cb b33d 1a17 c8bd b457 8e3d 804e 313e
000001e0: fb3f 083e cef7 f6bb 1d4f 953c 4f15 b73c
000001f0: eef6 3cbd bdad fabd 7a35 03be e943 343c
00000200: 0ce0 14be cd84 1cbd b780 0f3d dfdb ac3d
00000210: 21ad dcbd 76e1 f23d d5bd 2c3d 8a84 0b3e
00000220: 27e3 a13c d808 91bd 8d81 2a3e 870a 673d
00000230: bf52 febc 6b25 15be 128a 11bc f148 a53d
00000240: 73a7 d03d ed2d 86bd 0d1b 1d3d e2c9 3ebd
00000250: 945f 89bd d1b2 99bd f334 e2bc 636f f0bd
00000260: 6e16 203d 66c3 2a3d 0478 e2bd 80f3 053d
00000270: 6a97 273e 4508 5abd ea3b 0dbc e15c e4bc
00000280: db61 b3bd 6764 b73d 52d2 363e 5dc9 7e3d
00000290: 790d 4cbc fcae a3bd 2bb2 f83a 5e59 8b3d
000002a0: 19f9 43bc 4c35 39bd 0739 e2bb f7ee 803e
000002b0: 3ffa 0fbd cc89 6dbd 2d87 5b3c 6d97 cfbd
000002c0: a82c 85bc da3d f83d 5917 3ebe 3290 8c3d
000002d0: 103a 89bd 5508 1a3e ab8a b23c 7c8f 31bd
000002e0: 5d51 093e e09d 2fbd cb28 763d 7f94 fc3c
000002f0: f37f e7bd 8907 933c b10c 3f3d 3b7e 983c
00000300: 086f 23bd 45a4 1dbd 3f6b 01be 1fbb e7bc
00000310: 7f1f fcbb 6364 363b 1b3c c2bc a362 bbbd
00000320: daf0 30bd 1ee4 013e fe21 c23b b59b f3bd
00000330: a7d3 dfbd 5af1 f93d f932 3abe 2f93 4bbe
00000340: 5a3a 06be b193 a6bb 2d82 643d a93b 8bbd
00000350: 344f 4fbd 5821 b1bc 2cff 023d dadb 1d3e
00000360: 1eb1 0d3e 7b34 f03c 12c4 86bc a428 f4bd
00000370: dd05 1cbd 37c1 debc ee14 02be 84da 97bd
00000380: e795 bf3d f6b7 dcbb 9ad9 4d3d b4ee c73d
00000390: 19b7 ac3c c2be 873b 75db 91bd 0ce9 4e3c
000003a0: 4a27 54bd 3783 58bd 1b6f 35bc e21f 433c
000003b0: 625e 863e 2c19 0abe 5f68 74bd 7e35 293e
000003c0: 0f4a f13d 89e7 7f3d 6bda b4bd e258 5a3d
000003d0: 1e16 193c 3a7b f73d a85d de3d 0533 95bd
000003e0: 49cf 8d3d 48d2 6dbc 5f49 5ebd fa81 ac3d
000003f0: 7d96 873b 9338 ccbc 974d 1fbd a599 b53c
-0.08107298 -0.13527066 -0.054477867 0.13717492 -0.09193536 -0.008611177 0.08063973 0.008859071
-0.06705929 0.051233277 -0.02065186 0.114843756 -0.020376593 -0.054790966 -0.028500976 0.09312292
-0.02411275 0.06571357 -0.1298339 -0.07074842 0.04538516 0.037839565 -0.04139264 -0.21202885
0.031628862 -0.008411081 0.097679675 -0.036166377 0.16551334 -0.028198108 -0.115967706 -0.045078497
0.07477751 -0.023443677 -0.0033645255 0.035776664 0.032486588 -0.032387014 0.03150219 0.03286589
0.03547071 -0.08236123 -0.15531729 0.06607401 -0.019185865 -0.10378559 0.15802707 -0.08116031
-0.08520223 0.090752594 -0.055446748 0.03051225 -0.108051665 0.13010752 0.19421689 -0.026702857
0.1120923 0.06599413 0.050146002 -0.028056072 -0.18137649 -0.048284642 -0.1039922 -0.19042279
-0.07547836 0.13162918 -0.004804099 -0.01461412 -0.047166105 -0.15605514 -0.06251946 0.08556201
-0.022943476 -0.0391928 0.033625007 0.15393788 -0.018217163 -0.079359 -0.0054453574 -0.06495182
-0.05248223 0.021896452 -0.023577595 -0.03185021 0.052305914 0.06223043 -0.11275938 0.07417208
0.1197957 0.047522016 0.10633319 0.045683965 0.12291894 -0.051877443 0.029793069 0.11526718
-0.05683928 -0.09691729 -0.091373794 0.0003732874 -0.0019183476 -0.11499231 -0.068168506 -0.057029944
0.07685849 -0.13208379 -0.021193054 0.07603536 0.17315581 0.109609105 -0.10488738 -0.026355904
0.0096779615 0.19954674 -0.0784947 -0.12880068 0.08779025 -0.09770031 0.06950322 0.17315102
0.13305657 -0.007536865 0.0182262 0.022349028 -0.046133928 -0.12240169 -0.12813368 0.011002519
-0.14538592 -0.038212586 0.03503486 0.084403746 -0.10775209 0.118594095 0.042173225 0.13624778
0.019761635 -0.07081765 0.16650982 0.056406524 -0.031045316 -0.14565055 -0.008883016 0.08070553
0.101881884 -0.065517284 0.038355876 -0.04657925 -0.06707683 -0.0750481 -0.027613139 -0.11739995
0.03908389 0.041690253 -0.110580474 0.032702923 0.16366354 -0.053230543 -0.008620242 -0.02787632
-0.08758899 0.08954697 0.17853668 0.062203754 -0.012454384 -0.0799236 0.0018973997 0.06804155
-0.011961245 -0.045216843 -0.006903771 0.25182316 -0.035150763 -0.05799274 0.013398928 -0.10136304
-0.016256645 0.12121172 -0.18563594 0.068634406 -0.06700528 0.15042241 0.021794638 -0.043349728
0.13409944 -0.04287517 0.060097497 0.030832527 -0.11303701 0.017947929 0.046642963 0.018614879
-0.03990081 -0.038486738 -0.12638567 -0.028287468 -0.0076941843 0.0027830831 -0.023710301 -0.09149673
-0.043198444 0.12684676 0.0059244623 -0.11894933 -0.10929041 0.12204237 -0.18183507 -0.19880365
-0.13108197 -0.005083524 0.055788208 -0.06798489 -0.050612643 -0.021622345 0.031981632 0.15415898
0.13837096 0.0293219 -0.016450915 -0.11921814 -0.03809153 -0.027191741 -0.12703297 -0.074147254
0.093547635 -0.006735797 0.05025635 0.09762326 0.021083402 0.004142613 -0.07121936 0.012628805
-0.05179528 -0.05285951 -0.011073853 0.011909457 0.26243883 -0.13486165 -0.05966985 0.16524312
0.11781704 0.06247667 -0.088307224 0.05330742 0.009343652 0.120840505 0.10857707 -0.07285122
0.06924302 -0.014515467 -0.05426919 0.084232286 0.0041378126 -0.02492932 -0.038892355 0.02216799

network_body._body_endoder.seq_layers.2.bias f4 [128]
00000000: 0000 0000 0000 0000 0000 0000 0000 0000
00000010: 0000 0000 0000 0000 0000 0000 0000 0000
00000020: 0000 0000 0000 0000 0000 0000 0000 0000
00000030: 0000 0000 0000 0000 0000 0000 0000 0000
00000040: 0000 0000 0000 0000 0000 0000 0000 0000
00000050: 0000 0000 0000 0000 0000 0000 0000 0000
00000060: 0000 0000 0000 0000 0000 0000 0000 0000
00000070: 0000 0000 0000 0000 0000 0000 0000 0000
00000080: 0000 0000 0000 0000 0000 0000 0000 0000
00000090: 0000 0000 0000 0000 0000 0000 0000 0000
000000a0: 0000 0000 0000 0000 0000 0000 0000 0000
000000b0: 0000 0000 0000 0000 0000 0000 0000 0000
000000c0: 0000 0000 0000 0000 0000 0000 0000 0000
000000d0: 0000 0000 0000 0000 0000 0000 0000 0000
000000e0: 0000 0000 0000 0000 0000 0000 0000 0000
000000f0: 0000 0000 0000 0000 0000 0000 0000 0000
00000100: 0000 0000 0000 0000 0000 0000 0000 0000
00000110: 0000 0000 0000 0000 0000 0000 0000 0000
00000120: 0000 0000 0000 0000 0000 0000 0000 0000
00000130: 0000 0000 0000 0000 0000 0000 0000 0000
00000140: 0000 0000 0000 0000 0000 0000 0000 0000
00000150: 0000 0000 0000 0000 0000 0000 0000 0000
00000160: 0000 0000 0000 0000 0000 0000 0000 0000
00000170: 0000 0000 0000 0000 0000 0000 0000 0000
00000180: 0000 0000 0000 0000 0000 0000 0000 0000
00000190: 0000 0000 0000 0000 0000 0000 0000 0000
000001a0: 0000 0000 0000 0000 0000 0000 0000 0000
000001b0: 0000 0000 0000 0000 0000 0000 0000 0000
000001c0: 0000 0000 0000 0000 0000 0000 0000 0000
000001d0: 0000 0000 0000 0000 0000 0000 0000 0000
000001e0: 0000 0000 0000 0000 0000 0000 0000 0000
000001f0: 0000 0000 0000 0000 0000 0000 0000 0000
0.0 0.0 0.0 0.0 0.0 0.0 0.0 0.0
0.0 0.0 0.0 0.0 0.0 0.0 0.0 0.0
0.0 0.0 0.0 0.0 0.0 0.0 0.0 0.0
0.0 0.0 0.0 0.0 0.0 0.0 0.0 0.0
0.0 0.0 0.0 0.0 0.0 0.0 0.0 0.0
0.0 0.0 0.0 0.0 0.0 0.0 0.0 0.0
0.0 0.0 0.0 0.0 0.0 0.0 0.0 0.0
0.0 0.0 0.0 0.0 0.0 0.0 0.0 0.0
0.0 0.0 0.0 0.0 0.0 0.0 0.0 0.0
0.0 0.0 0.0 0.0 0.0 0.0 0.0 0.0
0.0 0.0 0.0 0.0 0.0 0.0 0.0 0.0
0.0 0.0 0.0 0.0 0.0 0.0 0.0 0.0
0.0 0.0 0.0 0.0 0.0 0.0 0.0 0.0
0.0 0.0 0.0 0.0 0.0 0.0 0.0 0.0
0.0 0.0 0.0 0.0 0.0 0.0 0.0 0.0
0.0 0.0 0.0 0.0 0.0 0.0 0.0 0.0

value_heads.value_heads.extrinsic.weight f4 [1, 128]
00000000: d443 883d fd91 42be 70fd 3dbd 54d0 f4bd
00000010: 1429 1abe 4236 bfbd 7009 273c 0b2a 08be
00000020: 2ca0 ff3d 6450 903d e21b fcbd 9070 85bd
00000030: c0b5 b1bb 03ff 2bbe 9ae3 053e 5fbc 54be
00000040: 0414 9e3d ab1d fbbd d006 6a3c 6a2c d8bd
00000050: 4e04 573e 0445 7dbd 39e7 dabd 0cb1 073e
00000060: 3ee3 29be 18c1 a9bd a0ad 203d 3884 443d
00000070: 36bc 503e e0ed 2e3d 10f8 98bc a003 5f3c
00000080: c89c 833c 78b4 993d 3229 f8bd 7cbd 93bd
00000090: 4017 47bc 10f6 f23c 584a 51be 787d 033e
000000a0: b637 1cbe e7d0 11be 5470 d1bd 3603 0ebe
000000b0: 6a93 553e 9041 2bbc 1e5d 37be 00f6 4b3c
000000c0: 20dc 15bd 9a98 10be da9b 053e 7402 16be
000000d0: 966c 1b3e 40b1 5ebc f46d 53bd 248b 0bbe
000000e0: f091 ac3d 127b 4a3e d472 0dbe 9bea bfbd
000000f0: f071 3f3e 780d c13d 30d2 e73d f059 443d
00000100: 4ca9 a53d b8c7 573d e00c c63d a04a 07bd
00000110: 4198 41be c044 83bd e0a3 81bb 0053 06bc
00000120: 6860 4cbd d41a 443e 9952 57be 482a 893d
00000130: cc2c 893d d654 293e e666 013e f85c 6c3d
00000140: 7a24 a5bd 6cc4 16bd 2865 2fbd ceeb 2fbe
00000150: b8c9 453d 1837 0d3d 4c93 c03d e482 4abe
00000160: e859 413d b4bf 0b3e 28a5 033e 60e7 e43b
00000170: c5cb 2abe 18ad 163e 6fa7 c6bd 76ea 223e
00000180: f0f9 bc3d 6ca8 25be 4006 533c 875a 41be
00000190: 84c8 46be ea98 4f3e c488 903d 423f 183e
000001a0: cabf 263e 40b6 b53d a42f ad3d c84a f03c
000001b0: 9022 e1bc d213 b4bd 2c42 f2bd 871d f7bd
000001c0: 0980 56be 1064 1b3c d879 d83d 3c4e 46bd
000001d0: 61d9 dabd 0881 533d 9c52 06bd 3472 cd3d
000001e0: e236 263e 2e9f 093e d8d2 ba3c bace 43be
000001f0: 38a9 203e 7c1a 28be 9458 40be e267 babd
0.06653562 -0.19001003 -0.046384275 -0.11953798 -0.15054733 -0.09336521 0.010195121 -0.13297288
0.12481722 0.07046583 -0.12310006 -0.0651561 -0.0054232776 -0.16796498 0.13075104 -0.20774983
0.077186614 -0.12261518 0.014283851 -0.10555346 0.20997736 -0.061833397 -0.106886335 0.13251132
-0.16590592 -0.08288783 0.03922808 0.047977656 0.20384297 0.042707324 -0.018672973 0.013611704
0.01606597 0.07505125 -0.121172324 -0.07213876 -0.012151539 0.029658347 -0.20438516 0.12840831
-0.15255627 -0.14239846 -0.10226503 -0.13868412 0.20857015 -0.010452643 -0.17906615 0.012448788
-0.03658688 -0.14120713 0.13047734 -0.14649373 0.15178141 -0.013592064 -0.05161853 -0.13627297
0.08426273 0.1977351 -0.13813335 -0.09370919 0.18695807 0.09426397 0.11319387 0.047937334
0.080889314 0.0526807 0.096704245 -0.033030152 -0.18905737 -0.064095974 -0.003956303 -0.0081985
-0.049896628 0.19150859 -0.21027602 0.06697518 0.066979975 0.16536269 0.12636909 0.05770585
-0.08063598 -0.036808416 -0.04282108 -0.17179796 0.048288077 0.03447637 0.09403095 -0.19776493
0.047204882 0.13647348 0.12855971 0.00698559 -0.16679294 0.14714468 -0.09699904 0.15909752
0.09227359 -0.16177529 0.012879908 -0.1888219 -0.19412428 0.20273176 0.07057336 0.14867881
0.16284099 0.08872652 0.08456352 0.029332533 -0.027482301 -0.08792843 -0.118290275 -0.12066179
-0.20947279 0.009484306 0.10570115 -0.048414454 -0.10685993 0.051636726 -0.032793626 0.10031548
0.16231874 0.13439628 0.022805616 -0.19121829 0.15689552 -0.16416353 -0.1878379 -0.09101845
