Assets/ML-Agents/Examples/FirstTRexScene/results/trmodel/My Behavior/My Behavior-5184.onnx (onnx, 213233 bytes, 7 tensors)

action_model._continuous_distribution.log_sigma f4 [1, 39]
0	0x00000000	0.0
1	0x00000000	0.0
2	0x00000000	0.0
3	0x00000000	0.0
4	0x00000000	0.0
5	0x00000000	0.0
6	0x00000000	0.0
7	0x00000000	0.0
8	0x00000000	0.0
9	0x00000000	0.0
10	0x00000000	0.0
11	0x00000000	0.0
12	0x00000000	0.0
13	0x00000000	0.0
14	0x00000000	0.0
15	0x00000000	0.0
16	0x00000000	0.0
17	0x00000000	0.0
18	0x00000000	0.0
19	0x00000000	0.0
20	0x00000000	0.0
21	0x00000000	0.0
22	0x00000000	0.0
23	0x00000000	0.0
24	0x00000000	0.0
25	0x00000000	0.0
26	0x00000000	0.0
27	0x00000000	0.0
28	0x00000000	0.0
29	0x00000000	0.0
30	0x00000000	0.0
31	0x00000000	0.0
32	0x00000000	0.0
33	0x00000000	0.0
34	0x00000000	0.0
35	0x00000000	0.0
36	0x00000000	0.0
37	0x00000000	0.0
38	0x00000000	0.0

action_model._continuous_distribution.mu.bias f4 [39]
0	0x00000000	0.0
1	0x00000000	0.0
2	0x00000000	0.0
3	0x00000000	0.0
4	0x00000000	0.0
5	0x00000000	0.0
6	0x00000000	0.0
7	0x00000000	0.0
8	0x00000000	0.0
9	0x00000000	0.0
10	0x00000000	0.0
11	0x00000000	0.0
12	0x00000000	0.0
13	0x00000000	0.0
14	0x00000000	0.0
15	0x00000000	0.0
16	0x00000000	0.0
17	0x00000000	0.0
18	0x00000000	0.0
19	0x00000000	0.0
20	0x00000000	0.0
21	0x00000000	0.0
22	0x00000000	0.0
23	0x00000000	0.0
24	0x00000000	0.0
25	0x00000000	0.0
26	0x00000000	0.0
27	0x00000000	0.0
28	0x00000000	0.0
29	0x00000000	0.0
30	0x00000000	0.0
31	0x00000000	0.0
32	0x00000000	0.0
33	0x00000000	0.0
34	0x00000000	0.0
35	0x00000000	0.0
36	0x00000000	0.0
37	0x00000000	0.0
38	0x00000000	0.0

action_model._continuous_distribution.mu.weight f4 [39, 128]
0	0xbc8455fa	-0.016154278
1	0xbcf346e8	-0.029696897
2	0x3d076f11	0.033064906
3	0x3c4d82af	0.012543364
4	0xbb7d9aaa	-0.0038696923
5	0xbc59e5f0	-0.01329945
6	0x3c4b113f	0.0123942485
7	0x3b7e759b	0.0038827423
8	0xbba5e593	-0.005062768
9	0xbb88f087	-0.0041790637
10	0x3cf5d0ed	0.03000685
11	0xbbf9c84d	-0.0076227547
12	0xbcfdbb38	-0.030973062
13	0xbc59bf58	-0.013290249
14	0x3bb4bd30	0.005515717
15	0x3caa84f6	0.020815354
16	0x3c10a56e	0.008828504
17	0x3c338da2	0.010959061
18	0x3c416a1d	0.0118050845
19	0xbcad1e44	-0.021132596
20	0xbb1def6e	-0.002409901
21	0x3c6077a3	0.013700399
22	0x3cf36748	0.029712334
23	0x3bda303d	0.0066585825
24	0x3cbe7745	0.023250232
25	0xbca2a102	-0.019852165
26	0xbba5d0ff	-0.0050603147
27	0x3b9be423	0.0047574206
28	0xbb67cd35	-0.0035370116
29	0x3bb66e26	0.00556733
30	0xbccd500f	-0.025062589
31	0xbc56ae77	-0.013103119
32	0x3cb90393	0.022584712
33	0x3ca0069b	0.0195344
34	0xbb24ab9c	-0.0025126701
35	0xbbf0bbb7	-0.007346596
36	0x3c137851	0.009000854
37	0x3c6ae78a	0.01433743
38	0xbc56c26a	-0.013107875
39	0xbcca067f	-0.0246613
40	0x3ca655c9	0.020304577
41	0x3be719d8	0.0070526414
42	0xbbe0800d	-0.0068512023
43	0xbc881975	-0.016613701
44	0xbcfe45e3	-0.031039184
45	0xbb532f60	-0.0032224283
46	0x3c8e0aec	0.017339192
47	0xbcaad308	-0.02085258
48	0x3cdf58ed	0.027264083
49	0x3cd91b22	0.026502196
50	0x3c982b8d	0.018575454
51	0xbbf36578	-0.0074278675
52	0x3c8753ba	0.016519416
53	0xbbd237df	-0.0064153518
54	0xbb8a74b9	-0.00422534
55	0xbce50a22	-0.027958933
56	0x3cabae26	0.020957064
57	0x3bf7ce4d	0.0075624348
58	0xbcf4ed82	-0.029898409
59	0x3c210353	0.009827453
60	0x3c872982	0.016499285
61	0x3c8bbed7	0.017058773
62	0xba8cc050	-0.0010738466
63	0xbc8bf01b	-0.017082265
64	0xbca6e29d	-0.02037173
65	0x3c967558	0.0183665
66	0x3c947b3b	0.018125167
67	0xbc3d1337	-0.011540226
68	0xbc2d54f6	-0.010579338
69	0x3b60a3c3	0.0034277297
70	0xbbcb9b4a	-0.0062135803
71	0x3cb90697	0.02258615
72	0x3cffb9e5	0.031216571
73	0xbbe68cca	-0.0070358263
74	0xbbf2c482	-0.0074086795
75	0xbc6fc48b	-0.014634262
76	0x3b9fb895	0.004874299
77	0x3c8aeb82	0.016958002
78	0x3d293f7e	0.041320316
79	0x3b352fd0	0.0027646907
80	0x3ce67527	0.028132034
81	0xbc86db88	-0.016462103
82	0xbce172f8	-0.027520642
83	0xbc1e2d37	-0.009654335
84	0xba521578	-0.00080140634
85	0x3c8c71cd	0.017144108
86	0xbc27aee3	-0.010234567
87	0xbbe85cb3	-0.0070911287
88	0xbbf41c97	-0.0074496972
89	0xbc74221b	-0.0149007095
90	0x3c0f5c5c	0.008750048
91	0x3d06c5a5	0.032903332
92	0x390a9a83	0.00013218266
93	0x3c194c07	0.009356505
94	0xbd2f86bf	-0.042853113
95	0xbb94c074	-0.0045395438
96	0x3ce88f93	0.028388774
97	0xba37bf99	-0.0007009446
98	0xbcc4e104	-0.024033077
99	0x3bd006ed	0.006348482
100	0xbbec4bf8	-0.0072112046
101	0xbcb1e903	-0.021717554
102	0x3ca4dbe6	0.020124387
103	0xbc270cd2	-0.010195928
104	0xbc9103d8	-0.017702028
105	0x3c4442e3	0.011978838
106	0xbb8a2403	-0.0042157187
107	0x3c1433fe	0.009045599
108	0xbcdefef2	-0.027221177
109	0x3ced2be8	0.0289516
110	0x3c5551ed	0.013020021
111	0x3c07c2f5	0.0082862275
112	0xbb9fcc20	-0.0048766285
113	0x3c78b5a0	0.0151800215
114	0xbc4d7593	-0.012540239
115	0x3ce6cfcf	0.028175263
116	0xbcb678bb	-0.022274366
117	0xbcca9183	-0.024727589
118	0xbc9bba40	-0.01900971
119	0xbcce91cf	-0.025216011
120	0x3c8b2bd3	0.01698867
121	0xbc9b7213	-0.018975293
122	0xbc83a7d3	-0.016071236
123	0xbcd59773	-0.026073193
124	0x3d45d78a	0.048301257
125	0x3c125373	0.008931029
126	0x3b8e0f36	0.0043353094
127	0x3b684968	0.0035444144
128	0xba519e0f	-0.000799627
129	0xbc37d3e3	-0.011219951
130	0x3be7c01a	0.007072461
131	0xbccc2c50	-0.024923474
132	0xbcdb4fff	-0.026771544
133	0xbafd0ce0	-0.0019306205
134	0xbcb38587	-0.021914257
135	0x3b840453	0.004028836
136	0x3bae1d57	0.005313556
137	0x394ef49a	0.00019736812
138	0xbbf6e63d	-0.0075347708
139	0x3b598c1b	0.0033195082
140	0x3c08cd1d	0.008349684
141	0xbc207955	-0.009794553
142	0xbd0a1a5b	-0.03371654
143	0x3ca770b6	0.020439487
144	0x3cc60a73	0.024174904
145	0xbc0cb89b	-0.008588935
146	0x3b1070d6	0.0022039912
147	0x3b3637b8	0.0027804207
148	0xbba1f301	-0.0049422984
149	0xbc9a1e7b	-0.018813362
150	0x3bc9e5fe	0.0061614504
151	0x3c15b074	0.009136308
152	0xbc319c19	-0.010840439
153	0xbc83feb8	-0.01611267
154	0x3c6c3f8f	0.01441945
155	0xbb9e9e5e	-0.004840656
156	0xbcc7afd7	-0.02437584
157	0xbb6f3cfb	-0.0036504853
158	0xbce95f73	-0.028487897
159	0xbc3e1fbe	-0.011604248
160	0xbaf83f07	-0.0018939682
161	0xba1e434e	-0.0006037251
162	0x3b71ac6d	0.0036876455
163	0x3af688f5	0.0018809127
164	0x3c5f8922	0.013643535
165	0x3cbbe064	0.022934146
166	0xbc3f9fe2	-0.011695834
167	0x3c1d5ac3	0.009604159
168	0x3c29d43d	0.010365543
169	0x3c003e24	0.0078273155
170	0xbc539b05	-0.0129153775
171	0x3d09d36d	0.033648897
172	0x3ce29b8d	0.027662063
173	0x3bb1feaa	0.0054319697
174	0x3bd4ded3	0.0064962893
175	0x3c17ded3	0.009269434
176	0x3b129dfc	0.0022371998
177	0xbd0c3c90	-0.034237444
178	0xbb917bb7	-0.004439797
179	0xbbc1ab0f	-0.0059102844
180	0x3c9e7ccf	0.019346623
181	0x3c1e731a	0.009670997
182	0x3be9766f	0.007124714
183	0xbc8ba8f7	-0.017048342
184	0xbc2707b1	-0.010194705
185	0x3c26dad7	0.010184011
186	0xbaae68fb	-0.0013306433
187	0xbc25fb90	-0.010130778
188	0xbbe60d4d	-0.0070206285
189	0x3bc60199	0.006042671
190	0xbc3c7ffa	-0.011505121
191	0xbba3d24d	-0.004999435
192	0xbb20c97f	-0.0024534164
193	0x3d3e864b	0.04651479
194	0x3d0db49f	0.03459608
195	0xbc13cf72	-0.009021627
196	0x3c5ae022	0.0133591015
197	0xbce320e5	-0.027725646
198	0x3be636a0	0.007025555
199	0xbc8ebd88	-0.01742436
200	0xbc888a08	-0.01666738
201	0xbcc44123	-0.02395684
202	0xbc9a567f	-0.018840073
203	0x3c6ada1b	0.014334227
204	0xbc47ed9d	-0.0122026475
205	0x3bbb6d91	0.0057198484
206	0xba8d7e71	-0.0010795129
207	0xbb3f1c7a	-0.002916126
208	0xbce206d5	-0.027591148
209	0xbc26a703	-0.010171655
210	0x3add9088	0.0016904036
211	0x3cd645ef	0.026156394
212	0xbcd785f0	-0.026308984
213	0x3c2d3d1a	0.01057365
214	0xbb8e1a55	-0.004336635
215	0x3b894d57	0.004190128
216	0xbbb4759c	-0.005507184
217	0xbb99b1da	-0.004690391
218	0x3be1c9f5	0.00689053
219	0x3c3e9da3	0.011634263
220	0x3c62f5f3	0.013852584
221	0xbcf9266a	-0.030413825
222	0xbb49119d	-0.0030680664
223	0xbc8a4633	-0.016879177
224	0x3d011f4b	0.031523984
225	0x3cea074b	0.02856793
226	0xbb3e7d7f	-0.00290665
227	0xbc4f70eb	-0.012661199
228	0xbc0c1ae9	-0.008551338
229	0x3c59886a	0.013277153
230	0xbc53ccfa	-0.012927288
231	0x3cd69e70	0.026198596
232	0xbd1a8755	-0.03772672
233	0xbb9d73d3	-0.004805067
234	0x3cd44bda	0.025915075
235	0x3c6a707a	0.014309043
236	0x3ccae8fe	0.024769302
237	0x3a1803c3	0.00057989004
238	0xbc23d2ae	-0.00999896
239	0x3c57d723	0.013173851
240	0x3cd49688	0.025950685
241	0x3c65c3e2	0.014023753
242	0x3c95c0bc	0.01828038
243	0xbcc1be5e	-0.023650344
244	0xbbdb309a	-0.0066891434
245	0x3c211fff	0.009834289
246	0xbcf1fb8a	-0.029538888
247	0xbc857430	-0.016290754
248	0xbb2a7943	-0.002601222
249	0xbc424e18	-0.011859439
250	0xbbf3b14d	-0.0074369074
251	0xbc544d88	-0.012957938
252	0x3c51c52f	0.01280336
253	0x3c16d273	0.009205448
254	0xbc5a332f	-0.013317867
255	0x3afec378	0.0019436916

network_body._body_endoder.seq_layers.0.bias f4 [128]
0	0x00000000	0.0
1	0x00000000	0.0
2	0x00000000	0.0
3	0x00000000	0.0
4	0x00000000	0.0
5	0x00000000	0.0
6	0x00000000	0.0
7	0x00000000	0.0
8	0x00000000	0.0
9	0x00000000	0.0
10	0x00000000	0.0
11	0x00000000	0.0
12	0x00000000	0.0
13	0x00000000	0.0
14	0x00000000	0.0
15	0x00000000	0.0
16	0x00000000	0.0
17	0x00000000	0.0
18	0x00000000	0.0
19	0x00000000	0.0
20	0x00000000	0.0
21	0x00000000	0.0
22	0x00000000	0.0
23	0x00000000	0.0
24	0x00000000	0.0
25	0x00000000	0.0
26	0x00000000	0.0
27	0x00000000	0.0
28	0x00000000	0.0
29	0x00000000	0.0
30	0x00000000	0.0
31	0x00000000	0.0
32	0x00000000	0.0
33	0x00000000	0.0
34	0x00000000	0.0
35	0x00000000	0.0
36	0x00000000	0.0
37	0x00000000	0.0
38	0x00000000	0.0
39	0x00000000	0.0
40	0x00000000	0.0
41	0x00000000	0.0
42	0x00000000	0.0
43	0x00000000	0.0
44	0x00000000	0.0
45	0x00000000	0.0
46	0x00000000	0.0
47	0x00000000	0.0
48	0x00000000	0.0
49	0x00000000	0.0
50	0x00000000	0.0
51	0x00000000	0.0
52	0x00000000	0.0
53	0x00000000	0.0
54	0x00000000	0.0
55	0x00000000	0.0
56	0x00000000	0.0
57	0x00000000	0.0
58	0x00000000	0.0
59	0x00000000	0.0
60	0x00000000	0.0
61	0x00000000	0.0
62	0x00000000	0.0
63	0x00000000	0.0
64	0x00000000	0.0
65	0x00000000	0.0
66	0x00000000	0.0
67	0x00000000	0.0
68	0x00000000	0.0
69	0x00000000	0.0
70	0x00000000	0.0
71	0x00000000	0.0
72	0x00000000	0.0
73	0x00000000	0.0
74	0x00000000	0.0
75	0x00000000	0.0
76	0x00000000	0.0
77	0x00000000	0.0
78	0x00000000	0.0
79	0x00000000	0.0
80	0x00000000	0.0
81	0x00000000	0.0
82	0x00000000	0.0
83	0x00000000	0.0
84	0x00000000	0.0
85	0x00000000	0.0
86	0x00000000	0.0
87	0x00000000	0.0
88	0x00000000	0.0
89	0x00000000	0.0
90	0x00000000	0.0
91	0x00000000	0.0
92	0x00000000	0.0
93	0x00000000	0.0
94	0x00000000	0.0
95	0x00000000	0.0
96	0x00000000	0.0
97	0x00000000	0.0
98	0x00000000	0.0
99	0x00000000	0.0
100	0x00000000	0.0
101	0x00000000	0.0
102	0x00000000	0.0
103	0x00000000	0.0
104	0x00000000	0.0
105	0x00000000	0.0
106	0x00000000	0.0
107	0x00000000	0.0
108	0x00000000	0.0
109	0x00000000	0.0
110	0x00000000	0.0
111	0x00000000	0.0
112	0x00000000	0.0
113	0x00000000	0.0
114	0x00000000	0.0
115	0x00000000	0.0
116	0x00000000	0.0
117	0x00000000	0.0
118	0x00000000	0.0
119	0x00000000	0.0
120	0x00000000	0.0
121	0x00000000	0.0
122	0x00000000	0.0
123	0x00000000	0.0
124	0x00000000	0.0
125	0x00000000	0.0
126	0x00000000	0.0
127	0x00000000	0.0

network_body._body_endoder.seq_layers.0.weight f4 [128, 243]
0	0x3d996c84	0.07491401
1	0x3b4a4201	0.0030862095
2	0x3cd7238f	0.026262073
3	0xbd55a01e	-0.052154653
4	0xbb7f3081	-0.0038938823
5	0x3d644271	0.055727426
6	0x3c5fdac9	0.013663002
7	0x3c30c0dc	0.010788169
8	0x3c481463	0.012211892
9	0x3c886966	0.01665182
10	0xbce04580	-0.02737689
11	0xbdfed002	-0.12442018
12	0x3cb8714d	0.022514964
13	0xbd74ba16	-0.059747778
14	0x3d9a0dc2	0.07522155
15	0x3e072686	0.1319829
16	0x3d9bf553	0.07615151
17	0x3d50f1e1	0.051011924
18	0xbcf1d34d	-0.029519701
19	0x3da76daf	0.08175217
20	0x3d11997d	0.03554677
21	0xbd6129ae	-0.05497139
22	0x3bbdccd4	0.0057922397
23	0x3c53b445	0.012921398
24	0x3d211d16	0.03933438
25	0x3dad5c27	0.08464842
26	0xbcd6ed6e	-0.026236262
27	0xbd604864	-0.054756537
28	0x3d44f7cc	0.04808788
29	0x3d0b3aa6	0.03399148
30	0xbda0494f	-0.078264825
31	0x3ca56932	0.020191763
32	0x3d015a1d	0.03158008
33	0x3d45aa88	0.048258334
34	0x3c97a0e3	0.018509334
35	0x3d87c969	0.06630213
36	0x3c450f19	0.012027525
37	0x3cfa78da	0.030575205
38	0x3e6de889	0.23233236
39	0xbcba7936	-0.022762876
40	0xbd2181ff	-0.039430615
41	0x3cdb585c	0.026775531
42	0xbda37301	-0.0798092
43	0xbd252946	-0.040322565
44	0xbe27d787	-0.16390811
45	0xbcc8a311	-0.024491819
46	0x3c7a5769	0.015279629
47	0x3cfc42d2	0.030793581
48	0xbd8c83a3	-0.06861045
49	0xbdf9a5bc	-0.121898144
50	0x3e26eb5c	0.1630072
51	0x3cedaf04	0.029014118
52	0x3d67c557	0.056584682
53	0xbd5c5446	-0.053791307
54	0x3dd03cfb	0.10167881
55	0xbd3ad162	-0.04560984
56	0x3d15d8ca	0.0365837
57	0xbd40904c	-0.047012612
58	0x3d2c9054	0.04212983
59	0x3dd27335	0.1027588
60	0x3de0f2c5	0.109838046
61	0xbcb58ed9	-0.022162842
62	0xbca30373	-0.019899106
63	0x3e0089c8	0.1255256
64	0x3d30157f	0.04298925
65	0xbc572bfb	-0.013133044
66	0xbdc461fe	-0.09589003
67	0x3dbe2688	0.09284693
68	0xbd3b5b6f	-0.045741495
69	0xbd1271be	-0.035753004
70	0xbbe0d5c9	-0.0068614227
71	0xbdabe802	-0.08393861
72	0xbd3002f2	-0.04297156
73	0xbdb0d123	-0.0863364
74	0x3dedab00	0.11604881
75	0xbba60d72	-0.005067521
76	0x3b8c8707	0.0042885575
77	0x3e29967b	0.1656131
78	0x3e42f83f	0.19040011
79	0xbe131e03	-0.14366917
80	0x3df5724e	0.119846925
81	0xbdd30071	-0.103028186
82	0x3b63d7d3	0.0034766092
83	0xbdae4378	-0.085089624
84	0xbc53b085	-0.0129205035
85	0xbd621c7d	-0.05520295
86	0x3d365d7d	0.04452275
87	0x3d4e118c	0.050309703
88	0x3c8d278e	0.017230775
89	0xb99135de	-0.0002769669
90	0x3da24258	0.0792281
91	0x3da9bc01	0.08287812
92	0xbd20f5f5	-0.039297063
93	0x3bda7fdb	0.0066680736
94	0xbd446030	-0.047943294
95	0xbdeb8516	-0.114999935
96	0xbd822391	-0.0635444
97	0xbc853db0	-0.016264766
98	0xbdca7e32	-0.09887351
99	0x3caf6863	0.02141208
100	0x3c99a155	0.018753687
101	0x3d2f2f50	0.04276973
102	0x3d16bb03	0.036799442
103	0xbdb8fd05	-0.09032635
104	0xbdc674c5	-0.09690241
105	0xbce199d7	-0.027539177
106	0xbdbd47cd	-0.092422105
107	0xbda02b43	-0.078207515
108	0x3dd06d1a	0.101770595
109	0x3a114ea2	0.0005543028
110	0xbdbc28da	-0.09187479
111	0xbd7b3a3b	-0.06133483
112	0xbcc3631c	-0.02385097
113	0x3d4f3e6c	0.05059664
114	0x3d11c679	0.03558967
115	0xbcc42ad7	-0.023946209
116	0xbbc4b4c5	-0.0060029947
117	0xbd3c987d	-0.04604386
118	0x3ba40d89	0.0050064963
119	0xbbf49020	-0.00746347
120	0x3df8dc62	0.1215141
121	0x3d23ee83	0.040022384
122	0xbd38487d	-0.044991005
123	0x3d94d58b	0.072672926
124	0x3d0a14c9	0.03371123
125	0x3d0c203b	0.034210425
126	0x3c90117b	0.01758646
127	0x3b6e1fb3	0.0036334812
128	0xbd51932e	-0.051165752
129	0x3d8681ab	0.06567701
130	0xbdccea7e	-0.10005663
131	0xbbe219d0	-0.0069000497
132	0x3d9525c4	0.07282594
133	0xbe083827	-0.1330267
134	0xbd0255f7	-0.031820264
135	0x3aff4267	0.0019474745
136	0x3da7f95e	0.0820186
137	0xbd83c90a	-0.064348295
138	0xbd06d0ea	-0.03291408
139	0x3c377710	0.01119782
140	0x3d0b18eb	0.03395931
141	0xbe009942	-0.12558463
142	0xbd947989	-0.072497435
143	0xbd970870	-0.07374656
144	0xbb571d62	-0.003282391
145	0x3d886557	0.06659954
146	0xbd7fdf33	-0.06246872
147	0xbcd4fd55	-0.025999704
148	0x3d8089db	0.06276294
149	0xbc14ed10	-0.009089723
150	0x3c05b45c	0.008160677
151	0x3e4d7861	0.20065452
152	0xbd655017	-0.055984583
153	0xbd24dc5b	-0.04024921
154	0xbd879d52	-0.06621803
155	0x3c40f53e	0.01177722
156	0xbd889052	-0.06668152
157	0xba53effb	-0.0008084771
158	0xbd1d0bf7	-0.03834149
159	0xbb9021f5	-0.0043985792
160	0xbd289e2b	-0.041166466
161	0x3d243aee	0.040095262
162	0xbd030757	-0.03198942
163	0x3d52f1a0	0.051499963
164	0x3e1d589e	0.15365836
165	0xbcb352b2	-0.021890018
166	0xbcd075ab	-0.025446733
167	0x3d8b614e	0.06805669
168	0x3cd42dda	0.02590077
169	0xbd40ce72	-0.04707188
170	0x3d49d4b7	0.049275126
171	0x3d065a6d	0.03280108
172	0xbcb1255e	-0.021624263
173	0x3c131908	0.008978136
174	0x3d614e7c	0.05500649
175	0xbd8ab6d5	-0.06773154
176	0x3c373ad3	0.011183458
177	0xbdfcd3da	-0.12345095
178	0x3c393497	0.011304042
179	0xbd6bbfdd	-0.057556022
180	0x3c81730a	0.015801925
181	0x3d280659	0.04102168
182	0x3d35fc58	0.044430107
183	0x3d28fb26	0.04125514
184	0x3c725850	0.014791563
185	0xbd824355	-0.06360499
186	0xbd716c86	-0.058941387
187	0xbd773f91	-0.060363356
188	0x3d1c0298	0.03808841
189	0xbdfa2102	-0.12213327
190	0xbd3a6c5b	-0.045513492
191	0x3dba9b28	0.09111625
192	0x3da5ffac	0.08105406
193	0x3df48ca8	0.119408906
194	0xbc3d5e13	-0.011558074
195	0xbe0cba96	-0.13743052
196	0xbd2992d9	-0.04139981
197	0x3dc71cfd	0.09722326
198	0xbc79b314	-0.015240449
199	0xbc9305a8	-0.017947033
200	0x3d8854ed	0.06656823
201	0x3d2ea564	0.042638198
202	0xbdf1048a	-0.11768444
203	0xbd71d973	-0.059045266
204	0x3d837e5a	0.06420584
205	0xbd67884a	-0.05652646
206	0x3d5e33a7	0.05424848
207	0x3dfb0c29	0.12258179
208	0xbcff2d2c	-0.03114947
209	0xbca95fb1	-0.020675512
210	0xbd31d0dc	-0.043412074
211	0x3d417483	0.047230255
212	0xbd62549a	-0.055256464
213	0xbc5c321c	-0.013439681
214	0xbdc17ee7	-0.09448033
215	0xbca6411e	-0.020294722
216	0xbd48a09e	-0.0489813
217	0x3c9b2eb4	0.018943168
218	0xbd5a5226	-0.053301
219	0xbc4f3cba	-0.012648756
220	0xbd0bd756	-0.034140907
221	0x3d34e1c4	0.04416062
222	0xbd3b7687	-0.045767333
223	0x3dc31db3	0.09527149
224	0x3d31c58c	0.043401286
225	0x3d9f47bd	0.07777355
226	0xbd1d40e2	-0.038391955
227	0xbc8cdaf6	-0.017194252
228	0x3d936065	0.0719612
229	0x3d22f9d3	0.039789032
230	0x3e34cbeb	0.17655914
231	0x3cc93486	0.024561178
232	0xbbff0496	-0.007782529
233	0xbdacec12	-0.08443464
234	0xbc892881	-0.016742947
235	0x3db3a1ee	0.0877112
236	0xbdb65fb4	-0.08904973
237	0x3cd861c8	0.026413813
238	0x3db1b838	0.08677715
239	0xbcdc89a5	-0.026921103
240	0xbdd2f3c1	-0.103003986
241	0xbd5a86ce	-0.053351216
242	0x3d3f0686	0.04663708
243	0xbcad2c72	-0.021139357
244	0xbcfe705a	-0.031059433
245	0x3a6474ae	0.00087148964
246	0xbc32d737	-0.010915569
247	0xbdcdf9c0	-0.10057402
248	0x3cbc6b7e	0.023000475
249	0x3d5f4b79	0.054515336
250	0xbd9c78cb	-0.07640227
251	0xbd3b1e6c	-0.04568331
252	0x3d7029ac	0.05863349
253	0x3be48536	0.006973888
254	0x3cda9b74	0.026685454
255	0xbc97d799	-0.018535422

network_body._body_endoder.seq_layers.2.bias f4 [128]
0	0x00000000	0.0
1	0x00000000	0.0
2	0x00000000	0.0
3	0x00000000	0.0
4	0x00000000	0.0
5	0x00000000	0.0
6	0x00000000	0.0
7	0x00000000	0.0
8	0x00000000	0.0
9	0x00000000	0.0
10	0x00000000	0.0
11	0x00000000	0.0
12	0x00000000	0.0
13	0x00000000	0.0
14	0x00000000	0.0
15	0x00000000	0.0
16	0x00000000	0.0
17	0x00000000	0.0
18	0x00000000	0.0
19	0x00000000	0.0
20	0x00000000	0.0
21	0x00000000	0.0
22	0x00000000	0.0
23	0x00000000	0.0
24	0x00000000	0.0
25	0x00000000	0.0
26	0x00000000	0.0
27	0x00000000	0.0
28	0x00000000	0.0
29	0x00000000	0.0
30	0x00000000	0.0
31	0x00000000	0.0
32	0x00000000	0.0
33	0x00000000	0.0
34	0x00000000	0.0
35	0x00000000	0.0
36	0x00000000	0.0
37	0x00000000	0.0
38	0x00000000	0.0
39	0x00000000	0.0
40	0x00000000	0.0
41	0x00000000	0.0
42	0x00000000	0.0
43	0x00000000	0.0
44	0x00000000	0.0
45	0x00000000	0.0
46	0x00000000	0.0
47	0x00000000	0.0
48	0x00000000	0.0
49	0x00000000	0.0
50	0x00000000	0.0
51	0x00000000	0.0
52	0x00000000	0.0
53	0x00000000	0.0
54	0x00000000	0.0
55	0x00000000	0.0
56	0x00000000	0.0
57	0x00000000	0.0
58	0x00000000	0.0
59	0x00000000	0.0
60	0x00000000	0.0
61	0x00000000	0.0
62	0x00000000	0.0
63	0x00000000	0.0
64	0x00000000	0.0
65	0x00000000	0.0
66	0x00000000	0.0
67	0x00000000	0.0
68	0x00000000	0.0
69	0x00000000	0.0
70	0x00000000	0.0
71	0x00000000	0.0
72	0x00000000	0.0
73	0x00000000	0.0
74	0x00000000	0.0
75	0x00000000	0.0
76	0x00000000	0.0
77	0x00000000	0.0
78	0x00000000	0.0
79	0x00000000	0.0
80	0x00000000	0.0
81	0x00000000	0.0
82	0x00000000	0.0
83	0x00000000	0.0
84	0x00000000	0.0
85	0x00000000	0.0
86	0x00000000	0.0
87	0x00000000	0.0
88	0x00000000	0.0
89	0x00000000	0.0
90	0x00000000	0.0
91	0x00000000	0.0
92	0x00000000	0.0
93	0x00000000	0.0
94	0x00000000	0.0
95	0x00000000	0.0
96	0x00000000	0.0
97	0x00000000	0.0
98	0x00000000	0.0
99	0x00000000	0.0
100	0x00000000	0.0
101	0x00000000	0.0
102	0x00000000	0.0
103	0x00000000	0.0
104	0x00000000	0.0
105	0x00000000	0.0
106	0x00000000	0.0
107	0x00000000	0.0
108	0x00000000	0.0
109	0x00000000	0.0
110	0x00000000	0.0
111	0x00000000	0.0
112	0x00000000	0.0
113	0x00000000	0.0
114	0x00000000	0.0
115	0x00000000	0.0
116	0x00000000	0.0
117	0x00000000	0.0
118	0x00000000	0.0
119	0x00000000	0.0
120	0x00000000	0.0
121	0x00000000	0.0
122	0x00000000	0.0
123	0x00000000	0.0
124	0x00000000	0.0
125	0x00000000	0.0
126	0x00000000	0.0
127	0x00000000	0.0

network_body._body_endoder.seq_layers.2.weight f4 [128, 128]
0	0x3d8ae609	0.06782157
1	0x3db7608f	0.08953964
2	0xbdc0a4c4	-0.094064265
3	0x3d70ad7d	0.0587592
4	0xbc4b5821	-0.012411148
5	0xbe041a75	-0.12900718
6	0x3e2279be	0.15866753
7	0x3c9ebf3a	0.019378293
8	0xbdc07837	-0.09397929
9	0xbd7f30f3	-0.06230254
10	0x3d0bd58d	0.034139205
11	0x3ddbd6c7	0.10734325
12	0xbc6f0bca	-0.014590213
13	0x3d7cac8b	0.061687987
14	0x3d69f057	0.05711397
15	0xbc855193	-0.01627425
16	0x3bcea601	0.0063064103
17	0x3c61baa8	0.0137774125
18	0xbb3ddb07	-0.0028969662
19	0x3d76894e	0.060189538
20	0x3d0ed07e	0.034866802
21	0x3ba85cc6	0.0051380126
22	0xbd557f99	-0.05212364
23	0x3e423d9c	0.18968815
24	0x3d915fd4	0.07098356
25	0xbe669cae	-0.22520706
26	0xbdab292b	-0.083574615
27	0xbdd6f034	-0.10495034
28	0x3d40e90d	0.047097255
29	0x3d1640a7	0.03668275
30	0xbe0b9b36	-0.13633427
31	0xbce02502	-0.027361397
32	0x3ca5ff64	0.020263381
33	0x3d3acf33	0.045607757
34	0xbc540131	-0.012939737
35	0x3dc7d405	0.097572364
36	0x3b833bda	0.0040049376
37	0xbd49301b	-0.049118143
38	0xbd8f14e7	-0.06986409
39	0x3e1e6026	0.15466365
40	0x3deb91c4	0.11502412
41	0xbd955fc2	-0.07293655
42	0x3d919068	0.071076214
43	0x3cee324f	0.029076723
44	0xba403012	-0.0007331382
45	0x3e246832	0.16055372
46	0xbe06dae7	-0.13169442
47	0x3df63756	0.12022273
48	0x3da7409e	0.081666216
49	0x3cc38a59	0.02386968
50	0x3d880cf2	0.06643094
51	0xbd0273a7	-0.031848576
52	0xbe4c5fa0	-0.19958353
53	0x3b62bc84	0.0034597227
54	0xbe1a24cc	-0.150531
55	0xbdcba21b	-0.099430285
56	0x3b95d0a7	0.0045719924
57	0x3d1ff540	0.039052248
58	0xbe46cbae	-0.19413635
59	0x3ce9e652	0.028552208
60	0x3d8bf1a4	0.06833199
61	0xbd20c689	-0.039251838
62	0x3dd51819	0.10404987
63	0xbd44b360	-0.048022628
64	0xbd973bba	-0.07384439
65	0x3e1f9e44	0.15587717
66	0xbce43e7a	-0.027861822
67	0xbd2c9878	-0.042137593
68	0xbdb3ed96	-0.0878555
69	0xbd205fee	-0.039153986
70	0xbcad9005	-0.021186838
71	0x3de0c0da	0.109742835
72	0xbd9209c2	-0.071307674
73	0xbdb365af	-0.08759629
74	0x3d977c59	0.07396764
75	0x3dd1a3b0	0.10236299
76	0x3ca28a76	0.019841414
77	0xbd2189de	-0.03943812
78	0x3c949dca	0.018141646
79	0x3da25327	0.07926016
80	0xbd67e64e	-0.05661612
81	0xbcb0a9f5	-0.021565417
82	0xbdc3ab10	-0.09554112
83	0x3d75c8c1	0.060005907
84	0xbdbcd5a4	-0.09220436
85	0x3dc71f98	0.09722823
86	0x3d1adcb8	0.03780815
87	0x3dd4bc75	0.10387508
88	0xbaba2abd	-0.0014203411
89	0xbc3550a6	-0.011066591
90	0xbd886ce9	-0.06661398
91	0xbd0a9efc	-0.033843026
92	0xbb7fe525	-0.0039046493
93	0xbd93250d	-0.07184801
94	0x3d44d9ac	0.04805915
95	0x3d74fee8	0.05981341
96	0x3d79062f	0.060796913
97	0xbe1b0cdd	-0.15141626
98	0x3ddba354	0.10724512
99	0xbd9f9545	-0.07792143
100	0xbd948261	-0.0725143
101	0x3cef9aa1	0.029248537
102	0x3dbd0d74	0.092310816
103	0x3ce9c197	0.028534694
104	0x3debc875	0.115128435
105	0x3d8c362e	0.068462715
106	0x3de24393	0.11048045
107	0x3c5297b0	0.012853548
108	0x3db80539	0.08985371
109	0x3d90f941	0.070787914
110	0x3d103bf0	0.03521341
111	0x3d4382d4	0.04773219
112	0xbddf63a4	-0.10907677
113	0xbe22d490	-0.15901399
114	0x3d9af023	0.07565334
115	0xbd48d942	-0.04903532
116	0x3dae1617	0.08500307
117	0x3dd248b8	0.10267776
118	0x3a306768	0.0006729276
119	0x3d25ceef	0.04048055
120	0xbbb7c9a4	-0.005608754
121	0x3e20489a	0.15652695
122	0x3cdfbdba	0.027312148
123	0xbd346a63	-0.04404677
124	0xbd22ceb1	-0.039747898
125	0xbdb0ac73	-0.08626642
126	0xbde100b2	-0.10986461
127	0x3cee719c	0.029106908
128	0x3d76d145	0.06025817
129	0xbdb8eb19	-0.09029216
130	0xbdba8231	-0.09106863
131	0xbdb1c95c	-0.086809844
132	0x3d06b901	0.032891277
133	0x3e2ab3b3	0.16670112
134	0xbe4117b2	-0.18856695
135	0x3db48e95	0.08816258
136	0x3ce94340	0.02847445
137	0x3d94e6a6	0.07270555
138	0x3941ec2f	0.000184939
139	0xbe0e61ea	-0.13904539
140	0x3cfb4241	0.03067124
141	0x3d8c435c	0.06848785
142	0x3e22a82d	0.15884466
143	0xbdde6ffe	-0.108612046
144	0x3be358f7	0.0069380957
145	0x3e60fd15	0.21971543
146	0x3c7803ca	0.015137622
147	0xbd0a9336	-0.033831798
148	0x3d680491	0.05664498
149	0xbd5395b1	-0.05165643
150	0xbd256c95	-0.040386755
151	0x3b1876d8	0.0023264196
152	0xbe1461d5	-0.14490445
153	0x3d02a586	0.031896137
154	0x3e3c3de9	0.18382992
155	0xbdd52a9e	-0.10408519
156	0x3bacbe6c	0.0052717235
157	0xbd68f4fe	-0.056874268
158	0xbe301cf7	-0.17198549
159	0x3d235dc2	0.039884336
160	0x3cd2b0e1	0.025719108
161	0xbd013da6	-0.031552933
162	0x3d3190f0	0.043351114
163	0x3ced24c0	0.028948188
164	0x3da0abe0	0.078452826
165	0xbdece395	-0.11566845
166	0xbd1d397d	-0.038384903
167	0xbbd8d583	-0.0066172495
168	0x3bf6a09e	0.0075264713
169	0xbdaebb9b	-0.08531877
170	0x3e340ed2	0.17583779
171	0x3d32e867	0.043678667
172	0xbcf6a79e	-0.030109223
173	0xbd9411ef	-0.07229983
174	0xbdd8124a	-0.10550363
175	0xbe07eab2	-0.13273123
176	0xbe04d9da	-0.12973729
177	0x3d198b40	0.037486315
178	0x3ca50028	0.020141676
179	0xbda86155	-0.082216896
180	0xbdcadce6	-0.09905414
181	0xbd9ba3e4	-0.07599619
182	0xbca22d74	-0.019797064
183	0xbe2db4b2	-0.16963461
184	0xbcf1cc1f	-0.029516278
185	0x3dd95010	0.10610974
186	0xbc480fe6	-0.012210822
187	0x3c877bfe	0.016538616
188	0xbb392a16	-0.0028253845
189	0x3e096709	0.13418211
190	0x3d903d47	0.07042938
191	0xbe1d8012	-0.15380886
192	0xbd45080d	-0.04810338
193	0xbd3f2a75	-0.04667135
194	0xbcee7850	-0.029110104
195	0x3da5b637	0.08091395
196	0xbdd3b7c6	-0.103377864
197	0x3d141408	0.036151916
198	0x3d99b775	0.07505695
199	0xbdaed9d1	-0.08537639
200	0xbd2388d3	-0.039925408
201	0x3da0783e	0.078354344
202	0xbcc23e16	-0.023711246
203	0x3d02288e	0.031776957
204	0x3d85d7f3	0.0653533
205	0xbdffcb86	-0.12489991
206	0xbd91082a	-0.07081635
207	0xbbc45807	-0.005991939
208	0xbdcc940e	-0.09989177
209	0x3d9a57b9	0.07536263
210	0x3c414c4e	0.011797978
211	0xbe3cc35f	-0.18433903
212	0xbda2177b	-0.07914635
213	0xbe231da0	-0.1592927
214	0xbd02ecdb	-0.031964164
215	0x3cb5c6b9	0.022189485
216	0xbd101621	-0.035177354
217	0xbc9c3d3f	-0.019072173
218	0x3d8290ca	0.063752726
219	0x3d65f01a	0.05613718
220	0xbda0eda1	-0.07857824
221	0x3d316803	0.043312084
222	0xbd732b6e	-0.05936759
223	0xbddf88b7	-0.10914748
224	0x3de1c170	0.110232234
225	0x3c3aebcf	0.01140876
226	0x3e6823a4	0.22669846
227	0xbdddc9c2	-0.10829498
228	0xbbe70b3e	-0.0070509007
229	0xbce8100a	-0.02832796
230	0x3d13bba8	0.036067635
231	0x3d435978	0.047692746
232	0x3d9e891c	0.07740995
233	0xbd11f903	-0.035637867
234	0x3d2c6bfa	0.042095162
235	0xbd1851f5	-0.037187535
236	0x3c4dbc66	0.012557125
237	0xbc0c1a8b	-0.00855125
238	0x3e0baddd	0.13640542
239	0x3e062212	0.13098934
240	0x3de2d61c	0.11075994
241	0x3e5530cf	0.208194
242	0xbd1f58d6	-0.03890308
243	0x3ad304be	0.0016099436
244	0x3d9fb73c	0.07798621
245	0x3d1f6561	0.03891504
246	0x3ce7f748	0.028316155
247	0xbddb22ad	-0.10699973
248	0x3e019097	0.12652813
249	0x3d902595	0.07038418
250	0xbd64da6b	-0.055872362
251	0x3e115c68	0.14195406
252	0x3e16095e	0.14652011
253	0x3d4839e5	0.048883338
254	0xbdeec3cd	-0.1165844
255	0x3d30e89f	0.043190595
