Assets/ML-Agents/Examples/FirstTRexScene/results/trmodel/My Behavior/My Behavior-2944.pt (torch, 411191 bytes, 12 tensors)

network_body._body_endoder.seq_layers.0.weight f4 [128, 243]
-0.02232367 -0.116194874 0.060129095 -0.0018119044 0.01032441 -0.005124329 -0.052672688 0.00862421
-0.075819574 0.049455803 -0.1439974 -0.07823482 0.0074875467 0.0050301803 -0.0044426546 0.024737729
-0.03482678 0.0051559717 -0.15010075 -0.043277662 0.052353356 0.039909977 -0.010502783 -0.049087763
-0.048095196 0.021107571 -0.0003363381 0.079828545 0.0052350797 -0.015723115 -0.044933032 0.012201367
-0.07362315 0.048032638 0.05878028 -0.038706638 -0.08086403 0.043553047 0.05714539 0.03230614
-0.038849562 0.02062378 -0.103727795 -0.074620984 -0.009222114 0.08172562 -0.081488736 0.17004266
0.05603957 -0.10101966 -0.04108506 -0.057470582 0.084186405 0.029835228 -0.07266684 -0.021118114
-0.011460783 0.019595468 -0.042470116 0.0013533366 0.076140955 0.08136163 -0.01552968 -0.019722467
-0.032539334 -0.038357504 0.033487003 0.018239511 0.10024064 -0.06016648 0.017678766 -0.061288614
0.06564973 -0.036270805 0.06681129 -0.07344987 -0.07015709 0.009783181 0.12520275 0.049103595
0.013378634 -0.044294465 -0.028090661 -0.035411812 0.08158717 0.026368752 0.07143662 0.015008632
-0.027551046 -0.029406616 -0.05882004 -0.03216702 0.027319873 -0.09757991 -0.12809479 -0.08846573
0.022133525 -0.19779938 -0.020168442 0.030523425 0.034511924 -0.13455664 -0.03773115 0.02253682
0.009646793 0.085244626 0.008252016 -0.017781602 -0.10032281 0.05869504 -0.16573523 -0.023927439
0.11220127 -0.05040864 0.055417806 -0.031446595 0.098407075 0.0039729723 0.08830309 0.09487532
0.026212744 -0.06384327 0.004530205 0.09688273 0.10140945 0.06817141 0.029235017 0.017692195
0.1979674 -0.0030879176 -0.015811173 4.41576e-05 0.016713623 -0.07505022 -0.036471244 0.01911763
0.06988315 -0.11234479 -0.015415205 0.029677246 -0.05773904 -0.06360113 0.026387317 0.017995542
-0.028367685 -0.029903317 -0.09207292 0.028810695 -0.0058652842 -0.052229516 0.013733345 0.033201583
0.002871351 -0.06760368 0.07919349 -0.013016996 -0.044839635 -0.0006583651 0.00693049 0.06536985
-0.024322685 -0.080708966 0.034596093 0.073536664 -0.0691948 -0.044279996 0.021925712 0.08839989
-0.050516285 0.05116549 -0.04101739 0.08133394 -0.06414054 -0.0053087072 0.18395425 -0.057492442
0.15714757 -0.04369617 -0.010010493 -0.041860927 -0.0358826 0.0054058554 -0.12953046 0.022883559
0.010673503 -0.012005218 0.08142496 0.012489407 -0.025604654 0.0028782731 -0.040356103 0.025707852
-0.048621736 0.00962867 -0.016108185 -0.15783821 0.05105852 -0.06887248 -0.050483655 0.04027183
0.0385137 0.013221753 0.027014254 -0.037173465 0.09571362 0.012871067 0.025899848 -0.004144564
4.525616e-05 0.027954746 -0.031636603 0.08442103 -0.030673698 0.0104872575 0.072616294 0.01668754
0.027308723 -0.0922693 -0.0952971 0.018070562 0.010545172 -0.06704336 0.033843014 0.028219175
-0.013270338 -0.12275217 0.003832348 0.06665272 -0.0565163 0.011764045 -0.058178328 0.097917534
-0.01092898 0.041589282 0.02275445 0.11472376 -0.09607071 0.05194334 -0.05408893 0.06292252
-0.014197154 -0.023178663 -0.024887368 -0.023016524 0.061973535 -0.10089089 -0.08996955 0.15099663
0.008689706 0.13794814 -0.014804682 -0.12762384 0.10478191 0.012178782 -0.057305947 0.07334313
00000000: 21e0 b6bc 94f7 edbd ed49 763d 6c7d edba
00000010: b727 293c fde9 a7bb 51bf 57bd 8f4c 0d3c
00000020: 4b47 9bbd 2b92 4a3d 0e74 13be 9439 a0bd
00000030: 185a f53b 36d4 a43b b093 91bb c7a6 ca3c
00000040: 87a6 0ebd 6df3 a83b 03b4 19be eb43 31bd
00000050: 7970 563d a578 233d dd13 2cbc 4010 49bd
00000060: 78ff 44bd c9e9 ac3c 8956 b0b9 267d a33d
00000070: 088b ab3b c3cd 80bc b30b 38bd 3ee8 473c
00000080: bcc7 96bd dfbd 443d 97c3 703d da8a 1ebd
00000090: 0a9c a5bd ae64 323d 4911 6a3d 7153 043d
000000a0: b820 1fbd 34f3 a83c 3d6f d4bd e3d2 98bd
000000b0: 5a18 17bc c35f a73d 91e3 a6bd aa1f 2e3e
000000c0: c089 653d 65e3 cebd cf48 28bd 4666 6bbd
000000d0: ec69 ac3d 0269 f43c 5ad2 94bd e5ff acbc
000000e0: 02c6 3bbc ad86 a03c 25f5 2dbd 7162 b13a
000000f0: caef 9b3d eda0 a63d 3370 7ebc 0391 a1bc
00000100: f747 05bd c21c 1dbd ab29 093d 076b 953c
00000110: f74a cd3d 2071 76bd 0fd3 903c c509 7bbd
00000120: 5e73 863d b290 14bd 5cd4 883d e36c 96bd
00000130: 85ae 8fbd a349 203c 2635 003e da20 493d
00000140: 0f32 5b3c 1d6e 35bd 631e e6bc fa0b 11bd
00000150: 2d17 a73d 4803 d83c 5d4d 923d c4e6 753c
00000160: bbb2 e1bc 25e6 f0bc 48ed 70bd 91c1 03bd
00000170: edcd df3c fad7 c7bd 482b 03be 852d b5bd
00000180: 5e51 b53c ec8b 4abe 4a38 a5bc 430c fa3c
00000190: 605c 0d3d 37c9 09be fa8b 1abd 239f b83c
000001a0: 950d 1e3c bc94 ae3d 7733 073c b9aa 91bc
000001b0: 0c76 cdbd 366a 703d 7fb6 29be 7a03 c4bc
000001c0: c8c9 e53d 4a79 4ebd c8fd 623d 25ce 00bd
000001d0: a689 c93d b52f 823b 40d8 b43d fe4d c23d
000001e0: 1cbc d63c 43c0 82bd 1d72 943b 746a c63d
000001f0: c2af cf3d 749d 8b3d 467e ef3c 39ef 903c
00000200: f7b7 4a3e a95e 4abb 6f86 81bc dd35 3938
00000210: 02eb 883c eeb3 99bd df62 15bd 939c 9c3c
00000220: e61e 8f3d 0615 e6bd 0e90 7cbc b21d f33c
00000230: c67f 6cbd 4f41 82bd 372a d83c 636b 933c
00000240: 5963 e8bc cdf7 f4bc ba90 bcbd 6804 ec3c
00000250: 9231 c0bb 9eee 55bd d301 613c 62fe 073d
00000260: 472d 3c3b cc73 8abd 3230 a23d 3d45 55bc
00000270: c4a9 37bd 2296 2cba 2a19 e33b a1e0 853d
00000280: 5e40 c7bc be4a a5bd a2b4 0d3d 649a 963d
00000290: 01b6 8dbd f15e 35bd 8d9d b33c 000b b53d
000002a0: 2aea 4ebd e892 513d da01 28bd 6992 a63d
000002b0: 1e5c 83bd aaf4 adbb 815e 3c3e 327d 6bbd
000002c0: 4beb 203e c1fa 32bd 0d03 24bc 5d76 2bbd
000002d0: a2f9 12bd 9a23 b13b a2a3 04be 4d76 bb3c
000002e0: ebdf 2e3c 89b1 44bc 21c2 a63d 5fa0 4c3c
000002f0: dac0 d1bc 69a1 3c3b 714c 25bd 4699 d23c
00000300: 9627 47bd 92c1 1d3c 50f5 83bc 57a0 21be
00000310: bd22 513d 040d 8dbd f3c7 4ebd 13f4 243d
00000320: 8bc0 1d3d 0da0 583c ff4c dd3c 3443 18bd
00000330: 8105 c43d 2be1 523c eb2b d43c 1fcf 87bb
00000340: 6fd1 3d38 5a01 e53c 6295 01bd efe4 ac3d
00000350: 6847 fbbc bfd2 2b3c dab7 943d 4fb4 883c
00000360: 8bb6 df3c b0f7 bcbd 202b c3bd b708 943c
00000370: a8c5 2c3c 074e 89bd f99e 0a3d e62b e73c
00000380: d56b 59bc 7d65 fbbd 2128 7b3b 3981 883d
00000390: a37d 67bd fbbd 403c 664c 6ebd fd88 c83d
000003a0: 770f 33bc 8659 2a3d 8a67 ba3c 4af4 ea3d
000003b0: b8c0 c4bd 8ac2 543d 5b8c 5dbd 86dd 803d
000003c0: 2e9b 68bc 2ee1 bdbc 98e0 cbbc 268d bcbc
000003d0: f6d7 7d3d e29f cebd f541 b8bd dc9e 1a3e
000003e0: 455f 0e3c 4742 0d3e 568f 72bc d3af 02be
000003f0: e697 d63d 8489 473c a4b9 6abd ec34 963d

network_body._body_endoder.seq_layers.0.bias f4 [128]
0.0 0.0 0.0 0.0 0.0 0.0 0.0 0.0
0.0 0.0 0.0 0.0 0.0 0.0 0.0 0.0
0.0 0.0 0.0 0.0 0.0 0.0 0.0 0.0
0.0 0.0 0.0 0.0 0.0 0.0 0.0 0.0
0.0 0.0 0.0 0.0 0.0 0.0 0.0 0.0
0.0 0.0 0.0 0.0 0.0 0.0 0.0 0.0
0.0 0.0 0.0 0.0 0.0 0.0 0.0 0.0
0.0 0.0 0.0 0.0 0.0 0.0 0.0 0.0
0.0 0.0 0.0 0.0 0.0 0.0 0.0 0.0
0.0 0.0 0.0 0.0 0.0 0.0 0.0 0.0
0.0 0.0 0.0 0.0 0.0 0.0 0.0 0.0
0.0 0.0 0.0 0.0 0.0 0.0 0.0 0.0
0.0 0.0 0.0 0.0 0.0 0.0 0.0 0.0
0.0 0.0 0.0 0.0 0.0 0.0 0.0 0.0
0.0 0.0 0.0 0.0 0.0 0.0 0.0 0.0
0.0 0.0 0.0 0.0 0.0 0.0 0.0 0.0
00000000: 0000 0000 0000 0000 0000 0000 0000 0000
00000010: 0000 0000 0000 0000 0000 0000 0000 0000
00000020: 0000 0000 0000 0000 0000 0000 0000 0000
00000030: 0000 0000 0000 0000 0000 0000 0000 0000
00000040: 0000 0000 0000 0000 0000 0000 0000 0000
00000050: 0000 0000 0000 0000 0000 0000 0000 0000
00000060: 0000 0000 0000 0000 0000 0000 0000 0000
00000070: 0000 0000 0000 0000 0000 0000 0000 0000
00000080: 0000 0000 0000 0000 0000 0000 0000 0000
00000090: 0000 0000 0000 0000 0000 0000 0000 0000
000000a0: 0000 0000 0000 0000 0000 0000 0000 0000
000000b0: 0000 0000 0000 0000 0000 0000 0000 0000
000000c0: 0000 0000 0000 0000 0000 0000 0000 0000
000000d0: 0000 0000 0000 0000 0000 0000 0000 0000
000000e0: 0000 0000 0000 0000 0000 0000 0000 0000
000000f0: 0000 0000 0000 0000 0000 0000 0000 0000
00000100: 0000 0000 0000 0000 0000 0000 0000 0000
00000110: 0000 0000 0000 0000 0000 0000 0000 0000
00000120: 0000 0000 0000 0000 0000 0000 0000 0000
00000130: 0000 0000 0000 0000 0000 0000 0000 0000
00000140: 0000 0000 0000 0000 0000 0000 0000 0000
00000150: 0000 0000 0000 0000 0000 0000 0000 0000
00000160: 0000 0000 0000 0000 0000 0000 0000 0000
00000170: 0000 0000 0000 0000 0000 0000 0000 0000
00000180: 0000 0000 0000 0000 0000 0000 0000 0000
00000190: 0000 0000 0000 0000 0000 0000 0000 0000
000001a0: 0000 0000 0000 0000 0000 0000 0000 0000
000001b0: 0000 0000 0000 0000 0000 0000 0000 0000
000001c0: 0000 0000 0000 0000 0000 0000 0000 0000
000001d0: 0000 0000 0000 0000 0000 0000 0000 0000
000001e0: 0000 0000 0000 0000 0000 0000 0000 0000
000001f0: 0000 0000 0000 0000 0000 0000 0000 0000

network_body._body_endoder.seq_layers.2.weight f4 [128, 128]
0.08487904 -0.035022277 0.009694455 -0.09002472 -0.05233769 0.05200855 -0.0441819 0.07907692
0.12162572 -0.12684748 0.07110541 0.1147373 0.005952407 -0.021186136 -0.068145566 0.080041416
-0.019241953 -0.020285318 0.050921153 0.06021557 -0.14772955 0.10928053 0.12672052 -0.10286695
0.019909447 -0.015472575 -0.001841592 -0.017016117 0.023832312 0.104624115 0.10909567 -0.027495313
0.04985877 0.02114983 -0.09042117 0.0438087 -0.009623992 0.096201025 0.10133833 0.117168576
-0.113279186 0.060435303 0.012661514 -0.09182986 0.08460329 -0.02855554 0.14426985 0.021208076
-0.0031251844 -0.031587187 -0.06428603 0.03320587 0.06790571 -0.06918809 0.048750836 0.02140325
0.0826372 0.043036852 0.012433249 -0.113203265 -0.025164735 0.11004599 0.051115107 0.18402742
0.09733395 -0.11864945 0.043800276 0.06728965 -0.04959997 0.059934355 -0.0040235976 -0.009236669
-0.18174495 0.010474115 -0.041279513 -0.110976994 0.023656072 0.06379741 0.06476217 0.0159773
-0.069688566 0.089941956 -0.012874742 -0.03810827 -0.002245074 0.160419 -0.03475204 0.17362365
-0.017341653 -0.04322514 -0.09559991 0.020495953 0.006022065 0.04237123 0.032389846 0.0038507243
-0.066886865 0.09071012 -0.02465087 0.005121605 -0.0052802935 -0.092567794 0.013540368 0.007642451
-0.06902182 0.01725081 0.1331142 -0.09747312 -0.06855335 0.08208494 -0.04062813 -0.035057157
0.108398356 0.036292326 -0.0011382952 -0.12764098 -0.01983972 -0.0803139 0.034141026 -0.04219832
0.061398547 0.12935786 -0.055900734 -0.038252063 0.13467903 -0.10699892 0.028979532 -0.030697556
-0.13472171 0.025409028 0.029612701 0.0023901763 -0.032329984 -0.118504405 -0.064771876 -0.17493434
0.17248333 0.025641786 0.08061054 -0.047414724 0.004357793 -0.0093059605 0.12301384 -0.0012188144
-0.0012234446 -0.03418925 -0.11082051 -0.075050026 -0.07579744 0.02123826 -0.04771429 -0.031406835
0.19054915 -0.057222333 0.0020164768 0.08714017 -0.017590648 -0.0024779201 -0.034032356 -0.0001505496
0.024550851 -0.094947815 0.11193357 0.08045637 0.039790496 0.017464265 0.11846467 -0.100222535
0.026654141 0.04482763 0.098673336 0.08364455 -0.10525068 -0.032959837 0.078216426 -0.0017106445
-0.00089513906 -0.06577179 0.043617424 0.08719071 -0.066213384 -0.0030300266 0.015913768 -0.158149
0.13180281 0.027561802 0.013260211 0.073905826 0.03424812 0.04709194 -0.0905471 0.02375512
-0.094428904 0.016178656 -0.06283756 0.06845404 -0.10688646 0.1793274 -0.018915325 -0.014311091
0.18589145 0.023459818 -0.017502962 -0.08471237 0.056419298 -0.074570425 -0.020701712 -0.0053582625
-0.008586778 0.18110189 0.06833743 0.10336609 -0.029534241 0.050474297 0.04175734 0.08840488
0.06965836 -0.15207651 0.11287195 -0.11732614 -0.051130887 0.050511703 0.048126336 -0.030303122
0.0023264887 0.05322315 -0.062421743 0.06386469 0.036887314 0.0036658237 0.145696 -0.05882277
-0.01940967 0.083965115 0.025533108 0.098198466 -0.12567702 0.09664368 0.0337213 -0.051116597
-0.06674988 0.044432804 0.057645783 0.03571936 -0.01062773 -0.12663278 -0.12126137 0.005297563
-0.14864965 0.092740074 -0.073152125 0.026257856 0.08339716 -0.043297745 -0.06783408 0.08108327
00000000: 10d5 ad3d 8573 0fbd 7ed5 1e3c e15e b8bd
00000010: 0c60 56bd eb06 553d 14f8 34bd 15f3 a13d
00000020: e816 f93d 4ee4 01be b79f 913d 64fb ea3d
00000030: 690c c33b 8c8e adbc e78f 8bbd c1ec a33d
00000040: 4da1 9dbc 652d a6bc b392 503d 9aa4 763d
00000050: 6a46 17be 78ce df3d 06c3 013e e8ab d2bd
00000060: 2319 a33c af80 7dbc 9361 f1ba 6265 8bbc
00000070: fb3b c33c 2b45 d63d 8d6d df3d da3d e1bc
00000080: b638 4c3d 6942 ad3c bc2e b9bd c070 333d
00000090: f3ad 1dbc 0b05 c53d 788a cf3d 14f6 ef3d
000000a0: ebfe e7bd 028b 773d 3d72 4f3c 4b11 bcbd
000000b0: 7d44 ad3d 4fed e9bc 7abb 133e 8fbc ad3c
000000c0: e5cf 4cbb 9161 01bd 65a8 83bd e102 083d
000000d0: 2612 8b3d 7cb2 8dbd f5ae 473d de55 af3c
000000e0: b13d a93d 6947 303d d3b4 4b3c 1dd7 e7bd
000000f0: 4626 cebc cb5f e13d 135e 513d af71 3c3e
00000100: 0657 c73d 7cfe f2bd eb67 333d 28cf 893d
00000110: 5729 4bbd ba7d 753d 62d8 83bb 6655 17bc
00000120: 591b 3abe 9f9b 2b3c b514 29bd e847 e3bd
00000130: 61ca c13c 37a8 823d 07a2 843d d4e2 823c
00000140: e1b8 8ebd 7d33 b83d 95f0 52bc 6b17 1cbd
00000150: 1722 13bb e144 243e 2858 0ebd 66ca 313e
00000160: 1510 8ebc d80c 31bd e3c9 c3bd 21e7 a73c
00000170: be54 c53b 748d 2d3d 37ab 043d 6f5c 7c3b
00000180: fbfb 88bd 3ac6 b93d 9ff0 c9bc 23d3 a73b
00000190: 5006 adbb 2f94 bdbd 6bd8 5d3c 876d fa3b
000001a0: 505b 8dbd 9251 8d3c 174f 083e fd9f c7bd
000001b0: b365 8cbd 261c a83d af69 26bd 1898 0fbd
000001c0: f5ff dd3d 43a7 143d d932 95ba 51b4 02be
000001d0: e986 a2bc 9d7b a4bd 76d7 0b3d 25d8 2cbd
000001e0: 0b7d 7b3d 6376 043e 2bf8 64bd 32ae 1cbd
000001f0: 4de9 093e 4022 dbbd 7c66 ed3c 7179 fbbc
00000200: 7df4 09be 9826 d03c 5696 f23c 81a4 1c3b
00000210: 726c 04bd 70b2 f2bd 1ea7 84bd fd21 33be
00000220: 789f 303e b90e d23c 2417 a53d f135 42bd
00000230: d1cb 8e3b 0778 18bc aeee fb3d a0c0 9fba
00000240: fd5b a0ba 070a 0cbd ddf5 e2bd d4b3 99bd
00000250: b03b 9bbd dcfb ad3c 0f70 43bd 74a4 00bd
00000260: 511f 433e f761 6abd de26 043b 8c76 b23d
00000270: 431a 90bc 9a64 22bb 8365 0bbd dadc 1db9
00000280: de1e c93c 0074 c2bd 6d3d e53d 4fc6 a43d
00000290: 5cfb 223d 3811 8f3c 9b9d f23d 7941 cdbd
000002a0: c959 da3c 2d9d 373d 3f15 ca3d d54d ab3d
000002b0: ab8d d7bd e500 07bd ef2f a03d b437 e0ba
000002c0: c4a7 6aba 5cb3 86bd 2fa8 323d 0b91 b23d
000002d0: e29a 87bd 6993 46bb 975d 823c d0f1 21be
000002e0: 51f7 063e 4ac9 e13c 5b41 593c f05b 973d
000002f0: c247 0c3d 7ae3 403d c270 b9bd 199a c23c
00000300: f163 c1bd 1a89 843c fbb0 80bd a231 8c3d
00000310: 4ae7 dabd 9aa1 373e 50f4 9abc 1179 6abc
00000320: 545a 3e3e ce2e c03c 5f62 8fbc ae7d adbd
00000330: ec17 673d 61b8 98bd a396 a9bc 5d94 afbb
00000340: 8faf 0cbc c672 393e 7ff4 8b3d 9ab1 d33d
00000350: cbf1 f1bc 23be 4e3d bf09 2b3d 9e0d b53d
00000360: 0ba9 8e3d f2b9 1bbe 6929 e73d b048 f0bd
00000370: 9f6e 51bd 5ce5 4e3d 1f20 453d 413e f8bc
00000380: 0178 183b 8500 5a3d f1ad 7fbd 7ecb 823d
00000390: 2717 173d 513e 703b 5531 153e 25f0 70bd
000003a0: 0701 9fbc e7f5 ab3d cf2a d13c 471c c93d
000003b0: 7ab1 00be 1fed c53d 591f 0a3d a35f 51bd
000003c0: 29b4 88bd 2cff 353d fc1d 6c3d 774e 123d
000003d0: ee1f 2ebc 06ac 01be e257 f8bd 2e97 ad3b
000003e0: 9d37 18be 82ee bd3d c8d0 95bd b71a d73c
000003f0: 21cc aa3d fa58 31bd 98ec 8abd fc0e a63d

network_body._body_endoder.seq_layers.2.bias f4 [128]
0.0 0.0 0.0 0.0 0.0 0.0 0.0 0.0
0.0 0.0 0.0 0.0 0.0 0.0 0.0 0.0
0.0 0.0 0.0 0.0 0.0 0.0 0.0 0.0
0.0 0.0 0.0 0.0 0.0 0.0 0.0 0.0
0.0 0.0 0.0 0.0 0.0 0.0 0.0 0.0
0.0 0.0 0.0 0.0 0.0 0.0 0.0 0.0
0.0 0.0 0.0 0.0 0.0 0.0 0.0 0.0
0.0 0.0 0.0 0.0 0.0 0.0 0.0 0.0
0.0 0.0 0.0 0.0 0.0 0.0 0.0 0.0
0.0 0.0 0.0 0.0 0.0 0.0 0.0 0.0
0.0 0.0 0.0 0.0 0.0 0.0 0.0 0.0
0.0 0.0 0.0 0.0 0.0 0.0 0.0 0.0
0.0 0.0 0.0 0.0 0.0 0.0 0.0 0.0
0.0 0.0 0.0 0.0 0.0 0.0 0.0 0.0
0.0 0.0 0.0 0.0 0.0 0.0 0.0 0.0
0.0 0.0 0.0 0.0 0.0 0.0 0.0 0.0
00000000: 0000 0000 0000 0000 0000 0000 0000 0000
00000010: 0000 0000 0000 0000 0000 0000 0000 0000
00000020: 0000 0000 0000 0000 0000 0000 0000 0000
00000030: 0000 0000 0000 0000 0000 0000 0000 0000
00000040: 0000 0000 0000 0000 0000 0000 0000 0000
00000050: 0000 0000 0000 0000 0000 0000 0000 0000
00000060: 0000 0000 0000 0000 0000 0000 0000 0000
00000070: 0000 0000 0000 0000 0000 0000 0000 0000
00000080: 0000 0000 0000 0000 0000 0000 0000 0000
00000090: 0000 0000 0000 0000 0000 0000 0000 0000
000000a0: 0000 0000 0000 0000 0000 0000 0000 0000
000000b0: 0000 0000 0000 0000 0000 0000 0000 0000
000000c0: 0000 0000 0000 0000 0000 0000 0000 0000
000000d0: 0000 0000 0000 0000 0000 0000 0000 0000
000000e0: 0000 0000 0000 0000 0000 0000 0000 0000
000000f0: 0000 0000 0000 0000 0000 0000 0000 0000
00000100: 0000 0000 0000 0000 0000 0000 0000 0000
00000110: 0000 0000 0000 0000 0000 0000 0000 0000
00000120: 0000 0000 0000 0000 0000 0000 0000 0000
00000130: 0000 0000 0000 0000 0000 0000 0000 0000
00000140: 0000 0000 0000 0000 0000 0000 0000 0000
00000150: 0000 0000 0000 0000 0000 0000 0000 0000
00000160: 0000 0000 0000 0000 0000 0000 0000 0000
00000170: 0000 0000 0000 0000 0000 0000 0000 0000
00000180: 0000 0000 0000 0000 0000 0000 0000 0000
00000190: 0000 0000 0000 0000 0000 0000 0000 0000
000001a0: 0000 0000 0000 0000 0000 0000 0000 0000
000001b0: 0000 0000 0000 0000 0000 0000 0000 0000
000001c0: 0000 0000 0000 0000 0000 0000 0000 0000
000001d0: 0000 0000 0000 0000 0000 0000 0000 0000
000001e0: 0000 0000 0000 0000 0000 0000 0000 0000
000001f0: 0000 0000 0000 0000 0000 0000 0000 0000

action_model._continuous_distribution.log_sigma f4 [1, 39]
0.0 0.0 0.0 0.0 0.0 0.0 0.0 0.0
0.0 0.0 0.0 0.0 0.0 0.0 0.0 0.0
0.0 0.0 0.0 0.0 0.0 0.0 0.0 0.0
0.0 0.0 0.0 0.0 0.0 0.0 0.0 0.0
0.0 0.0 0.0 0.0 0.0 0.0 0.0
00000000: 0000 0000 0000 0000 0000 0000 0000 0000
00000010: 0000 0000 0000 0000 0000 0000 0000 0000
00000020: 0000 0000 0000 0000 0000 0000 0000 0000
00000030: 0000 0000 0000 0000 0000 0000 0000 0000
00000040: 0000 0000 0000 0000 0000 0000 0000 0000
00000050: 0000 0000 0000 0000 0000 0000 0000 0000
00000060: 0000 0000 0000 0000 0000 0000 0000 0000
00000070: 0000 0000 0000 0000 0000 0000 0000 0000
00000080: 0000 0000 0000 0000 0000 0000 0000 0000
00000090: 0000 0000 0000 0000 0000 0000

action_model._continuous_distribution.mu.weight f4 [39, 128]
0.014672366 -0.002272116 0.0064168046 -0.021580637 -0.013771904 0.018193712 0.024526859 0.009984965
-0.0048653646 0.02225023 -0.018266136 -0.02316491 0.027196333 0.006657229 0.012170005 -0.007221094
-0.018040195 -0.017343806 0.010760303 0.037378933 0.008252597 -0.020068755 -0.0023003307 -0.015223055
-0.0031264094 0.004379762 0.0075995373 0.008793995 4.3665186e-05 0.022926748 -0.032244362 0.02964717
-0.03344205 0.01529059 -1.8419156e-06 0.006936913 -0.02311504 -0.001437075 0.008405531 -0.016851665
-0.0024388116 0.0036162422 -0.0023553872 0.0143638505 0.0026062971 0.009916483 0.0040811505 0.005768161
-0.024358664 -0.023371933 -0.061971992 -0.011808584 -0.037128348 0.017125092 -0.014202836 -0.010105362
0.005323978 -0.009676317 0.0007677127 0.028014738 -0.023255609 -0.003264457 -0.022114037 -0.0069166617
-0.0131043885 -0.024119204 0.030299205 -0.018064154 -0.0085397335 -0.017524868 0.019660141 0.027891982
0.00027621488 -0.008448473 -0.036539104 -0.007740751 0.033426184 -0.010671473 0.010643917 0.00767954
0.02489859 -0.0012164661 -0.009083348 -0.020353593 0.04906645 0.0131730335 0.011945132 0.021662442
0.006286265 0.018079456 0.025693133 -0.009617388 -0.03604961 -0.023028491 -0.011153036 0.03223961
-0.021970814 0.025373394 0.009483211 0.020718593 -0.017511835 0.004660039 -0.0014496753 -0.0022381616
0.023021169 -0.034014504 0.0007384294 0.009577404 -0.009524394 -0.0425636 -0.020355362 0.030482678
-0.009623537 0.0077486807 -0.0045985137 0.009649779 0.019348776 -0.0332874 0.0062536146 -0.013164888
-0.012459862 0.011979575 0.03126658 -0.0059227194 0.0076553333 0.0037203871 0.024008488 -0.020992165
-0.010673475 -0.009955301 -0.026428884 0.017322408 0.015817277 -0.024483515 0.01512245 -0.007721526
-0.0046404167 -0.019118583 0.015893525 -0.004966748 0.01493852 -0.0085950345 0.01092446 0.015374916
-0.029603306 -0.008435021 -0.02996677 -0.008917942 0.0052648666 -0.012429877 0.0123597495 0.0058124117
0.0058195014 0.027843988 0.027900869 -0.00392867 2.3542609e-05 -0.0057551046 0.006613824 0.009617951
0.010547446 0.009123037 -0.01406117 -0.012923496 -0.00082927215 0.013555265 0.017375918 0.027384931
-0.02300704 -0.016242804 -0.024677454 -0.008451266 -0.0034387328 0.0011814823 -0.016835902 0.017138382
0.029653022 -0.011084761 0.0071425186 0.015592203 -0.0026941912 -0.030421874 0.013605619 -0.011772572
-0.004220535 -0.0025256446 0.023595765 -0.023069216 -0.015663764 0.024275718 0.016353551 0.014000739
0.0038602985 0.006328828 0.020096349 0.00606805 -0.020512149 -0.02012342 0.031441104 -0.006982682
0.010500467 -0.00054517377 0.009227414 -0.0012233331 0.028497284 -0.026593957 -0.039265987 0.022073176
0.002484206 0.003509219 0.0077300146 -0.001862611 -0.0072111026 -0.0018054814 -0.0024711543 0.00073423167
-0.030471712 -0.0002429434 0.011969483 0.021479916 -0.006231806 -0.013189748 0.0098227635 -0.017230785
0.016743382 0.014428777 -0.006187584 0.005324567 -0.0027912592 -0.0066150143 0.0070557804 0.012631779
0.008605898 -0.016856741 0.0022842844 0.008178959 0.025426272 0.015444405 0.03142914 -0.03907227
-0.0038716067 -0.025020897 -0.009368665 0.0020859116 0.012186134 0.013634871 0.019735364 -0.0034496065
0.01908922 0.0044621695 -0.014272711 -0.024556845 -0.024111738 0.041391656 0.006129036 0.02820389
00000000: 5d64 703c c8e7 14bb 0f44 d23b e0c9 b0bc
00000010: 8da3 61bc fb0a 953c 8dec c83c fb97 233c
00000020: a36d 9fbb 1d46 b63c dda2 95bc 56c4 bdbc
00000030: d8ca de3c e224 da3b b364 473c ed9e ecbb
00000040: 08c9 93bc 9914 8ebc fb4b 303c a71a 193d
00000050: e735 073c 3b67 a4bc 25c1 16bb 1f6a 79bc
00000060: 72e4 4cbb 1b84 8f3b 8a05 f93b b014 103c
00000070: 2325 3738 e0d0 bb3c aa12 04bd 9fde f23c
00000080: 88fa 08bd 6285 7a3c bd37 f7b5 0b4f e33b
00000090: c15b bdbc 3c5c bcba 5ab7 093c 810c 8abc
000000a0: 78d4 1fbb 7afe 6c3b d75c 1abb 5b56 6b3c
000000b0: 69ce 2a3b bf78 223c 2cbb 853b d702 bd3b
000000c0: d28b c7bc 7f76 bfbc 58d6 7dbd cb78 41bc
000000d0: e513 18bd ec49 8c3c 03b3 68bc f690 25bc
000000e0: c474 ae3b 6a89 1ebc 5440 493a 2a7f e53c
000000f0: 8c82 bebc 80f0 55bb 7f28 b5bc 2aa5 e2bb
00000100: cab3 56bc a395 c5bc 0a36 f83c 47fb 93bc
00000110: 3dea 0bbc 5090 8fbc 4e0e a13c ba7d e43c
00000120: efd0 9039 776b 0abc 07aa 15bd 20a6 fdbb
00000130: e5e9 083d 67d7 2ebc d363 2e3c a7a4 fb3b
00000140: 21f8 cb3c d471 9fba 53d2 14bc 94bc a6bc
00000150: e7f9 483d b5d3 573c 84b5 433c 6f75 b13c
00000160: 03fd cd3b 5e1b 943c 687a d23c 4092 1dbc
00000170: c1a8 13bd 3fa6 bcbc 39bb 36bc ae0d 043d
00000180: 23fc b3bc dddb cf3c 785f 1b3c 0aba a93c
00000190: fb74 8fbc 3eb3 983b 0803 beba 1fae 12bb
000001a0: e496 bc3c cb52 0bbd 2893 413a 8bea 1c3c
000001b0: 340c 1cbc 2b57 2ebd 4ac0 a6bc cfb6 f93c
000001c0: 0aac 1dbc a5e8 fd3b 21af 96bb 1b1a 1e3c
000001d0: 5381 9e3c 5e58 08bd 1feb cc3b 8bb1 57bc
000001e0: 7324 4cbc fb45 443c 6311 003d 5f13 c2bb
000001f0: 97d9 fa3b bdd1 733b 73ad c43c c3f7 abbc
00000200: cddf 2ebc 8f1b 23bc 6381 d8bc b9e7 8d3c
00000210: 3c93 813c a791 c8bc 27c4 773c db04 fdbb
00000220: a30e 98bb 939e 9cbc 2333 823c 1ac0 a2bb
00000230: b2c0 743c 30d2 0cbc 82fc 323c 12e7 7b3c
00000240: a282 f2bc 0b33 0abc df7c f5bc 8f1c 12bc
00000250: e784 ac3b afa6 4bbc 8c80 4a3c 0b76 be3b
00000260: 84b1 be3b 1319 e43c 5d90 e43c 13bc 80bb
00000270: 5e7d c537 5195 bcbb c7b8 d83b 9c94 1d3c
00000280: 32cf 2c3c ca78 153c d260 66bc 12bd 53bc
00000290: 8363 59ba e716 5e3c f157 8e3c 5d56 e03c
000002a0: 4379 bcbc a10f 85bc 5f28 cabc 2e77 0abc
000002b0: 5d5c 61bb f8db 9a3a 72eb 89bc cb65 8c3c
000002c0: e5ea f23c db9c 35bc ca0b ea3b 7076 7f3c
000002d0: 0791 30bb 4b37 f9bc 1aea 5e3c bfe1 40bc
000002e0: 6a4c 8abb 4985 25bb e84b c13c a7fb bcbc
000002f0: 4b51 80bc dfdd c63c e2f7 853c 5b63 653c
00000300: 10fd 7c3b 0f62 cf3b 19a1 a43c 7ed6 c63b
00000310: 1809 a8bc dfd9 a4bc 63c8 003d fbce e4bb
00000320: 270a 2c3c fee9 0eba 942e 173c 3f58 a0ba
00000330: 2373 e93c 92db d9bc 5fd5 20bd ced2 b43c
00000340: 10ce 223b edfa 653b 104c fd3b db22 f4ba
00000350: 1d4b ecbb e7a5 ecba 17f3 21bb 7479 403a
00000360: d09f f9bc 9fbe 7eb9 a71b 443c a6f6 af3c
00000370: 2d34 ccbb d019 58bc a8ef 203c 9327 8dbc
00000380: 6b29 893c ad66 6c3c 37c1 cabb b579 ae3b
00000390: 8fed 36bb c3c2 d8bb 2d34 e73b 85f5 4e3c
000003a0: c1ff 0c3c 2617 8abc efb3 153b 0a01 063c
000003b0: c24a d03c 880a 7d3c d8bb 003d 3f0a 20bd
000003c0: c8ba 7dbb a0f8 ccbc 077f 19bc cab3 083b
000003d0: 5aa8 473c cb64 5f3c 0fac a13c cb12 62bb
000003e0: ff60 9c3c 6437 923b 17d8 69bc 702b c9bc
000003f0: fb85 c5bc 4c8a 293d 15d6 c83b d80b e73c

action_model._continuous_distribution.mu.bias f4 [39]
0.0 0.0 0.0 0.0 0.0 0.0 0.0 0.0
0.0 0.0 0.0 0.0 0.0 0.0 0.0 0.0
0.0 0.0 0.0 0.0 0.0 0.0 0.0 0.0
0.0 0.0 0.0 0.0 0.0 0.0 0.0 0.0
0.0 0.0 0.0 0.0 0.0 0.0 0.0
00000000: 0000 0000 0000 0000 0000 0000 0000 0000
00000010: 0000 0000 0000 0000 0000 0000 0000 0000
00000020: 0000 0000 0000 0000 0000 0000 0000 0000
00000030: 0000 0000 0000 0000 0000 0000 0000 0000
00000040: 0000 0000 0000 0000 0000 0000 0000 0000
00000050: 0000 0000 0000 0000 0000 0000 0000 0000
00000060: 0000 0000 0000 0000 0000 0000 0000 0000
00000070: 0000 0000 0000 0000 0000 0000 0000 0000
00000080: 0000 0000 0000 0000 0000 0000 0000 0000
00000090: 0000 0000 0000 0000 0000 0000

network_body._body_endoder.seq_layers.0.weight f4 [128, 243]
-0.022856278 0.078928776 -0.040872082 0.07102038 0.026431583 0.022939065 0.014749079 -0.0011213613
0.012099567 -0.028213093 -0.04226848 -0.047981184 -0.035391472 -0.025409518 0.091581166 0.118546836
-0.08572062 -0.07275351 0.13045813 0.06546932 0.016112957 0.061575092 -0.01680405 -0.016373947
-0.0334256 -0.03637611 0.15141775 0.01918207 -0.05001511 -0.0038522722 0.040649883 0.14310269
-0.0019682646 -0.03109887 -0.08121209 -0.034488622 0.008978768 -0.042849272 -0.10596813 -0.080597825
-0.07655628 0.0066921148 -0.0075489134 -0.057598002 -0.055247333 0.008616843 0.04243023 0.028397705
0.0063901977 0.056199055 0.026157374 0.0073320405 0.08219659 0.06912367 -0.024211327 -0.068323195
-0.0042501027 0.017800907 -0.03287023 0.06924806 0.044183183 0.006601706 0.10896671 -0.12353573
-0.08118992 -0.06698601 0.016850326 0.078110725 -0.01258827 0.20223674 -0.09388318 0.07633934
-0.05068638 -0.089689896 -0.0027886692 -0.06500333 -0.030872235 -0.010409743 -0.0031591298 -0.046157196
0.09656399 0.09859386 0.05719969 0.04185186 -0.053719055 -0.13336915 -0.008475784 0.018022131
0.0071853125 -0.018845636 -0.079971276 0.075825445 0.1326319 0.09902003 -0.056549136 -0.039316844
0.029659552 0.04911396 -0.009671179 -0.04584525 0.11985323 0.065940894 -0.027077356 0.055961523
0.028854338 0.04096518 -0.046999566 -0.010849876 0.046359185 0.08790761 -0.002671238 0.044041146
-0.005385973 -0.06383849 -0.012188537 0.10101247 0.15023954 -0.044868432 -0.0053402893 -0.006628401
0.12079821 -0.006442804 0.13774215 0.02961011 0.004616032 -0.011682014 0.07862758 -0.008803063
0.07346564 -0.03605613 -0.13579158 0.06342768 0.05488719 0.06630288 0.016228933 -0.0843954
-0.05809 -0.07002569 0.04329669 0.017220998 0.06806126 0.0128336325 0.066838965 0.027917068
0.002498786 -0.059582077 -0.018519726 -0.040461108 -0.081898205 -0.08768807 0.0194584 0.0031020714
0.012162138 -0.0007241223 -0.022314556 0.022840431 -0.07217996 0.07688953 0.0065673613 0.028998815
-0.06198344 -0.06086589 0.06114405 0.04521296 -0.059713565 0.030944003 0.08502893 -0.05183465
-0.12291398 -0.013646279 0.06350943 0.08120707 -0.0170259 0.09897645 0.06157731 0.06700628
0.012719305 -0.10220168 0.04057546 0.026273128 0.15879053 -0.12763074 -0.040914718 -0.038476598
0.059039563 -0.04380029 0.0013168281 -0.13809875 0.016886896 0.048520043 -0.062878534 0.017846592
-0.099477656 -0.031219156 -0.036111217 0.048402347 -0.023532132 -0.007671576 0.07942762 -0.10535766
0.08864335 -0.042400204 -0.094164096 0.048129622 0.104513526 -0.048768673 -0.0076709264 -0.09903222
0.0208134 -0.0080852425 0.049960125 0.08929005 0.06938893 -0.024543779 0.0048282226 -0.11397318
-0.058642343 -0.0918859 -0.038109902 0.070906945 0.025123082 0.10795161 -0.0006821549 0.07045979
-0.020997928 -0.03320069 0.11234944 0.10680604 -0.05836939 -0.074580245 -0.0038539227 0.058719344
0.08112425 0.007873798 0.023142977 -0.019612245 -0.007352019 -0.032095186 0.017120507 -0.10707912
-0.013443182 0.06448846 -0.0062285033 0.027874658 -0.024472544 -0.035036687 0.0029849596 -0.024722906
-0.016303832 -0.045565188 0.038794808 0.03312051 -0.053396918 0.033322915 -0.029417465 -0.036706388
00000000: 173d bbbc 69a5 a13d 7c69 27bd 2273 913d
00000010: 0c87 d83c b5ea bb3c 1fa6 713c a4fa 92ba
00000020: 433d 463c 251f e7bc b721 2dbd eb87 44bd
00000030: a6f6 10bd 9f27 d0bc e88e bb3d afc8 f23d
00000040: 4b8e afbd cbff 94bd d196 053e c714 863d
00000050: 52ff 833c 2a36 7c3d a6a8 89bc a822 86bc
00000060: 48e9 08bd 1eff 14bd 410d 1b3e b723 9d3c
00000070: a5dc 4cbd 6776 7cbb 7e80 263d 8389 123e
00000080: 00fe 00bb 0fc3 febc 8652 a6bd f143 0dbd
00000090: af1b 133c b882 2fbd d205 d9bd 7910 a5bd
000000a0: 8ac9 9cbd 8749 db3b e05c f7bb e2eb 6bbd
000000b0: 074b 62bd a92d 0d3c 52cb 2d3d 4ea2 e83c
000000c0: dd64 d13b fb30 663d fd47 d63c 9d41 f03b
000000d0: b056 a83d b690 8d3d d556 c6bc 08ed 8bbd
000000e0: 7244 8bbb 35d3 913c efa2 06bd edd1 8d3d
000000f0: 6df9 343d 2053 d83b f029 df3d 4d00 fdbd
00000100: e746 a6bd f62f 89bd b209 8a3c 84f8 9f3d
00000110: 083f 4ebc 2617 4f3e d345 c0bd cd57 9c3d
00000120: 869c 4fbd 56af b7bd 1bc2 36bb 7720 85bd
00000130: c5e7 fcbc a08d 2abc 6709 4fbb 540f 3dbd
00000140: 57c3 c53d 94eb c93d 394a 6a3d db6c 2b3d
00000150: 8308 5cbd ec91 08be 04de 0abc 26a3 933c
00000160: c572 eb3b 2a62 9abc fbc7 a3bd 5f4a 9b3d
00000170: a8d0 073e 03cb ca3d 11a0 67bd b30a 21bd
00000180: 97f8 f23c b82b 493d dd73 1ebc 3bc8 3bbd
00000190: 9c75 f53d 050c 873d 55d1 ddbc e937 653d
000001a0: ef5f ec3c 1bcb 273d 9e82 40bd aec3 31bc
000001b0: 21e3 3d3d e808 b43d f00f 2fbb 7d64 343d
000001c0: d17c b0bb c1bd 82bd 6eb2 47bc a0df ce3d
000001d0: 65d8 193e f6c7 37bd 98fd aebb 0f33 d9bb
000001e0: 0d65 f73d 281e d3bb 470c 0d3e e790 f23c
000001f0: 1542 973b eb65 3fbc 7f07 a13d b93a 10bc
00000200: 2775 963d 98af 13bd f30c 0bbe 5fe6 813d
00000210: 64d1 603d cec9 873d 8af2 843c 7fd7 acbd
00000220: c8ef 6dbd a169 8fbd df57 313d 0d13 8d3c
00000230: b463 8b3d 2844 523c dee2 883d 56b2 e43c
00000240: acc2 233b 560c 74bd aeb6 97bc 8cba 25bd
00000250: 3fba a7bd ce95 b3bd 3967 9f3c 1f4c 4b3b
00000260: b443 473c 06d3 3dba 04cd b6bc db1b bb3c
00000270: 16d3 93bd 4278 9d3d 0533 d73b ec8e ed3c
00000280: 59e2 7dbd 834e 79bd 2f72 7a3d 3a31 393d
00000290: 3696 74bd 477e fd3c a623 ae3d 9250 54bd
000002a0: 53ba fbbd a594 5fbc 3b11 823d e44f a63d
000002b0: e679 8bbc 2ab4 ca3d 7d38 7c3d 973a 893d
000002c0: a264 503c 1d4f d1bd 7432 263d be3a d73c
000002d0: fc99 223e a2b1 02be 3196 27bd a399 1dbd
000002e0: 78d3 713d ef67 33bd 6b99 ac3a c269 0dbe
000002f0: 6356 8a3c f4bc 463d 76c6 80bd 0433 923c
00000300: f1ba cbbd 51bf ffbc 5be9 13bd 8a41 463d
00000310: 75c6 c0bc d861 fbbb f3aa a23d c2c5 d7bd
00000320: a58a b53d d6ab 2dbd 1bd9 c0bd 9123 453d
00000330: 300b d63d a9c1 47bd 655c fbbb 68d1 cabd
00000340: dd80 aa3c f777 04bc fda2 4c3d b4dd b63d
00000350: c91b 8e3d 0910 c9bc 1136 9e3b c56a e9bd
00000360: f432 70bd ad2e bcbd 2119 1cbd a937 913d
00000370: ecce cd3c bc15 dd3d a4d2 32ba 394d 903d
00000380: d903 acbc 72fd 07bd 7717 e63d 20bd da3d
00000390: be14 6fbd 87bd 98bd 1892 7cbb b283 703d
000003a0: 7924 a63d 1a01 013c 5796 bd3c dca9 a0bc
000003b0: 35e9 f0bb 3e76 03bd 4e40 8c3c 4c4c dbbd
000003c0: cb40 5cbc 8712 843d 7918 ccbb 6559 e43c
000003d0: a57a c8bc a182 0fbd 509f 433b b187 cabc
000003e0: 9d8f 85bc 90a2 3abd 4ee7 1e3d 5fa9 073d
000003f0: bab6 5abd 9c7d 083d e5fc f0bc 7059 16bd

network_body._body_endoder.seq_layers.0.bias f4 [128]
0.0 0.0 0.0 0.0 0.0 0.0 0.0 0.0
0.0 0.0 0.0 0.0 0.0 0.0 0.0 0.0
0.0 0.0 0.0 0.0 0.0 0.0 0.0 0.0
0.0 0.0 0.0 0.0 0.0 0.0 0.0 0.0
0.0 0.0 0.0 0.0 0.0 0.0 0.0 0.0
0.0 0.0 0.0 0.0 0.0 0.0 0.0 0.0
0.0 0.0 0.0 0.0 0.0 0.0 0.0 0.0
0.0 0.0 0.0 0.0 0.0 0.0 0.0 0.0
0.0 0.0 0.0 0.0 0.0 0.0 0.0 0.0
0.0 0.0 0.0 0.0 0.0 0.0 0.0 0.0
0.0 0.0 0.0 0.0 0.0 0.0 0.0 0.0
0.0 0.0 0.0 0.0 0.0 0.0 0.0 0.0
0.0 0.0 0.0 0.0 0.0 0.0 0.0 0.0
0.0 0.0 0.0 0.0 0.0 0.0 0.0 0.0
0.0 0.0 0.0 0.0 0.0 0.0 0.0 0.0
0.0 0.0 0.0 0.0 0.0 0.0 0.0 0.0
00000000: 0000 0000 0000 0000 0000 0000 0000 0000
00000010: 0000 0000 0000 0000 0000 0000 0000 0000
00000020: 0000 0000 0000 0000 0000 0000 0000 0000
00000030: 0000 0000 0000 0000 0000 0000 0000 0000
00000040: 0000 0000 0000 0000 0000 0000 0000 0000
00000050: 0000 0000 0000 0000 0000 0000 0000 0000
00000060: 0000 0000 0000 0000 0000 0000 0000 0000
00000070: 0000 0000 0000 0000 0000 0000 0000 0000
00000080: 0000 0000 0000 0000 0000 0000 0000 0000
00000090: 0000 0000 0000 0000 0000 0000 0000 0000
000000a0: 0000 0000 0000 0000 0000 0000 0000 0000
000000b0: 0000 0000 0000 0000 0000 0000 0000 0000
000000c0: 0000 0000 0000 0000 0000 0000 0000 0000
000000d0: 0000 0000 0000 0000 0000 0000 0000 0000
000000e0: 0000 0000 0000 0000 0000 0000 0000 0000
000000f0: 0000 0000 0000 0000 0000 0000 0000 0000
00000100: 0000 0000 0000 0000 0000 0000 0000 0000
00000110: 0000 0000 0000 0000 0000 0000 0000 0000
00000120: 0000 0000 0000 0000 0000 0000 0000 0000
00000130: 0000 0000 0000 0000 0000 0000 0000 0000
00000140: 0000 0000 0000 0000 0000 0000 0000 0000
00000150: 0000 0000 0000 0000 0000 0000 0000 0000
00000160: 0000 0000 0000 0000 0000 0000 0000 0000
00000170: 0000 0000 0000 0000 0000 0000 0000 0000
00000180: 0000 0000 0000 0000 0000 0000 0000 0000
00000190: 0000 0000 0000 0000 0000 0000 0000 0000
000001a0: 0000 0000 0000 0000 0000 0000 0000 0000
000001b0: 0000 0000 0000 0000 0000 0000 0000 0000
000001c0: 0000 0000 0000 0000 0000 0000 0000 0000
000001d0: 0000 0000 0000 0000 0000 0000 0000 0000
000001e0: 0000 0000 0000 0000 0000 0000 0000 0000
000001f0: 0000 0000 0000 0000 0000 0000 0000 0000

network_body._body_endoder.seq_layers.2.weight f4 [128, 128]
-0.019784309 0.048934728 0.058789317 -0.09210177 -0.13772556 0.1384951 -0.12715463 -0.22404094
0.0068553924 0.19353938 -0.004125452 0.06695665 -0.08827669 0.016330035 -0.17727879 -0.12114263
0.18224661 -0.006981881 -0.0591609 -0.032935023 0.09783082 -0.15301627 0.055663653 0.037170146
-0.058481 -0.022073748 -0.04093353 -0.10753806 0.020692838 -0.036774535 0.04471143 0.099824935
0.06538342 0.15774356 0.07369827 0.07202046 0.010208194 -0.18557036 -0.10432972 -0.07674889
0.00020742624 -0.03827842 -0.005473168 0.004503953 -0.016091434 -0.017480612 0.083896175 -0.011519682
0.00032367505 -0.040952414 0.08951265 -0.06054459 0.03397724 -0.101069935 0.050508898 -0.05153079
0.10245308 0.15095116 0.012776535 -0.114560045 0.066061735 0.0553598 0.06796235 0.021618234
-0.03883868 0.05864891 0.102663115 -0.06477095 0.13449901 -0.018273264 -0.046599273 0.09101686
0.13714068 0.12248275 0.07770606 -0.061638415 -0.037391644 -0.109679855 -0.11748493 0.13886
-0.08782105 0.0183289 0.040873863 0.076167464 0.01099676 0.034917306 -0.086190455 -0.05748045
0.078489415 0.03442614 0.17023611 0.2009963 -0.0018138161 -0.073676445 0.10767689 0.018336236
0.037393875 -0.09298269 -0.013114866 -0.062046297 0.17103851 0.071181715 0.08576128 -0.03559896
0.024088249 -0.11486975 -0.109627984 -0.0849054 -0.00029944957 0.13909414 0.07866066 -0.060202975
0.04641739 0.020374663 -0.0544735 -0.0385372 0.119714424 0.09713099 0.025936222 -0.0031284373
-0.08807804 0.051493537 0.16913873 0.012159183 0.0013609466 -0.11321227 0.043024 -0.053256176
0.10920717 0.13257556 0.12697358 -0.13867936 0.06694535 -0.031229714 -0.17933746 0.045415368
-0.04624418 -0.02540978 0.072868474 -0.09395547 0.18671714 -0.0028130182 -0.049941152 0.19717333
0.04442107 0.0604838 -0.17758042 0.072354384 -0.17952943 -0.082530975 -0.060088325 0.07582487
-0.04049087 0.084639035 -0.11763397 0.03203016 0.015900446 0.061684985 -0.06461225 -0.08394013
-0.20021693 0.078038655 -0.19634396 0.039423026 -0.0041505964 0.0063191196 -0.11064227 0.006683217
0.012520132 -0.027978674 -0.054266125 -0.10110757 -0.028311828 0.10656683 -0.15538234 -0.04849887
0.04094216 -0.005178799 -0.026443567 0.020945704 0.03321289 -0.029768353 0.005694427 0.004738827
-0.023221815 -0.051833507 -0.051579263 0.01669719 -0.015103436 -0.038086288 0.08155953 0.05940083
-0.119472645 -0.14169544 -0.011601468 0.023319956 -0.1294566 0.17100763 -0.0964603 0.035866927
0.04177754 0.113886535 -0.071846105 -0.038723685 -0.028987462 -0.052576765 -0.010838133 -0.13642964
-0.00810684 0.065615796 -0.17724527 -0.14256087 -0.013133075 -0.12869518 -0.094253905 0.04095463
0.028648317 0.05382598 -0.02783632 0.1111423 -0.03087562 -0.012626467 -0.03968247 -0.12049787
-0.03696403 0.0118966745 -0.088147536 0.069560155 -0.04699547 -0.090287335 0.08818701 0.045305684
-0.1102702 -0.021981383 0.14083095 -0.074413374 -0.01266525 0.13550462 0.06142967 0.049089868
0.033682182 0.07643816 0.0014187419 -0.033536434 -0.00027039237 -0.112243116 0.057226364 -0.035230584
-0.08890847 -0.06700587 0.07404036 -0.07823793 0.2624226 0.041183814 0.08340021 0.0030571197
00000000: b412 a2bc c86f 483d 11cd 703d da9f bcbd
00000010: ee07 0dbe a9d1 0d3e d334 02be fd6a 65be
00000020: 33a3 e03b 302f 463e cd2e 87bb 9120 893d
00000030: 69ca b4bd 91c6 853c 9288 35be a119 f8bd
00000040: db9e 3a3e 43c8 e4bb b352 72bd e0e6 06bd
00000050: 865b c83d 4cb0 1cbe 92ff 633d b93f 183d
00000060: c689 6fbd 01d4 b4bc eba9 27bd ea3c dcbd
00000070: 0784 a93c e5a0 16bd 5523 373d 0471 cc3d
00000080: bee7 853d 8787 213e 1eef 963d 777f 933d
00000090: 4540 273c 2806 3ebe d2aa d5bd 862e 9dbd
000000a0: 8f80 5939 d5c9 1cbd 4358 b3bb e595 933b
000000b0: 2fd2 83bc 8033 8fbc c2d1 ab3d 0cbd 3cbc
000000c0: eeb2 a939 b8bd 27bd 6952 b73d 9bfd 77bd
000000d0: b82b 0b3d c1fd cebd 6be2 4e3d f311 53bd
000000e0: ecd2 d13d f192 1a3e ac54 513c 759e eabd
000000f0: 604b 873d f5c0 623d d82f 8b3d b918 b13c
00000100: 4f15 1fbd d739 703d 0a41 d23d a2a6 84bd
00000110: 1cba 093e d0b1 95bc e1de 3ebd 0c67 ba3d
00000120: 9b6e 0c3e 3cd8 fa3d 5b24 9f3d 9078 7cbd
00000130: fb27 19bd d59f e0bd f09b f0bd 5131 0e3e
00000140: 86db b3bd 7d26 963c 5a6b 273d b0fd 9b3d
00000150: c12b 343c 7305 0f3d 9f84 b0bd 9f70 6bbd
00000160: 0fbf a03d 6d02 0d3d 6052 2e3e f9d1 4d3e
00000170: 92bd edba ade3 96bd b485 dc3d e035 963c
00000180: 522a 193d b56d bebd bcdf 56bc 4224 7ebd
00000190: b824 2f3e b8c7 913d 9ca3 af3d 37d0 11bd
000001a0: b854 c53c d540 ebbd a384 e0bd e2e2 adbd
000001b0: 71ff 9cb9 b26e 0e3e d718 a13d 6597 76bd
000001c0: 2920 3e3d c4e8 a63c 9b1f 5fbd 2fd9 1dbd
000001d0: d62c f53d 9dec c63d 3378 d43c 7806 4dbb
000001e0: 4262 b4bd e3ea 523d b432 2d3e 4f37 473c
000001f0: ca61 b23a d6db e7bd ef39 303d 2623 5abd
00000200: 02a8 df3d e3c1 073e 5d05 023e f601 0ebe
00000210: a51a 893d 75d5 ffbc 3da4 37be 7705 3a3d
00000220: 8a6a 3dbd 2c28 d0bc 113c 953d ba6b c0bd
00000230: c732 3f3e 9d5a 38bb 188f 4cbd cee7 493e
00000240: def2 353d dcbd 773d a4d7 35be 892e 943d
00000250: 90d6 37be 0006 a9bd 2d1f 76bd 124a 9b3d
00000260: c1d9 25bd 3b57 ad3d 14ea f0bd 0f32 033d
00000270: a741 823c 65a9 7c3d 6d53 84bd cee8 abbd
00000280: ab05 4dbe bbd2 9f3d 640e 49be 0a7a 213d
00000290: ba01 88bb 9e10 cf3b 6a98 e2bd e3fe da3b
000002a0: 3d21 4d3c 8833 e5bc 2846 5ebd 7c11 cfbd
000002b0: 35ee e7bc b63f da3d 8c1c 1fbe c0a6 46bd
000002c0: f7b2 273d eab2 a9bb 2ea0 d8bc 5396 ab3c
000002d0: 3d0a 083d c3dc f3bc 5198 ba3b 2948 9b3b
000002e0: ad3b bebc 5f4f 54bd c744 53bd 8cc8 883c
000002f0: 6774 77bc 5e00 1cbd af08 a73d 494e 733d
00000300: 13ae f4bd 9c18 11be 1514 3ebc 7e09 bf3c
00000310: 4590 04be a01c 2f3e fa8c c5bd 33e9 123d
00000320: ed1e 2b3d 583d e93d 0d24 93bd ba9c 1ebd
00000330: 1d77 edbc bc5a 57bd 6d92 31bc 36b4 0bbe
00000340: 8dd2 04bc 9361 863d c97f 35be 7afb 11be
00000350: 1c2c 57bc abc8 03be 3108 c1bd 0bc0 273d
00000360: e0af ea3c a178 5c3d ff08 e4bc 939e e33d
00000370: deee fcbc 3edf 4ebc 168a 22bd 96c7 f6bd
00000380: 9867 17bd 45ea 423c b286 b4bd 8e75 8e3d
00000390: 527e 40bd 91e8 b8bd 649b b43d 7492 393d
000003a0: 58d5 e1bd 4d12 b4bc fd35 103e 0a66 98bd
000003b0: e981 4fbc b9c1 0a3e ad9d 7b3d 7512 493d
000003c0: 54f6 093d 9c8b 9c3d 14f5 b93a 805d 09bd
000003d0: 73c3 8db9 b8df e5bd 3166 6a3d f24d 10bd
000003e0: a515 b6bd 603a 89bd 79a2 973d 353b a0bd
000003f0: 415c 863e 5cb0 283d bbcd aa3d f559 483b

network_body._body_endoder.seq_layers.2.bias f4 [128]
0.0 0.0 0.0 0.0 0.0 0.0 0.0 0.0
0.0 0.0 0.0 0.0 0.0 0.0 0.0 0.0
0.0 0.0 0.0 0.0 0.0 0.0 0.0 0.0
0.0 0.0 0.0 0.0 0.0 0.0 0.0 0.0
0.0 0.0 0.0 0.0 0.0 0.0 0.0 0.0
0.0 0.0 0.0 0.0 0.0 0.0 0.0 0.0
0.0 0.0 0.0 0.0 0.0 0.0 0.0 0.0
0.0 0.0 0.0 0.0 0.0 0.0 0.0 0.0
0.0 0.0 0.0 0.0 0.0 0.0 0.0 0.0
0.0 0.0 0.0 0.0 0.0 0.0 0.0 0.0
0.0 0.0 0.0 0.0 0.0 0.0 0.0 0.0
0.0 0.0 0.0 0.0 0.0 0.0 0.0 0.0
0.0 0.0 0.0 0.0 0.0 0.0 0.0 0.0
0.0 0.0 0.0 0.0 0.0 0.0 0.0 0.0
0.0 0.0 0.0 0.0 0.0 0.0 0.0 0.0
0.0 0.0 0.0 0.0 0.0 0.0 0.0 0.0
00000000: 0000 0000 0000 0000 0000 0000 0000 0000
00000010: 0000 0000 0000 0000 0000 0000 0000 0000
00000020: 0000 0000 0000 0000 0000 0000 0000 0000
00000030: 0000 0000 0000 0000 0000 0000 0000 0000
00000040: 0000 0000 0000 0000 0000 0000 0000 0000
00000050: 0000 0000 0000 0000 0000 0000 0000 0000
00000060: 0000 0000 0000 0000 0000 0000 0000 0000
00000070: 0000 0000 0000 0000 0000 0000 0000 0000
00000080: 0000 0000 0000 0000 0000 0000 0000 0000
00000090: 0000 0000 0000 0000 0000 0000 0000 0000
000000a0: 0000 0000 0000 0000 0000 0000 0000 0000
000000b0: 0000 0000 0000 0000 0000 0000 0000 0000
000000c0: 0000 0000 0000 0000 0000 0000 0000 0000
000000d0: 0000 0000 0000 0000 0000 0000 0000 0000
000000e0: 0000 0000 0000 0000 0000 0000 0000 0000
000000f0: 0000 0000 0000 0000 0000 0000 0000 0000
00000100: 0000 0000 0000 0000 0000 0000 0000 0000
00000110: 0000 0000 0000 0000 0000 0000 0000 0000
00000120: 0000 0000 0000 0000 0000 0000 0000 0000
00000130: 0000 0000 0000 0000 0000 0000 0000 0000
00000140: 0000 0000 0000 0000 0000 0000 0000 0000
00000150: 0000 0000 0000 0000 0000 0000 0000 0000
00000160: 0000 0000 0000 0000 0000 0000 0000 0000
00000170: 0000 0000 0000 0000 0000 0000 0000 0000
00000180: 0000 0000 0000 0000 0000 0000 0000 0000
00000190: 0000 0000 0000 0000 0000 0000 0000 0000
000001a0: 0000 0000 0000 0000 0000 0000 0000 0000
000001b0: 0000 0000 0000 0000 0000 0000 0000 0000
000001c0: 0000 0000 0000 0000 0000 0000 0000 0000
000001d0: 0000 0000 0000 0000 0000 0000 0000 0000
000001e0: 0000 0000 0000 0000 0000 0000 0000 0000
000001f0: 0000 0000 0000 0000 0000 0000 0000 0000

value_heads.value_heads.extrinsic.weight f4 [1, 128]
-0.058325455 -0.08924827 0.15325677 0.022988126 -0.09901702 -0.090762444 0.08831197 -0.080014706
0.17672035 -0.061553493 -0.07548934 0.10241434 0.1807352 -0.06795341 -0.19015019 0.097798795
0.21224323 0.091801405 0.031913564 -0.17411746 -0.07578389 -0.02947089 0.096280396 0.20192245
0.008240432 0.14010021 -0.07737611 -0.12028889 0.0045596063 0.028915912 0.03852117 -0.16194019
-0.054289013 -0.032134697 0.10383788 -0.12708229 0.16562864 0.08569273 0.1426248 -0.08745046
0.10730696 0.028936088 -0.036769032 0.06452295 0.07309505 0.06445134 0.104332656 0.20840538
0.10125545 -0.14606488 -0.17704003 0.14151621 -0.19175959 0.06803739 -0.063312784 -0.20379971
0.09358448 -0.18112688 -0.07272424 -0.19836889 -0.13564552 0.060743243 -0.021615043 0.02611871
0.019188657 0.04902965 0.1497007 -0.105017215 -0.0592591 0.017470568 -0.19663617 0.014826626
-0.116766304 -0.025741726 -0.18744376 -0.12497573 0.21493998 -0.20115612 -0.19948179 -0.026108652
-0.04523599 -0.20682156 0.20433375 0.18314016 0.15204045 -0.019237548 -0.1071087 0.046204716
-0.13548204 0.16790742 -0.05913736 -0.14487782 0.1345737 0.105415404 -0.1430304 -0.004373282
0.16569898 -0.14495927 -0.07654333 -0.19091581 0.05275929 -0.12688354 0.072527766 -0.12163681
0.15914127 -0.049178928 -0.17239156 0.012886703 0.13386247 -0.14399847 0.051433623 0.06683907
-0.20158966 -0.0030445457 0.106381774 -0.042406082 0.14020225 -0.17555848 -0.026010603 0.18378913
-0.05000247 0.10810554 0.041040123 0.2044568 -0.15244919 -0.19226381 -0.11530707 -0.014676452
00000000: ace6 6ebd ccc7 b6bd 58ef 1c3e 9851 bc3c
00000010: 6fc9 cabd a9e1 b9bd e8dc b43d c0de a3bd
00000020: 2ef6 343e 841f 7cbd 289a 9abd 9cbe d13d
00000030: a612 393e 282b 8bbd bbb6 42be bc4a c83d
00000040: 4a56 593e 6002 bc3d ccb7 023d d94b 32be
00000050: 9634 9bbd f06c f1bc a82e c53d c2c4 4e3e
00000060: e002 073c 6e76 0f3e 5e77 9ebd 065a f6bd
00000070: c068 953b 10e1 ec3c 60c8 1d3d a6d3 25be
00000080: 285e 5ebd ac9f 03bd f4a8 d43d dc21 02be
00000090: 8e9a 293e ac7f af3d 3c0c 123e 3a19 b3bd
000000a0: c0c3 db3d 600b ed3c 209b 16bd 9c24 843d
000000b0: dcb2 953d 10ff 833d 5cac d53d 3868 553e
000000c0: 045f cf3d 0892 15be fb49 35be a0e9 103e
000000d0: a05c 44be 3057 8b3d 22aa 81bd dfb0 50be
000000e0: 38a9 bf3d 5379 39be 72f0 94bd 3721 4bbe
000000f0: a9e6 0abe e8cd 783d 0812 b1bc e8f6 d53c
00000100: 8831 9d3c 50d3 483d 244b 193e 4413 d7bd
00000110: acb9 72bd 701e 8f3c fe5a 49be 60eb 723c
00000120: 2c23 efbd 50e0 d2bc 42f1 3fbe 47f3 ffbd
00000130: 3a19 5c3e dffb 4dbe f444 4cbe d0e1 d5bc
00000140: 6049 39bd 08c9 53be de3c 513e 1889 3b3e
00000150: 7eb0 1b3e 1098 9dbc ce5b dbbd 2841 3d3d
00000160: cebb 0abe ecef 2b3e 043a 72bd da5a 14be
00000170: b0cd 093e 08e4 d73d 9076 12be c04d 8fbb
00000180: feac 293e 3470 14be c0c2 9cbd 6f7f 43be
00000190: 201a 583d c2ed 01be 7089 943d b81c f9bd
000001a0: eef5 223e d86f 49bd 6a87 30be c022 533c
000001b0: 3e13 093e 5674 13be 10ac 523d ece2 883d
000001c0: 856d 4ebe 0087 47bb b0de d93d 00b2 2dbd
000001d0: 2e91 0f3e 9ac5 33be 3014 d5bc 3833 3c3e
000001e0: 64cf 4cbd 7066 dd3d b019 283d 205d 513e
000001f0: a41b 1cbe cee0 44be 1d26 ecbd 8075 70bc
