Assets/ML-Agents/Examples/FirstTRexScene/results/trmodel/My Behavior/My Behavior-3520.pt (torch, 411191 bytes, 12 tensors)

network_body._body_endoder.seq_layers.0.weight f4 [128, 243]
00000000: 81a0 7bbc 1b67 cbbd 84e4 9ebd b728 853d
00000010: 0ef3 3e3b e8ec 7ebd 2e1d 9bbd 34ad 03bd
00000020: 7dc7 043c f7fd 3abd 2e0a 66bd 174b ae3d
00000030: bd15 f5bd 16a4 e03d 87ae 3b3d bf6e e93d
00000040: 1f06 38bd 12ee e43d c892 f53c 9eed 5abd
00000050: f8e3 dc3b 1e22 4a39 78ce acbc e2ea 283d
00000060: 6c7a 9bbc 6656 9d3d 5e65 9c3d 8944 22bc
00000070: e4d3 ecbc 08b4 b2bd cb51 d43d 9bee 4abd
00000080: a93a c53c 5db7 1f3e fdc8 d2bd 20a6 d6bc
00000090: 6dba a53d 47fe 7cbd ac7c dbbd 0880 7bbd
000000a0: c8de 7cbd f8f0 dc3c 1ed6 9a3d a5ae bebc
000000b0: ec4d 093c 3e64 2cbd 172d 083d 4d47 08bd
000000c0: dd15 52bd 2031 e9bd 2c03 dcbc a7e2 53bd
000000d0: 4369 1d3d d69c d5bd c661 d93d 398e 01bd
000000e0: c0a7 7b3d 1a61 cabd 51c5 08bd 9525 103d
000000f0: c770 4c3b 6b0a e53c fc91 38bd 527a 3e3c
00000100: e486 063d d244 c03c a72e 3e3d 2d56 f53c
00000110: a00c 4b3a de41 a93d f9b1 8ebd 37a3 c5bc
00000120: a305 b53d 4378 f2bc 137f b8bd 6bfa 74bc
00000130: 4664 9b3c 5284 f0bb 6e5a 6c3c 49c0 973c
00000140: e8b0 083e 4c03 8bbd 3501 863d b2d8 15bc
00000150: d104 99bd c884 9bbd 9f5f 63bd 963c 183d
00000160: 491a 39bd 2c62 d5bc 65ce c1bc 3ec5 04bb
00000170: 1220 8b3d be93 3ebd 93eb 8b3d 9cbb cebd
00000180: 4d6e afbc 4775 3b3d 70a2 b13c 580b b83d
00000190: fdd1 e23d b496 54bc e724 053d e737 90bb
000001a0: 8f76 3e3d a662 a63b bae0 88bb e1a4 163d
000001b0: 79cb 123e f9f7 443d 6997 9bbc 4e5f cc3b
000001c0: c722 9dbb 5b48 91bc bc5e 9ebd bfaa b53d
000001d0: 963f a23d c14b d3bb 0c11 fa3d d9b6 e6bc
000001e0: f681 193e c45f 093d 656c f13d 6a6e f3bc
000001f0: bf5c 273d bd82 c6bc 95a8 5c3d 128c 0c3d
00000200: 8164 24bc 09fd 313e 0382 d73c 5a17 c338
00000210: deb0 063e d9f8 8d3d 4ec4 123d 25d1 123d
00000220: 561d 83bc 5381 d2bc 19c4 14bd 6c99 c8bc
00000230: 41d5 70bd d526 823d 2299 cd3d f38c 84bd
00000240: 93bc d23d b232 9fbd 320b 92bd 8e5e 07bd
00000250: afd9 043d 70ca 8dbc 2a97 463d 36fe 91bd
00000260: e3f6 9dbd ce0d b1bd 8e24 a8bc 1c86 123d
00000270: 2023 f9bb da43 71bd e4bc e8bd f9a6 a63c
00000280: bb19 ad3c 2e0e d33d 0e69 7fbb 29b2 d63d
00000290: 354f a9bd a481 babc 6327 af3d 17b2 ae39
000002a0: b607 59bd 8ebf 053d f379 f8bb 3bf5 643c
000002b0: 5c25 c73c 24af cc3d 8cc0 fdbc 2788 8b3d
000002c0: 65c6 e8bd abfa 8a3d ae6d 0c3d b787 a13e
000002d0: 7fa1 2cbd 1cc8 103d a201 eab9 eba3 2cbd
000002e0: fcee 073e 9f6b d9bb 5fe4 933d d264 2c3e
000002f0: af5f 0b3d 7ade cfbd 7547 b6bb 4a56 61ba
00000300: aa2e 4a3d e42e 36bd 5d8c 93bc 339c 21bd
00000310: 4064 8e3b d2e2 a6bd 9c7a 773d 6d26 e13c
00000320: d8c4 723c 83ca c2bc f9b1 06be 7ff9 39bd
00000330: 731b a03c 22e9 2b3d 751c 68bc 3bae 1a3c
00000340: 565c 01be f28c 69bd 374f d53d e52f e4ba
00000350: e88b 2cbd b3b4 5ebc 4b17 33bd caeb c0bc
00000360: 5aa0 6bbd 84ce 73bc c067 aa3c 7af4 a03d
00000370: 5f82 afbd 6b26 b43d 51b9 9bbb a8b1 f4bb
00000380: 912d b73d e532 573d 6c65 efbb 112e f6bb
00000390: 423d abbc 5daf 883c d874 b7bc 02ba bdbc
000003a0: 2dba 093d 554b 6c3d b716 0fbe 29ab 14bd
000003b0: 8a01 18be 763d b3bd dae7 8d3c 7f1d 453e
000003c0: abed 6f3c 633d a6bc d7c0 afbd d4b5 153d
000003d0: 2d6a 893d 8eeb bcbd b22d 513d 45cd 15bd
000003e0: 42b5 3ebb 2970 19bd 7e2b 793c 0182 ee3c
000003f0: 11a3 2abd d327 223d c25b 87bb e827 563d
-0.015358091 -0.09931775 -0.0775843 0.06501906 0.002913657 -0.06223765 -0.07573925 -0.0321476
0.008104202 -0.045652356 -0.05616205 0.08510416 -0.11967037 0.10968797 0.04582074 0.11398076
-0.044927713 0.11178221 0.029977217 -0.053449266 0.006741043 0.00019276931 -0.021094546 0.041239627
-0.018979274 0.07682495 0.07636522 -0.009904035 -0.028909631 -0.087257445 0.10367163 -0.04954396
0.024075823 0.15597291 -0.10292242 -0.026202261 0.080921985 -0.061765935 -0.10717139 -0.061401397
-0.0617359 0.026970372 0.07560371 -0.023276636 0.008380394 -0.042087786 0.033246126 -0.033271123
-0.05129038 -0.11386323 -0.026856981 -0.051729824 0.038430464 -0.10430305 0.10614352 -0.031629775
0.061439276 -0.09881802 -0.0333913 0.03519209 0.003119515 0.02795907 -0.045061097 0.011625843
0.032843485 0.023470316 0.04643121 0.029948318 0.0007745717 0.08264516 -0.06967539 -0.024125678
0.08838966 -0.02959836 -0.090086125 -0.014952282 0.018968713 -0.0073399926 0.014425857 0.018524306
0.13348734 -0.06787738 0.06543199 -0.0091459025 -0.07471622 -0.075936854 -0.055511113 0.037167154
-0.045191083 -0.026047789 -0.023657987 -0.0020259167 0.06793226 -0.046527617 0.068320416 -0.100943774
-0.0214149 0.04576614 0.021683902 0.08986539 0.11075208 -0.012975384 0.032505896 -0.0044011953
0.046499785 0.005077678 -0.00417718 0.036778335 0.14335431 0.048088048 -0.018993096 0.006236947
-0.0047954055 -0.017734697 -0.07732913 0.08870458 0.07922284 -0.0064482396 0.12210283 -0.02816336
0.14990982 0.033538595 0.11788253 -0.029715735 0.040859934 -0.024232263 0.05387171 0.03431327
-0.010033728 0.17381682 0.026307112 9.302674e-05 0.13153407 0.069322295 0.035831742 0.035843987
-0.0160052 -0.025696432 -0.036319826 -0.02448722 -0.058797125 0.06355063 0.100389734 -0.064721964
0.10289874 -0.07773341 -0.071310416 -0.03304916 0.03243416 -0.017308444 0.048484005 -0.07128565
-0.077131055 -0.08645211 -0.020525243 0.035772428 -0.007603064 -0.0589026 -0.11364153 0.02034329
0.021130433 0.10305439 -0.003897253 0.104832 -0.08267061 -0.022766896 0.08552434 0.00033320553
-0.05298587 0.032653384 -0.007582897 0.013974483 0.024309807 0.09994343 -0.030975603 0.068130784
-0.11365966 0.06786092 0.034284286 0.31548855 -0.042146202 0.03534709 -0.00044633175 -0.04214851
0.13274759 -0.006635144 0.07221293 0.16835335 0.034026798 -0.10149856 -0.0055627176 -0.0008595927
0.04936091 -0.044478312 -0.018011266 -0.039455604 0.004345447 -0.08148731 0.060419664 0.027484143
0.014817439 -0.023778206 -0.13153829 -0.045403954 0.019544339 0.04197038 -0.014166941 0.009440954
-0.1263288 -0.05701918 0.104155 -0.0017409293 -0.042125612 -0.013592887 -0.043723386 -0.023549933
-0.05752597 -0.01488078 0.020801425 0.0785913 -0.08569788 0.0879639 -0.004752316 -0.0074674673
0.08944238 0.05253877 -0.0073057916 -0.0075128158 -0.020903233 0.016685182 -0.022394583 -0.023159984
0.033624817 0.05768903 -0.13973509 -0.036296044 -0.14844337 -0.08751957 0.01732247 0.19249533
0.014644067 -0.020292943 -0.08581703 0.036550358 0.067097045 -0.09224616 0.05106897 -0.036572713
-0.0029099737 -0.03746048 0.015208123 0.029114725 -0.04165942 0.03958876 -0.0041308114 0.05228415

network_body._body_endoder.seq_layers.0.bias f4 [128]
00000000: 0000 0000 0000 0000 0000 0000 0000 0000
00000010: 0000 0000 0000 0000 0000 0000 0000 0000
00000020: 0000 0000 0000 0000 0000 0000 0000 0000
00000030: 0000 0000 0000 0000 0000 0000 0000 0000
00000040: 0000 0000 0000 0000 0000 0000 0000 0000
00000050: 0000 0000 0000 0000 0000 0000 0000 0000
00000060: 0000 0000 0000 0000 0000 0000 0000 0000
00000070: 0000 0000 0000 0000 0000 0000 0000 0000
00000080: 0000 0000 0000 0000 0000 0000 0000 0000
00000090: 0000 0000 0000 0000 0000 0000 0000 0000
000000a0: 0000 0000 0000 0000 0000 0000 0000 0000
000000b0: 0000 0000 0000 0000 0000 0000 0000 0000
000000c0: 0000 0000 0000 0000 0000 0000 0000 0000
000000d0: 0000 0000 0000 0000 0000 0000 0000 0000
000000e0: 0000 0000 0000 0000 0000 0000 0000 0000
000000f0: 0000 0000 0000 0000 0000 0000 0000 0000
00000100: 0000 0000 0000 0000 0000 0000 0000 0000
00000110: 0000 0000 0000 0000 0000 0000 0000 0000
00000120: 0000 0000 0000 0000 0000 0000 0000 0000
00000130: 0000 0000 0000 0000 0000 0000 0000 0000
00000140: 0000 0000 0000 0000 0000 0000 0000 0000
00000150: 0000 0000 0000 0000 0000 0000 0000 0000
00000160: 0000 0000 0000 0000 0000 0000 0000 0000
00000170: 0000 0000 0000 0000 0000 0000 0000 0000
00000180: 0000 0000 0000 0000 0000 0000 0000 0000
00000190: 0000 0000 0000 0000 0000 0000 0000 0000
000001a0: 0000 0000 0000 0000 0000 0000 0000 0000
000001b0: 0000 0000 0000 0000 0000 0000 0000 0000
000001c0: 0000 0000 0000 0000 0000 0000 0000 0000
000001d0: 0000 0000 0000 0000 0000 0000 0000 0000
000001e0: 0000 0000 0000 0000 0000 0000 0000 0000
000001f0: 0000 0000 0000 0000 0000 0000 0000 0000
0.0 0.0 0.0 0.0 0.0 0.0 0.0 0.0
0.0 0.0 0.0 0.0 0.0 0.0 0.0 0.0
0.0 0.0 0.0 0.0 0.0 0.0 0.0 0.0
0.0 0.0 0.0 0.0 0.0 0.0 0.0 0.0
0.0 0.0 0.0 0.0 0.0 0.0 0.0 0.0
0.0 0.0 0.0 0.0 0.0 0.0 0.0 0.0
0.0 0.0 0.0 0.0 0.0 0.0 0.0 0.0
0.0 0.0 0.0 0.0 0.0 0.0 0.0 0.0
0.0 0.0 0.0 0.0 0.0 0.0 0.0 0.0
0.0 0.0 0.0 0.0 0.0 0.0 0.0 0.0
0.0 0.0 0.0 0.0 0.0 0.0 0.0 0.0
0.0 0.0 0.0 0.0 0.0 0.0 0.0 0.0
0.0 0.0 0.0 0.0 0.0 0.0 0.0 0.0
0.0 0.0 0.0 0.0 0.0 0.0 0.0 0.0
0.0 0.0 0.0 0.0 0.0 0.0 0.0 0.0
0.0 0.0 0.0 0.0 0.0 0.0 0.0 0.0

network_body._body_endoder.seq_layers.2.weight f4 [128, 128]
00000000: 9a36 613d 3d48 9cbd 3ec3 fcbc eade 603d
00000010: 636b 4abd 688d 65bd c5ad 983d fbae febd
00000020: 934d 913d 515c be3c 215f abbc 8736 edbd
00000030: a522 20be 038b 74bd 3413 153e 4cbf d63d
00000040: 201c 1b3e c678 283d 23e1 16bd 79dd e23d
00000050: 00da 06be 8393 7dbe e6cd 013e fb07 c83d
00000060: f6b2 cdbc 321e b53c a7c7 97bd a15c 1e3d
00000070: 6330 6ebe faae 5fbd 46f1 c8bc 182d 5c3d
00000080: d78e 90bd bde7 17b7 3c1d 853d 5d5f d13d
00000090: c9f8 1c3d 5b0d c7bc 5568 503d 7cab 463c
000000a0: 2fd2 79bd dc72 8f3d c919 7ebc 07cd 793d
000000b0: 343f 96ba 08bf aabd 5f63 97bd 7c4b afbd
000000c0: 190d 933d 2bba 0b3e 4394 febd 8bbe 60be
000000d0: 35be 08bd be82 5fbd 096f 463e 9444 f1bc
000000e0: bced 26bc 8e7f cb3d 5a48 313e a098 cb3c
000000f0: 1f15 7fbd a258 64b9 9d64 0b3e d3a8 33bd
00000100: 43c4 babd 63ad 0fbe 32ca 3e3d d815 863d
00000110: 5a7a babd 0932 0ebd a2ad 5a3c 449d f63d
00000120: cb6b 8dbb ef2b 7e3b 2fcd 60bb 3f76 c7bd
00000130: 6c38 a83d 1930 8a3d 7b4f c23b e61c 713a
00000140: d3e6 ebbc 675e 2ebd 3622 cebd 1eef 573d
00000150: c7d2 12bd 8ed6 5cbc 508c f4bd 6928 0a3e
00000160: d0cd bfbc 4b46 febc 184e 523d 6b3a 373c
00000170: c16e 023d 0f0f 113c e72b ac3d 2602 643d
00000180: 1b7b 9d3d c857 ae3d 2704 553d fdd8 3bbd
00000190: f418 85bd 8168 d2bc d4a8 cebd af88 523d
000001a0: 43e8 ff3b ce04 8ebd 2dc0 a83d d758 04bd
000001b0: 1327 81bd e675 01be 37df dfbc 9e05 5e3d
000001c0: 15a3 1abd 95d0 cc3b 25d7 ac3d 6aff 833d
000001d0: b99f c83c ffe5 1b3e edf2 3b3d 80c5 603e
000001e0: eda6 b63d fc0c 7c3d c272 453d cd2d d83d
000001f0: 8b30 e5bd de4b 863d 0b20 993d f5cb 0cbe
00000200: 6e4d 5ebd 27d0 67bd 9c45 223e a09b b5bc
00000210: 333a e3bc 20e4 8cbc 8492 73bd a7d4 e2bd
00000220: 15cc 85bd 1ed7 99bd 30e8 06be fa32 adbd
00000230: 9ee2 0c3e 6843 203d f078 ba3d 1c00 b8bd
00000240: 13f0 513e 84f4 a93c 1320 82bd daac 153d
00000250: 56b9 2fbd 21c4 10bd 0810 8ebc 0dcc cc3c
00000260: c580 043e 0f5a 6d3d b109 26be e039 a7bd
00000270: 9326 e93c 13f9 5e3c a8e5 5ebd fb03 953c
00000280: 1c64 edbc 36e1 79bd aa0f 823d da11 22bd
00000290: 8c7e 093e 2628 223d 181b 1f3e d431 f33d
000002a0: c4f2 cb3d e866 bdbd 3358 44bd 1920 0fbe
000002b0: 1474 3d3d df00 2b3e 0baa 233d 49c5 fcbd
000002c0: 8595 c33d 9f59 1dbb 3ee0 bebc b391 8f3c
000002d0: 71fe 573d e0d5 153d c3be d8bb e1da 07be
000002e0: b865 31be 2d06 64be c5b1 57bd 92c2 63bd
000002f0: 8962 8abd ec1d e23d 3a0a 003e 3632 f8bb
00000300: 2edb e83d 3423 d23d 7d70 79bd 0f0c 28be
00000310: 0282 303d d780 133e 2098 b33c be14 75bc
00000320: cdae 9ebd 3bb0 3ebd 1a76 81bd ec5f 6c3d
00000330: 6a72 87bc e1c3 afbd b416 db3d cbdd d83c
00000340: d2b7 1f3c 110f e23b 24a2 0ebd 5bde 8e3d
00000350: c6ca 34bb 7a19 cb3d 89ca 42be 1cec aebc
00000360: 0e8a 8aba be6b 65bd c41a 393d 6d62 2dbd
00000370: 4b8d 0fbd bf7a 6dbc 7352 6bbe 2f92 09bd
00000380: d3d7 2fbe 9f68 c2bb b58d a3bd b684 3a3d
00000390: 0263 babd 1ca6 00be a89a 2f3d d588 8d3d
000003a0: 4667 6ebd 2980 9abb 5e3b 3fbd 60e8 c2bd
000003b0: a9ae 5a3d 469a fa3d 814d df3d e2e7 03bd
000003c0: ccb8 12bd 8291 b63d ef57 5bbc ea9e 1dbd
000003d0: 7eec 953d 296a df3d a803 b2bd bdfd 89bb
000003e0: 14a6 043d 3bb3 0a3e d2d9 853b 0e22 593c
000003f0: a3ff a03d a9ac c9bd f23f 923d cf21 953d
0.054983713 -0.07630966 -0.030854817 0.054900087 -0.04941882 -0.05604306 0.07455019 -0.124357186
0.07094874 0.02323738 -0.020919384 -0.11582666 -0.15638216 -0.059702884 0.14558107 0.10485706
0.15147448 0.041130804 -0.0368358 0.11077399 -0.13169098 -0.24763303 0.126762 0.09767147
-0.02510975 0.022109125 -0.074111275 0.038662557 -0.23260646 -0.05461023 -0.02452911 0.053753942
-0.070584945 -9.054257e-06 0.06499717 0.10223267 0.038323198 -0.02429836 0.05088075 0.012125846
-0.060991462 0.070043296 -0.015509077 0.060986545 -0.0011462928 -0.083372176 -0.073920004 -0.085593194
0.071802326 0.13645236 -0.124306224 -0.21947686 -0.03338452 -0.054568045 0.19378294 -0.029451646
-0.010188516 0.099364385 0.17312756 0.02485305 -0.062276002 -0.00021776793 0.136126 -0.043862175
-0.09119465 -0.14030986 0.046579547 0.06547135 -0.09105368 -0.034715686 0.013347061 0.12041715
-0.0043158284 0.003878351 -0.0034301986 -0.097393505 0.082138866 0.06747455 0.005929885 0.00091977266
-0.028796589 -0.042570498 -0.10065119 0.052718274 -0.035845544 -0.013478888 -0.11940825 0.13491978
-0.023413569 -0.031039378 0.051344007 0.0111833615 0.031843904 0.008853688 0.08406811 0.05566611
0.07689496 0.08512837 0.052005913 -0.045861233 -0.064989 -0.025684597 -0.10090795 0.051399883
0.00780967 -0.0693451 0.082397796 -0.032311287 -0.06306281 -0.12642631 -0.027328117 0.054204576
-0.037753183 0.006250451 0.08439473 0.06445201 0.024490224 0.15224455 0.04588597 0.2195034
0.08918557 0.06153582 0.048205145 0.10555611 -0.111908995 0.06557439 0.07476815 -0.13749678
-0.05427306 -0.056594994 0.15846866 -0.022168934 -0.027737712 -0.017198622 -0.0594659 -0.110757165
-0.06533066 -0.075117335 -0.1317451 -0.08456989 0.13758323 0.039126784 0.09105098 -0.08984396
0.20501737 0.020746477 -0.06353774 0.036541797 -0.04290136 -0.035343293 -0.017341629 0.024999643
0.12939747 0.057947215 -0.16214634 -0.08165336 0.028460776 0.013609189 -0.054418236 0.018190375
-0.0289784 -0.061005794 0.06350644 -0.039567806 0.1342718 0.03958907 0.15537679 0.11874738
0.09958413 -0.092481434 -0.047935676 -0.13977088 0.04625328 0.16699551 0.039957087 -0.12342317
0.09550003 -0.0024009717 -0.023300286 0.01752553 0.05273289 0.03658092 -0.0066145374 -0.1326709
-0.17323959 -0.22267981 -0.05265977 -0.05560548 -0.06757075 0.110408634 0.12503901 -0.007574345
0.1136993 0.10260621 -0.060898293 -0.1641085 0.043092735 0.14404617 0.021923125 -0.014958559
-0.07748184 -0.046554785 -0.06321354 0.057708666 -0.016534049 -0.08582283 0.1069769 0.026472947
0.009748416 0.0068987687 -0.034822598 0.06976005 -0.0027586683 0.09916969 -0.19022574 -0.02135282
-0.0010569708 -0.056010954 0.04519154 -0.042330194 -0.035046857 -0.014494597 -0.2298067 -0.033586677
-0.17172174 -0.005932882 -0.07986013 0.04553672 -0.091009155 -0.12563366 0.0428721 0.06910864
-0.058203958 -0.004714985 -0.046687476 -0.09516978 0.053389225 0.122364566 0.109034546 -0.032203563
-0.035820767 0.08914472 -0.013387664 -0.03848163 0.07320498 0.1090892 -0.086921036 -0.004211156
0.032384947 0.13544933 0.004084804 0.013252748 0.07861259 -0.098473854 0.07141103 0.07281839

network_body._body_endoder.seq_layers.2.bias f4 [128]
00000000: 0000 0000 0000 0000 0000 0000 0000 0000
00000010: 0000 0000 0000 0000 0000 0000 0000 0000
00000020: 0000 0000 0000 0000 0000 0000 0000 0000
00000030: 0000 0000 0000 0000 0000 0000 0000 0000
00000040: 0000 0000 0000 0000 0000 0000 0000 0000
00000050: 0000 0000 0000 0000 0000 0000 0000 0000
00000060: 0000 0000 0000 0000 0000 0000 0000 0000
00000070: 0000 0000 0000 0000 0000 0000 0000 0000
00000080: 0000 0000 0000 0000 0000 0000 0000 0000
00000090: 0000 0000 0000 0000 0000 0000 0000 0000
000000a0: 0000 0000 0000 0000 0000 0000 0000 0000
000000b0: 0000 0000 0000 0000 0000 0000 0000 0000
000000c0: 0000 0000 0000 0000 0000 0000 0000 0000
000000d0: 0000 0000 0000 0000 0000 0000 0000 0000
000000e0: 0000 0000 0000 0000 0000 0000 0000 0000
000000f0: 0000 0000 0000 0000 0000 0000 0000 0000
00000100: 0000 0000 0000 0000 0000 0000 0000 0000
00000110: 0000 0000 0000 0000 0000 0000 0000 0000
00000120: 0000 0000 0000 0000 0000 0000 0000 0000
00000130: 0000 0000 0000 0000 0000 0000 0000 0000
00000140: 0000 0000 0000 0000 0000 0000 0000 0000
00000150: 0000 0000 0000 0000 0000 0000 0000 0000
00000160: 0000 0000 0000 0000 0000 0000 0000 0000
00000170: 0000 0000 0000 0000 0000 0000 0000 0000
00000180: 0000 0000 0000 0000 0000 0000 0000 0000
00000190: 0000 0000 0000 0000 0000 0000 0000 0000
000001a0: 0000 0000 0000 0000 0000 0000 0000 0000
000001b0: 0000 0000 0000 0000 0000 0000 0000 0000
000001c0: 0000 0000 0000 0000 0000 0000 0000 0000
000001d0: 0000 0000 0000 0000 0000 0000 0000 0000
000001e0: 0000 0000 0000 0000 0000 0000 0000 0000
000001f0: 0000 0000 0000 0000 0000 0000 0000 0000
0.0 0.0 0.0 0.0 0.0 0.0 0.0 0.0
0.0 0.0 0.0 0.0 0.0 0.0 0.0 0.0
0.0 0.0 0.0 0.0 0.0 0.0 0.0 0.0
0.0 0.0 0.0 0.0 0.0 0.0 0.0 0.0
0.0 0.0 0.0 0.0 0.0 0.0 0.0 0.0
0.0 0.0 0.0 0.0 0.0 0.0 0.0 0.0
0.0 0.0 0.0 0.0 0.0 0.0 0.0 0.0
0.0 0.0 0.0 0.0 0.0 0.0 0.0 0.0
0.0 0.0 0.0 0.0 0.0 0.0 0.0 0.0
0.0 0.0 0.0 0.0 0.0 0.0 0.0 0.0
0.0 0.0 0.0 0.0 0.0 0.0 0.0 0.0
0.0 0.0 0.0 0.0 0.0 0.0 0.0 0.0
0.0 0.0 0.0 0.0 0.0 0.0 0.0 0.0
0.0 0.0 0.0 0.0 0.0 0.0 0.0 0.0
0.0 0.0 0.0 0.0 0.0 0.0 0.0 0.0
0.0 0.0 0.0 0.0 0.0 0.0 0.0 0.0

action_model._continuous_distribution.log_sigma f4 [1, 39]
00000000: 0000 0000 0000 0000 0000 0000 0000 0000
00000010: 0000 0000 0000 0000 0000 0000 0000 0000
00000020: 0000 0000 0000 0000 0000 0000 0000 0000
00000030: 0000 0000 0000 0000 0000 0000 0000 0000
00000040: 0000 0000 0000 0000 0000 0000 0000 0000
00000050: 0000 0000 0000 0000 0000 0000 0000 0000
00000060: 0000 0000 0000 0000 0000 0000 0000 0000
00000070: 0000 0000 0000 0000 0000 0000 0000 0000
00000080: 0000 0000 0000 0000 0000 0000 0000 0000
00000090: 0000 0000 0000 0000 0000 0000
0.0 0.0 0.0 0.0 0.0 0.0 0.0 0.0
0.0 0.0 0.0 0.0 0.0 0.0 0.0 0.0
0.0 0.0 0.0 0.0 0.0 0.0 0.0 0.0
0.0 0.0 0.0 0.0 0.0 0.0 0.0 0.0
0.0 0.0 0.0 0.0 0.0 0.0 0.0

action_model._continuous_distribution.mu.weight f4 [39, 128]
00000000: 687c 86bc 5868 9abc efd1 11ba bac6 58bc
00000010: 4576 553c 975e 97bb 8673 b73a 1b80 8d3c
00000020: 837a e23b 9fec c23c d016 59bb aa33 c3bc
00000030: f118 193c 68ea 5b3b e19f 1cbc 1bc6 2c3b
00000040: a814 693b 5ee7 b33c 2a06 cf3c 6f8c 7cbc
00000050: b77c 593c 27a1 d6bb 571f 41bc c1ce ba3c
00000060: ef79 ecba 65af 073d 361d 383d cdb0 27bc
00000070: 4fed c73c 5b35 61bc 580f 6fba 22dc 6b3b
00000080: ef38 07bc 5f4d 1d3d aaa1 cf3c adf9 113d
00000090: 67cb ea3c fef3 37bc c23d c0bc 3da0 753c
000000a0: 7df0 56bb 6431 9c3b 2ccb 383c 92ec cd3c
000000b0: ed75 60bb 4db4 dfbb bdb1 bc3b 2153 24bc
000000c0: 555e 0cbc 12eb 4ebc 519c 3e3c 8bc1 b03b
000000d0: ef15 e53b 4029 10bc 2b8e 643c 45f1 58bc
000000e0: af38 383c 2512 a33c 6912 85bc c3e6 c03c
000000f0: f39b 4fbb c7a6 3d3c d355 4d3c 7ad0 733c
00000100: e598 e3bc cb02 813c 8129 a33b 723f 5dbc
00000110: 919f b8bc d88b c3bc 5891 debc eb77 84bc
00000120: 4123 be3b b088 903c 473e fb3c 038b 043c
00000130: 1f4a 7d3c 6091 fb3c d58d a23c c762 3eba
00000140: bd65 b7bc 8a56 f4ba a70f a0bc 6bcc 5f3a
00000150: 8acf 133c 20dc 473b 12f4 583c bb3d 9f3b
00000160: 12d1 5cbc b501 6b3b c39e 6cbb db67 c9bb
00000170: da82 b93c d794 883b 5d4a 5a3b 8f4d 3f3b
00000180: 4dc1 15bc 7c69 0cbc 3fde 2dbb 7479 3abc
00000190: 6b0a 60bc 9d3e 17bc 7c39 3a3c 4322 85bc
000001a0: ac35 b63c 7392 f03c 53ae 163d 6ab3 c83a
000001b0: 93c8 793c 5787 8c3c 2bc5 97bc 6296 d63c
000001c0: b3b6 a73c dbde f03c 9c52 87bc 4a5f 033c
000001d0: aa23 40bc 742a 353c a8c5 103c 253e db39
000001e0: 337d 29bd 1b8e aebc 6386 88bb f721 34bd
000001f0: a450 cc3a de03 9bbb 8517 9a3b 183d ff3b
00000200: 99c3 973c 6510 edbc 92e4 61bc 29df 973c
00000210: c289 fe3c d727 1b3d 334c 713c 2933 9bbc
00000220: d7f4 743c 458a 4f39 2569 813c 1694 473a
00000230: 42cc aabc 0524 953b fd8f 5d3b 9030 333d
00000240: ef8d 91bc 809b bb3c a703 b83c c4c6 9ebb
00000250: 4017 973c 4820 ac3b 45c3 f73a a300 c2b9
00000260: 148a 8bbb 7b72 273c d2e7 b7bc 8f44 9abc
00000270: 0b43 96bc 4f16 253b 628f f93c bf9c 83bc
00000280: b8fe d8bb 522c 1e3c 5c82 a63c a4f4 843c
00000290: 4bce 0fbb 8a21 16bc fdd6 68bc bee1 0fbc
000002a0: 5132 aabb 4f8e 073d 25e2 5fb9 a657 a7bb
000002b0: 6312 5bbc 327f e33b fb26 493c 657d 01bc
000002c0: 69aa 973c 71d8 b6bc a9dd 17bc 1d18 a43a
000002d0: 751d 5b3c 07f1 2bbc fbca b73a 688c 94bc
000002e0: f520 183d 50c6 95ba abb0 4cbc 0f42 133c
000002f0: ea6c 9f3c c798 79bc 87d3 f23b 70ab 73bb
00000300: 6b66 dd3a 92b8 9dbc 4f2b 433c a1ed 033d
00000310: db23 40bb 27f2 5f3b 9b29 0cbc 30af d9ba
00000320: 6701 643b 51a3 193b 489c 913c 38b6 073c
00000330: 8fa2 c2bb eff3 403c 2d27 693c b5da 85bc
00000340: 4fbc 963c 6a72 08bb e235 1b3c 8c3e bb3b
00000350: 98c2 acbc 4f5d 443c cb42 e9bc 2e36 94bc
00000360: 6875 523c 1801 b0bc 200f b33c f7cd cf3a
00000370: e041 363b a09a 953c 867b a9bc 203b d93c
00000380: 35d6 aebc b3bd 1d3d 2774 2abd 334d b9bc
00000390: 8773 b239 c5f8 b43c 3f9e 3bbc e21a c73c
000003a0: 8492 ac3c 555f 98bc 8043 b6bc 3f3d 4b3c
000003b0: 4b0a 48bc 062a 103d 2e37 123c 0f2e 34bc
000003c0: 2fe3 15bc ba9e a7bc 2be6 d6ba ab6b e5bc
000003d0: 272a 963c 81e1 803b 807d b33c 4061 293b
000003e0: bdfe 32bc a233 453c 8177 973c 7738 b43c
000003f0: 0810 753c f847 e83b f96e 95bb f0f9 0dbd
-0.016416743 -0.018848583 -0.00055625936 -0.013230974 0.013028686 -0.0046194303 0.0013996221 0.017273
0.006911577 0.02379447 -0.003312517 -0.023828346 0.009344325 0.0033556465 -0.0095596025 0.0026363197
0.003556529 0.02196091 0.025271494 -0.015414341 0.013274363 -0.0065499726 -0.011787257 0.022803666
-0.001804171 0.033126254 0.044949733 -0.010235024 0.02440515 -0.013745631 -0.0009119413 0.0035989364
-0.00825332 0.038403865 0.025345642 0.0356385 0.028661443 -0.011227606 -0.023466948 0.014991817
-0.003279715 0.00476663 0.011278909 0.02513722 -0.0034249977 -0.0068269134 0.0057584927 -0.010029585
-0.008567412 -0.012629287 0.011633948 0.005394166 0.00699114 -0.008798897 0.013949911 -0.013241117
0.011243983 0.019906113 -0.01624413 0.023547536 -0.0031678646 0.011575407 0.012532669 0.014881248
-0.027782867 0.015748402 0.004979313 -0.013503896 -0.022537025 -0.023870394 -0.027168915 -0.016170463
0.0058025424 0.017643303 0.030669345 0.008089784 0.015459566 0.030708969 0.019843021 -0.0007262644
-0.02238738 -0.0018641513 -0.019538714 0.00085372356 0.009021649 0.0030496195 0.013241785 0.004859654
-0.013477581 0.0035859172 -0.0036105372 -0.0061464137 0.022645403 0.0041681337 0.0033308484 0.0029190516
-0.009140325 -0.008570071 -0.0026530174 -0.011381496 -0.013674359 -0.009231237 0.011366244 -0.016251689
0.02224239 0.029366707 0.036787342 0.0015312259 0.0152455745 0.017154379 -0.018526634 0.026194755
0.02047286 0.02940314 -0.016518883 0.008018324 -0.011727253 0.011057485 0.008836187 0.00041817236
-0.041379165 -0.021307996 -0.004166411 -0.043977704 0.0015587998 -0.0047306856 0.004702511 0.0077892654
0.018525885 -0.028938482 -0.013787406 0.018539028 0.031071547 0.03787979 0.01472764 -0.018945294
0.0149509525 0.00019792568 0.015797207 0.0007613314 -0.02084935 0.004551413 0.0033807748 0.043747485
-0.017767875 0.022901297 0.02246268 -0.004845472 0.018443704 0.0052528717 0.0018902799 -0.00037003038
-0.0042584036 0.010220165 -0.022449408 -0.01883152 -0.018342515 0.00251903 0.030463878 -0.016065953
-0.0066221617 0.0096541215 0.020325832 0.016229935 -0.0021943029 -0.00916327 -0.014211413 -0.0087818485
-0.0051939865 0.0330947 -0.00021351183 -0.005106884 -0.013371083 0.006942653 0.01227736 -0.007903432
0.018513875 -0.022320004 -0.0092691565 0.0012519393 0.013373722 -0.010494477 0.0014022285 -0.018133357
0.037140805 -0.00114269 -0.012493293 0.008987918 0.019461114 -0.015234179 0.00741047 -0.0037181042
0.0016891485 -0.019253049 0.011912181 0.032209042 -0.0029318247 0.0034171434 -0.008554841 -0.0016607996
0.0034790875 0.0023443291 0.017774716 0.00828319 -0.0059397887 0.011776908 0.014230532 -0.01633964
0.01840034 -0.002082015 0.009473296 0.0057142433 -0.021088883 0.011985137 -0.028474232 -0.018092241
0.012845375 -0.021484897 0.021857798 0.0015854229 0.002781026 0.018262208 -0.020688783 0.02651745
-0.021342376 0.03851099 -0.041614678 -0.02261982 0.0003403688 0.022091279 -0.011451303 0.02430481
0.021065958 -0.018600145 -0.022248983 0.012404739 -0.012209485 0.035196327 0.008924289 -0.010997309
-0.009148403 -0.020461429 -0.00163955 -0.028005442 0.018330647 0.003933132 0.021910429 0.002584532
-0.010924992 0.012036236 0.018489601 0.02199958 0.014957435 0.0070886575 -0.004560348 -0.034662187

action_model._continuous_distribution.mu.bias f4 [39]
00000000: 0000 0000 0000 0000 0000 0000 0000 0000
00000010: 0000 0000 0000 0000 0000 0000 0000 0000
00000020: 0000 0000 0000 0000 0000 0000 0000 0000
00000030: 0000 0000 0000 0000 0000 0000 0000 0000
00000040: 0000 0000 0000 0000 0000 0000 0000 0000
00000050: 0000 0000 0000 0000 0000 0000 0000 0000
00000060: 0000 0000 0000 0000 0000 0000 0000 0000
00000070: 0000 0000 0000 0000 0000 0000 0000 0000
00000080: 0000 0000 0000 0000 0000 0000 0000 0000
00000090: 0000 0000 0000 0000 0000 0000
0.0 0.0 0.0 0.0 0.0 0.0 0.0 0.0
0.0 0.0 0.0 0.0 0.0 0.0 0.0 0.0
0.0 0.0 0.0 0.0 0.0 0.0 0.0 0.0
0.0 0.0 0.0 0.0 0.0 0.0 0.0 0.0
0.0 0.0 0.0 0.0 0.0 0.0 0.0

network_body._body_endoder.seq_layers.0.weight f4 [128, 243]
00000000: 38b3 29be 5525 c63c f4f2 1ebc 00cf 38bd
00000010: aa71 313d e06d 98bd ac4d 3bbd 9b15 cfbc
00000020: eee2 b23c 53b6 503d 7ee1 61bd 0325 d4bc
00000030: d40a 653d c31a 4f3c 16f9 1f3d 2c15 0a3e
00000040: 3d9f cb3d e443 793d 5250 583d c9d9 bf3c
00000050: f102 99bc a495 4b3d 7099 49bd 5212 203d
00000060: 62e2 1cbc abf5 e83b 336f 6d3d 2b64 7bbb
00000070: 69cd 3ebd 7df2 e1bc 85da 5e3d 8d5a 91bd
00000080: bdf2 fa3c f045 26ba 935c cd3d 543f cf3a
00000090: bde9 59bd 3d1b 9bbd 4871 0ebd a9d0 37bc
000000a0: 2808 febb de1c 1f3d d8be dc3d be78 19bd
000000b0: ed83 96bc 8c8f 5f3d 72c1 c0bc 3aee 7ebd
000000c0: 0b38 e13d 51d6 84bc 0c8c 843d 4d01 043e
000000d0: 0187 113d af05 febb 9b6b 803d 3f62 03be
000000e0: d811 ca3d 49dd 9a3d 89b1 583d dd3f ce3d
000000f0: 059e 9a3b d02c 9e3c e9d8 b23d 6ce4 1c3c
00000100: 0bbb 183d b920 4cbd cbfb bfbd 6384 e83c
00000110: 78bc ca3d adbe 15bd 3ec1 88b9 1dae ffbb
00000120: 8aeb 71bc da46 a33c 9cdc bd3c a0a4 e6bd
00000130: ee60 1b3e 4827 4c3d 8223 9cbd e659 5fbc
00000140: d5f3 1cbc c3e8 ecbc 5f8f 103e ffb1 a6ba
00000150: 760d efbd ec97 72bd 6c15 3d3d 3e5f 4abc
00000160: 6836 cfbd dbf7 62bc 0d1e c03d b8d7 b8bd
00000170: f4d8 6c3d 7de0 193d fa3e 7e3c 092e 893c
00000180: 1c2f b63d 769e 4cbc dc65 f63c fb95 c63c
00000190: 7d34 bdbb 9b04 8b3d 3834 8bbb 8b18 de3d
000001a0: 0494 ef3d c9b2 603d 5671 823b d058 4bbd
000001b0: 8115 d13c 82e2 8abb 8093 6b3d 4ece 793d
000001c0: 8b58 6abc 8384 87bd 81ad 48bd 8599 4d3c
000001d0: 9efb b13d 358e 6abd fd5b c13c 5768 a4bb
000001e0: 5412 d8bd 64cb 09bb 136f 603d 906c 49bc
000001f0: 239f db3c 7a08 173b 2bbb a53d b794 063d
00000200: c831 663c 45c9 153e b437 56bd 790a f03d
00000210: bf5c 853d ad9e 8b3d 6c39 f63d e9b2 45bd
00000220: d07f 9ebb c6b0 aa3d 67dc 90bd 82b7 ef3c
00000230: 9c3e 9ebc 4ac1 173d 5e1e 023d ac6d 74bd
00000240: 2a14 b4bd 7e70 423d 7cc4 d2ba 017f 21bd
00000250: e514 53ba 19b7 7c3d 7017 83bd 5761 b73c
00000260: 28d2 3a3d 02d4 953b 33b8 00be 20b0 0c3e
00000270: 4613 9bbc dc76 97bc bafe 98bc a736 683d
00000280: a400 eabc 69ba d33b e4ff f0bc 60c7 f93c
00000290: c2d7 2abd ec47 82bd bfe1 953d f9e8 09be
000002a0: a724 2fbd ab9f 383d aadf 84bd e8a0 d7bd
000002b0: 08d6 ea3d 5470 553d dcef 7cbd 0c60 f93a
000002c0: 2dd8 94bd 791a 823b f5a9 953c b792 e8bc
000002d0: 3e4d 31bd 24a4 fc3c 965d 683d 2be8 8abd
000002e0: 19eb 69bd fa35 a43d 143c 713d 246d 4dbd
000002f0: b4ac bd3d b763 bfbc ffb4 353d 8a01 a63c
00000300: 660f 7b3d c50c 58bd 0fe1 9a3d 9987 48bd
00000310: 1bcb 803c 8ec1 923d 4ad0 b33c b969 3a3c
00000320: 903a b73d 9578 0ebb e04f 3abd c202 32bd
00000330: 6be6 0a3d 0695 42bd 61eb 0b3d 8e01 123d
00000340: 5006 ab3d 575d 7f3c 8639 4ebd 964e 163e
00000350: 99bc 3b3d 27a2 96bc bb6b e8bd e19c d4bd
00000360: 5ffe 3f3d d029 8cbd 6342 a63c 21a3 28bd
00000370: 5d30 143d 01e2 f2bb 5ed7 6ebd 34bb 76bd
00000380: dd21 48bc a6cd 363d 089a 3d3d a790 603d
00000390: 3765 3b3c 5b7e 09be 00ce 2bbc e7cb c33b
000003a0: 6b21 85bc 8e08 56bd b7a1 393e c345 bbbd
000003b0: 2498 fe3d 3538 acbd 32d8 55bd 31d4 3f3d
000003c0: dce2 bb3d 0ec3 76bd 55ef ab3c 6592 873d
000003d0: 13cf c1bd bb75 aabd c118 d33c 3e4b bb3b
000003e0: 66ad 8fba b2b6 00bc f5a6 193d b8a1 88bd
000003f0: 77a8 32bd 1baf 3cbd 49b3 cabd 7928 a83d
-0.16572273 0.024187723 -0.009701479 -0.045119286 0.04332129 -0.07442832 -0.04572837 -0.025278857
0.021836724 0.050955128 -0.055146687 -0.025896555 0.05591853 0.012640658 0.039055906 0.13484639
0.09942482 0.06085576 0.052810974 0.023419278 -0.01867816 0.049703255 -0.049218595 0.03907997
-0.009575458 0.007109364 0.057967376 -0.0038359265 -0.046582613 -0.027581448 0.054407615 -0.07097349
0.030633325 -0.0006342819 0.10027423 0.001581172 -0.053201426 -0.07573555 -0.034776002 -0.011219182
-0.007752437 0.03884589 0.10778588 -0.037468664 -0.018373454 0.054580256 -0.023529742 -0.06223891
0.109970175 -0.016215475 0.06472024 0.12891121 0.03552914 -0.0077521424 0.06270524 -0.12830447
0.09866685 0.07561738 0.052903686 0.10070775 0.0047185444 0.019308478 0.087327786 0.009575944
0.037287753 -0.049835894 -0.093741976 0.02838344 0.09899229 -0.036558796 -0.00026083918 -0.0078027383
-0.01476563 0.019931246 0.023176484 -0.112618685 0.15173694 0.04984215 -0.0762396 -0.013632273
-0.009579618 -0.028919583 0.14117192 -0.0012717842 -0.11672489 -0.059226915 0.046163008 -0.012351809
-0.10117799 -0.013853039 0.09380732 -0.0902552 0.05782409 0.037567604 0.0155179445 0.016745584
0.08895704 -0.012488952 0.030077867 0.024241438 -0.0057740794 0.06787988 -0.0042481683 0.10844525
0.116981536 0.054858003 0.003980796 -0.049645245 0.02552295 -0.0042384276 0.057513714 0.060987763
-0.014303337 -0.066170715 -0.04899359 0.012548809 0.0869057 -0.057264525 0.023603434 -0.005017321
-0.10550371 -0.0021025771 0.05479343 -0.01229395 0.02680928 0.0023045824 0.0809234 0.03285667
0.014049955 0.1462756 -0.052299216 0.117207475 0.065118305 0.068173744 0.12022671 -0.048266325
-0.004837014 0.08334498 -0.070732884 0.029262308 -0.019316964 0.03704957 0.03176724 -0.059674904
-0.087929085 0.047470562 -0.0016080285 -0.03942776 -0.0008052125 0.061698053 -0.06400955 0.022385282
0.045610577 0.0045723924 -0.12570266 0.13739061 -0.018930089 -0.018489294 -0.01867615 0.056692746
-0.028564759 0.006461431 -0.029418893 0.030490577 -0.04170967 -0.06361374 0.07318448 -0.13467778
-0.042759564 0.045074146 -0.06487973 -0.10528737 0.114666045 0.052109078 -0.061752185 0.0019025817
-0.07267795 0.003970441 0.018269518 -0.028390272 -0.043286555 0.030839987 0.056729876 -0.06782564
-0.057108972 0.08018108 0.058895186 -0.050152913 0.09261456 -0.023362977 0.044362064 0.020264406
0.061293982 -0.052746553 0.07562458 -0.04895744 0.015721848 0.07165824 0.021949906 0.011377745
0.08946717 -0.0021739353 -0.04548633 -0.04345966 0.03391115 -0.0475054 0.03416002 0.035646014
0.083508134 0.015586219 -0.050347827 0.14678416 0.045834158 -0.018387867 -0.11348673 -0.10381485
0.046873447 -0.068439126 0.020295328 -0.041171197 0.036178935 -0.0074121957 -0.05831086 -0.060237125
-0.012215105 0.044629715 0.046289474 0.05482545 0.011437706 -0.13427107 -0.010486126 0.005975235
-0.016251286 -0.052254252 0.18128096 -0.09144165 0.12431362 -0.08409158 -0.052208133 0.04683322
0.09174129 -0.060244612 0.020988146 0.066197194 -0.094633244 -0.083232366 0.02576864 0.0057157567
-0.0010961711 -0.007856058 0.03751274 -0.066714704 -0.04361769 -0.04606543 -0.09897477 0.082108445

network_body._body_endoder.seq_layers.0.bias f4 [128]
00000000: 0000 0000 0000 0000 0000 0000 0000 0000
00000010: 0000 0000 0000 0000 0000 0000 0000 0000
00000020: 0000 0000 0000 0000 0000 0000 0000 0000
00000030: 0000 0000 0000 0000 0000 0000 0000 0000
00000040: 0000 0000 0000 0000 0000 0000 0000 0000
00000050: 0000 0000 0000 0000 0000 0000 0000 0000
00000060: 0000 0000 0000 0000 0000 0000 0000 0000
00000070: 0000 0000 0000 0000 0000 0000 0000 0000
00000080: 0000 0000 0000 0000 0000 0000 0000 0000
00000090: 0000 0000 0000 0000 0000 0000 0000 0000
000000a0: 0000 0000 0000 0000 0000 0000 0000 0000
000000b0: 0000 0000 0000 0000 0000 0000 0000 0000
000000c0: 0000 0000 0000 0000 0000 0000 0000 0000
000000d0: 0000 0000 0000 0000 0000 0000 0000 0000
000000e0: 0000 0000 0000 0000 0000 0000 0000 0000
000000f0: 0000 0000 0000 0000 0000 0000 0000 0000
00000100: 0000 0000 0000 0000 0000 0000 0000 0000
00000110: 0000 0000 0000 0000 0000 0000 0000 0000
00000120: 0000 0000 0000 0000 0000 0000 0000 0000
00000130: 0000 0000 0000 0000 0000 0000 0000 0000
00000140: 0000 0000 0000 0000 0000 0000 0000 0000
00000150: 0000 0000 0000 0000 0000 0000 0000 0000
00000160: 0000 0000 0000 0000 0000 0000 0000 0000
00000170: 0000 0000 0000 0000 0000 0000 0000 0000
00000180: 0000 0000 0000 0000 0000 0000 0000 0000
00000190: 0000 0000 0000 0000 0000 0000 0000 0000
000001a0: 0000 0000 0000 0000 0000 0000 0000 0000
000001b0: 0000 0000 0000 0000 0000 0000 0000 0000
000001c0: 0000 0000 0000 0000 0000 0000 0000 0000
000001d0: 0000 0000 0000 0000 0000 0000 0000 0000
000001e0: 0000 0000 0000 0000 0000 0000 0000 0000
000001f0: 0000 0000 0000 0000 0000 0000 0000 0000
0.0 0.0 0.0 0.0 0.0 0.0 0.0 0.0
0.0 0.0 0.0 0.0 0.0 0.0 0.0 0.0
0.0 0.0 0.0 0.0 0.0 0.0 0.0 0.0
0.0 0.0 0.0 0.0 0.0 0.0 0.0 0.0
0.0 0.0 0.0 0.0 0.0 0.0 0.0 0.0
0.0 0.0 0.0 0.0 0.0 0.0 0.0 0.0
0.0 0.0 0.0 0.0 0.0 0.0 0.0 0.0
0.0 0.0 0.0 0.0 0.0 0.0 0.0 0.0
0.0 0.0 0.0 0.0 0.0 0.0 0.0 0.0
0.0 0.0 0.0 0.0 0.0 0.0 0.0 0.0
0.0 0.0 0.0 0.0 0.0 0.0 0.0 0.0
0.0 0.0 0.0 0.0 0.0 0.0 0.0 0.0
0.0 0.0 0.0 0.0 0.0 0.0 0.0 0.0
0.0 0.0 0.0 0.0 0.0 0.0 0.0 0.0
0.0 0.0 0.0 0.0 0.0 0.0 0.0 0.0
0.0 0.0 0.0 0.0 0.0 0.0 0.0 0.0

network_body._body_endoder.seq_layers.2.weight f4 [128, 128]
00000000: 59b6 c43d f1f5 1a3e 8b4a 383d 0cca 3c3d
00000010: 9b8c 2abe e0cc 3f3c 5923 b6bb b009 a6bc
00000020: a835 d5bb d58d 1bbc 40da 9ebd d06c 00bd
00000030: 36db 6cbd bbf2 ef3d 302e ee3c 419b 153d
00000040: 7b87 51bd 8b5d 0dbe 4a75 0b3d b663 9c3d
00000050: a2d8 343d 01f1 1c3e e651 83bd 6af4 a3bd
00000060: 9666 a23d 7543 b73d c4ee 4fbd f4ba b93d
00000070: 6d7d fb3b d0f0 fe3d ae12 84bc dcef 533d
00000080: 93e1 903b 3f4f 07be 2232 2ebe 3a3e 3f3e
00000090: d6d9 1d3e 9a41 8a3d 7469 123d 6e1e 27be
000000a0: ec55 973c c15c cabd bf48 08bd e2fe 383d
000000b0: 26af 643d 1dbe ad3d 75e9 18be 7032 413d
000000c0: 285e 003d a3c2 9bbd 84bf b03d d27b 44be
000000d0: 570e 6cbd 1598 e0bd f73c 49bd cd9d 84bd
000000e0: 58c0 b6bd a1c6 adbd 97eb 7fbd e7f6 853b
000000f0: 0b1e 06be 4e20 833d ac1d d63c 50ee 20bd
00000100: 31b7 5e3d 83ba ac3d 6cc5 30bd ffc7 153d
00000110: 0383 02bd 54a3 1d3d 7dd6 f8bc 0f45 83bd
00000120: 0a23 323e 01c2 123e f962 6fbc 4d8a 3ebe
00000130: 4879 08be 899a dc3d 5470 983d 71b0 093d
00000140: 83e0 94bd f96f 4e3d 3b0f 5cbd 9958 1dbd
00000150: 402f ad3d 658c 2b3e e4fb d33c 2e40 ae3d
00000160: ad21 e03d 9030 4bbd ecb7 7f3d f2c2 603c
00000170: 59bf 13bc 150c f63b 8b28 c73d d0e0 e13d
00000180: 09a7 03bc 4f03 833d 6ef2 d83c 2214 7cbd
00000190: 3ec4 e63b fc59 12bd d27a 00bc 8726 4fbd
000001a0: 01a5 eb3d dd25 313d 5957 edbd 3e98 f4bd
000001b0: 1acd ba3d 87c3 743c aae6 18bd a7af d3bc
000001c0: 792f 4ebe 2605 813c 4484 f3bb 6a14 9abd
000001d0: 9035 f2bd c658 5dbd bb61 e5bd 6ac6 41bc
000001e0: 7155 24be 9e13 debd 4a5c 00bc cd44 263d
000001f0: 1f4c 31bd 938c 5b3e 0c95 33bb 2c32 97bd
00000200: 790f dbbb b4bf 093e 757d 22be 3b5f 6a3e
00000210: 3b13 973a ed99 f03c 9813 9b3c 7c3f 243d
00000220: 179a 73bc 0a06 bb3c 7e65 c6bd aafd f6bc
00000230: 5061 4fbc 6554 e03d dccc f0bc 8042 713d
00000240: c30c b53d f7aa 31bb 4a0b 8a3d 3180 16bd
00000250: 92e9 eebd be40 403c eef7 133c fbac 0ebd
00000260: 5a17 8eba c577 e73d 549f 6bbe 35ca eabd
00000270: 3d9d 063e f91b 893d f7cd 69bc 797b 74be
00000280: f081 19bc f047 083e f30d 61bb 3a73 e3bc
00000290: 1cf8 d83d 472a 34bc 9609 bb3d 63cd d03c
000002a0: 53d5 01be 0e63 97bd 2fdd d4bd a714 b3bc
000002b0: 14a6 9ebd 4afe 12bd b25b b03d 5ac9 c6bd
000002c0: d876 123c 0d49 15be e8a9 d2bd b7dd 533d
000002d0: 9586 25bd e073 c23c 6650 b23d 0ee0 513c
000002e0: c36c b53b f200 973c 9069 42bd 68d3 8dbb
000002f0: 7772 00bc 10f0 c63d 0eff b9bd 2199 ea3c
00000300: 447f c23d c076 be3d 1722 ed3d 0e23 aebd
00000310: 08bb 883c 5ccb 17be f040 b93d 1569 01be
00000320: 87a0 b4bc edb1 0bbe 0d28 743d ffb7 06bb
00000330: cdc3 98bc 0a62 dd3d 2b2b 09bc 2401 033c
00000340: 4ee3 fbbd 6db9 2abe ac0a 173d 9c97 843d
00000350: 4826 813d 3c5d 77bd 3e8f 8c3d 26e9 2b3e
00000360: fcf3 1abe 4d62 af3a 3656 4fbd ad9b d73d
00000370: 52e6 1e3e ecef b33d 72fd 28be 3f34 1e3c
00000380: a023 0f3d 95c5 003d 2b61 843c 324d 2bbd
00000390: 3d0f bc3d 6293 61bd d428 f4bc 7e8d 6dbb
000003a0: 4a33 873d 0e18 1b3e c5ab 03bd 15e8 a3bd
000003b0: 335b 5bbb 5ed7 f2bc f956 b4bc 2499 983d
000003c0: f097 97bd 2f35 983d f44e 37bd 31b6 513e
000003d0: 10ee cebc e695 433d 9480 95bb a9c7 bb3c
000003e0: 5b21 093d a6db debd 7999 eebd bf6e 313d
000003f0: f96e d3bc 1d7b db3d 0058 96be e5b9 d5bd
0.096050926 0.15132882 0.044992965 0.046091124 -0.16655199 0.011706561 -0.005558413 -0.020268291
-0.0065066405 -0.009494265 -0.07756472 -0.03135377 -0.057826243 0.11716219 0.029074758 0.036525015
-0.051154595 -0.13805215 0.034047402 0.07636206 0.04415191 0.1532631 -0.06412105 -0.08005603
0.07929723 0.08948413 -0.050764814 0.090688616 0.007674864 0.12448275 -0.016122188 0.05174242
0.004421422 -0.13213824 -0.17011312 0.18676081 0.15415129 0.06750794 0.0357451 -0.16320202
0.018473588 -0.09880973 -0.0332725 0.04516495 0.055831097 0.08483527 -0.14932807 0.04716724
0.031339794 -0.076054834 0.08630279 -0.19187859 -0.057630863 -0.10966507 -0.049130406 -0.064754106
-0.089234054 -0.08485151 -0.062480535 0.004088271 -0.13097398 0.06402646 0.026137196 -0.039289773
0.054373924 0.08434012 -0.043157026 0.036567684 -0.031863224 0.03848584 -0.030375713 -0.06409656
0.17396179 0.14331819 -0.014610999 -0.18607445 -0.13327515 0.10771663 0.074433 0.033615533
-0.07269385 0.050399754 -0.053725462 -0.03841457 0.08456278 0.16752775 0.025876947 0.08508335
0.10943923 -0.04960686 0.06243126 0.013718354 -0.009017789 0.0075087645 0.0972453 0.11029208
-0.00803543 0.063971154 0.026482787 -0.061542638 0.007042437 -0.035730347 -0.007841783 -0.050573852
0.11506081 0.043249 -0.11588926 -0.119431004 0.09121151 0.0149391955 -0.037329353 -0.025840594
-0.20135297 0.015749525 -0.007431539 -0.07523425 -0.118266225 -0.05403974 -0.11200281 -0.011827091
-0.16048218 -0.108435854 -0.007834503 0.040592957 -0.043285485 0.21440344 -0.0027402071 -0.073826164
-0.006685194 0.13452035 -0.1586817 0.2288789 0.0011526117 0.029370273 0.018930241 0.040099606
-0.014868281 0.022830028 -0.09687327 -0.030150253 -0.012657478 0.10953597 -0.02939456 0.05890131
0.08840325 -0.002710996 0.067404345 -0.036743347 -0.11665644 0.011734186 0.009031279 -0.034832936
-0.00108407 0.11302141 -0.23009998 -0.11464349 0.13145919 0.066947885 -0.014270297 -0.23875226
-0.009369358 0.13308692 -0.003434059 -0.027764905 0.10594198 -0.010996408 0.09132688 0.025488561
-0.12679033 -0.0739194 -0.1039375 -0.021860434 -0.07746521 -0.03588704 0.086112395 -0.097063735
0.008939467 -0.14578648 -0.10286313 0.051725116 -0.04041155 0.023736894 0.08706741 0.012809766
0.005536647 0.018433068 -0.047463953 -0.00432818 -0.007839791 0.09713757 -0.09081851 0.02863747
0.0949693 0.092999935 0.11578768 -0.0850278 0.016690746 -0.14823669 0.09045589 -0.12637742
-0.022049202 -0.13642092 0.059608508 -0.0020556448 -0.018648053 0.10809715 -0.008372108 0.007995877
-0.12299214 -0.16672297 0.036875412 0.0647423 0.0630613 -0.06039165 0.06863259 0.16788158
-0.15132135 0.0013380736 -0.050619327 0.1052774 0.15517548 0.08785996 -0.16502932 0.009656011
0.034946084 0.03143843 0.016159615 -0.041821666 0.09182594 -0.055072196 -0.029804625 -0.0036247666
0.066015795 0.15145895 -0.032146234 -0.080032505 -0.0033471107 -0.02964371 -0.022014128 0.07451084
-0.07402027 0.07432019 -0.04475303 0.20479657 -0.025260001 0.047750376 -0.004562447 0.022922354
0.033479076 -0.10881738 -0.11650366 0.043318506 -0.025809752 0.10716841 -0.29364014 -0.10435847

network_body._body_endoder.seq_layers.2.bias f4 [128]
00000000: 0000 0000 0000 0000 0000 0000 0000 0000
00000010: 0000 0000 0000 0000 0000 0000 0000 0000
00000020: 0000 0000 0000 0000 0000 0000 0000 0000
00000030: 0000 0000 0000 0000 0000 0000 0000 0000
00000040: 0000 0000 0000 0000 0000 0000 0000 0000
00000050: 0000 0000 0000 0000 0000 0000 0000 0000
00000060: 0000 0000 0000 0000 0000 0000 0000 0000
00000070: 0000 0000 0000 0000 0000 0000 0000 0000
00000080: 0000 0000 0000 0000 0000 0000 0000 0000
00000090: 0000 0000 0000 0000 0000 0000 0000 0000
000000a0: 0000 0000 0000 0000 0000 0000 0000 0000
000000b0: 0000 0000 0000 0000 0000 0000 0000 0000
000000c0: 0000 0000 0000 0000 0000 0000 0000 0000
000000d0: 0000 0000 0000 0000 0000 0000 0000 0000
000000e0: 0000 0000 0000 0000 0000 0000 0000 0000
000000f0: 0000 0000 0000 0000 0000 0000 0000 0000
00000100: 0000 0000 0000 0000 0000 0000 0000 0000
00000110: 0000 0000 0000 0000 0000 0000 0000 0000
00000120: 0000 0000 0000 0000 0000 0000 0000 0000
00000130: 0000 0000 0000 0000 0000 0000 0000 0000
00000140: 0000 0000 0000 0000 0000 0000 0000 0000
00000150: 0000 0000 0000 0000 0000 0000 0000 0000
00000160: 0000 0000 0000 0000 0000 0000 0000 0000
00000170: 0000 0000 0000 0000 0000 0000 0000 0000
00000180: 0000 0000 0000 0000 0000 0000 0000 0000
00000190: 0000 0000 0000 0000 0000 0000 0000 0000
000001a0: 0000 0000 0000 0000 0000 0000 0000 0000
000001b0: 0000 0000 0000 0000 0000 0000 0000 0000
000001c0: 0000 0000 0000 0000 0000 0000 0000 0000
000001d0: 0000 0000 0000 0000 0000 0000 0000 0000
000001e0: 0000 0000 0000 0000 0000 0000 0000 0000
000001f0: 0000 0000 0000 0000 0000 0000 0000 0000
0.0 0.0 0.0 0.0 0.0 0.0 0.0 0.0
0.0 0.0 0.0 0.0 0.0 0.0 0.0 0.0
0.0 0.0 0.0 0.0 0.0 0.0 0.0 0.0
0.0 0.0 0.0 0.0 0.0 0.0 0.0 0.0
0.0 0.0 0.0 0.0 0.0 0.0 0.0 0.0
0.0 0.0 0.0 0.0 0.0 0.0 0.0 0.0
0.0 0.0 0.0 0.0 0.0 0.0 0.0 0.0
0.0 0.0 0.0 0.0 0.0 0.0 0.0 0.0
0.0 0.0 0.0 0.0 0.0 0.0 0.0 0.0
0.0 0.0 0.0 0.0 0.0 0.0 0.0 0.0
0.0 0.0 0.0 0.0 0.0 0.0 0.0 0.0
0.0 0.0 0.0 0.0 0.0 0.0 0.0 0.0
0.0 0.0 0.0 0.0 0.0 0.0 0.0 0.0
0.0 0.0 0.0 0.0 0.0 0.0 0.0 0.0
0.0 0.0 0.0 0.0 0.0 0.0 0.0 0.0
0.0 0.0 0.0 0.0 0.0 0.0 0.0 0.0

value_heads.value_heads.extrinsic.weight f4 [1, 128]
00000000: e0ed 0ebe 503e 5cbe 483e 193e 2912 24be
00000010: 763b 13be b8be 983d bb0f bdbd b03f 483c
00000020: 40f4 cd3d e47c 08be 004a 52ba 5c97 cb3d
00000030: f4c8 20bd 442d c33d 7c9b 5a3e 4379 4ebe
00000040: 9cd8 e53d 8054 653b e000 12be b8aa 49be
00000050: c208 0e3e 96c6 39be 6ef1 90bd 1089 5c3c
00000060: 2c96 883d b08b 333d 4282 2c3e 502e 863d
00000070: 689c 3f3e b8fe 073e 56ff 193e 5e17 153e
00000080: cceb 3f3e 7490 19bd aa9d 073e 9005 b6bd
00000090: 44c2 283e 103b 64bc e223 f5bd f011 af3c
000000a0: 67a1 11be 9df0 bdbd 6471 3bbe 522e 03be
000000b0: 00d3 8d3d 20fb e73b 7e43 02be d0d5 923d
000000c0: 20ce 2f3e 0c32 e93d 20b7 d0bb fa41 483e
000000d0: f3dc e0bd 2816 d03d 9643 59be 009b 763b
000000e0: 807b a03d 6c30 17bd b079 8cbd b6e1 2a3e
000000f0: 8678 5bbe 1c12 1abd 9444 24bd e483 5abe
00000100: 3c09 b13d 8b3d 47be e009 ce3d 48e0 133d
00000110: dcfa c13d 7e45 5cbe bef2 013e 7239 243e
00000120: a4ea 32be dee9 4bbe c91b dfbd 7892 39be
00000130: 8c61 a7bd 005f 1d3e 5cd3 b23d 43de bfbd
00000140: c0a2 c23b 924d d6bd d0b9 40be 2846 aabc
00000150: c235 a4bd 6e48 1c3e 3b02 41be 3811 3a3e
00000160: c858 f4bc 3c21 e9bd 2092 6d3c e2a1 a5bd
00000170: 3048 103d 1af6 54be b8d5 243e 40e6 d73d
00000180: 529f 3a3e 78f9 6a3d 805b e5bd a065 413e
00000190: ff35 21be 0a1b 2e3e 6207 453e a00d 50bc
000001a0: a896 893c 4075 0e3e 98b1 613d e9be 3cbe
000001b0: eb6a e0bd 8880 3d3d c8b8 40be 49fc e9bd
000001c0: 6003 ea3b 98a4 c43d f465 11be 6841 4cbe
000001d0: de10 513e 9000 29bc 4b80 1abe 34f8 463e
000001e0: f02b 13bd 34a9 c63d 8003 0c3c 680f 67bd
000001f0: 2488 37bd f420 61bd 0ab3 3e3e 8d34 47be
-0.1395793 -0.21508145 0.14965165 -0.16022553 -0.14378151 0.07458252 -0.09231516 0.0122222155
0.100563526 -0.13328892 -0.0008021891 0.09940979 -0.039254144 0.09530118 0.21348375 -0.20163445
0.112229556 0.0034992993 -0.14258146 -0.1969403 0.13870528 -0.18142161 -0.07077299 0.013460413
0.06669268 0.04383439 0.16846564 0.06551802 0.18712008 0.13280761 0.15038809 0.14559695
0.18742293 -0.037491277 0.13243738 -0.0888778 0.16480356 -0.013930097 -0.11969735 0.021370858
-0.14221726 -0.09274409 -0.18304974 -0.12810639 0.06925011 0.007079497 -0.12721059 0.07169688
0.17168474 0.11386499 -0.0063694865 0.19556418 -0.10979643 0.10160476 -0.21217188 0.0037629008
0.07836056 -0.036911413 -0.068591475 0.16687664 -0.21432695 -0.037614927 -0.040104464 -0.21339375
0.086443394 -0.1945707 0.10060477 0.036102563 0.09471676 -0.21510884 0.12690255 0.16037539
-0.17472321 -0.19913432 -0.108939715 -0.1812228 -0.081729025 0.15368271 0.0873172 -0.09368565
0.0059398115 -0.10464014 -0.18820882 -0.020785406 -0.08018066 0.15262005 -0.18848507 0.18170631
-0.02982749 -0.11383292 0.014500171 -0.08087517 0.035225093 -0.20797005 0.16097152 0.105419636
0.18224838 0.05736682 -0.11199093 0.18886423 -0.15743254 0.17002502 0.19241098 -0.012698561
0.016795471 0.13911915 0.055101007 -0.18432201 -0.10957893 0.046265155 -0.18820488 -0.11425073
0.0071415156 0.09601706 -0.14199048 -0.19946826 0.2041659 -0.0103150755 -0.15088002 0.1943062
-0.035930574 0.09700242 0.008545756 -0.056411177 -0.04480757 -0.054963067 0.18622985 -0.1945364
