Assets/ML-Agents/Examples/FirstTRexScene/results/trmodel/My Behavior/My Behavior-3136.pt (torch, 152375 bytes, 12 tensors)

network_body._body_endoder.seq_layers.0.weight f4 [128, 9]
000000 78 ca 94 ba 24 f2 92 3e 1e 46 d2 be 78 1d a3 3d
       -0.0011351844 0.28700364 -0.4106912 0.07964605
000010 86 1a 8b be b2 a8 98 be b2 3f 95 3e a8 1c d4 3d
       -0.27168673 -0.29816204 0.29150158 0.10357028
000020 02 5e 4f bf dc 60 69 3e cc 90 05 be cb 3e f4 3e
       -0.8100282 0.22790855 -0.13043517 0.47704157
000030 98 01 85 be 06 fb e7 3e 37 45 44 3e f6 ff c9 bd
       -0.25977778 0.45308703 0.19167028 -0.09863274
000040 db 80 4a be c6 16 80 be 51 f1 95 3e 5d 84 87 be
       -0.19775717 -0.25017375 0.29285672 -0.26468173
000050 2c 36 9c 3e 1a 89 96 3d c5 cc 13 3f 65 20 21 3c
       0.3051008 0.07350369 0.5773433 0.009834384
000060 2c f7 b7 bc 2e 35 dd 3e f8 1a 1d be d3 1a ff bd
       -0.022456728 0.43204635 -0.15342319 -0.12456288
000070 47 5c ad be 55 c5 98 3e bc 6c bd 3d d2 46 ee 3d
       -0.33859465 0.29838052 0.09249255 0.11634602
000080 a9 6e 23 bc 89 d7 8a 3e 71 06 25 3e 6d d2 0f bf
       -0.009975114 0.27117565 0.16115738 -0.5618046
000090 23 5b 80 3e 6c 9e 16 3e a0 7d 2a bd 5f 38 be be
       0.25069532 0.1470887 -0.04162371 -0.37152383
0000a0 26 0f 8b be 92 5b 05 be 5b 49 58 3e 9a 6f 98 be
       -0.27159995 -0.13023213 0.21121733 -0.29772645
0000b0 db f3 3f bf 54 7d aa 3e 52 72 28 3e 20 6c fd be
       -0.7498147 0.33298743 0.1644986 -0.49496555
0000c0 be 71 70 bd c8 15 1e 3e d2 c3 e6 3c 74 f3 81 be
       -0.058702223 0.15437996 0.028169546 -0.25381052
0000d0 22 ff 02 3f 74 d2 3f 3e ab 57 cf 3e 13 99 d9 bc
       0.5117055 0.18732625 0.40496573 -0.02656225
0000e0 63 b2 44 be d7 01 2d be 50 06 57 bf a3 6c 8f 3c
       -0.19208674 -0.16895233 -0.8399401 0.017507857
0000f0 5a 15 2b be 02 7c 31 3e 8e 6d 04 be bf 1e e1 3d
       -0.16707364 0.17332461 -0.12932417 0.109921925
000100 4c 14 8b be 08 52 cf 3e f6 d6 10 3e c2 c0 be bc
       -0.27163923 0.40492272 0.14144501 -0.023285273
000110 03 c7 34 3e 7a 88 95 bc f6 6f f0 3e e0 3f 19 be
       0.17654042 -0.018253554 0.4696042 -0.14965773
000120 62 f6 ea be aa 7c a1 be e4 51 f1 bd 37 f9 44 3e
       -0.458911 -0.31540424 -0.117831975 0.19235693
000130 a1 26 1d 3e 9f 9b 0a 3f 5b 41 ba bd 88 99 4b 3d
       0.15346767 0.5414371 -0.09094497 0.049706966
000140 df 5d 79 be 10 33 e6 be fc 9f 4a 3e 9b e4 57 3f
       -0.24352215 -0.44960833 0.19787592 0.843332
000150 cb de c0 be a0 7e 32 3e ee 10 19 be 2c 47 16 be
       -0.37669978 0.17431116 -0.14947864 -0.14675587
000160 ce e3 07 3d 73 bf cc bd 9b 74 19 3e 70 48 be be
       0.033176236 -0.099974535 0.14985888 -0.3716464
000170 4f 7d 56 3e 64 7b 99 3e 4e 61 75 be 16 01 c8 3e
       0.20946239 0.29976952 -0.239629 0.39063329
000180 8c d9 c6 be 72 57 3a bf fd 96 9d be f7 c5 aa be
       -0.3883785 -0.7278968 -0.30779257 -0.3335416
000190 b0 7e 0e bf ac 66 0c be dc ce de 3e b4 a7 2d be
       -0.5566206 -0.13711041 0.43517196 -0.16958505
0001a0 da 88 18 bd 38 d1 b4 3e cc 91 1e be d2 01 b6 3b
       -0.037239887 0.3531587 -0.15485305 0.005554416
0001b0 43 78 ce be 3c ba dd 3d df 30 c1 be 8c df 3f be
       -0.40326127 0.10826537 -0.37732598 -0.1873762
0001c0 d0 61 ab be c7 c5 e3 3e a4 92 c4 be a4 8f a5 be
       -0.33473063 0.4448683 -0.38393128 -0.32336152
0001d0 04 59 3b be 2f 61 06 be 01 b6 89 be 5c 5b ab 3d
       -0.18295676 -0.1312301 -0.2689667 0.08367035
0001e0 60 9e 9c bd 3a 8c 80 be 4a 57 9f 3e b0 7a 62 3e
       -0.07647395 -0.25106984 0.31121284 0.22117114
0001f0 70 cb 30 3f f4 1f 28 bf 8c dc be be 87 34 62 be
       0.6906042 -0.65673757 -0.3727764 -0.2209035
000200 fd b2 0c be be c5 dc 3e 73 1b 44 bf 46 b6 10 3e
       -0.13740154 0.43119615 -0.76604384 0.14132032
000210 a2 17 11 be f3 2d 67 bc fa 49 33 3e b2 e4 19 3e
       -0.14169171 -0.014110076 0.17508689 0.15028647
000220 40 8b e7 3e 3f ae ba 3d bb 4a 59 bd e6 f7 0d bd
       0.45223427 0.09115266 -0.053049784 -0.034660242
000230 87 c3 e3 3d 07 41 25 bf ac 0c 4a 3e 27 d0 37 be
       0.11121278 -0.6455235 0.19731396 -0.17950498
000240 e2 f9 08 bf 30 f2 29 be 0e 52 98 3e f8 86 17 3e
       -0.5350629 -0.16596293 0.29750103 0.1479758
000250 26 d6 8a 3c bc 33 94 3e 35 86 9e bd e2 64 e4 be
       0.016947817 0.2894572 -0.07740442 -0.44608217
000260 9e 71 9a 3e aa 46 95 be af 82 b5 be d1 e5 01 be
       0.30164808 -0.29155475 -0.35451266 -0.12685324
000270 b0 38 3b 3e 40 f8 4a be 64 5c b3 be 8e ba 32 3f
       0.18283343 -0.19821262 -0.35031426 0.6981591
000280 07 94 bf 3d 66 cc 19 3f c3 c1 dc 3e 77 13 cb bc
       0.09354406 0.6007751 0.43116578 -0.024789555
000290 20 d8 bf bc da 9d 36 bd 42 02 29 bf 60 8c 32 3e
       -0.023418486 -0.044584133 -0.6601907 0.17436361
0002a0 7d c9 a7 3e 9a 82 55 be de c7 8c 3c a3 a0 fe bc
       0.3277091 -0.20850602 0.017185148 -0.031082457
0002b0 43 39 56 bd 85 48 20 3e ee 4a a0 be bd a2 2a 3e
       -0.052300703 0.15652664 -0.31307167 0.16663642
0002c0 e6 3a 89 3d cb b4 0a be 5c 43 36 3c ec 78 0a 3f
       0.06700687 -0.1354553 0.011124458 0.5409076
0002d0 da 69 70 be 2c 62 10 3e 7f e3 41 3e 74 68 0b 3f
       -0.23477879 0.1409995 0.18934439 0.5445626
0002e0 44 8c e3 bd b7 8e e1 3e 58 86 fb 3c 42 8d 80 be
       -0.11110738 0.44054195 0.030703709 -0.2510777
0002f0 13 20 48 3e a2 cc 05 be 1c df 21 3d 3b 45 30 3f
       0.19543485 -0.13066342 0.039519414 0.6885564
000300 60 2f 16 be 9e b2 98 bc 36 3d d6 3e 58 f0 62 be
       -0.1466651 -0.018639859 0.41843575 -0.22161996
000310 fc e4 05 3f 83 b4 3e 3e 53 2a 81 3e 67 47 54 3d
       0.5230253 0.18623547 0.25227603 0.051825907
000320 36 72 8a be 24 58 cb be e6 b2 f8 be 24 a8 6a 3e
       -0.2704026 -0.39715683 -0.4857399 0.22915703
000330 3e 21 f2 3d 16 78 1a 3f c8 e2 14 bf 32 f8 8a be
       0.11822747 0.60339487 -0.5815854 -0.27142483
000340 2a a5 12 be 70 c0 ea 3e fc 4b 07 3e 6a 40 89 bc
       -0.14320818 0.45849943 0.1321258 -0.016754348
000350 40 db 82 bb 82 26 dc 3e e7 77 57 be 6f 5e 02 be
       -0.003993422 0.4299813 -0.21041833 -0.12731336
000360 d7 b2 31 3f 5c 0d 08 bd 1c 73 26 be ec 4a 85 3f
       0.6941351 -0.033215865 -0.16254848 1.0413489
000370 e7 88 d5 be 6f 0a 58 bf 1a 70 84 bc 92 c5 47 be
       -0.4170601 -0.8439092 -0.016166735 -0.19508961
000380 af e4 6e be 2a 5e 14 3e 5f fc 76 be f6 b4 ac 3d
       -0.23329423 0.14489046 -0.2411971 0.08432953
000390 23 22 09 bf 0a c5 83 bf 72 32 e3 be c2 fa 12 3e
       -0.53567713 -1.0294507 -0.44374424 0.14353469
0003a0 ef 5c 1a be 10 05 b7 be f4 22 65 3e 9f 0b 9d bd
       -0.15074514 -0.3574605 0.22376615 -0.07668232
0003b0 84 b9 1e be aa c1 bf 3e 3e 46 bc bd ab 9b dc be
       -0.15500456 0.3745244 -0.09193085 -0.43087515
0003c0 52 0e 58 be 80 10 26 3e 19 f6 9c bd 1c e2 3c bd
       -0.21099213 0.16217232 -0.07664127 -0.046114072
0003d0 d8 57 3f 3d 6f 72 d5 bc 55 f7 8f be 42 58 09 be
       0.046714634 -0.026055543 -0.28118387 -0.13412574
0003e0 08 15 88 3b 10 1b 95 be cf 4d 29 be fc 05 dd be
       0.0041528977 -0.2912221 -0.16533588 -0.43168628
0003f0 ca 57 2a 3f 3e 22 1e 3e bc 27 1a 3e f0 21 cf be
       0.66540205 0.1544275 0.1505422 -0.4045558

network_body._body_endoder.seq_layers.0.bias f4 [128]
000000 00 00 00 00 00 00 00 00 00 00 00 00 00 00 00 00
       0.0 0.0 0.0 0.0
000010 00 00 00 00 00 00 00 00 00 00 00 00 00 00 00 00
       0.0 0.0 0.0 0.0
000020 00 00 00 00 00 00 00 00 00 00 00 00 00 00 00 00
       0.0 0.0 0.0 0.0
000030 00 00 00 00 00 00 00 00 00 00 00 00 00 00 00 00
       0.0 0.0 0.0 0.0
000040 00 00 00 00 00 00 00 00 00 00 00 00 00 00 00 00
       0.0 0.0 0.0 0.0
000050 00 00 00 00 00 00 00 00 00 00 00 00 00 00 00 00
       0.0 0.0 0.0 0.0
000060 00 00 00 00 00 00 00 00 00 00 00 00 00 00 00 00
       0.0 0.0 0.0 0.0
000070 00 00 00 00 00 00 00 00 00 00 00 00 00 00 00 00
       0.0 0.0 0.0 0.0
000080 00 00 00 00 00 00 00 00 00 00 00 00 00 00 00 00
       0.0 0.0 0.0 0.0
000090 00 00 00 00 00 00 00 00 00 00 00 00 00 00 00 00
       0.0 0.0 0.0 0.0
0000a0 00 00 00 00 00 00 00 00 00 00 00 00 00 00 00 00
       0.0 0.0 0.0 0.0
0000b0 00 00 00 00 00 00 00 00 00 00 00 00 00 00 00 00
       0.0 0.0 0.0 0.0
0000c0 00 00 00 00 00 00 00 00 00 00 00 00 00 00 00 00
       0.0 0.0 0.0 0.0
0000d0 00 00 00 00 00 00 00 00 00 00 00 00 00 00 00 00
       0.0 0.0 0.0 0.0
0000e0 00 00 00 00 00 00 00 00 00 00 00 00 00 00 00 00
       0.0 0.0 0.0 0.0
0000f0 00 00 00 00 00 00 00 00 00 00 00 00 00 00 00 00
       0.0 0.0 0.0 0.0
000100 00 00 00 00 00 00 00 00 00 00 00 00 00 00 00 00
       0.0 0.0 0.0 0.0
000110 00 00 00 00 00 00 00 00 00 00 00 00 00 00 00 00
       0.0 0.0 0.0 0.0
000120 00 00 00 00 00 00 00 00 00 00 00 00 00 00 00 00
       0.0 0.0 0.0 0.0
000130 00 00 00 00 00 00 00 00 00 00 00 00 00 00 00 00
       0.0 0.0 0.0 0.0
000140 00 00 00 00 00 00 00 00 00 00 00 00 00 00 00 00
       0.0 0.0 0.0 0.0
000150 00 00 00 00 00 00 00 00 00 00 00 00 00 00 00 00
       0.0 0.0 0.0 0.0
000160 00 00 00 00 00 00 00 00 00 00 00 00 00 00 00 00
       0.0 0.0 0.0 0.0
000170 00 00 00 00 00 00 00 00 00 00 00 00 00 00 00 00
       0.0 0.0 0.0 0.0
000180 00 00 00 00 00 00 00 00 00 00 00 00 00 00 00 00
       0.0 0.0 0.0 0.0
000190 00 00 00 00 00 00 00 00 00 00 00 00 00 00 00 00
       0.0 0.0 0.0 0.0
0001a0 00 00 00 00 00 00 00 00 00 00 00 00 00 00 00 00
       0.0 0.0 0.0 0.0
0001b0 00 00 00 00 00 00 00 00 00 00 00 00 00 00 00 00
       0.0 0.0 0.0 0.0
0001c0 00 00 00 00 00 00 00 00 00 00 00 00 00 00 00 00
       0.0 0.0 0.0 0.0
0001d0 00 00 00 00 00 00 00 00 00 00 00 00 00 00 00 00
       0.0 0.0 0.0 0.0
0001e0 00 00 00 00 00 00 00 00 00 00 00 00 00 00 00 00
       0.0 0.0 0.0 0.0
0001f0 00 00 00 00 00 00 00 00 00 00 00 00 00 00 00 00
       0.0 0.0 0.0 0.0

network_body._body_endoder.seq_layers.2.weight f4 [128, 128]
000000 4a 41 22 bd 31 59 e0 bc fe c1 0f be 33 93 45 bc
       -0.039613046 -0.02738628 -0.14038846 -0.012059021
000010 f4 b7 da 3c 72 95 c8 bd 79 69 0a be 2f 26 50 3d
       0.026699044 -0.097941294 -0.13516797 0.050817665
000020 19 34 a2 bd ac fc a0 3d 2d e9 aa bd 30 03 25 be
       -0.07920093 0.07860693 -0.08345256 -0.16114497
000030 c9 c5 23 bd 83 47 3c bb 0c 1e b6 bd 06 45 27 3e
       -0.039983544 -0.0028729148 -0.0889245 0.16334924
000040 98 e3 23 3d 81 b1 dc 3d 27 fc 8e 3d 77 b2 ea bd
       0.040011972 0.10776044 0.06981688 -0.11459821
000050 5b ce 39 bd 84 9a e6 3c e3 36 b1 3d 21 e5 15 3d
       -0.04536281 0.02814985 0.08653047 0.036595467
000060 59 62 1a 3d b5 ba b2 3d e2 9a da bd 5a a1 5b 3b
       0.037691448 0.08727018 -0.10674073 0.003351292
000070 50 43 9b bd 98 ef 01 bc d4 6d cf bb 18 82 5b bd
       -0.07581198 -0.007930659 -0.006330231 -0.053590864
000080 db 49 e3 3c f1 b0 ad bd d8 2e fd 3d 26 2d ef 3c
       0.027745178 -0.084810145 0.1236245 0.029196333
000090 a6 d1 67 3c 2f ad 28 bd 12 9c 14 3d 96 fa 72 bd
       0.014149105 -0.041180786 0.036281653 -0.05932101
0000a0 28 80 44 bd 9a 7d 6b 3e 7c 2c 40 bd 24 c5 0c 3e
       -0.04797378 0.22997132 -0.046917424 0.13747078
0000b0 d8 5a 0f be e0 ff f6 bd e7 0d 9f bd 94 62 5d bd
       -0.13999498 -0.12060523 -0.077663235 -0.05404909
0000c0 bc a3 76 3d 08 ab 65 bd 6f 89 00 bb a0 c1 12 3d
       0.060214743 -0.05607131 -0.0019613167 0.035829186
0000d0 aa b6 cb bb f4 06 5f 3d fb 28 b5 bb fa c3 42 be
       -0.0062168436 0.05444999 -0.005528567 -0.19020072
0000e0 d9 c9 bf bd 40 07 0d bd 0a 9d cc bc 94 a2 76 3d
       -0.09364671 -0.034430742 -0.024977226 0.06021364
0000f0 ee fe 85 bd 43 69 26 3c b9 ea 78 bc dc d5 48 bc
       -0.065427646 0.010156932 -0.015192681 -0.012258019
000100 6a 99 60 bd ef 5c 8f bd d0 44 13 bd 4a 42 ef 3d
       -0.054833807 -0.070001476 -0.035954297 0.116825655
000110 09 a0 b3 3d 2e de 5e bd 76 3d 15 3e 77 7d a8 bd
       0.08770759 -0.054411106 0.14574227 -0.082270555
000120 6b a2 b6 3c 28 6f a5 bc 11 9d 38 bc de 1b e4 3d
       0.022294244 -0.020194605 -0.011267916 0.11138128
000130 92 e8 71 bd 2f a9 69 3d 3d 00 2b 3d 3b 39 8f 3d
       -0.059059687 0.05704611 0.041748274 0.06993338
000140 2e 81 cb 3d 19 85 35 bd b8 f0 c2 bd 45 2c 69 3e
       0.099367484 -0.044316385 -0.0951857 0.22770794
000150 72 66 a9 3d a1 c8 d7 3d 02 8a f8 bc ae 11 3f 3d
       0.08271493 0.10536314 -0.030339245 0.04664772
000160 25 f3 a7 3b 83 f4 bb 3c 3c c7 5f bd 01 8b ab bd
       0.0051254206 0.02294374 -0.054633364 -0.08376122
000170 75 8d b4 3d e3 05 f2 bd 48 4d 0a 3c 02 93 53 3d
       0.08816043 -0.11817529 0.008441277 0.05165387
000180 6f a9 8a 3d 20 a1 02 be a1 2c 37 bd 5d 5b ab bb
       0.06770598 -0.12756777 -0.044720296 -0.005229397
000190 5d 0c e4 3c d2 9e 88 bd 96 0f 90 3c dc 43 59 3d
       0.027837927 -0.066709176 0.017585557 0.05304323
0001a0 f5 37 44 3d 4e c4 a7 3d 91 9f da bc 9d 5f 19 3d
       0.047904927 0.08191739 -0.026687415 0.0374447
0001b0 24 45 a2 3d 75 8c 46 bd 2c be dd 3d c4 ce 07 3e
       0.07923344 -0.048473794 0.10827288 0.13262469
0001c0 e2 71 18 3e 4b c1 84 3d 53 ea 0a 3e c8 06 31 3d
       0.14887193 0.0648218 0.1356595 0.043219358
0001d0 58 ea cc 3d 66 1a 49 bd 45 4d fc bd db 87 56 bd
       0.10005635 -0.04909744 -0.123194255 -0.052375656
0001e0 9f 3b e7 3d f8 77 5b 3d 77 5d b0 3d cc 96 16 3d
       0.11290669 0.053581208 0.08611577 0.036764905
0001f0 a6 4a 4b 3d b3 a4 82 3d 35 5e cf 3c ef 23 9f 3d
       0.049631737 0.0637907 0.025313476 0.07770526
000200 27 bc 05 3e 38 de ca bd e8 5b de 3d 7c 1d 09 bc
       0.13060056 -0.09905666 0.108573735 -0.008368846
000210 37 48 b7 bd 8b a4 31 bd 36 c3 44 bd ac 4c b7 bc
       -0.08949321 -0.04336981 -0.04803773 -0.022375427
000220 e8 1d 26 bd ee 55 a6 ba 69 4e 1c bd 44 1f 2d 3d
       -0.040555865 -0.0012690404 -0.038160715 0.042266145
000230 9e 1c cf bd fa 8b a1 bd 96 46 9b 3c f8 eb 75 bd
       -0.1011288 -0.078880265 0.018954556 -0.06003949
000240 4e 1f a9 bd 15 7e 8d bc 64 b6 f6 3c 4a ae 8d 3d
       -0.08257924 -0.017272035 0.030116268 0.069180086
000250 aa d9 84 3c 09 51 d0 bd b8 81 59 3d c4 b4 96 3d
       0.016217072 -0.10171706 0.053102225 0.07358697
000260 ce 4d df 3c dc a1 90 3d 15 bb e6 3d 70 9e 3d 3c
       0.02725878 0.07062122 0.11266152 0.011573419
000270 48 b8 c7 3a 86 b3 05 bd a9 b1 19 3d 4f 63 80 bc
       0.0015237415 -0.03264191 0.037522946 -0.015672354
000280 a7 23 f3 3c b1 87 12 bb 41 6c b6 bc 60 e0 df bd
       0.029680086 -0.002235871 -0.022268416 -0.10931468
000290 9f 62 e3 3d 95 f4 5e 3c 4b 0d a8 bd d4 09 e2 bb
       0.11102795 0.013608118 -0.082056604 -0.0068981443
0002a0 d5 06 d5 bb 68 38 dd bd 20 c2 26 3d 5d 55 67 bd
       -0.0065010586 -0.10801774 0.040712476 -0.056477893
0002b0 11 2a 60 3d 82 47 07 be 8b 5b 92 3d bd 69 c1 bd
       0.054727618 -0.13210872 0.07146367 -0.09443996
0002c0 90 6d 31 3e 40 a6 b1 bc c6 2b 5a 3b 77 82 f1 bc
       0.17326951 -0.02168572 0.003329025 -0.029481156
0002d0 48 e2 b6 bc 19 da 5e 3d b3 f6 25 bd bc ed 8e bd
       -0.022324696 0.054407213 -0.040518474 -0.06978938
0002e0 90 e1 09 be af 42 1b 3d f9 c2 0f be 7d 72 88 3c
       -0.13464952 0.03790539 -0.1403922 0.016656155
0002f0 c3 22 80 3d b2 31 dc 3d ea 0d 17 bd a8 e0 52 bd
       0.0625663 0.10751666 -0.036878504 -0.05148378
000300 61 ae 4f bd f9 d2 21 be 5c 5c ae bb bc e0 86 bc
       -0.05070341 -0.15803136 -0.0053210687 -0.016464584
000310 1a 35 26 3d a9 f8 be bd e7 97 ea 3c 30 8d 67 3d
       0.040577985 -0.09324772 0.028636886 0.05653113
000320 41 37 b4 bd 92 a4 0e bd 5e c1 b5 3d dd f8 08 be
       -0.08799601 -0.034824915 0.088747725 -0.13376184
000330 12 3c f4 3c 5d b0 49 3d ed e1 1d 3d 36 68 2d bc
       0.0298138 0.04924046 0.038545538 -0.010583928
000340 28 bd 48 bb 04 37 37 bc cd 71 cc 3d 95 26 ac 3d
       -0.0030630324 -0.01118255 0.09982643 0.084057964
000350 c0 55 00 be b0 6f 8c bc 1f 0e 81 bd 98 80 87 3d
       -0.12532711 -0.0171431 -0.063015215 0.06616324
000360 e8 11 ed bc 09 54 e4 3d 87 97 12 3d e4 22 c7 3c
       -0.028939202 0.11148841 0.03578904 0.02430863
000370 25 c5 4d 3d 2d da 39 be 0b f0 d2 3d 4e 99 f4 3b
       0.05023684 -0.18149634 0.10299691 0.0074645644
000380 a7 01 15 3d b0 be a3 3d 52 9b c8 bd a6 de ef 3c
       0.03637853 0.07995355 -0.0979525 0.029280972
000390 74 23 38 be 0d 80 95 bb ed e1 84 3d 60 10 4a 3d
       -0.17982274 -0.004562384 0.064884044 0.049332023
0003a0 5c b5 a9 bd d1 76 05 3d dd b0 37 3d 09 67 93 3c
       -0.08286545 0.032584015 0.044846404 0.017993467
0003b0 67 3a d1 bc b9 77 08 3e cb fc c0 bd 98 fd 67 3d
       -0.025540544 0.1332692 -0.094232164 0.05663833
0003c0 57 85 5c bd fc 06 ad 3b a1 c5 54 be 78 3e 09 3d
       -0.0538381 0.0052803736 -0.20778514 0.03350684
0003d0 6d ac a5 bd 49 6e 2d be ff af 09 be e9 10 a7 b9
       -0.08089528 -0.16936602 -0.13446043 -0.0003186532
0003e0 dd b5 7e bd b3 18 ba bc 56 7f 50 bb 2c 48 9c bc
       -0.062185157 -0.022716856 -0.003181418 -0.019077383
0003f0 72 80 20 3d 41 cc a5 bd aa 5f 01 be 3d 2c e4 3d
       0.039184995 -0.08095599 -0.12634149 0.1114125

network_body._body_endoder.seq_layers.2.bias f4 [128]
000000 00 00 00 00 00 00 00 00 00 00 00 00 00 00 00 00
       0.0 0.0 0.0 0.0
000010 00 00 00 00 00 00 00 00 00 00 00 00 00 00 00 00
       0.0 0.0 0.0 0.0
000020 00 00 00 00 00 00 00 00 00 00 00 00 00 00 00 00
       0.0 0.0 0.0 0.0
000030 00 00 00 00 00 00 00 00 00 00 00 00 00 00 00 00
       0.0 0.0 0.0 0.0
000040 00 00 00 00 00 00 00 00 00 00 00 00 00 00 00 00
       0.0 0.0 0.0 0.0
000050 00 00 00 00 00 00 00 00 00 00 00 00 00 00 00 00
       0.0 0.0 0.0 0.0
000060 00 00 00 00 00 00 00 00 00 00 00 00 00 00 00 00
       0.0 0.0 0.0 0.0
000070 00 00 00 00 00 00 00 00 00 00 00 00 00 00 00 00
       0.0 0.0 0.0 0.0
000080 00 00 00 00 00 00 00 00 00 00 00 00 00 00 00 00
       0.0 0.0 0.0 0.0
000090 00 00 00 00 00 00 00 00 00 00 00 00 00 00 00 00
       0.0 0.0 0.0 0.0
0000a0 00 00 00 00 00 00 00 00 00 00 00 00 00 00 00 00
       0.0 0.0 0.0 0.0
0000b0 00 00 00 00 00 00 00 00 00 00 00 00 00 00 00 00
       0.0 0.0 0.0 0.0
0000c0 00 00 00 00 00 00 00 00 00 00 00 00 00 00 00 00
       0.0 0.0 0.0 0.0
0000d0 00 00 00 00 00 00 00 00 00 00 00 00 00 00 00 00
       0.0 0.0 0.0 0.0
0000e0 00 00 00 00 00 00 00 00 00 00 00 00 00 00 00 00
       0.0 0.0 0.0 0.0
0000f0 00 00 00 00 00 00 00 00 00 00 00 00 00 00 00 00
       0.0 0.0 0.0 0.0
000100 00 00 00 00 00 00 00 00 00 00 00 00 00 00 00 00
       0.0 0.0 0.0 0.0
000110 00 00 00 00 00 00 00 00 00 00 00 00 00 00 00 00
       0.0 0.0 0.0 0.0
000120 00 00 00 00 00 00 00 00 00 00 00 00 00 00 00 00
       0.0 0.0 0.0 0.0
000130 00 00 00 00 00 00 00 00 00 00 00 00 00 00 00 00
       0.0 0.0 0.0 0.0
000140 00 00 00 00 00 00 00 00 00 00 00 00 00 00 00 00
       0.0 0.0 0.0 0.0
000150 00 00 00 00 00 00 00 00 00 00 00 00 00 00 00 00
       0.0 0.0 0.0 0.0
000160 00 00 00 00 00 00 00 00 00 00 00 00 00 00 00 00
       0.0 0.0 0.0 0.0
000170 00 00 00 00 00 00 00 00 00 00 00 00 00 00 00 00
       0.0 0.0 0.0 0.0
000180 00 00 00 00 00 00 00 00 00 00 00 00 00 00 00 00
       0.0 0.0 0.0 0.0
000190 00 00 00 00 00 00 00 00 00 00 00 00 00 00 00 00
       0.0 0.0 0.0 0.0
0001a0 00 00 00 00 00 00 00 00 00 00 00 00 00 00 00 00
       0.0 0.0 0.0 0.0
0001b0 00 00 00 00 00 00 00 00 00 00 00 00 00 00 00 00
       0.0 0.0 0.0 0.0
0001c0 00 00 00 00 00 00 00 00 00 00 00 00 00 00 00 00
       0.0 0.0 0.0 0.0
0001d0 00 00 00 00 00 00 00 00 00 00 00 00 00 00 00 00
       0.0 0.0 0.0 0.0
0001e0 00 00 00 00 00 00 00 00 00 00 00 00 00 00 00 00
       0.0 0.0 0.0 0.0
0001f0 00 00 00 00 00 00 00 00 00 00 00 00 00 00 00 00
       0.0 0.0 0.0 0.0

action_model._continuous_distribution.log_sigma f4 [1, 2]
000000 00 00 00 00 00 00 00 00
       0.0 0.0

action_model._continuous_distribution.mu.weight f4 [2, 128]
000000 e7 78 6f 3c 25 6b b6 bb db 1e 25 3c 16 c9 a5 3a
       0.014616228 -0.005566972 0.010078157 0.0012648429
000010 7b 51 0b 3c ed c3 cc 3c e2 28 60 3c c3 70 f7 3b
       0.008503313 0.024995768 0.013681622 0.007551284
000020 ac f0 a4 bc 5b 1b e2 3b 87 eb 23 3c 4f 4f bb bc
       -0.020134293 0.0069002337 0.010004885 -0.022864966
000030 11 0e 47 3b 5f 45 1a 3c 87 a6 cb bb b8 2a ef bb
       0.0030373374 0.009415953 -0.00621492 -0.0072987936
000040 e9 ac ac b9 f2 68 f6 ba 3e fe 4a bc 1e b8 35 bb
       -0.00032935225 -0.0018799587 -0.012389718 -0.002772815
000050 d9 53 a4 3c fd 64 aa bc a3 04 38 39 48 b6 52 3c
       0.020059513 -0.020800108 0.00017549335 0.012860842
000060 2f 5e 0b bd 48 ea b9 b9 7d 27 29 bd 7a 64 58 bc
       -0.034025367 -0.00035460503 -0.041297425 -0.013207549
000070 27 9c 29 bc b0 d7 e6 3c 48 a8 8f 3c 22 96 0d bc
       -0.010352171 0.02817902 0.017536297 -0.0086417515
000080 26 cf 11 bc e3 87 0b 3d bd 75 a6 3c 63 b4 86 bc
       -0.008899486 0.03406514 0.020319814 -0.016443437
000090 2a 91 a8 3b b4 e1 0f bd 90 23 f8 3c 81 37 11 bc
       0.005144258 -0.035127357 0.030290395 -0.008863331
0000a0 e2 c0 db bb 02 ad f9 38 47 e2 4f 3c c0 f2 90 3a
       -0.006706343 0.000119054705 0.012688226 0.0011058673
0000b0 0f 59 00 bc 97 8d d3 bc db 68 14 3c 46 14 44 bc
       -0.007833733 -0.025824351 0.009058203 -0.011967724
0000c0 9f a1 c4 3b 9a de 8b bc 82 85 77 bc 8f 77 49 3d
       0.006000712 -0.017073918 -0.015107514 0.049186286
0000d0 88 5d 0a 3c 0b 2b 40 39 db 05 a3 bc 50 6d d4 3a
       0.008445151 0.00018326582 -0.019900253 0.0016206894
0000e0 47 b3 31 3c f0 db 05 bd 7a ba a3 bb 0a ca 84 bc
       0.010845966 -0.032680452 -0.004996595 -0.016209621
0000f0 33 67 2c ba b3 d1 12 3b 7d 5e 7d 3b 57 c0 ff 3b
       -0.0006576657 0.0022402823 0.0038661056 0.007804911
000100 98 3b 3b 3c a0 6c 0e bc a5 83 95 bb 23 26 a3 3a
       0.0114277825 -0.00869289 -0.0045628124 0.0012447279
000110 7a f1 4e 3c 4b 86 56 3d 77 0e 09 3c 0b 5c 8b 3b
       0.012630815 0.052374166 0.008365265 0.0042529157
000120 45 aa 70 bc 86 26 0a 3d 8b 11 fa 3b 66 6f 06 3d
       -0.014689033 0.033728145 0.007631486 0.03282108
000130 49 bd c7 3c 27 b4 29 3c 3f ca ab bc ff 2e 6a 3c
       0.02438225 0.010357893 -0.020970462 0.014293431
000140 07 91 cb bc 7c 74 07 bd 43 bd 13 ba c3 30 25 3c
       -0.024849428 -0.033070073 -0.0005635807 0.0100824265
000150 9f 29 02 bc 2b 7b 94 3b 44 3d 8f bc 29 7a 8b bc
       -0.007944494 0.0045312843 -0.017485268 -0.017026024
000160 66 01 24 3c ef a8 2d 3d df f0 0c bb f1 0e bb bb
       0.010010099 0.042397436 -0.0021505875 -0.0057085683
000170 28 24 05 3d 83 e9 68 3b 62 0b 3c bc f7 05 fa 3b
       0.032505184 0.0035539574 -0.011477323 0.0076301056
000180 93 11 9f ba 48 71 a6 bc 51 36 aa bc af 1f 3c bc
       -0.0012135975 -0.020317689 -0.020777853 -0.011482163
000190 87 67 14 3c 77 05 a1 bc e3 b1 4c 3c e4 fc 26 3c
       0.009057886 -0.019655926 0.012493583 0.01019213
0001a0 45 3f 52 3c 62 73 b1 3c d7 80 81 3c 9a 44 e7 bc
       0.012832467 0.021661464 0.015808506 -0.028230954
0001b0 67 a1 4f 3c 5b 41 c5 bb a8 4c 34 3c 41 af bf bc
       0.012672759 -0.006019754 0.011004604 -0.023398997
0001c0 2c 18 b7 bc c6 44 9d bc bf 48 06 bd 4f 28 9e bc
       -0.022350393 -0.019197833 -0.03278422 -0.01930633
0001d0 d9 a7 23 3c bf 76 28 3d c3 21 4e bc 46 72 9f bb
       0.0099887485 0.04112887 -0.012581292 -0.0048659174
0001e0 5b 52 d6 3c 3c e4 35 bc 52 cd 82 3c f8 f4 bd 3c
       0.026162317 -0.011101779 0.015967045 0.0231881
0001f0 04 98 97 bc bb 0e 99 ba 0d 86 9a 3b a3 42 3a bc
       -0.018505104 -0.0011677364 0.004715687 -0.0113684265
000200 36 f3 03 bd e0 b8 41 3a 3a a8 4e 3c 8d da 09 3d
       -0.032214366 0.0007389914 0.0126133505 0.033655692
000210 fb 7a fd 3b bb 12 17 bc 7f f5 84 3c 1e 8b 8d 3c
       0.0077356077 -0.009220774 0.016230343 0.01727825
000220 93 10 97 3c 9a 66 cc bc 92 60 ea 3a bc b8 97 bc
       0.01844052 -0.024951268 0.0017881563 -0.018520705
000230 ab d0 11 bd 23 7c b4 ba 26 b1 2c bc c3 d7 aa 3c
       -0.035599392 -0.0013769906 -0.010540282 0.020854836
000240 62 a4 b3 bb fb ab 91 bc 74 f1 3d 3a 17 8d b3 3c
       -0.0054822424 -0.017782202 0.0007245757 0.021917863
000250 7a 1b 55 bb 77 48 92 bc 22 0d 1a 3d 8c 7d a4 bc
       -0.0032517598 -0.01785682 0.03761018 -0.020079397
000260 ce b0 a0 bc 11 19 a0 bb bf 0c 44 3d 96 90 ba 3c
       -0.019615557 -0.0048858006 0.047863718 0.022774022
000270 5f 2d 0f 3d 2a 06 7a bd ad ac bf 3b 38 0f ff 3b
       0.03495538 -0.061041035 0.005849442 0.0077837966
000280 b0 cd c4 3c 87 10 44 bc 33 a8 80 bc f8 d5 5a 3c
       0.02402386 -0.011966831 -0.015705204 0.013356678
000290 14 bd 0e bb e0 b5 1b 3b 0b 2c ae 3c a4 3e 04 3d
       -0.002178018 0.002375953 0.021261236 0.0322863
0002a0 db f7 e0 bc c5 59 21 bc e7 45 97 bc c7 f9 b0 b9
       -0.027461937 -0.009848063 -0.01846595 -0.00033755435
0002b0 f0 94 70 3c f3 b2 81 3a fa 24 fd 3a c6 e3 8d bb
       0.014683947 0.000989525 0.0019313388 -0.004330131
0002c0 ed 48 e6 3b 1b 77 82 bc 7d ba 56 bb 5b fd 2e bc
       0.0070277364 -0.015925935 -0.0032764964 -0.010680522
0002d0 57 3c e2 3c d2 9b 78 bc 39 1b 9d bb 6f d6 87 bc
       0.027616663 -0.015173869 -0.004794505 -0.016581742
0002e0 ed bc 7d 3c 45 54 c5 3c 1a da f4 bb f7 8d 4f 3c
       0.015486938 0.024088034 -0.007472289 0.012668124
0002f0 98 b1 51 3b 48 d7 f0 bc 27 f1 aa 3c fa 05 03 3d
       0.0031996723 -0.02939953 0.020866944 0.03198812
000300 48 b6 e3 ba eb 3c 14 bc c2 84 b7 bc 0f 11 e6 3b
       -0.001737305 -0.009047727 -0.022402171 0.0070210765
000310 60 ab 32 bb 39 2c 8d 3c 57 de 64 bc 1f 6a 8f 3b
       -0.0027262792 0.017233001 -0.013969026 0.0043766643
000320 9f f0 4a 3c cf a7 6b bc dc 21 05 bc 13 ef 36 3c
       0.01238647 -0.01438327 -0.0081257485 0.011165398
000330 e5 92 ae 3c 6a f1 df bb 4f 68 51 bc 20 ce 00 3b
       0.02131028 -0.0068341987 -0.012781217 0.001965411
000340 eb bb 35 3d 8c 9b 3f bc 66 6e be 3c b4 d0 15 bc
       0.044368666 -0.0116948 0.023246001 -0.009143997
000350 b4 4f bc 3c 6f 8b 06 3c 0f d5 a5 bc 04 9f 90 bc
       0.022987224 0.0082119545 -0.020243196 -0.01765395
000360 d8 b2 dd bb c1 43 24 bb c7 7c b3 b9 b7 71 a8 3c
       -0.0067657046 -0.0025064799 -0.00034234507 0.020562036
000370 94 98 88 bc 10 21 39 bb 08 a1 ed bc 18 20 3b 3c
       -0.016674317 -0.0028248467 -0.02900745 0.011421226
000380 db 1e 1b ba 27 52 79 bd 33 d0 c2 bc 57 aa 40 bc
       -0.00059173786 -0.060869362 -0.023780918 -0.011759362
000390 fd 17 bc bc 2f 98 bc 3c 70 75 3b 3c f1 81 17 3c
       -0.022960657 0.023021786 0.0114415735 0.009247289
0003a0 10 2d d5 bc 12 46 07 3b 9d 9b fb bc f1 b5 9c bc
       -0.026022464 0.002064113 -0.03071385 -0.019129725
0003b0 2d 31 c3 3b 63 f1 81 bb e2 09 83 bb 2d 75 85 bb
       0.00595679 -0.003965543 -0.003998981 -0.0040728063
0003c0 1a be c7 bc a9 72 b8 bc da e7 5a 3c 4f c6 b2 bc
       -0.02438264 -0.022515612 0.013360942 -0.021823077
0003d0 ff 60 1f 3d b4 fb 96 bb aa 52 a3 bb 6e 11 08 bc
       0.038910862 -0.004607642 -0.0049842196 -0.008304937
0003e0 53 77 5c bc 9d a2 d5 bb 9f ed bb 3b 7c b0 ab bc
       -0.0134561835 -0.006519629 0.0057351138 -0.020958178
0003f0 77 df 0c 3c 0b 20 d8 bc e1 4b 92 3b 58 3d 5f 3c
       0.0085982 -0.026382467 0.004464612 0.013625465

action_model._continuous_distribution.mu.bias f4 [2]
000000 00 00 00 00 00 00 00 00
       0.0 0.0

network_body._body_endoder.seq_layers.0.weight f4 [128, 9]
000000 5b 64 15 3f 33 b0 80 bd 58 75 21 3e 56 da 2e bd
       0.58356255 -0.06283607 0.1576742 -0.04268869
000010 f4 dd 13 3e af 5b 3f be df 2c e0 3b 4a e4 bf be
       0.14440137 -0.18687318 0.0068412866 -0.37478858
000020 a2 a3 a5 3e 82 4e f5 3d 9d c6 04 3f c3 03 81 3d
       0.32351404 0.11977865 0.5186556 0.062995456
000030 84 7e 1c be 10 a1 37 bd 08 15 9d 3e 6f 88 10 be
       -0.15282637 -0.044831336 0.30680108 -0.14114545
000040 a0 c9 6b bd db 7a bd be c3 88 89 3e 9c 53 ee 3e
       -0.05756533 -0.37007794 0.26862153 0.46548164
000050 33 1d ec 3c 90 11 03 3e ca 01 09 3e 58 34 bb bd
       0.028822517 0.12799668 0.13379589 -0.09140843
000060 70 ff 04 3f 59 64 18 3f 76 f2 ed be b9 95 1c bd
       0.51952267 0.5952812 -0.46474046 -0.038228724
000070 74 8f ee 3d d6 55 7c bd 09 4c 21 3e 8e 24 34 3e
       0.11648455 -0.061605297 0.15751661 0.1759207
000080 df 89 71 3e 24 1e 25 bf 7f 40 b4 3d db b3 bf 3c
       0.2358775 -0.64499116 0.08801364 0.023401191
000090 fa e7 59 3d 7f 92 97 3d 14 ce ca be cb 3d ab 3d
       0.053199746 0.07400989 -0.3961035 0.083613954
0000a0 c4 17 8e 3e 34 14 8f 3e 6c 59 ee be e9 39 22 3f
       0.27752507 0.279451 -0.46552598 0.63369614
0000b0 c0 13 c5 3e 7f 0b d1 3d f6 35 f5 3d 32 34 84 bd
       0.3849163 0.10207271 0.11973183 -0.06455268
0000c0 ef a1 83 3d cc 63 95 bd a0 b1 36 3e a4 f9 16 3e
       0.06427371 -0.07294425 0.17841196 0.14743668
0000d0 e6 bc dd be 96 dd d1 3d 72 de 6d be 5c 7a 82 be
       -0.4330818 0.10247342 -0.23229387 -0.25483978
0000e0 25 60 04 3d 9a 0e 41 3e 68 56 9f 3d 84 87 6c bb
       0.032318253 0.18853226 0.077801526 -0.0036091516
0000f0 4f f9 1e 3e 2b 3f b2 be 58 e9 93 3d 63 81 b3 bd
       0.15524791 -0.34813818 0.07222241 -0.08764913
000100 30 0b 8a bd c6 03 57 bd 30 1f 07 3d 08 93 45 3e
       -0.06740415 -0.052493833 0.032988727 0.19294369
000110 6b 10 0d be 5a c4 40 3e 2e 92 ef bd a0 53 ea 3e
       -0.13775794 0.18824902 -0.116978034 0.45766926
000120 1e a8 23 bd 2c 00 c9 bc e0 49 b7 3d 9b 9c 44 bd
       -0.03995525 -0.024536215 0.089496374 -0.048000913
000130 70 a8 36 3e 64 27 94 be f2 86 43 be 7f 1d 6b 3e
       0.17837691 -0.28936303 -0.19094446 0.2296047
000140 4b ff b2 bd 3f b2 d6 be ce 91 2a bd da b1 b5 be
       -0.087400995 -0.41932866 -0.041642956 -0.35487252
000150 58 e4 1e 3e 1c f2 05 bf 8c 91 33 3d 9b ce b0 bd
       0.15516794 -0.52322555 0.043839976 -0.08633157
000160 7c 30 2a 3f e1 dc a4 bd 14 81 03 bf 48 ec 41 3e
       0.6648023 -0.08049942 -0.5136883 0.1893779
000170 fa f0 8e bc 5c 51 30 3d 84 bd 7b 3e 3e 2f e1 3e
       -0.017448891 0.04304634 0.24584013 0.43981355
000180 73 45 9a 3e 3e 3b d6 3c b3 d1 c5 bd 26 db 13 be
       0.3013111 0.026151296 -0.096591376 -0.14439067
000190 fe 8b 1d 3f 0d af 05 3f 0b 80 9e bd ff 8c 85 bf
       0.61541736 0.5222023 -0.07739266 -1.0433654
0001a0 ab 95 19 3e b4 bd 93 bd 1a 21 5d be 72 d1 15 3e
       0.149985 -0.072139174 -0.21594658 0.14630678
0001b0 0d 0b 28 bf a0 05 7d bb 94 33 72 3e 54 a8 a9 bc
       -0.6564186 -0.003860809 0.23652488 -0.020710148
0001c0 1a 09 49 bd d9 3d a1 bd 1c c5 8e 3e 20 ab bf 3e
       -0.049080946 -0.07873125 0.27884758 0.37435246
0001d0 33 07 6b 3d db 55 56 be 9e a7 32 bf 08 b4 11 3d
       0.057379913 -0.20931189 -0.69787014 0.03557208
0001e0 3c 2f f0 3e 16 b5 40 3f 26 d5 1c be 0c 39 bc be
       0.46911037 0.75276315 -0.15315685 -0.36762273
0001f0 c8 c6 a7 3c 21 3b 28 bd 38 be 34 3f df e0 48 bd
       0.020480528 -0.041072015 0.7060275 -0.04904258
000200 36 9b 0b 3e 11 ed 20 be 9c b0 6f bd d8 53 8a 3e
       0.13633427 -0.15715434 -0.058518037 0.27017093
000210 ab 4f fd 3d e8 b8 6d bd 06 51 1a be 0c 75 35 3e
       0.12368711 -0.05803767 -0.1506997 0.17720431
000220 92 a6 b4 be 94 52 f2 bd 7e cf 6a bd 47 60 eb 3d
       -0.35283333 -0.11832157 -0.057326786 0.11492973
000230 f3 b5 8c 3d 86 57 13 bd d7 34 3d 3d fb 4d 32 bf
       0.068706416 -0.03597214 0.04619297 -0.6965024
000240 89 72 80 bc 27 e3 1a 3f 2e 16 38 3e 9a 47 b4 be
       -0.015679615 0.60502857 0.17977211 -0.35210878
000250 7f 2d 65 bf df cf e6 bc 1e a8 97 3d 7b f9 fa be
       -0.89522547 -0.028175293 0.07405113 -0.49018463
000260 7b e4 6d bd 40 b0 8b 3e d8 88 30 bc 9f 0e 94 bb
       -0.058079224 0.27282906 -0.010774814 -0.0045183445
000270 c6 f0 2c 3e c3 6f bf bc 06 b3 12 be de 45 e4 3e
       0.16888723 -0.023368722 -0.14326105 0.44584554
000280 82 b4 af 3d ff a3 c8 be 54 b8 fe 3e 42 59 0d 3f
       0.08579351 -0.3918762 0.49750006 0.5521432
000290 84 50 c1 3e 88 27 7a be 63 8a a6 be f2 25 81 bc
       0.3775674 -0.24429142 -0.32527456 -0.015765164
0002a0 77 5d 0c 3f 78 52 77 be 68 e1 b7 3e 3e 86 3e 3e
       0.54830116 -0.24152553 0.3591416 0.18605897
0002b0 62 9c a0 be 2c e9 38 3f 73 fa be 3e df cb 36 3f
       -0.3136931 0.7223079 0.37300453 0.7140483
0002c0 a9 89 a4 be d6 4b 9e be 94 dc a0 3d cc 44 06 3e
       -0.32136276 -0.30917233 0.07854572 0.13112181
0002d0 bb 94 33 be 83 3b 1d bf 78 94 cb be f2 73 e2 3e
       -0.17537205 -0.6141893 -0.3976171 0.44229084
0002e0 f4 52 b3 3d 90 3b f3 be 8e 33 88 3e 06 50 fa 3d
       0.087560564 -0.4750638 0.26601833 0.122222945
0002f0 ab 08 ad 3e 4a b1 5d 3e 8a 82 57 3f 2e 46 72 be
       0.33795676 0.21649662 0.8418356 -0.23659584
000300 c8 86 46 3e 21 8b 16 3c 73 01 a0 be 45 e6 23 bf
       0.19387352 0.009188444 -0.31251106 -0.6402324
000310 ee f2 b1 3e 34 33 c5 3e e7 a7 e7 3e 68 1c ce 3e
       0.34755653 0.38515627 0.45245287 0.40256047
000320 46 25 7a be 61 79 0d 3f 6e 43 9c 3c 16 a7 0f 3f
       -0.24428281 0.55263335 0.019075122 0.5611433
000330 7e 1f c2 be 2e c5 0a 3e 9a c0 5d be 44 51 e1 bd
       -0.37914652 0.1355178 -0.21655503 -0.11001828
000340 eb 5b 29 3e f0 94 c1 3e d3 f0 6e 3f 8a 58 1b 3d
       0.1653897 0.37808943 0.9333622 0.037926234
000350 26 11 cb bd b2 97 1d be 30 4c e9 3e 32 7c e3 3e
       -0.0991538 -0.15389898 0.4556594 0.4443069
000360 e4 75 02 3e ef 25 dd be 6c 93 23 3f 6c b0 9a be
       0.12740284 -0.43193004 0.6389682 -0.30212724
000370 20 88 66 bd 1a c0 9f be df 9f 5b 3e 2a 8a f2 be
       -0.056282163 -0.3120125 0.21447705 -0.47371036
000380 fb 5a e9 3e dd 86 05 bf 94 03 c4 be b0 a3 e3 3e
       0.45577225 -0.5215891 -0.3828398 0.4446082
000390 2b 33 fc be b5 df a4 3e 7a 72 12 3e a0 8b 90 3e
       -0.49257788 0.32201925 0.14301482 0.28231525
0003a0 42 8c 07 3f 04 73 74 3e 47 ff c8 3e 87 85 11 3f
       0.5294839 0.23872 0.3925726 0.5684437
0003b0 e6 c5 9b be 3f 91 65 3d 6e 39 7c be 7f 9f 66 3e
       -0.30424422 0.05604672 -0.24631283 0.2252178
0003c0 28 7a ed be 5e 3e 3b bf 8f ce 2c be c6 1a f5 3e
       -0.4638226 -0.7314204 -0.16875671 0.4787199
0003d0 d4 e0 c8 be 52 bd 62 be fe b7 01 be 37 2c 42 3c
       -0.3923403 -0.22142532 -0.12667844 0.011851362
0003e0 e6 1c 13 3c 7c a0 2b 3e ce b8 ba bd d8 75 33 be
       0.008979058 0.16760439 -0.0911728 -0.17525423
0003f0 09 e9 20 be 52 12 1e be 04 a9 02 3c 82 34 08 bf
       -0.15713896 -0.15436676 0.007974867 -0.5320512

network_body._body_endoder.seq_layers.0.bias f4 [128]
000000 00 00 00 00 00 00 00 00 00 00 00 00 00 00 00 00
       0.0 0.0 0.0 0.0
000010 00 00 00 00 00 00 00 00 00 00 00 00 00 00 00 00
       0.0 0.0 0.0 0.0
000020 00 00 00 00 00 00 00 00 00 00 00 00 00 00 00 00
       0.0 0.0 0.0 0.0
000030 00 00 00 00 00 00 00 00 00 00 00 00 00 00 00 00
       0.0 0.0 0.0 0.0
000040 00 00 00 00 00 00 00 00 00 00 00 00 00 00 00 00
       0.0 0.0 0.0 0.0
000050 00 00 00 00 00 00 00 00 00 00 00 00 00 00 00 00
       0.0 0.0 0.0 0.0
000060 00 00 00 00 00 00 00 00 00 00 00 00 00 00 00 00
       0.0 0.0 0.0 0.0
000070 00 00 00 00 00 00 00 00 00 00 00 00 00 00 00 00
       0.0 0.0 0.0 0.0
000080 00 00 00 00 00 00 00 00 00 00 00 00 00 00 00 00
       0.0 0.0 0.0 0.0
000090 00 00 00 00 00 00 00 00 00 00 00 00 00 00 00 00
       0.0 0.0 0.0 0.0
0000a0 00 00 00 00 00 00 00 00 00 00 00 00 00 00 00 00
       0.0 0.0 0.0 0.0
0000b0 00 00 00 00 00 00 00 00 00 00 00 00 00 00 00 00
       0.0 0.0 0.0 0.0
0000c0 00 00 00 00 00 00 00 00 00 00 00 00 00 00 00 00
       0.0 0.0 0.0 0.0
0000d0 00 00 00 00 00 00 00 00 00 00 00 00 00 00 00 00
       0.0 0.0 0.0 0.0
0000e0 00 00 00 00 00 00 00 00 00 00 00 00 00 00 00 00
       0.0 0.0 0.0 0.0
0000f0 00 00 00 00 00 00 00 00 00 00 00 00 00 00 00 00
       0.0 0.0 0.0 0.0
000100 00 00 00 00 00 00 00 00 00 00 00 00 00 00 00 00
       0.0 0.0 0.0 0.0
000110 00 00 00 00 00 00 00 00 00 00 00 00 00 00 00 00
       0.0 0.0 0.0 0.0
000120 00 00 00 00 00 00 00 00 00 00 00 00 00 00 00 00
       0.0 0.0 0.0 0.0
000130 00 00 00 00 00 00 00 00 00 00 00 00 00 00 00 00
       0.0 0.0 0.0 0.0
000140 00 00 00 00 00 00 00 00 00 00 00 00 00 00 00 00
       0.0 0.0 0.0 0.0
000150 00 00 00 00 00 00 00 00 00 00 00 00 00 00 00 00
       0.0 0.0 0.0 0.0
000160 00 00 00 00 00 00 00 00 00 00 00 00 00 00 00 00
       0.0 0.0 0.0 0.0
000170 00 00 00 00 00 00 00 00 00 00 00 00 00 00 00 00
       0.0 0.0 0.0 0.0
000180 00 00 00 00 00 00 00 00 00 00 00 00 00 00 00 00
       0.0 0.0 0.0 0.0
000190 00 00 00 00 00 00 00 00 00 00 00 00 00 00 00 00
       0.0 0.0 0.0 0.0
0001a0 00 00 00 00 00 00 00 00 00 00 00 00 00 00 00 00
       0.0 0.0 0.0 0.0
0001b0 00 00 00 00 00 00 00 00 00 00 00 00 00 00 00 00
       0.0 0.0 0.0 0.0
0001c0 00 00 00 00 00 00 00 00 00 00 00 00 00 00 00 00
       0.0 0.0 0.0 0.0
0001d0 00 00 00 00 00 00 00 00 00 00 00 00 00 00 00 00
       0.0 0.0 0.0 0.0
0001e0 00 00 00 00 00 00 00 00 00 00 00 00 00 00 00 00
       0.0 0.0 0.0 0.0
0001f0 00 00 00 00 00 00 00 00 00 00 00 00 00 00 00 00
       0.0 0.0 0.0 0.0

network_body._body_endoder.seq_layers.2.weight f4 [128, 128]
000000 21 35 bb bd 1c ba ce 3d c4 05 0c be cd 13 bb bd
       -0.09140993 0.10094091 -0.13674074 -0.09134636
000010 5b 7e a5 bc d2 c7 b1 bc a2 f3 90 3c 58 7b b3 bb
       -0.020201853 -0.021701727 0.017694298 -0.00547735
000020 fe a9 d6 3d d3 71 22 be 5d f3 fb 3c 0d f9 b7 3d
       0.10481642 -0.15863733 0.030755693 0.089830495
000030 e5 86 82 bd 5b e2 22 bd ff c4 65 bd ca 57 b3 3d
       -0.06373385 -0.03976665 -0.056096073 0.08756979
000040 b0 0f 23 3d 31 98 e6 3d 4a 5c dc 3b 0f 7c 1f 3d
       0.039809883 0.11259497 0.006724869 0.03893667
000050 15 17 03 be 8c 6a 15 be 5a 3b 5e 3d d8 01 6f 3c
       -0.12801774 -0.14591426 0.05425582 0.014587842
000060 a7 23 ef 3d 0d f7 f5 bd 04 e6 52 3d 5c d0 e3 3d
       0.11676722 -0.12010012 0.05148889 0.11123726
000070 1d bb 8d 3d f6 3d 2b bd 4a e8 13 3e 19 c7 54 bd
       0.06920455 -0.041807137 0.1444408 -0.051947687
000080 c8 e3 2f 3e 1f eb 78 bd ae 61 af bd ce c5 bd 3d
       0.17176735 -0.060771104 -0.08563553 0.09266244
000090 15 0d 12 bd 1c 5a a3 bd b3 e8 84 bd f8 26 b9 3d
       -0.035657007 -0.079761714 -0.06489696 0.09040636
0000a0 f1 94 c2 bd a6 f2 60 bb 4a 6d 8f 3c d6 77 42 3c
       -0.095010646 -0.0034324317 0.017508168 0.011869391
0000b0 95 9b 33 3e bb ef 2d 3d 00 a6 f9 bc 77 fc e1 3d
       0.17539819 0.042464953 -0.030474663 0.11034482
0000c0 53 b7 8c 3d 04 89 80 3d 87 30 8a 3d 1e 06 23 be
       0.06870904 0.06276134 0.06747537 -0.15920302
0000d0 47 0a b0 bc ec 0a dc 3c c6 33 49 bb a1 28 8a bd
       -0.021489276 0.026860677 -0.0030701025 -0.067460306
0000e0 f2 de a4 3d 3d fb 9d 3b dc cb 2f bc d3 22 af bb
       0.08050336 0.0048212097 -0.010729756 -0.0053447275
0000f0 f4 d9 06 be 4b 6f 10 3e 95 65 0c bd d0 4f 4a be
       -0.1316908 0.14104955 -0.034276564 -0.19757009
000100 0f b0 48 bd ec 33 6e 3d cc 9f f9 3b c0 88 11 3c
       -0.048996028 0.058154985 0.007617926 0.008882701
000110 a2 bd 18 3d 2f 6d e3 3d 31 d0 c3 3b 96 98 15 3e
       0.037290223 0.111048095 0.005975746 0.14608988
000120 ae 5d 0c bd c2 a0 3f 3d cf 92 93 bd 66 4f 41 bc
       -0.034269027 0.04678417 -0.07205736 -0.011798715
000130 7a 34 0b bd 83 f2 20 bd 5c 8c 96 bd d5 9c 15 3d
       -0.033985592 -0.039293777 -0.0735099 0.03652652
000140 71 41 15 3d 38 59 04 3d 58 89 11 bd 97 87 bf 3d
       0.036439363 0.032311648 -0.03553137 0.093520336
000150 2e 73 0f 3c 51 d0 a7 bd f2 a0 7e bd 8e 29 30 be
       0.008755488 -0.0819403 -0.06216521 -0.17203352
000160 98 ec aa bc 4b 6f bc 3d ce c4 c2 bc 67 96 ff bc
       -0.02086477 0.09200915 -0.023775484 -0.031199647
000170 78 76 99 bd 98 bd a0 3b 43 31 96 bd 66 aa 68 bc
       -0.07493299 0.004905414 -0.07333615 -0.014200782
000180 bd 4a 15 3d 59 c1 eb bd ca fe 60 bd 74 ad bd 3d
       0.03644823 -0.115114875 -0.054930486 0.09261599
000190 ac cb c9 3a b5 52 d0 3d 92 97 84 bd 94 2f 8c 3d
       0.0015395782 0.10172025 -0.06474222 0.06845012
0001a0 8f f3 f6 3c f9 81 d4 3d e0 eb ee bd 9a f8 96 bd
       0.030145435 0.10376353 -0.11666083 -0.07371636
0001b0 c4 84 4f bd ce 59 ba bb 56 e9 2c 3b 45 17 1d 3d
       -0.050663725 -0.005686975 0.0026384196 0.03835227
0001c0 ea 0e 9a 3d 6e 49 96 bd 17 3a 0c bd 45 b1 18 bc
       0.07522376 -0.07338224 -0.034235086 -0.009319608
0001d0 b2 7f 3d bd cd 1f e8 bd 60 e6 ff bc f3 2d f2 ba
       -0.046264358 -0.113341905 -0.031237781 -0.0018476829
0001e0 45 35 ba 3d 9c e3 a1 bc 55 47 bd 3d d5 0b ca 3c
       0.090921916 -0.019761853 0.09242121 0.024663845
0001f0 3e f1 1a 3d c0 1e 14 bd d3 09 0f be fc 9d 52 3d
       0.037827723 -0.036162138 -0.13968591 0.051420197
000200 d0 1f 99 bd 6b 29 99 3d d4 42 3d 3e 7a da a6 3d
       -0.07476771 0.07478603 0.18482524 0.0814714
000210 a7 4c 50 bc 4a f2 c5 3c dd bc 4a 3d 82 d3 bb 3d
       -0.012713588 0.024163384 0.04949652 0.09171201
000220 76 b7 18 bc 34 41 9c 3d 20 88 4d be 19 4d 8b 3d
       -0.009321084 0.07629624 -0.20071459 0.068018146
000230 90 87 a6 3b 8b 8e 23 be 15 b6 6e 3d ba b1 dd bb
       0.0050820783 -0.15972345 0.058279116 -0.0067655714
000240 20 b6 1c be a1 d9 29 3e 6b a2 f4 bd 02 8f b4 bc
       -0.1530385 0.16586925 -0.11945041 -0.022040848
000250 39 9f b0 bd d4 14 2c bd a3 20 c8 3a dd 17 33 bd
       -0.08624119 -0.04201205 0.0015268516 -0.04372393
000260 8c 63 44 3e 49 e4 35 be ac 1e d5 3d 32 b4 07 3e
       0.19178599 -0.17762865 0.10406241 0.13252333
000270 df c1 ba 3d c4 52 08 be 35 e3 04 be 53 11 88 bd
       0.09119009 -0.13312823 -0.12977298 -0.06643929
000280 c2 48 bc bd ea 92 87 3d b2 1a 8d 3c 53 06 aa bb
       -0.09193565 0.066198185 0.017224643 -0.005188742
000290 bf d5 99 3b 4f fc ef 3d eb 60 d2 3d 3e d4 e1 3c
       0.00469467 0.11718046 0.10272392 0.027567025
0002a0 21 e2 a3 3d 71 4c 1d 3e a0 ab 88 3d 0d 09 a0 3d
       0.08002115 0.15361191 0.0667336 0.07814226
0002b0 1a 7e a4 3d 70 6e 38 3d 25 02 86 bc ec b5 15 be
       0.080318645 0.045027196 -0.016358444 -0.14620179
0002c0 77 5e dc 3d a7 d2 80 be ae af d2 3c 06 c8 71 3d
       0.10760205 -0.25160715 0.025718536 0.059028648
0002d0 33 76 c4 3c 86 72 79 3d 57 0c 1a bd f0 c1 4e 3d
       0.023982143 0.060900234 -0.037609424 0.050477922
0002e0 2e 96 1e be 26 3a 62 bd 2d 76 64 3d a9 84 ef 3c
       -0.15486977 -0.055231236 0.055776764 0.029238062
0002f0 31 4f 0d 3d f9 10 a9 bd df d7 23 3e af 77 1d be
       0.03449935 -0.082551904 0.16000317 -0.15377687
000300 cc 9b c0 bc c2 f2 6c bd 26 cb 9c bd 92 6e e0 3d
       -0.02351179 -0.0578487 -0.07655935 0.109585896
000310 c8 a3 b4 3d 6e 68 e0 bd 8d 0d ec bc eb 30 a8 3c
       0.08820301 -0.109574184 -0.028815055 0.020531138
000320 85 8d 9c bd a5 c0 15 be 49 ad 4c be 1d 89 89 3d
       -0.0764418 -0.1462427 -0.19987978 0.067156054
000330 8d a2 9c bc cf ae aa bd de 69 28 3c 87 b6 14 bd
       -0.019120479 -0.08334123 0.010279147 -0.036306884
000340 0f 9c 94 bd fb 51 89 3c e0 2b 5e 3d 1c ec 27 3e
       -0.07256328 0.016762724 0.05424106 0.16398662
000350 70 13 7b bd 04 73 89 3d f1 29 3e bd fc 03 e0 bb
       -0.061297834 0.067113906 -0.046426717 -0.0068364125
000360 9b 7c e5 bc 76 8d 4f be e8 8f 5a bc 1e c5 39 ba
       -0.028013518 -0.20268807 -0.013339974 -0.00070865627
000370 7d 91 e1 3d 0c 8a 8b bd 9c 1a f3 ba 2e f8 1a be
       0.11014078 -0.0681344 -0.0018547359 -0.15133736
000380 ca 53 e6 bd dd 5b ce bc 8f 92 df 3c 3e e5 06 3d
       -0.1124645 -0.025190288 0.027291564 0.032933466
000390 ae f6 8b 3b a5 b1 17 3c 46 e8 ee 3d ae 04 5e 3d
       0.00427135 0.009258662 0.116653964 0.05420368
0003a0 53 63 e7 b9 fe 36 00 3e 0d 05 02 3c 8d ef 04 bd
       -0.00044133756 0.12520978 0.0079357745 -0.032455016
0003b0 75 44 4b 3d a2 de 93 bd 79 0c a9 bd fb ff 7f 3e
       0.049625833 -0.07220198 -0.08254332 0.24999993
0003c0 f6 95 85 3d 40 f6 15 be cb c5 7d 3d 81 87 6e 3c
       0.065227434 -0.14644718 0.06195621 0.014558674
0003d0 7e eb 58 bd 9e c2 00 3e c6 8c 6c 3d bd 69 69 bc
       -0.052958958 0.1257424 0.05775144 -0.014246401
0003e0 78 93 4b 3d 97 66 8c bd 10 a6 d7 bc 5b 4e 26 bd
       0.049701184 -0.06855505 -0.026324302 -0.04060207
0003f0 07 73 b8 3c 13 f5 65 3e 5d 4f 0e 3d 7e 99 b4 3d
       0.022515787 0.2245677 0.034743655 0.08818339

network_body._body_endoder.seq_layers.2.bias f4 [128]
000000 00 00 00 00 00 00 00 00 00 00 00 00 00 00 00 00
       0.0 0.0 0.0 0.0
000010 00 00 00 00 00 00 00 00 00 00 00 00 00 00 00 00
       0.0 0.0 0.0 0.0
000020 00 00 00 00 00 00 00 00 00 00 00 00 00 00 00 00
       0.0 0.0 0.0 0.0
000030 00 00 00 00 00 00 00 00 00 00 00 00 00 00 00 00
       0.0 0.0 0.0 0.0
000040 00 00 00 00 00 00 00 00 00 00 00 00 00 00 00 00
       0.0 0.0 0.0 0.0
000050 00 00 00 00 00 00 00 00 00 00 00 00 00 00 00 00
       0.0 0.0 0.0 0.0
000060 00 00 00 00 00 00 00 00 00 00 00 00 00 00 00 00
       0.0 0.0 0.0 0.0
000070 00 00 00 00 00 00 00 00 00 00 00 00 00 00 00 00
       0.0 0.0 0.0 0.0
000080 00 00 00 00 00 00 00 00 00 00 00 00 00 00 00 00
       0.0 0.0 0.0 0.0
000090 00 00 00 00 00 00 00 00 00 00 00 00 00 00 00 00
       0.0 0.0 0.0 0.0
0000a0 00 00 00 00 00 00 00 00 00 00 00 00 00 00 00 00
       0.0 0.0 0.0 0.0
0000b0 00 00 00 00 00 00 00 00 00 00 00 00 00 00 00 00
       0.0 0.0 0.0 0.0
0000c0 00 00 00 00 00 00 00 00 00 00 00 00 00 00 00 00
       0.0 0.0 0.0 0.0
0000d0 00 00 00 00 00 00 00 00 00 00 00 00 00 00 00 00
       0.0 0.0 0.0 0.0
0000e0 00 00 00 00 00 00 00 00 00 00 00 00 00 00 00 00
       0.0 0.0 0.0 0.0
0000f0 00 00 00 00 00 00 00 00 00 00 00 00 00 00 00 00
       0.0 0.0 0.0 0.0
000100 00 00 00 00 00 00 00 00 00 00 00 00 00 00 00 00
       0.0 0.0 0.0 0.0
000110 00 00 00 00 00 00 00 00 00 00 00 00 00 00 00 00
       0.0 0.0 0.0 0.0
000120 00 00 00 00 00 00 00 00 00 00 00 00 00 00 00 00
       0.0 0.0 0.0 0.0
000130 00 00 00 00 00 00 00 00 00 00 00 00 00 00 00 00
       0.0 0.0 0.0 0.0
000140 00 00 00 00 00 00 00 00 00 00 00 00 00 00 00 00
       0.0 0.0 0.0 0.0
000150 00 00 00 00 00 00 00 00 00 00 00 00 00 00 00 00
       0.0 0.0 0.0 0.0
000160 00 00 00 00 00 00 00 00 00 00 00 00 00 00 00 00
       0.0 0.0 0.0 0.0
000170 00 00 00 00 00 00 00 00 00 00 00 00 00 00 00 00
       0.0 0.0 0.0 0.0
000180 00 00 00 00 00 00 00 00 00 00 00 00 00 00 00 00
       0.0 0.0 0.0 0.0
000190 00 00 00 00 00 00 00 00 00 00 00 00 00 00 00 00
       0.0 0.0 0.0 0.0
0001a0 00 00 00 00 00 00 00 00 00 00 00 00 00 00 00 00
       0.0 0.0 0.0 0.0
0001b0 00 00 00 00 00 00 00 00 00 00 00 00 00 00 00 00
       0.0 0.0 0.0 0.0
0001c0 00 00 00 00 00 00 00 00 00 00 00 00 00 00 00 00
       0.0 0.0 0.0 0.0
0001d0 00 00 00 00 00 00 00 00 00 00 00 00 00 00 00 00
       0.0 0.0 0.0 0.0
0001e0 00 00 00 00 00 00 00 00 00 00 00 00 00 00 00 00
       0.0 0.0 0.0 0.0
0001f0 00 00 00 00 00 00 00 00 00 00 00 00 00 00 00 00
       0.0 0.0 0.0 0.0

value_heads.value_heads.extrinsic.weight f4 [1, 128]
000000 b3 82 ea bd e8 ea 90 3c d6 95 91 bd fc 96 83 3d
       -0.1145071 0.017690137 -0.07108657 0.06425282
000010 f2 a8 43 be dc 57 e8 bd e8 42 02 be 94 5a 4a 3e
       -0.19107416 -0.11344883 -0.12720835 0.19761115
000020 72 3b 31 3e d0 07 54 3c 2e 52 ae bd 46 b3 84 bd
       0.17307833 0.012941316 -0.08511768 -0.06479506
000030 f0 47 6a bd 6e df 29 3e 9c 60 75 bd 80 bc 39 3d
       -0.05719751 0.16589138 -0.059906587 0.045345783
000040 bc 36 2a 3e 3c 49 fe 3d 98 93 bb 3c 04 4f 90 3d
       0.16622442 0.12416312 0.022897527 0.07046321
000050 82 6d aa bd 88 72 33 3e 0e 80 2d be 92 42 4b 3e
       -0.08321668 0.17524159 -0.1694338 0.19849613
000060 b0 4e be 3c 30 3d 48 be 8a e0 37 be 68 b9 fe 3d
       0.02323088 -0.19554591 -0.17956749 0.12437707
000070 b0 b6 24 3c 3c ad 99 3d 34 fc 0f be 60 90 d0 bc
       0.010053322 0.07503745 -0.14061052 -0.025459468
000080 32 35 0d 3e 38 ce b2 3d 08 25 40 3e 30 7f 0f 3c
       0.13789824 0.08730739 0.18764126 0.008758351
000090 40 13 c7 bd 69 06 36 be 64 b0 ee 3d 4a a2 35 3e
       -0.097204685 -0.17775883 0.116547376 0.1773769
0000a0 40 7b 08 3d e8 a7 f0 3d 98 fa 8c bc cc 9b 1a bd
       0.033320665 0.117507756 -0.017209336 -0.037746236
0000b0 1e fa 2f 3e 57 30 33 be 64 42 df bd 28 9d f2 3d
       0.17185256 -0.17498909 -0.10901335 0.118463814
0000c0 20 29 f9 3d 18 c1 f3 3c 90 35 2d 3e 28 88 2f bd
       0.12166047 0.02975516 0.16914964 -0.042854458
0000d0 1c 08 3d be 10 85 10 3d 5a 40 5a be e4 7b 29 3e
       -0.18460125 0.03528315 -0.2131361 0.16551167
0000e0 31 d2 57 be cc 72 2c 3e a8 73 a7 bd 9b 25 54 be
       -0.21076275 0.16840667 -0.081763566 -0.2071747
0000f0 4e e2 55 3e c8 d7 50 3e 0a 9e 21 be 1c 46 6b bd
       0.2088711 0.20394814 -0.15782943 -0.05743991
000100 84 4d 3a 3e ad 13 bb bd 68 32 57 3e a4 0c 44 bd
       0.18193632 -0.09134612 0.21015322 -0.047863618
000110 32 11 c3 bd 90 64 83 bd 50 70 0d be f8 6c 05 3d
       -0.09524764 -0.06415665 -0.13812375 0.032574624
000120 01 c8 ed bd 80 78 ed 3d 80 c2 ff 3a 44 e5 49 be
       -0.11610413 0.11595249 0.0019512922 -0.19716364
000130 58 1c 28 3e c0 b1 5a bd 14 2f 1f 3e 96 81 28 3e
       0.16417062 -0.05339217 0.15545303 0.16455683
000140 70 97 6a 3c 80 2c 82 3a 04 c9 ce 3d 30 65 76 bd
       0.014318332 0.0009931475 0.100969344 -0.060155094
000150 46 fa dc bd 90 f5 37 bd 80 74 48 3d 96 6b 2d 3e
       -0.10789923 -0.04491192 0.048939228 0.16935572
000160 c6 32 0d 3e e4 66 21 be 04 a1 58 bd b8 93 62 3d
       0.137889 -0.15761906 -0.05288793 0.055316657
000170 a0 b8 f0 3d 78 7c 07 3e 84 50 b4 bd 77 8f 1a be
       0.117539644 0.13231075 -0.0880442 -0.1509379
000180 34 4d e1 bd ea 3e 25 3e 48 64 b6 bc b8 71 4a 3d
       -0.110010535 0.16137281 -0.022264615 0.049424857
000190 98 a9 9e 3c 84 af 84 3d 46 d9 aa bd 78 36 a5 bd
       0.019367978 0.064787894 -0.08342223 -0.0806703
0001a0 b4 00 37 3e 86 b7 38 3e f1 91 e2 bd 98 af 14 3d
       0.17871362 0.18038759 -0.11062992 0.03630027
0001b0 d2 c0 27 3e 2e d6 1c 3e 58 03 16 bd a0 bd 45 be
       0.16382149 0.15316078 -0.036624283 -0.19310617
0001c0 e8 06 85 3d a2 52 a1 bd 28 8a 0a 3e cf f2 f1 bd
       0.06495458 -0.07877089 0.13529265 -0.1181389
0001d0 f0 76 9f 3d 96 bb 3e 3e 0c 07 03 3e b4 09 92 3d
       0.077863574 0.18626246 0.12795657 0.07130757
0001e0 91 bf 4e be c0 7e 4f 3c e0 9b 82 3d 58 e8 1d bd
       -0.20190264 0.012664497 0.06377387 -0.03855166
0001f0 c0 c1 70 bc 8e 55 91 bd ce e8 50 be 0c 1a ff 3d
       -0.014694631 -0.070963964 -0.20401308 0.1245614
