Assets/ML-Agents/Examples/FirstTRexScene/results/trmodel/My Behavior/My Behavior-1920.onnx (onnx, 74175 bytes, 7 tensors)

action_model._continuous_distribution.log_sigma f4 [1, 2]
0.0 0.0
00000000: 0000 0000 0000 0000

action_model._continuous_distribution.mu.bias f4 [2]
0.0 0.0
00000000: 0000 0000 0000 0000

action_model._continuous_distribution.mu.weight f4 [2, 128]
-0.029718895 -0.0030938738 0.0025536742 0.0018957023 -0.004995128 -0.010390588 0.011160422 0.0027109531
-0.0054613412 -0.010419605 -0.013772169 -0.020412473 0.02617251 -0.013071737 0.0046328986 0.024173891
-0.01088382 -0.017812863 -0.028131275 -0.013477932 0.0031634446 0.008518013 0.0033316237 -0.011563699
-0.023540026 -0.032085698 -0.03264524 0.037989806 -0.010237788 -0.0062509477 0.010613304 -0.019999025
0.035106916 -0.010048623 -0.0054534883 -0.014370652 -0.00673283 0.013845987 0.011210541 0.017958645
0.010722776 -0.0120853875 0.023313051 0.002624745 -0.00622011 -0.022134425 -0.0150533635 -0.03507879
-0.037185572 0.0044706445 0.019279549 -0.011970242 0.0031249935 0.020257596 0.020093624 -0.013368635
-0.005672645 -0.007465565 -0.00062290585 -0.016890666 0.024165554 0.00057063374 -0.011910784 0.0136926
0.009439629 0.017001057 -0.012946184 0.03526028 -0.0002739366 -0.01162778 0.051789995 -0.035272542
-0.020703878 0.005567811 -0.004711645 0.013774282 -0.018522127 -0.01792195 0.02395466 -0.017535431
0.00528732 0.0035462317 0.049029212 0.0059086564 0.014497774 0.012211128 -0.010453449 -0.028017843
-0.014889921 -0.025442276 0.010443351 -0.02506018 0.034495063 -0.01665273 0.0035445932 -0.020360028
-0.002624735 -0.00437314 0.0073528783 0.006056422 -0.0049235234 0.029094195 -0.010377969 0.04937869
0.0010228466 0.0037273092 -0.014012671 -0.0031580646 0.019177992 -0.021787284 -0.029434705 -0.010700864
0.015768345 -0.026830776 0.003190002 -0.0016987495 0.019841237 0.013701019 -0.028186811 6.41164e-05
0.06129582 0.032137323 0.0030429543 0.014011192 0.02912711 0.024079569 0.0011462651 0.0101487655
0.025498537 -0.017951107 -0.026209459 0.01582038 0.01668792 -0.0051938365 -0.01543314 -0.014240782
-0.009950115 -0.036892936 0.009149953 -0.040096555 0.0061428677 0.02129454 -0.042937055 -0.01868095
0.013425963 -0.029775951 -0.01402007 0.015085213 -0.010939926 0.018170623 -0.024295017 -0.0015426134
-0.0053292713 -0.017547356 -0.012293339 0.0010679787 0.003212516 -0.023190683 -0.0027018704 -0.01250415
-0.004139378 0.0037084098 0.0025981038 0.015354267 -0.025685642 0.015213232 0.013627897 0.011598836
-0.013725373 0.009689882 -0.007563796 0.016971314 -0.01559773 -0.018949548 -0.0065009343 0.023274414
0.015086538 -0.0027997128 -0.019200832 -0.027079264 0.019914135 0.00738473 0.00034007267 -0.01617366
0.020173447 0.0040733344 -0.019180667 0.0025474513 0.0021937154 0.0035704502 0.025128141 0.023066796
-0.039956186 0.009588345 0.012032117 -0.029945845 -0.023667742 0.0057993713 -0.015086727 -0.008544113
0.0022810937 -0.031493794 0.005762152 -0.0077828504 0.0012226831 0.018915376 -0.029720647 -0.013106259
0.0002759425 -0.0010776313 -0.017768795 0.03608662 -0.0053601535 0.02351035 -0.009643933 -0.008847852
0.007784176 -0.034407314 0.03856029 -0.008421054 0.022366073 0.002389468 -0.00062747125 0.0025988051
0.018552834 0.005872428 0.025078395 0.02765632 -0.0067659295 -0.0052221715 0.011592331 0.016982581
-0.020556105 0.024952872 0.021169124 0.015851008 -0.008118507 0.043840215 0.009833028 -0.014370169
0.010951067 0.0038269744 0.021411065 -0.0056924033 0.008032846 -0.016081152 -0.04487816 0.00472556
-0.0057166624 -0.0060758344 0.00061653554 0.006149718 -0.009986533 0.016758794 -0.048175044 0.05161519
00000000: 0a75 f3bc 97c2 4abb 8b5b 273b 3779 f83a
00000010: 2cae a3bb 493d 2abc 34da 363c 3faa 313b
00000020: 0df5 b2bb feb6 2abc aaa4 61bc 0f38 a7bc
00000030: bb67 d63c d72a 56bc 92cf 973b 5308 c63c
00000040: 0d52 32bc 48ec 91bc 8f73 e6bc 8bd2 5cbc
00000050: cb51 4f3b 238f 0b3c 5f57 5a3b ab75 3dbc
00000060: 03d7 c0bc 4b6c 03bd 04b7 05bd 339b 1b3d
00000070: 65bc 27bc c0d4 ccbb 6ce3 2d3c ffd4 a3bc
00000080: 45cc 0f3d fba2 24bc 2db3 b2bb e272 6bbc
00000090: 129f dcbb 47da 623c 6bac 373c 021e 933c
000000a0: 95ae 2f3c ca01 46bc 03fb be3c ea03 2c3b
000000b0: 11d2 cbbb 4153 b5bc 62a2 76bc c7ae 0fbd
000000c0: e64f 18bd 7c7e 923b 25f0 9d3c d51e 44bc
000000d0: b1cc 4c3b 42f3 a53c 629b a43c 1f08 5bbc
000000e0: 98e1 b9bb b3a1 f4bb 814a 23ba 4b5e 8abc
000000f0: d7f6 c53c 9596 153a 7325 43bc ed56 603c
00000100: aca8 1a3c cd45 8b3c 3b1c 54bc 156d 103d
00000110: 269f 8fb9 7282 3ebc bf21 543d f179 10bd
00000120: 2e9b a9bc 2f72 b63b 2564 9abb 87ad 613c
00000130: b7bb 97bc 0ed1 92bc 903c c43c 77a6 8fbc
00000140: 4141 ad3b e567 683b dbd2 483d 679d c13b
00000150: 1288 6d3c 2f11 483c f144 2bbc ad85 e5bc
00000160: dbf4 73bc 526c d0bc 971a 2b3c 024b cdbc
00000170: b24a 0d3d 4e6b 88bc 684c 683b 13ca a6bc
00000180: bf03 2cbb 8f4c 8fbb 6af0 f03b f374 c63b
00000190: 8255 a1bb f356 ee3c 5b08 2abc 4f41 4a3d
000001a0: 0911 863a df45 743b 6795 65bc 88f7 4ebb
000001b0: 2a1b 9d3c 3f7b b2bc 0d21 f1bc ad52 2fbc
000001c0: 9e2c 813c 37cc dbbc 5a0f 513b 93a8 deba
000001d0: 178a a23c 3d7a 603c 07e8 e6bc 3b76 8638
000001e0: 5311 7b3d 6da2 033d 4d6c 473b 338f 653c
000001f0: fa9b ee3c 8442 c53c 463e 963a 0247 263c
00000200: 4fe2 d03c 330e 93bc 38b5 d6bc be99 813c
00000210: 1bb5 883c 0f31 aabb 48db 7cbc 2b52 69bc
00000220: cf05 23bc 0c1d 17bd afe9 153c 493c 24bd
00000230: 1c4a c93b e371 ae3c c4de 2fbd cb08 99bc
00000240: 92f8 5b3c b2ec f3bc 70b4 65bc f827 773c
00000250: 603d 33bc 8fda 943c 5806 c7bc 8431 caba
00000260: 2ba1 aebb 79bf 8fbc 006a 49bc 6bfb 8b3a
00000270: 1389 523b 63fa bdbc dd11 31bb 35de 4cbc
00000280: 9fa3 87bb cb08 733b f344 2a3b 7790 7b3c
00000290: b26a d2bc eb40 793c 8b47 5f3c 0b09 3e3c
000002a0: 63e0 60bc 50c2 1e3c b8d9 f7bb 6d07 8b3c
000002b0: 9f8d 7fbc 153c 9bbc ca05 d5bb fca9 be3c
000002c0: 872d 773c 637b 37bb 104b 9dbc 55d5 ddbc
000002d0: f822 a33c 9bfb f13b c84b b239 a07e 84bc
000002e0: c942 a53c 9b79 853b c620 9dbc 24f3 263b
000002f0: 70c4 0f3b 37fe 693b 88d9 cd3c 94f6 bc3c
00000300: 19a9 23bd 6f18 1d3c 5b22 453c fd50 f5bc
00000310: dae2 c1bc a708 be3b 522e 77bc 9bfc 0bbc
00000320: 677e 153b a3ff 00bd 6fd0 bc3b 4807 ffbb
00000330: 7042 a03a 6bf4 9a3c b778 f3bc a2bb 56bc
00000340: 60ac 9039 4e3f 8dba dd8f 91bc 90cf 133d
00000350: 3aa4 afbb c798 c03c 9601 1ebc 95f6 10bc
00000360: 6712 ff3b afee 0cbd 65f1 1d3d 76f8 09bc
00000370: 0e39 b73c 9f98 1c3b e27c 24ba b750 2a3b
00000380: 1dfc 973c 7f6d c03b 3571 cd3c 828f e23c
00000390: bbb4 ddbb c01e abbb c3ed 3d3c 0e1f 8b3c
000003a0: 4765 a8bc f769 cc3c df6a ad3c f9d9 813c
000003b0: 7d03 05bc cc91 333d b51a 213c db70 6bbc
000003c0: 1b6c 333c facd 7a3b 4266 af3c 5787 babb
000003d0: 339c 033c 9fbc 83bc 29d2 37bd dfd8 9a3b
000003e0: d752 bbbb cb17 c7bb 009f 213a 9383 c93b
000003f0: 8e9e 23bc bd49 893c 3253 45bd 736a 533d

network_body._body_endoder.seq_layers.0.bias f4 [128]
0.0 0.0 0.0 0.0 0.0 0.0 0.0 0.0
0.0 0.0 0.0 0.0 0.0 0.0 0.0 0.0
0.0 0.0 0.0 0.0 0.0 0.0 0.0 0.0
0.0 0.0 0.0 0.0 0.0 0.0 0.0 0.0
0.0 0.0 0.0 0.0 0.0 0.0 0.0 0.0
0.0 0.0 0.0 0.0 0.0 0.0 0.0 0.0
0.0 0.0 0.0 0.0 0.0 0.0 0.0 0.0
0.0 0.0 0.0 0.0 0.0 0.0 0.0 0.0
0.0 0.0 0.0 0.0 0.0 0.0 0.0 0.0
0.0 0.0 0.0 0.0 0.0 0.0 0.0 0.0
0.0 0.0 0.0 0.0 0.0 0.0 0.0 0.0
0.0 0.0 0.0 0.0 0.0 0.0 0.0 0.0
0.0 0.0 0.0 0.0 0.0 0.0 0.0 0.0
0.0 0.0 0.0 0.0 0.0 0.0 0.0 0.0
0.0 0.0 0.0 0.0 0.0 0.0 0.0 0.0
0.0 0.0 0.0 0.0 0.0 0.0 0.0 0.0
00000000: 0000 0000 0000 0000 0000 0000 0000 0000
00000010: 0000 0000 0000 0000 0000 0000 0000 0000
00000020: 0000 0000 0000 0000 0000 0000 0000 0000
00000030: 0000 0000 0000 0000 0000 0000 0000 0000
00000040: 0000 0000 0000 0000 0000 0000 0000 0000
00000050: 0000 0000 0000 0000 0000 0000 0000 0000
00000060: 0000 0000 0000 0000 0000 0000 0000 0000
00000070: 0000 0000 0000 0000 0000 0000 0000 0000
00000080: 0000 0000 0000 0000 0000 0000 0000 0000
00000090: 0000 0000 0000 0000 0000 0000 0000 0000
000000a0: 0000 0000 0000 0000 0000 0000 0000 0000
000000b0: 0000 0000 0000 0000 0000 0000 0000 0000
000000c0: 0000 0000 0000 0000 0000 0000 0000 0000
000000d0: 0000 0000 0000 0000 0000 0000 0000 0000
000000e0: 0000 0000 0000 0000 0000 0000 0000 0000
000000f0: 0000 0000 0000 0000 0000 0000 0000 0000
00000100: 0000 0000 0000 0000 0000 0000 0000 0000
00000110: 0000 0000 0000 0000 0000 0000 0000 0000
00000120: 0000 0000 0000 0000 0000 0000 0000 0000
00000130: 0000 0000 0000 0000 0000 0000 0000 0000
00000140: 0000 0000 0000 0000 0000 0000 0000 0000
00000150: 0000 0000 0000 0000 0000 0000 0000 0000
00000160: 0000 0000 0000 0000 0000 0000 0000 0000
00000170: 0000 0000 0000 0000 0000 0000 0000 0000
00000180: 0000 0000 0000 0000 0000 0000 0000 0000
00000190: 0000 0000 0000 0000 0000 0000 0000 0000
000001a0: 0000 0000 0000 0000 0000 0000 0000 0000
000001b0: 0000 0000 0000 0000 0000 0000 0000 0000
000001c0: 0000 0000 0000 0000 0000 0000 0000 0000
000001d0: 0000 0000 0000 0000 0000 0000 0000 0000
000001e0: 0000 0000 0000 0000 0000 0000 0000 0000
000001f0: 0000 0000 0000 0000 0000 0000 0000 0000

network_body._body_endoder.seq_layers.0.weight f4 [128, 9]
-1.0357041 -0.09772806 0.05808743 -0.25241828 -0.07989512 0.261074 0.19718371 -0.39425585
-0.29839268 0.2771561 -0.1576544 -0.048171304 -0.38355002 -0.41384423 0.30857888 0.38227034
0.3583678 -0.07045323 -0.106077485 -0.2253363 0.13951185 0.045385733 -0.36590964 0.55126727
-0.025538456 0.15124084 -0.4061215 -0.21596077 0.5632808 0.16123591 -0.13237698 -0.21871197
0.08797522 -0.7124294 -0.18371704 0.64772666 -0.28060427 -0.13057718 -0.3021633 -0.71501154
-0.4485532 -0.17240827 0.22884111 -0.76710004 -0.043099947 -0.34994388 0.2966299 0.32395375
0.031499326 -0.38769317 -0.10543748 -0.07421132 -0.45162177 -0.2978319 0.2688254 -0.051057644
0.06682953 -0.7172865 0.5094827 0.1053197 -0.8727569 0.28351635 0.10577528 -0.07515397
0.49083444 0.14276583 -0.009362916 -0.14320426 -0.20649818 -0.31280154 0.47586212 0.9309186
0.09111806 -0.5114921 -0.46711493 -0.36258227 -0.015029292 0.35834718 0.4113629 -0.18336241
-0.16888711 0.41485906 0.08350229 -0.011758365 0.23531857 0.40475726 0.10947271 0.24255544
0.20152545 -0.41159183 0.25794846 0.33009967 -0.23942177 0.12015947 -0.08696349 0.78743744
0.38221925 0.004679167 -0.43117273 0.5101926 0.25329518 0.122288495 0.12661593 0.42956933
0.4519255 0.018207071 -0.26561984 -0.016609307 0.31649303 0.24586456 -0.2197198 -0.10913905
0.1082977 0.7425653 0.043182276 -0.1764044 0.16957101 0.39380074 0.3523736 -0.06898266
-0.23642153 -0.04991518 -0.26340425 0.27439424 -0.46314964 0.6154899 0.44472474 0.7750503
-0.32314304 0.16230774 0.2746413 0.016949017 0.6086237 0.09308751 0.5414568 0.13536419
-0.20181227 0.47989058 -0.018307064 -0.06017364 0.34385586 -0.07737884 -0.17742035 -0.29195797
-0.07345472 -0.039431907 -0.14677787 0.3546972 -0.20014232 0.19711673 0.4743712 0.51982045
0.03991189 0.6316333 0.0024086349 -0.2609813 -0.18230379 0.078659624 -0.15810107 -0.16795686
0.462921 0.68185604 0.13998124 0.8142804 0.5057063 -0.11122994 -0.14510575 0.59097683
-0.36765224 0.16258237 -0.06752139 -0.5126482 0.014890589 0.024602426 0.1647218 0.3570877
-0.33798784 -0.27042007 0.015709708 0.1056501 0.011926465 -0.13074215 -0.20695674 0.3932198
0.023484848 -0.6638056 -0.46212602 0.011551304 -0.22104898 0.373937 -0.42821687 -0.065933056
-0.27030462 -0.256631 -0.4615839 -0.2621945 -0.3692842 -0.04295091 -0.26721364 0.08994953
-0.4003827 -0.111618966 -0.3100708 0.49911416 0.15788394 0.018155733 0.12875068 -0.058952536
-0.13475353 -0.21366468 -0.05722962 -0.034991488 0.010701202 0.21532932 -0.25631985 -0.10736846
0.0076672444 -0.26160073 0.7274289 0.14012437 -0.1024846 0.17672919 -0.41376457 0.08048745
0.026692059 0.06326755 -0.20529246 -0.4183447 -0.41461915 0.10971977 -0.07229952 -0.07455889
0.1845738 0.10047924 -0.42824337 -0.7125881 -0.5506839 -0.50294614 0.23760802 0.09966338
-0.192756 -0.109900646 -0.36054406 -0.2585053 -0.52878 0.11913945 -0.006578091 0.0778185
0.62672746 -0.12285867 -0.36695254 0.4156699 -0.10915008 0.73371786 0.015423881 0.5799296
00000000: f491 84bf a625 c8bd 16ed 6d3d f83c 81be
00000010: 0da0 a3bd 7eab 853e 87ea 493e e7db c9be
00000020: edc6 98be 68e7 8d3e 2870 21be 464f 45bd
00000030: ab60 c4be 64e3 d3be 0dfe 9d3e f0b8 c33e
00000040: fc7b b73e c849 90bd 273f d9bd 8fbe 66be
00000050: 32dc 0e3e 64e6 393d 8258 bbbe da1f 0d3f
00000060: 0636 d1bc e1de 1a3e 28ef cfbe d224 5dbe
00000070: 2c33 103f 071b 253e d58d 07be 08f6 5fbe
00000080: 5a2c b43d c661 36bf 5220 3cbe 6ad1 253f
00000090: 5dab 8fbe 06b6 05be 26b5 9abe ff0a 37bf
000000a0: c4a8 e5be cb8b 30be 5355 6a3e ab60 44bf
000000b0: 9289 30bd d82b b3be e0df 973e 44dd a53e
000000c0: 7005 013d b87f c6be 9bef d7bd 1bfc 97bd
000000d0: f83a e7be 6c7d 98be 7ca3 893e d221 51bd
000000e0: ecdd 883d 17a0 37bf 756d 023f dbb1 d73d
000000f0: ff6c 5fbf 0e29 913e b6a0 d83d 53ea 99bd
00000100: a74e fb3e 3531 123e eb66 19bc 23a4 12be
00000110: 4274 53be 8627 a0be 33a4 f33e ae50 6e3f
00000120: 1b9c ba3d 25f1 02bf b029 efbe 62a4 b9be
00000130: 6b3d 76bc 4879 b73e 289e d23e 5bc3 3bbe
00000140: bef0 2cbe 6868 d43e 4003 ab3d 28a6 40bc
00000150: 5af7 703e 583c cf3e 3a33 e03d 7460 783e
00000160: b05c 4e3e 2abc d2be d211 843e d302 a93e
00000170: fb2a 75be 2b16 f63d ea19 b2bd 8095 493f
00000180: 3eb2 c33e b353 993b acc2 dcbe fb9b 023f
00000190: e8af 813e 6472 fa3d 9ba7 013e 83f0 db3e
000001a0: c762 e73e ff26 953c 53ff 87be 3e10 88bc
000001b0: 600b a23e ebc3 7b3e 3afe 60be 4b84 dfbd
000001c0: 2fcb dd3d c218 3e3f e6df 303d 5ba3 34be
000001d0: 06a4 2d3e 40a0 c93e 506a b43e c846 8dbd
000001e0: 7c18 72be dc73 4cbd ecdc 86be 677d 8c3e
000001f0: f321 edbe bf90 1d3f f6b2 e33e b269 463f
00000200: 0173 a5be 0034 263e c99d 8c3e aad8 8a3c
00000210: c3ce 1b3f aaa4 be3d ea9c 0a3f e99c 0a3e
00000220: e0a7 4ebe 38b4 f53e b2f8 95bc a278 76bd
00000230: e00d b03e cc78 9ebd aead 35be 847b 95be
00000240: 6e6f 96bd 5a83 21bd f04c 16be df9a b53e
00000250: 1cf2 4cbe f8d8 493e c8e0 f23e f412 053f
00000260: a67a 233d b8b2 213f 30da 1d3b 579f 85be
00000270: d8ad 3abe 4c18 a13d 3fe5 21be e2fc 2bbe
00000280: fb03 ed3e 1e8e 2e3f 3e57 0f3e ae74 503f
00000290: f875 013f 86cc e3bd 9a96 14be 424a 173f
000002a0: ea3c bcbe fe7b 263e a848 8abd ea3c 03bf
000002b0: a8f7 733c 078b c93c d5ac 283e 33d4 b63e
000002c0: be0c adbe 8074 8abe a5b1 803c 145f d83d
000002d0: 3867 433c 45e1 05be 78ec 53be 1b54 c93e
000002e0: 4c63 c03c 2aef 29bf c89b ecbe ae41 3d3c
000002f0: aa5a 62be ac74 bf3e 3e3f dbbe e907 87bd
00000300: 5e65 8abe 2365 83be ba54 ecbe 5c3e 86be
00000310: d212 bdbe 4bed 2fbd 3ad0 88be 7637 b83d
00000320: f6fe ccbe 7c98 e4bd 9ac1 9ebe e48b ff3e
00000330: 54ac 213e 55bb 943c 38d7 033e 3778 71bd
00000340: d4fc 09be eaca 5abe 9b69 6abd 3c53 0fbd
00000350: 1854 2f3c 4a7f 5c3e 5b3c 83be ffe3 dbbd
00000360: 823d fb3b 88f0 85be c838 3a3f c37c 0f3e
00000370: 72e3 d1bd 7ff8 343e f3d8 d3be 9bd6 a43d
00000380: 4ea9 da3c 6b92 813d 3038 52be 4731 d6be
00000390: f648 d4be c2b4 e03d c511 94bd 55b2 98bd
000003a0: ea00 3d3e 0fc8 cd3d b742 dbbe 2c6c 36bf
000003b0: 9ff9 0cbf 14c1 00bf 844f 733e 501c cc3d
000003c0: d461 45be 9713 e1bd 3b99 b8be cf5a 84be
000003d0: 205e 07bf 62ff f33d 078d d7bb 4e5f 9f3d
000003e0: 3671 203f 549d fbbd 34e1 bbbe afd2 d43e
000003f0: 148a dfbd efd4 3b3f 72b4 7c3c 4476 143f

network_body._body_endoder.seq_layers.2.bias f4 [128]
0.0 0.0 0.0 0.0 0.0 0.0 0.0 0.0
0.0 0.0 0.0 0.0 0.0 0.0 0.0 0.0
0.0 0.0 0.0 0.0 0.0 0.0 0.0 0.0
0.0 0.0 0.0 0.0 0.0 0.0 0.0 0.0
0.0 0.0 0.0 0.0 0.0 0.0 0.0 0.0
0.0 0.0 0.0 0.0 0.0 0.0 0.0 0.0
0.0 0.0 0.0 0.0 0.0 0.0 0.0 0.0
0.0 0.0 0.0 0.0 0.0 0.0 0.0 0.0
0.0 0.0 0.0 0.0 0.0 0.0 0.0 0.0
0.0 0.0 0.0 0.0 0.0 0.0 0.0 0.0
0.0 0.0 0.0 0.0 0.0 0.0 0.0 0.0
0.0 0.0 0.0 0.0 0.0 0.0 0.0 0.0
0.0 0.0 0.0 0.0 0.0 0.0 0.0 0.0
0.0 0.0 0.0 0.0 0.0 0.0 0.0 0.0
0.0 0.0 0.0 0.0 0.0 0.0 0.0 0.0
0.0 0.0 0.0 0.0 0.0 0.0 0.0 0.0
00000000: 0000 0000 0000 0000 0000 0000 0000 0000
00000010: 0000 0000 0000 0000 0000 0000 0000 0000
00000020: 0000 0000 0000 0000 0000 0000 0000 0000
00000030: 0000 0000 0000 0000 0000 0000 0000 0000
00000040: 0000 0000 0000 0000 0000 0000 0000 0000
00000050: 0000 0000 0000 0000 0000 0000 0000 0000
00000060: 0000 0000 0000 0000 0000 0000 0000 0000
00000070: 0000 0000 0000 0000 0000 0000 0000 0000
00000080: 0000 0000 0000 0000 0000 0000 0000 0000
00000090: 0000 0000 0000 0000 0000 0000 0000 0000
000000a0: 0000 0000 0000 0000 0000 0000 0000 0000
000000b0: 0000 0000 0000 0000 0000 0000 0000 0000
000000c0: 0000 0000 0000 0000 0000 0000 0000 0000
000000d0: 0000 0000 0000 0000 0000 0000 0000 0000
000000e0: 0000 0000 0000 0000 0000 0000 0000 0000
000000f0: 0000 0000 0000 0000 0000 0000 0000 0000
00000100: 0000 0000 0000 0000 0000 0000 0000 0000
00000110: 0000 0000 0000 0000 0000 0000 0000 0000
00000120: 0000 0000 0000 0000 0000 0000 0000 0000
00000130: 0000 0000 0000 0000 0000 0000 0000 0000
00000140: 0000 0000 0000 0000 0000 0000 0000 0000
00000150: 0000 0000 0000 0000 0000 0000 0000 0000
00000160: 0000 0000 0000 0000 0000 0000 0000 0000
00000170: 0000 0000 0000 0000 0000 0000 0000 0000
00000180: 0000 0000 0000 0000 0000 0000 0000 0000
00000190: 0000 0000 0000 0000 0000 0000 0000 0000
000001a0: 0000 0000 0000 0000 0000 0000 0000 0000
000001b0: 0000 0000 0000 0000 0000 0000 0000 0000
000001c0: 0000 0000 0000 0000 0000 0000 0000 0000
000001d0: 0000 0000 0000 0000 0000 0000 0000 0000
000001e0: 0000 0000 0000 0000 0000 0000 0000 0000
000001f0: 0000 0000 0000 0000 0000 0000 0000 0000

network_body._body_endoder.seq_layers.2.weight f4 [128, 128]
0.097989544 0.0045782747 0.13888091 0.0064471993 0.014319195 -0.04274942 0.092418045 -0.09844012
-0.017025454 0.013223296 -0.058414858 0.09734942 0.08132592 0.104722165 0.04019536 -0.1028174
0.019306738 0.008782472 -0.1057121 0.24579495 0.16182642 -0.005878489 0.009122194 -0.000809523
-0.06873505 -0.042984687 0.0978394 0.012283496 0.091764025 0.015064201 0.10154435 0.023710908
0.053017616 0.02262507 0.012498142 0.036088217 -0.11104011 0.22158143 0.049316876 0.03572425
-0.0758891 0.079326555 -0.04185111 -0.089772925 -0.0053710327 0.19658867 -0.16956352 -0.17079076
-0.05058759 -0.082530715 -0.07794568 -0.031812884 0.008705856 0.02037981 -0.009556854 -0.1057005
-0.06259152 -0.083396 0.064970866 -0.02372587 -0.08847222 -0.10905914 0.085012 0.037726622
-0.011185634 0.09552466 -0.08256615 0.036605373 -0.08380353 0.07036926 0.035128456 -0.02101411
-0.02653662 0.0053705224 -0.061460793 0.0510965 -0.11503846 -0.09274362 0.052498214 0.052942637
-0.025814766 0.08369129 0.009522356 -0.029283777 -0.012158275 0.028312277 0.036743965 0.042381186
-0.0026451575 0.13867912 -0.024181364 -0.17361344 -0.1499638 0.058963783 -0.00977495 -0.03628908
-0.04579127 0.12569386 0.025382027 -0.020263284 0.19261432 -0.06015957 -0.020937048 0.056136515
-0.17716484 0.014266651 0.14954074 -0.046706464 0.019737093 -0.051969893 -0.069479026 0.074415736
-0.09631411 0.11330232 0.04342542 -0.06692019 0.03468695 -0.013716265 -0.06393467 0.03822759
-0.1470567 0.18110743 0.22402078 0.07789009 0.07973472 0.07695027 -0.058098923 -0.020067945
0.17940037 -0.07079032 0.014890658 -0.105366446 0.011574484 0.08264299 0.010677786 -0.033851903
0.13079004 0.13010322 0.07570747 -0.23606804 -0.034533203 0.0128040565 0.055381805 0.1798297
-0.089381054 0.13260722 -0.15502617 -0.019498577 0.09582463 0.054859627 0.011784772 0.019983964
-0.064392515 -0.07855297 -0.1269762 0.06066694 -0.07658729 -0.03069779 -0.11854551 -0.15941545
0.11980598 -0.040348742 -0.006167335 -0.19679885 0.17910275 0.05554611 -0.053865924 -0.07284753
0.14007941 -0.011791418 -0.028484479 0.06504346 0.031173537 0.07526677 0.052930977 -0.17623058
-0.014853734 0.035915505 -0.009746204 -0.07347345 -0.057789322 0.0565189 0.007922466 -0.119538344
-0.011062998 0.052348547 -0.12944496 0.0063577504 -0.10364904 -0.17743157 0.032494944 -0.10001396
-0.050109264 0.01105095 -0.1332151 -0.055365216 0.113827266 0.07110206 -0.07353492 -0.102969915
-0.030845374 -0.21269377 -0.098296754 0.14881675 -0.09429135 0.12623407 -0.09359877 0.042416546
0.032015823 -0.12787436 -0.027003504 0.09316065 0.008983403 -0.054493476 -0.007466193 0.056340057
0.01052824 -0.014923374 -0.013036427 0.14662512 0.008545064 -0.006702346 -0.04401338 0.05371076
0.021719903 0.11177163 0.015043876 -0.08354335 -0.16318293 -0.13271874 0.17274916 0.0910494
-0.12431252 0.057249654 0.08595223 0.059467826 -0.031838626 0.1278551 -0.07013914 0.0510231
0.0036075413 -0.028605912 0.04714719 -0.02642631 -0.111215025 0.019373968 -0.133781 -0.03899239
-0.030329147 0.015173264 0.09882204 -0.013996094 -0.18560521 -0.030050913 0.12773475 -0.122558944
00000000: beae c83d 5a05 963b cc36 0e3e 0743 d33b
00000010: 0f9b 6a3c 041a 2fbd ac45 bd3d f99a c9bd
00000020: f778 8bbc 86a6 583c 6b44 6fbd 225f c73d
00000030: 348e a63d 9378 d63d e4a3 243d ee91 d2bd
00000040: 2a29 9e3c 5ce4 0f3c 967f d8bd acb1 7b3e
00000050: d3b5 253e 57a0 c0bb 4175 153c 2b36 54ba
00000060: f6c4 8cbd b610 30bd 0660 c83d b740 493c
00000070: c7ee bb3d d7cf 763c 7cf6 cf3d 613d c23c
00000080: 0029 593d 3658 b93c 02c5 4c3c 3dd1 133d
00000090: ff68 e3bd 3ee6 623e 7e00 4a3d 9753 123d
000000a0: bf6b 9bbd f675 a23d 126c 2bbd deda b7bd
000000b0: 7dff afbb 8a4e 493e 0fa2 2dbe c6e3 2ebe
000000c0: ef34 4fbd dd05 a9bd fca1 9fbd 3a4e 02bd
000000d0: 02a3 0e3c 8ff3 a63c 5a94 1cbc 8179 d8bd
000000e0: fc2f 80bd 86cb aabd 720f 853d c15c c2bc
000000f0: ec30 b5bd 665a dfbd c51a ae3d 3b87 1a3d
00000100: f343 37bc 6fa2 c33d 7118 a9bd 84ef 153d
00000110: 2fa1 abbd c21d 903d dbe2 0f3d c825 acbc
00000120: 5363 d9bc 35fb af3b 50be 7bbd 904a 513d
00000130: 4999 ebbd 5ef0 bdbd 5e08 573d 61da 583d
00000140: 7d79 d3bc 5766 ab3d a803 1c3c 88e4 efbc
00000150: 8033 47bc 26ef e73c d780 163d e597 2d3d
00000160: 615a 2dbb e601 0e3e ff17 c6bc b9c7 31be
00000170: 1c90 19be 0284 713d 1d27 20bc dca3 14bd
00000180: a08f 3bbd e4b5 003e f8ed cf3c 30ff a5bc
00000190: b03c 453e e269 76bd 2c84 abbc 67ef 653d
000001a0: b36a 35be acbe 693c 3521 193e 474f 3fbd
000001b0: afaf a13c 62de 54bd 054b 8ebd 4767 983d
000001c0: 5540 c5bd 0c0b e83d dade 313d 740d 89bd
000001d0: e713 0e3d 2fba 60bc 2ef0 82bd 8994 1c3d
000001e0: 0896 16be 3a74 393e b465 653e d784 9f3d
000001f0: f54b a33d 1a98 9d3d 23f9 6dbd 8865 a4bc
00000200: bbb4 373e 84fa 90bd f2f7 733c 5dca d7bd
00000210: e8a2 3d3c ba40 a93d e1f1 2e3c 4ba8 0abd
00000220: d3ed 053e c739 053e 850c 9b3d d2bb 71be
00000230: b072 0dbd 1bc8 513c 08d8 623d 4725 383e
00000240: 6a0d b7bd 30ca 073e 2ebf 1ebe 7bbb 9fbc
00000250: b43f c43d 7db4 603d eb14 413c 69b5 a33c
00000260: 39e0 83bd 61e0 a0bd 0d06 02be e67d 783d
00000270: ccd9 9cbd ef79 fbbc fdc7 f2bd ce3d 23be
00000280: d65c f53d b944 25bd 5b17 cabb a385 49be
00000290: b666 373e 5184 633d 84a2 5cbd 1631 95bd
000002a0: fa70 0f3e cb30 41bc 4858 e9bc 8135 853d
000002b0: a55f ff3c 7725 9a3d 27ce 583d ca75 34be
000002c0: 135d 73bc 231c 133d 8bae 1fbc 4079 96bd
000002d0: 7fb4 6cbd 5d80 673d 3bcd 013c 85d0 f4bd
000002e0: 9441 35bc 6e6b 563d 388d 04be ad54 d03b
000002f0: f345 d4bd 9fb0 35be 6b19 053d 1ed4 ccbd
00000300: 5f3f 4dbd 0b0f 353c 8a69 08be a3c6 62bd
00000310: 451e e93d f59d 913d 7a99 96bd e4e1 d2bd
00000320: 70af fcbc 65cc 59be cf4f c9bd 6b63 183e
00000330: d31b c1bd 8143 013e b6b0 bfbd f9bc 2d3d
00000340: 0623 033d 7ff1 02be 7436 ddbc 03cb be3d
00000350: 202f 133c 8d34 5fbd f7a6 f4bb d5c4 663d
00000360: a47e 2c3c 2b81 74bc bd96 55bc e524 163e
00000370: 9900 0c3c 5a9f dbbb 6047 34bd d0ff 5b3d
00000380: f0ed b13c 86e8 e43d 977a 763c c718 abbd
00000390: 6d19 27be 6ce7 07be 28e5 303e 1c78 ba3d
000003a0: 9097 febd 9d7e 6a3d b907 b03d 8994 733d
000003b0: 3869 02bd 73ec 023e 1ca5 8fbd 99fd 503d
000003c0: 806c 6c3b f256 eabc 691d 413d fd7b d8bc
000003d0: b4c4 e3bd 28b6 9e3c e3fd 08be 7cb6 1fbd
000003e0: d574 f8bc 4899 783c 3663 ca3d e04f 65bc
000003f0: 4b0f 3ebe 552d f6bc e6cc 023e 2f00 fbbd
