Assets/ML-Agents/Examples/FirstTRexScene/results/trmodel/My Behavior/My Behavior-128.onnx (onnx, 69718 bytes, 5 tensors)

action_model._discrete_distribution.branches.0.weight f4 [1, 128]
0	0x3c1752a7	0.009236014
1	0xbc8dc655	-0.017306486
2	0x3bbcca33	0.0057614087
3	0x3bc10fc1	0.0058917706
4	0xbbf0a558	-0.0073439293
5	0xba7680b8	-0.0009403336
6	0xbc3d0fa4	-0.011539374
7	0x3c802683	0.015643364
8	0x3a116247	0.00055459555
9	0x3b3ce7d8	0.0028824713
10	0xbc260fc1	-0.010135592
11	0x3be12932	0.006871366
12	0x3c162d78	0.009166114
13	0x3c39a4cb	0.011330794
14	0xbbbbf943	-0.0057365014
15	0xbc4dea85	-0.012568121
16	0x3b66ba9b	0.003520644
17	0xba92891b	-0.0011179777
18	0x3c125bd7	0.008933029
19	0xbbd42b80	-0.006474912
20	0x3ad38392	0.0016137233
21	0xbc90df07	-0.017684473
22	0xbb3641f8	-0.0027810317
23	0x3c89e95c	0.016834907
24	0x3b105c5b	0.0022027704
25	0x3bba630c	0.005688077
26	0x3c99c27d	0.018769497
27	0x3c0497de	0.008092849
28	0x3b071a31	0.0020614977
29	0x3bfbfe9d	0.0076902644
30	0x3c36d4b7	0.011159114
31	0x3b8dcc75	0.0043273517
32	0xbc2c5ff1	-0.010520921
33	0x3be9d4e7	0.0071359756
34	0xbba7e467	-0.005123663
35	0x3c1da1f6	0.009621134
36	0x3b6a5c15	0.0035760452
37	0x3b3ff049	0.0029287508
38	0xbb202bf5	-0.0024440263
39	0xbc028d6f	-0.007968291
40	0xba90ce38	-0.0011047786
41	0x3b5de212	0.0033856672
42	0x3bc0cb30	0.005883597
43	0x3c75c07f	0.014999508
44	0x3c2b720f	0.010464205
45	0x3c1916ca	0.009343812
46	0x3c05fbb6	0.008177688
47	0x3c443d00	0.011977434
48	0x3c51b4a2	0.012799414
49	0x3c2e7adb	0.010649408
50	0x3b9086e6	0.0044106124
51	0xbc190e38	-0.009341769
52	0xbc600f23	-0.013675484
53	0xbbec9215	-0.007219563
54	0xbc337931	-0.010954187
55	0xbb8efbb3	-0.004363501
56	0x3b491dd0	0.0030687936
57	0x3c6be823	0.014398607
58	0x3c582bbd	0.013194022
59	0xbc1f5603	-0.009725097
60	0xbc010cd7	-0.007876596
61	0x3c51cd23	0.012805256
62	0x3c4d3255	0.012524207
63	0x3c2e696f	0.0106452545
64	0x3c3f8c07	0.0116911
65	0x3bee4b4b	0.007272159
66	0x3add6595	0.0016891236
67	0x39949b57	0.00028344497
68	0xbbe30b13	-0.0069288104
69	0xbc0147da	-0.007890666
70	0x383c054f	4.4827637e-05
71	0xbc4c9e4a	-0.012488911
72	0x3bd4f16f	0.0064985077
73	0xbc242b9b	-0.010020162
74	0xbc6a5e78	-0.01430475
75	0xb9f3b133	-0.00046480595
76	0xba56d977	-0.0008195857
77	0x3a8c64a0	0.0010711141
78	0xbb1c917c	-0.0023890426
79	0x3b99b99b	0.0046913153
80	0x3c43781a	0.01193049
81	0xbb221153	-0.0024729564
82	0x3bbab363	0.005697654
83	0xbc853281	-0.016259434
84	0x3b3e5aaf	0.002904575
85	0x3b9a576a	0.0047101276
86	0x3b9e5c2f	0.0048327665
87	0xbc4289ec	-0.011873703
88	0xb9418206	-0.00018454352
89	0xbbf04717	-0.0073326933
90	0xbc8ccacf	-0.01718655
91	0xbc000d67	-0.007815695
92	0x3c9564fb	0.018236628
93	0x3b20d9d9	0.002454391
94	0xb9d4fef5	-0.0004062575
95	0x3c9e19ec	0.01929947
96	0xbadf1b3f	-0.001702167
97	0xbc372cc7	-0.011180109
98	0xbb983908	-0.0046454705
99	0xbbf02e15	-0.007329712
100	0x3c7138b2	0.01472299
101	0xba6fe9d3	-0.0009151969
102	0xbb84a4d1	-0.004047968
103	0x3c2a68fb	0.010401006
104	0x3b775bca	0.003774392
105	0x3b391609	0.0028241894
106	0xbb1af78e	-0.002364609
107	0x3c35fe13	0.011107939
108	0xbba74f10	-0.0051058605
109	0xbbb152bd	-0.0054114745
110	0x3a1ea6be	0.0006052068
111	0x3bc730fd	0.006078838
112	0xbbc5d5c1	-0.0060374443
113	0x3bc97deb	0.006149044
114	0x3bc4400f	0.0059890817
115	0x3b0ae7da	0.0021195323
116	0xbb23b4d7	-0.0024979615
117	0x3c191237	0.009342722
118	0xbbb7b898	-0.005606722
119	0x3ac606e8	0.0015108259
120	0x3a65bb33	0.00087635516
121	0xb98cfe37	-0.00026892286
122	0xbbfe0bad	-0.0077528567
123	0xbb19bb9f	-0.0023457778
124	0xbc234653	-0.009965497
125	0x3b6c003a	0.0036010877
126	0xba064e8f	-0.00051234005
127	0xbca84d6c	-0.02054473

network_body._body_endoder.seq_layers.0.bias f4 [128]
0	0x00000000	0.0
1	0x00000000	0.0
2	0x00000000	0.0
3	0x00000000	0.0
4	0x00000000	0.0
5	0x00000000	0.0
6	0x00000000	0.0
7	0x00000000	0.0
8	0x00000000	0.0
9	0x00000000	0.0
10	0x00000000	0.0
11	0x00000000	0.0
12	0x00000000	0.0
13	0x00000000	0.0
14	0x00000000	0.0
15	0x00000000	0.0
16	0x00000000	0.0
17	0x00000000	0.0
18	0x00000000	0.0
19	0x00000000	0.0
20	0x00000000	0.0
21	0x00000000	0.0
22	0x00000000	0.0
23	0x00000000	0.0
24	0x00000000	0.0
25	0x00000000	0.0
26	0x00000000	0.0
27	0x00000000	0.0
28	0x00000000	0.0
29	0x00000000	0.0
30	0x00000000	0.0
31	0x00000000	0.0
32	0x00000000	0.0
33	0x00000000	0.0
34	0x00000000	0.0
35	0x00000000	0.0
36	0x00000000	0.0
37	0x00000000	0.0
38	0x00000000	0.0
39	0x00000000	0.0
40	0x00000000	0.0
41	0x00000000	0.0
42	0x00000000	0.0
43	0x00000000	0.0
44	0x00000000	0.0
45	0x00000000	0.0
46	0x00000000	0.0
47	0x00000000	0.0
48	0x00000000	0.0
49	0x00000000	0.0
50	0x00000000	0.0
51	0x00000000	0.0
52	0x00000000	0.0
53	0x00000000	0.0
54	0x00000000	0.0
55	0x00000000	0.0
56	0x00000000	0.0
57	0x00000000	0.0
58	0x00000000	0.0
59	0x00000000	0.0
60	0x00000000	0.0
61	0x00000000	0.0
62	0x00000000	0.0
63	0x00000000	0.0
64	0x00000000	0.0
65	0x00000000	0.0
66	0x00000000	0.0
67	0x00000000	0.0
68	0x00000000	0.0
69	0x00000000	0.0
70	0x00000000	0.0
71	0x00000000	0.0
72	0x00000000	0.0
73	0x00000000	0.0
74	0x00000000	0.0
75	0x00000000	0.0
76	0x00000000	0.0
77	0x00000000	0.0
78	0x00000000	0.0
79	0x00000000	0.0
80	0x00000000	0.0
81	0x00000000	0.0
82	0x00000000	0.0
83	0x00000000	0.0
84	0x00000000	0.0
85	0x00000000	0.0
86	0x00000000	0.0
87	0x00000000	0.0
88	0x00000000	0.0
89	0x00000000	0.0
90	0x00000000	0.0
91	0x00000000	0.0
92	0x00000000	0.0
93	0x00000000	0.0
94	0x00000000	0.0
95	0x00000000	0.0
96	0x00000000	0.0
97	0x00000000	0.0
98	0x00000000	0.0
99	0x00000000	0.0
100	0x00000000	0.0
101	0x00000000	0.0
102	0x00000000	0.0
103	0x00000000	0.0
104	0x00000000	0.0
105	0x00000000	0.0
106	0x00000000	0.0
107	0x00000000	0.0
108	0x00000000	0.0
109	0x00000000	0.0
110	0x00000000	0.0
111	0x00000000	0.0
112	0x00000000	0.0
113	0x00000000	0.0
114	0x00000000	0.0
115	0x00000000	0.0
116	0x00000000	0.0
117	0x00000000	0.0
118	0x00000000	0.0
119	0x00000000	0.0
120	0x00000000	0.0
121	0x00000000	0.0
122	0x00000000	0.0
123	0x00000000	0.0
124	0x00000000	0.0
125	0x00000000	0.0
126	0x00000000	0.0
127	0x00000000	0.0

network_body._body_endoder.seq_layers.0.weight f4 [128, 1]
0	0xbf1b5740	-0.6068001
1	0x3fac5299	1.3462707
2	0x3dc94307	0.098272376
3	0xbebc15f2	-0.36735493
4	0x3ec0fc97	0.3769271
5	0x3f78d86d	0.9720524
6	0x3e73e777	0.23818766
7	0xbefa0cd6	-0.48837918
8	0xbed8bf89	-0.4233363
9	0xbfc9d5ca	-1.5768368
10	0x3f0ea932	0.5572692
11	0xbf543e7a	-0.8290783
12	0x3fb84f8c	1.4399276
13	0x3ee8c5ab	0.4546331
14	0xbd843136	-0.06454699
15	0x3ff1e08e	1.8896654
16	0xbefe3c0e	-0.49655193
17	0xbea4659e	-0.32108778
18	0xbf33f530	-0.70296
19	0xbf31cb7a	-0.69451106
20	0x3ecd8c6d	0.401462
21	0x3e1b4cdd	0.1516604
22	0xc0141daa	-2.3143106
23	0x3f23e663	0.6402342
24	0x3e4218fe	0.18954846
25	0xbefb93d3	-0.49136218
26	0xbf8fec1e	-1.1243932
27	0x3f9e1316	1.2349575
28	0x3fe250cb	1.7680906
29	0x3fd3ad9b	1.6537355
30	0x3e8154b8	0.25259948
31	0xbf005608	-0.50131273
32	0x3ea1889e	0.31549543
33	0xbf34dbc2	-0.70647824
34	0xbe75526c	-0.23957223
35	0xbe96973a	-0.29412252
36	0xbf9ded55	-1.2338053
37	0xbf084656	-0.53232324
38	0x3e240ac2	0.16019729
39	0xbeb755fe	-0.35807794
40	0xbeeb3469	-0.45938423
41	0x3f863139	1.0483772
42	0x3f667753	0.90025824
43	0x3edc1f49	0.4299262
44	0xbeb9cce8	-0.36289144
45	0x3f3935fd	0.72348005
46	0x3e110898	0.14163435
47	0x3f9f20b0	1.243185
48	0xbeefd600	-0.46842957
49	0x3f272423	0.65289515
50	0xbdae6be1	-0.0851667
51	0x3fab7747	1.3395776
52	0x3feb21f7	1.836974
53	0x3f188e1c	0.5959184
54	0xbf458c91	-0.7716761
55	0x3dde1c0a	0.10845192
56	0xbf386f4f	-0.72044843
57	0xbf779639	-0.96713597
58	0xbf2fa878	-0.6861644
59	0x3ebe590b	0.3717731
60	0xbf1101e2	-0.566435
61	0xbf968432	-1.1759093
62	0xbfd64cf8	-1.6742239
63	0x3f2bc3a8	0.6709542
64	0x3e4da320	0.20081758
65	0xc001130e	-2.016788
66	0x3e1a133c	0.150464
67	0x3d2c6696	0.04209002
68	0x3f5ab731	0.8543578
69	0xbfc755ef	-1.55731
70	0x3e1c6112	0.15271404
71	0x3e182201	0.14856721
72	0xbf1f2c86	-0.6217731
73	0x3f2c506b	0.6731021
74	0x3de9fb40	0.11424875
75	0xbfbac932	-1.459265
76	0xbf44accb	-0.7682616
77	0x3f5606a6	0.83603895
78	0x3f918d2f	1.1371211
79	0x3f881d53	1.0633949
80	0x3e82bc86	0.25534457
81	0x3f1440ad	0.5791119
82	0x3fd714df	1.6803244
83	0xbe04d1a9	-0.12970604
84	0xbf7b2645	-0.9810527
85	0xbf1dda3f	-0.6166114
86	0xbe2b7665	-0.16744383
87	0xbfc0b0f8	-1.5054007
88	0xbf8056fc	-1.0026546
89	0x401c117a	2.4385667
90	0xbfc863fc	-1.5655513
91	0xbf00bbc8	-0.5028653
92	0x3f732113	0.9497234
93	0x3ed0530a	0.40688354
94	0xbe07ef0e	-0.13274786
95	0xbe143285	-0.14472397
96	0xbf282278	-0.65677595
97	0xbf969df4	-1.1766953
98	0xbe869aed	-0.26290074
99	0x3f3125d9	0.69198376
100	0x3f4952b7	0.7864184
101	0xbfab1451	-1.3365575
102	0x3ea1a524	0.31571305
103	0xbeb497ae	-0.35271972
104	0x3deacaa1	0.1146443
105	0x3ccced3c	0.025015466
106	0x3fafcc56	1.3734233
107	0x3f21b871	0.6317206
108	0xbf87ccbc	-1.0609355
109	0x401b82d3	2.4298599
110	0x3f9ca196	1.2236812
111	0xbd4b8306	-0.0496855
112	0xbf8c1be4	-1.0946012
113	0x3cafbbb2	0.021451805
114	0x3f205907	0.62635845
115	0x3e5baf3b	0.21453564
116	0x3fd9a483	1.700333
117	0x3f42e162	0.76125157
118	0xbe6ccb3f	-0.23124407
119	0x3f0a0585	0.5391467
120	0xbdebbd67	-0.11510735
121	0x3fb26dc7	1.3939751
122	0x3f3234db	0.696119
123	0x3e8e0c6a	0.27743846
124	0x3f3798f9	0.7171779
125	0x3f4c2964	0.7975066
126	0xbdd3048b	-0.10303601
127	0x3e43ddf9	0.19127645

network_body._body_endoder.seq_layers.2.bias f4 [128]
0	0x00000000	0.0
1	0x00000000	0.0
2	0x00000000	0.0
3	0x00000000	0.0
4	0x00000000	0.0
5	0x00000000	0.0
6	0x00000000	0.0
7	0x00000000	0.0
8	0x00000000	0.0
9	0x00000000	0.0
10	0x00000000	0.0
11	0x00000000	0.0
12	0x00000000	0.0
13	0x00000000	0.0
14	0x00000000	0.0
15	0x00000000	0.0
16	0x00000000	0.0
17	0x00000000	0.0
18	0x00000000	0.0
19	0x00000000	0.0
20	0x00000000	0.0
21	0x00000000	0.0
22	0x00000000	0.0
23	0x00000000	0.0
24	0x00000000	0.0
25	0x00000000	0.0
26	0x00000000	0.0
27	0x00000000	0.0
28	0x00000000	0.0
29	0x00000000	0.0
30	0x00000000	0.0
31	0x00000000	0.0
32	0x00000000	0.0
33	0x00000000	0.0
34	0x00000000	0.0
35	0x00000000	0.0
36	0x00000000	0.0
37	0x00000000	0.0
38	0x00000000	0.0
39	0x00000000	0.0
40	0x00000000	0.0
41	0x00000000	0.0
42	0x00000000	0.0
43	0x00000000	0.0
44	0x00000000	0.0
45	0x00000000	0.0
46	0x00000000	0.0
47	0x00000000	0.0
48	0x00000000	0.0
49	0x00000000	0.0
50	0x00000000	0.0
51	0x00000000	0.0
52	0x00000000	0.0
53	0x00000000	0.0
54	0x00000000	0.0
55	0x00000000	0.0
56	0x00000000	0.0
57	0x00000000	0.0
58	0x00000000	0.0
59	0x00000000	0.0
60	0x00000000	0.0
61	0x00000000	0.0
62	0x00000000	0.0
63	0x00000000	0.0
64	0x00000000	0.0
65	0x00000000	0.0
66	0x00000000	0.0
67	0x00000000	0.0
68	0x00000000	0.0
69	0x00000000	0.0
70	0x00000000	0.0
71	0x00000000	0.0
72	0x00000000	0.0
73	0x00000000	0.0
74	0x00000000	0.0
75	0x00000000	0.0
76	0x00000000	0.0
77	0x00000000	0.0
78	0x00000000	0.0
79	0x00000000	0.0
80	0x00000000	0.0
81	0x00000000	0.0
82	0x00000000	0.0
83	0x00000000	0.0
84	0x00000000	0.0
85	0x00000000	0.0
86	0x00000000	0.0
87	0x00000000	0.0
88	0x00000000	0.0
89	0x00000000	0.0
90	0x00000000	0.0
91	0x00000000	0.0
92	0x00000000	0.0
93	0x00000000	0.0
94	0x00000000	0.0
95	0x00000000	0.0
96	0x00000000	0.0
97	0x00000000	0.0
98	0x00000000	0.0
99	0x00000000	0.0
100	0x00000000	0.0
101	0x00000000	0.0
102	0x00000000	0.0
103	0x00000000	0.0
104	0x00000000	0.0
105	0x00000000	0.0
106	0x00000000	0.0
107	0x00000000	0.0
108	0x00000000	0.0
109	0x00000000	0.0
110	0x00000000	0.0
111	0x00000000	0.0
112	0x00000000	0.0
113	0x00000000	0.0
114	0x00000000	0.0
115	0x00000000	0.0
116	0x00000000	0.0
117	0x00000000	0.0
118	0x00000000	0.0
119	0x00000000	0.0
120	0x00000000	0.0
121	0x00000000	0.0
122	0x00000000	0.0
123	0x00000000	0.0
124	0x00000000	0.0
125	0x00000000	0.0
126	0x00000000	0.0
127	0x00000000	0.0

network_body._body_endoder.seq_layers.2.weight f4 [128, 128]
0	0x3d30647c	0.04306458
1	0xbd1a9cd1	-0.037747208
2	0x3b858213	0.004074344
3	0x3db582b7	0.088628225
4	0x3caa0185	0.020752678
5	0xbc89d7c4	-0.016826518
6	0xbde5e593	-0.112254284
7	0x3d234837	0.03986379
8	0x3ddb4439	0.10706372
9	0x3b35edb4	0.002776009
10	0xbe0b91df	-0.13629864
11	0x3da52735	0.08064119
12	0xbc63d40b	-0.013905535
13	0x3e3a4b53	0.18192796
14	0x3cc0f82b	0.023555836
15	0xbc7311b3	-0.014835763
16	0x3df9c2cf	0.1219536
17	0xbd39bcea	-0.045346178
18	0xbd1031c7	-0.03520372
19	0xbd050784	-0.03247787
20	0xbd8a5926	-0.06755285
21	0xbccf8364	-0.025331207
22	0xbb8f9e86	-0.004382911
23	0x3c20296e	0.009775503
24	0xbe07c60d	-0.13259144
25	0xbde3d0f5	-0.1112384
26	0x3dd27502	0.10276224
27	0x3e58a420	0.21156359
28	0x3dc82df2	0.097743884
29	0x3dcd7c26	0.10033445
30	0x3d451d17	0.048123445
31	0xbd3180ac	-0.0433356
32	0x3dd0684d	0.10176144
33	0xbda965c2	-0.08271362
34	0x3c4c2b1e	0.012461452
35	0xbd14e529	-0.036351357
36	0xbc4a26b0	-0.012338325
37	0xbe20cbab	-0.15702693
38	0x3cbe546a	0.023233611
39	0xbd910bc2	-0.07082321
40	0x3d99c4ba	0.07508226
41	0xbbbb924e	-0.005724228
42	0xbe1e1908	-0.15439236
43	0xbd48b40d	-0.048999835
44	0x3d9ecb61	0.07753635
45	0xbd9de281	-0.07709218
46	0x3d965fcc	0.073424906
47	0x3dd14af7	0.102193765
48	0x3d65826d	0.056032587
49	0xbce346b3	-0.027743673
50	0x3d5c5d26	0.05379977
51	0x3e1f97d0	0.15585256
52	0x3c7fc605	0.015611176
53	0xbc585729	-0.013204374
54	0xbc590acf	-0.013247206
55	0x3c38651a	0.011254573
56	0xbdf8f505	-0.12156109
57	0xbc232926	-0.009958541
58	0x3d2ef7de	0.042716853
59	0x3e10e0f4	0.14148313
60	0xbd60c0ee	-0.054871492
61	0xbc8b6ee6	-0.017020654
62	0x3db3d802	0.087814346
63	0x3d89d8fe	0.06730841
64	0x3dd6dfdc	0.104919165
65	0x3da1b2e6	0.0789545
66	0xbc2f6d97	-0.010707281
67	0xbdc2970b	-0.095014654
68	0x3ba9dedd	0.005184038
69	0xbc865034	-0.016395666
70	0xbd8fca84	-0.07021049
71	0x3cd828c4	0.026386626
72	0x3cccb825	0.02499015
73	0x3e0767a9	0.13223137
74	0xbcb6275f	-0.02223557
75	0xbb37912b	-0.002801011
76	0xbda43b4a	-0.08019121
77	0x3e15a5ee	0.14614078
78	0xbdf966f6	-0.12177841
79	0x3c38a9a4	0.011270914
80	0x3e122ce6	0.1427494
81	0xbe1a7575	-0.15083869
82	0xbcc03a40	-0.023465276
83	0x3d358fc2	0.04432655
84	0xbd3f8f9a	-0.04676781
85	0x3d3680f4	0.044556573
86	0xbcd6e270	-0.02623102
87	0x3e0284dc	0.12745994
88	0xbd7e03ea	-0.06201545
89	0x3d1fd60c	0.03902249
90	0xbc6852d7	-0.014179907
91	0x3e283d23	0.16429572
92	0x3df76599	0.12079925
93	0x3db44b33	0.088034056
94	0xbd1e4c89	-0.03864721
95	0xbde4a621	-0.11164499
96	0x3d6e8325	0.058230538
97	0xbc51ed12	-0.01281287
98	0x3dc76167	0.09735375
99	0xbd912e3c	-0.07088897
100	0x3a85f9ef	0.0010221581
101	0xbd898539	-0.06714863
102	0xbd58a386	-0.052890323
103	0x3e19af3e	0.15008256
104	0x3dfbaf36	0.12289278
105	0xbdb7eaba	-0.089803174
106	0x3aff1e74	0.0019464032
107	0x3cfe0854	0.03100983
108	0xbcc01dc0	-0.023451686
109	0x3d046726	0.032324933
110	0x3c4b05c2	0.0123915095
111	0x3c02bbc7	0.00797934
112	0xbdffe46a	-0.124947384
113	0x3e0c410d	0.1369669
114	0xbd4c5e93	-0.04989488
115	0xbde2747e	-0.11057375
116	0x3de7c9ba	0.11317773
117	0x3d51211a	0.05105696
118	0x3ce7a3e1	0.028276386
119	0xbd0cf5b5	-0.034414012
120	0xbb919459	-0.0044427332
121	0x3d18aac3	0.037272226
122	0x3e06e610	0.131737
123	0x3e427e43	0.18993478
124	0xbc9038a3	-0.017605131
125	0x3cae777c	0.021297209
126	0xbc65c602	-0.0140242595
127	0x3c8d5e0e	0.017256763
128	0x3d59f603	0.05321313
129	0xbc4ded94	-0.01256885
130	0x3ae0bcdd	0.0017146129
131	0xbb34cd29	-0.0027588105
132	0x3e2b12be	0.16706368
133	0x3e19a67e	0.15004918
134	0xbc7fff4c	-0.015624832
135	0x3cca3761	0.02468461
136	0xbd3366fe	-0.043799393
137	0xbdb1f9e7	-0.08690243
138	0xbcdae468	-0.02672024
139	0x3e2ddfab	0.16979854
140	0xbd65ecd9	-0.05613408
141	0x3c878b5c	0.016545944
142	0xbe2aeb50	-0.16691327
143	0x3dec5086	0.11538796
144	0x3d4348bc	0.047676787
145	0xbda8e35f	-0.082464926
146	0xbce80fb9	-0.02832781
147	0xbcf4ac32	-0.029867265
148	0x3bc10b72	0.005891257
149	0x3baab868	0.005209971
150	0xbda714bc	-0.08158252
151	0xbdfeaea7	-0.12435656
152	0x3dd3d4d3	0.103433274
153	0x3e28f8c1	0.16501142
154	0xbcfbb2ac	-0.030724846
155	0x3d4b4a90	0.049631655
156	0xbd91ea37	-0.07124751
157	0xbd538dab	-0.051648777
158	0xbc897587	-0.016779674
159	0x3dbf5241	0.093418606
160	0xbe12c091	-0.14331271
161	0xbe32407c	-0.17407411
162	0xbd538288	-0.051638156
163	0x3d901e75	0.07037059
164	0xbcb9a671	-0.022662373
165	0x3d238018	0.03991708
166	0xbe322e0e	-0.17400381
167	0x3be873ef	0.0070938985
168	0xbde5d1e8	-0.11221677
169	0xbd6cedab	-0.057843845
170	0xbba5c356	-0.0050586862
171	0xbd6b7683	-0.05748607
172	0xbe5b92cd	-0.21442719
173	0xbc9b3913	-0.018948114
174	0xbcf2991c	-0.029614024
175	0xbc6a2f57	-0.014293513
176	0x3e4a3955	0.19748433
177	0xbd7b0c14	-0.061290815
178	0x3d4f3193	0.050584387
179	0x3e007912	0.12546185
180	0xbdd5866d	-0.1042603
181	0x3dea850b	0.11451157
182	0xbc9ebcbe	-0.019377109
183	0x3de52389	0.111884184
184	0xbde878a6	-0.11351137
185	0xbd97f63e	-0.07420014
186	0xbd8a146e	-0.06742178
187	0x3da16302	0.07880212
188	0xbc1c7914	-0.009550352
189	0xbd486c72	-0.048931547
190	0xbcd79152	-0.026314411
191	0x3c98a80e	0.018634822
192	0x3c0681b9	0.008209639
193	0xbd802f7b	-0.06259056
194	0x3d493e89	0.049131904
195	0x3d091275	0.033464868
196	0x3d561362	0.05226458
197	0xbdd7a89c	-0.105302066
198	0x3d1ee33e	0.038790934
199	0xbdcf8fb6	-0.101348326
200	0x3d723acd	0.059138108
201	0xbd99ba10	-0.07506192
202	0xbd4b85a6	-0.049688004
203	0x3d0e170b	0.034689944
204	0x3c7ecf83	0.015552404
205	0xbc1a91ab	-0.009434144
206	0x3d422d84	0.04740669
207	0x3cafaa5c	0.021443538
208	0xbdea204f	-0.114319436
209	0x3e27b85c	0.16378921
210	0x3e01678a	0.12637153
211	0x3d1c9157	0.038224544
212	0xbd6e1414	-0.058124617
213	0xbd70dc86	-0.058804058
214	0xbd4b317a	-0.04960773
215	0xbcae3223	-0.021264141
216	0xbbc1406d	-0.0058975727
217	0x3db2c91b	0.08729764
218	0xbbc1598f	-0.005900569
219	0xbe18428a	-0.14869133
220	0xbc08e448	-0.008355208
221	0xbd9769f2	-0.07393254
222	0xbd61efc4	-0.0551603
223	0x3ce86220	0.028367102
224	0xbda13ca4	-0.078728944
225	0x3d8beee5	0.06832675
226	0x3d6b791b	0.057488542
227	0xbdb93a2c	-0.090442985
228	0x3e05de60	0.1307311
229	0x3d903b92	0.07042612
230	0x3d4c5569	0.04988614
231	0x3bab978d	0.005236572
232	0x3ca959e4	0.020672746
233	0x3c961f11	0.01832536
234	0x3da83e95	0.082150616
235	0x3eb070e0	0.34461117
236	0x3e037f65	0.12841566
237	0x3e1122a9	0.14173378
238	0xbda16126	-0.07879858
239	0xbb7df5f6	-0.003875134
240	0xbe354a4c	-0.17704123
241	0x3d6fc164	0.05853404
242	0xbc8d972a	-0.017283995
243	0xbc8a7ddb	-0.016905716
244	0xbd850136	-0.064943716
245	0x3ce7ad5f	0.028280912
246	0x3de797fe	0.11308287
247	0x3c4f1e8e	0.012641562
248	0x3ca764f1	0.020433875
249	0x3c8df724	0.01732976
250	0xbe247c13	-0.16062956
251	0x3d9288e3	0.07155015
252	0xbdbb8ca3	-0.09157684
253	0xbd2c5801	-0.042076115
254	0x3dc18671	0.09449471
255	0x3da807f4	0.08204642
