Assets/ML-Agents/Examples/FirstTRexScene/results/trmodel/My Behavior/My Behavior-640.pt (torch, 411191 bytes, 12 tensors)

network_body._body_endoder.seq_layers.0.weight f4 [128, 243]
000000 ff b8 46 3d f7 04 fb bc 1f fa 05 3c 83 f5 85 3d
       0.04851627 -0.030642016 0.008177309 0.06540968
000010 d5 25 00 bd 65 9e c9 bd f9 77 59 bd e6 de 4c 3b
       -0.03128608 -0.098446645 -0.05309293 0.0031260788
000020 f8 3b ec 3d 3d 83 98 3c 62 f4 0f 3d 53 12 9b bb
       0.11534876 0.018617267 0.03514517 -0.004732409
000030 30 39 ac bd 9d b4 ba bc 94 fe 2d 3c c1 3d 90 3a
       -0.08409345 -0.022791201 0.010619778 0.0011004732
000040 b8 65 49 bc 3a 87 75 bd a2 ad 7d 3d bb 81 47 3b
       -0.012292318 -0.059943415 0.061933167 0.0030442316
000050 f8 ee b8 3d f3 ea c2 3c ce 83 96 bd 31 bb 3b 3c
       0.09029955 0.023793673 -0.073493585 0.011458204
000060 90 9d 31 3d 34 6a da bb f9 af 42 3c e6 ce f3 bd
       0.043363154 -0.0066654924 0.011882775 -0.11904697
000070 85 7b da bc d4 09 e8 bd f3 55 8b 3b 91 83 4a bd
       -0.026670227 -0.113299996 0.0042521893 -0.049441878
000080 e6 cf 01 3e 68 39 ae 3d da a1 17 3b e5 df bf bd
       0.12676963 0.08507043 0.0023137243 -0.09368876
000090 cf 17 04 3c 3a c9 ba bd 81 78 28 3c 77 5e 9f 3c
       0.008062317 -0.09120412 0.010282637 0.019454224
0000a0 56 e0 22 be cf 5a 9a bc 4f f4 68 bd 85 20 21 bc
       -0.1590589 -0.018842129 -0.056873616 -0.009834413
0000b0 9f 17 b3 bc 6c 26 6f 3d 28 97 3a 3d c0 d1 1e 3d
       -0.02186185 0.05838625 0.04555431 0.038774252
0000c0 63 57 07 be ad 15 88 bd 7c cd 1c 3d 66 27 b6 3c
       -0.13216929 -0.06644759 0.038281903 0.022235584
0000d0 84 e0 54 3d f7 ca 3e bd 12 a8 b2 3c 2b 9d cc 3a
       0.051971927 -0.04658028 0.021808658 0.0015610805
0000e0 c7 f0 c4 3c 2b 9e e0 39 8b 77 d3 3c d8 2c c0 3c
       0.024040593 0.00042842454 0.025813838 0.023458883
0000f0 7e 08 a4 3d 8e d6 f6 bd cb 73 19 bc bc 8d 3d 3c
       0.08009432 -0.12052642 -0.009365986 0.011569437
000100 83 18 99 bd 81 b9 54 bd 56 f7 bd 3c 36 63 00 be
       -0.07475378 -0.051934723 0.023189228 -0.12537846
000110 11 c8 95 bb 7b 31 cc 3d 76 30 a2 bd a6 60 f3 bd
       -0.004570969 0.09970375 -0.079193994 -0.118836686
000120 a0 9e b3 3d 51 a2 34 3b 4b 24 cc bd b5 5b a0 bc
       0.0877049 0.0027562568 -0.0996786 -0.01957498
000130 2f ca 2d bd 2e c5 f9 bb 9b 92 c3 3b f5 10 9a bd
       -0.042429145 -0.0076223826 0.0059684045 -0.075227655
000140 34 5a ba bd 38 48 ac bd 46 53 74 3d 2a 3a b9 bd
       -0.09099236 -0.08412212 0.05964973 -0.09044297
000150 fd b2 87 ba 6a 30 3f 3b 7d 31 da bb dc 24 63 bd
       -0.0010353025 0.0029173144 -0.0066587315 -0.055455074
000160 e5 7d 5b 3d e2 70 b1 bd 74 59 8f bd 6f f5 2b bd
       0.05358686 -0.08664109 -0.06999484 -0.04198211
000170 b9 c8 38 bd e0 81 b7 bc 4d 85 0b 3d 28 7e ec bd
       -0.0451133 -0.022400796 0.034062672 -0.115475
000180 52 45 10 3d 4d 67 2c 39 c7 c3 9e bd 01 29 b6 bc
       0.03522236 0.00016441681 -0.07752185 -0.022236349
000190 86 46 a0 bc 87 6e 99 bd 4b 98 45 3d 65 c3 b5 3d
       -0.019564878 -0.074917845 0.04824094 0.08875159
0001a0 06 fc 11 be 06 d2 ba 3d f0 23 c0 3d 03 ab 97 bd
       -0.14256296 0.0912209 0.093818545 -0.07405665
0001b0 ae 45 be bc 77 5b b3 bc 77 68 d3 3c 66 e9 78 bd
       -0.023226585 -0.0218942 0.025806649 -0.06076946
0001c0 9e 22 83 bd 9c 50 4e be c9 ee e9 bd 07 bc cb bd
       -0.06403087 -0.20147938 -0.11422498 -0.09947973
0001d0 89 b9 76 bd 29 ef 61 3d 70 85 4f bd 02 ea 57 3b
       -0.060235534 0.05515972 -0.050664365 0.0032945876
0001e0 48 7e ad bc d6 f7 4f bd 84 00 29 bd 78 5a 8b bc
       -0.02117838 -0.050773464 -0.041260257 -0.017010912
0001f0 15 07 40 3a cf 01 c8 3d f0 5e b6 bd bd 60 e6 3d
       0.0007325274 0.0976597 -0.08904827 0.1124892
000200 34 94 52 3d 38 3b b9 bc 53 90 0f 3e f8 2c ca 3c
       0.05141087 -0.022611246 0.14019899 0.024679646
000210 b2 3a fe 3d 7a 13 ab bd 6f db 0e 3c 5f d5 88 3d
       0.12413539 -0.08353324 0.008719309 0.06681322
000220 e1 aa a4 3b 74 e6 36 3d af 8f 7d 3d 7a bf 5f 3c
       0.005025253 0.04465337 0.061904605 0.013656491
000230 b0 99 2f bd f6 c2 45 3d de 75 82 3d cf 0c a9 bc
       -0.042871177 0.048281632 0.06370138 -0.02063599
000240 66 f0 c6 3b d2 2c 85 bc cf 7c dd 3c 38 ba b8 bd
       0.006071138 -0.016256724 0.027037052 -0.090198934
000250 88 de f3 3c d4 c7 30 bd 9b 41 3c 3d f3 86 71 bd
       0.029769197 -0.04315932 0.045961004 -0.05896659
000260 b0 4e b3 3d 26 e4 d2 bd 66 c0 cb 3d 3a b3 59 bd
       0.08755243 -0.10297422 0.099488065 -0.05314944
000270 ac 86 8c bd 20 ef 30 3d f0 56 14 bd 86 6f 1a 3e
       -0.06861624 0.043196797 -0.036215723 0.15081605
000280 13 52 e5 3d da 15 86 3d bd 1e 85 bd 1c 95 d2 bc
       0.11197295 0.065471366 -0.065000035 -0.025705867
000290 01 2c b1 bd 59 4b e8 bc 7c ab 88 bd e2 61 dd 3a
       -0.08650971 -0.028356241 -0.06673333 0.0016890133
0002a0 31 da fb 3d f4 f1 bc bc 52 e6 76 bd f8 98 06 3d
       0.12297476 -0.023064591 -0.060278244 0.032860726
0002b0 b5 11 8b 3d f7 53 99 3d 5d 7f d7 3d 46 d8 e1 bd
       0.06790487 0.07486718 0.105223395 -0.11027579
0002c0 49 00 10 be 01 82 0b 3d c3 4e 32 bb 24 c1 de bd
       -0.14062609 0.03405953 -0.002720759 -0.108766824
0002d0 db 0e 06 bd 2e f4 04 bd d1 09 5e 3d 2d 8a 82 3d
       -0.03272901 -0.03245943 0.05420858 0.06374011
0002e0 f4 5b 31 bd 70 c6 e2 bc 95 8b ab bc 9b 96 df bd
       -0.043300584 -0.027682513 -0.020940581 -0.109173976
0002f0 a7 c7 0b bd c6 d9 92 bc 40 76 97 3d 5f 59 fa bc
       -0.03412595 -0.017926108 0.07395601 -0.030560194
000300 9b 28 e2 bd 95 4e 07 3e 3c 5d 97 bd 81 ed 23 3d
       -0.11042901 0.1321357 -0.0739083 0.040021423
000310 da 33 0e be 63 d5 ed bd 38 e1 78 3d 93 f1 91 bc
       -0.13886967 -0.11612966 0.06076166 -0.017815387
000320 eb 79 c6 3c 9d 9f 88 3c ed b9 c9 3d b1 32 d1 bd
       0.024228057 0.016677672 0.09849916 -0.10214747
000330 2f 69 08 3a db bd a8 bd 6f 61 9b 3d 49 1c e2 3d
       0.0005203662 -0.08239337 0.07586943 0.11040551
000340 ed 91 c1 3c c3 40 94 bc d8 70 c4 3d f3 43 b9 3d
       0.023629153 -0.018097287 0.09591836 0.090461634
000350 9f 9e 03 3e d2 6b e3 bd 54 d3 ce 3d e9 87 5a bd
       0.12853478 -0.111045495 0.100989014 -0.05335227
000360 16 3d 06 bc 9d 11 8a 3d 5e 91 87 bc 93 64 18 bd
       -0.008193275 0.06741641 -0.016548809 -0.03720529
000370 ef 59 e3 3d d8 32 ad bd 39 b9 29 3d 61 32 6d bc
       0.11101138 -0.08456963 0.041436408 -0.014477343
000380 7c 9b 00 3d d4 e8 b1 bd 7e 32 aa 3d c9 8f c8 bd
       0.03139828 -0.086869866 0.08310412 -0.0979305
000390 56 5d 09 3b ad e8 09 3d 98 b5 a3 bd 52 ba 1a 3d
       0.0020960174 0.033669163 -0.07993621 0.037775345
0003a0 45 b0 90 3c eb 00 6e 3d ed 49 39 bb 15 08 fd 3d
       0.017662177 0.058106344 -0.0028272823 0.12355057
0003b0 1d 71 ad 3d 5f 2e 36 bd 4b 26 63 bc 0c 15 12 bd
       0.0846884 -0.044477817 -0.01386411 -0.035664603
0003c0 6a 88 80 bc ef 1f 37 3d 80 26 8c bc 00 63 30 bc
       -0.015690047 0.04470819 -0.017108202 -0.010765791
0003d0 41 4c c1 bd 1c 21 3c 3c 60 c6 b1 bd 0c dc 10 bc
       -0.094383724 0.011482503 -0.08680415 -0.008841526
0003e0 80 9d 18 be 1b 15 79 bc 7b 96 97 3c f0 4e 3c 3d
       -0.14903831 -0.015202786 0.018504372 0.04597372
0003f0 4f fc b8 3b 02 cc 6f bd a2 b1 26 bc c1 81 d2 3c
       0.005645312 -0.058544166 -0.010174187 0.025696637

network_body._body_endoder.seq_layers.0.bias f4 [128]
000000 00 00 00 00 00 00 00 00 00 00 00 00 00 00 00 00
       0.0 0.0 0.0 0.0
000010 00 00 00 00 00 00 00 00 00 00 00 00 00 00 00 00
       0.0 0.0 0.0 0.0
000020 00 00 00 00 00 00 00 00 00 00 00 00 00 00 00 00
       0.0 0.0 0.0 0.0
000030 00 00 00 00 00 00 00 00 00 00 00 00 00 00 00 00
       0.0 0.0 0.0 0.0
000040 00 00 00 00 00 00 00 00 00 00 00 00 00 00 00 00
       0.0 0.0 0.0 0.0
000050 00 00 00 00 00 00 00 00 00 00 00 00 00 00 00 00
       0.0 0.0 0.0 0.0
000060 00 00 00 00 00 00 00 00 00 00 00 00 00 00 00 00
       0.0 0.0 0.0 0.0
000070 00 00 00 00 00 00 00 00 00 00 00 00 00 00 00 00
       0.0 0.0 0.0 0.0
000080 00 00 00 00 00 00 00 00 00 00 00 00 00 00 00 00
       0.0 0.0 0.0 0.0
000090 00 00 00 00 00 00 00 00 00 00 00 00 00 00 00 00
       0.0 0.0 0.0 0.0
0000a0 00 00 00 00 00 00 00 00 00 00 00 00 00 00 00 00
       0.0 0.0 0.0 0.0
0000b0 00 00 00 00 00 00 00 00 00 00 00 00 00 00 00 00
       0.0 0.0 0.0 0.0
0000c0 00 00 00 00 00 00 00 00 00 00 00 00 00 00 00 00
       0.0 0.0 0.0 0.0
0000d0 00 00 00 00 00 00 00 00 00 00 00 00 00 00 00 00
       0.0 0.0 0.0 0.0
0000e0 00 00 00 00 00 00 00 00 00 00 00 00 00 00 00 00
       0.0 0.0 0.0 0.0
0000f0 00 00 00 00 00 00 00 00 00 00 00 00 00 00 00 00
       0.0 0.0 0.0 0.0
000100 00 00 00 00 00 00 00 00 00 00 00 00 00 00 00 00
       0.0 0.0 0.0 0.0
000110 00 00 00 00 00 00 00 00 00 00 00 00 00 00 00 00
       0.0 0.0 0.0 0.0
000120 00 00 00 00 00 00 00 00 00 00 00 00 00 00 00 00
       0.0 0.0 0.0 0.0
000130 00 00 00 00 00 00 00 00 00 00 00 00 00 00 00 00
       0.0 0.0 0.0 0.0
000140 00 00 00 00 00 00 00 00 00 00 00 00 00 00 00 00
       0.0 0.0 0.0 0.0
000150 00 00 00 00 00 00 00 00 00 00 00 00 00 00 00 00
       0.0 0.0 0.0 0.0
000160 00 00 00 00 00 00 00 00 00 00 00 00 00 00 00 00
       0.0 0.0 0.0 0.0
000170 00 00 00 00 00 00 00 00 00 00 00 00 00 00 00 00
       0.0 0.0 0.0 0.0
000180 00 00 00 00 00 00 00 00 00 00 00 00 00 00 00 00
       0.0 0.0 0.0 0.0
000190 00 00 00 00 00 00 00 00 00 00 00 00 00 00 00 00
       0.0 0.0 0.0 0.0
0001a0 00 00 00 00 00 00 00 00 00 00 00 00 00 00 00 00
       0.0 0.0 0.0 0.0
0001b0 00 00 00 00 00 00 00 00 00 00 00 00 00 00 00 00
       0.0 0.0 0.0 0.0
0001c0 00 00 00 00 00 00 00 00 00 00 00 00 00 00 00 00
       0.0 0.0 0.0 0.0
0001d0 00 00 00 00 00 00 00 00 00 00 00 00 00 00 00 00
       0.0 0.0 0.0 0.0
0001e0 00 00 00 00 00 00 00 00 00 00 00 00 00 00 00 00
       0.0 0.0 0.0 0.0
0001f0 00 00 00 00 00 00 00 00 00 00 00 00 00 00 00 00
       0.0 0.0 0.0 0.0

network_body._body_endoder.seq_layers.2.weight f4 [128, 128]
000000 74 4d 89 3d b5 86 d6 bd ef c5 22 3e dd c7 e8 bd
       0.06704226 -0.10474912 0.15895818 -0.11366246
000010 37 ce 10 bd 9b c4 1f bd cc 55 07 3d cb 31 be bb
       -0.03535291 -0.039005857 0.033040807 -0.0058042756
000020 19 68 e7 bd 7e 72 86 bd 8f c0 07 be fb 63 27 bc
       -0.11299152 -0.065648064 -0.13257049 -0.010216708
000030 86 03 cb bc d2 dd ee 3d 38 a0 0c be 0b 84 22 bd
       -0.024781954 0.116634026 -0.13732994 -0.039676707
000040 c6 7b bb 3d b6 d4 5c 3d b9 ca dc bd 2c 76 c0 3d
       0.09154467 0.053913794 -0.10780854 0.093975395
000050 14 b1 04 bd 25 dc 31 bd d4 83 c3 bc 41 5a aa bb
       -0.032395437 -0.043422837 -0.023866571 -0.0051987474
000060 15 43 68 bd 6d f1 06 3e c8 df 5e 3d 54 c1 83 bc
       -0.0567046 0.13178034 0.054412633 -0.016083397
000070 e5 e8 18 be c3 83 2d 3d ee f5 49 bc fd d6 18 3d
       -0.14932592 0.042361986 -0.012326701 0.037314404
000080 d8 9e 36 3d 92 36 d5 bb 84 25 ba 3c 57 8d 3c 3d
       0.04458508 -0.0065067494 0.022722967 0.04603323
000090 76 98 8e 3e ff 36 e9 bd 76 2b 68 bd 37 75 9a bb
       0.27850693 -0.11387443 -0.056682073 -0.00471368
0000a0 a4 bc c4 bd c8 97 f8 3d 35 50 0b 3e 4c 23 76 bc
       -0.09606293 0.12138325 0.13604815 -0.015023064
0000b0 63 d1 3e bc f0 9f 87 3d 02 bb 7a bd f4 0a d6 3c
       -0.011646601 0.066223025 -0.0612135 0.02612827
0000c0 9e f3 4f bc a3 27 a6 bb 5d 17 fd 3d a3 c6 66 bc
       -0.01269236 -0.005070643 0.12357972 -0.014085445
0000d0 48 91 85 3d aa 03 ab bc 5f b7 c2 bd 16 0f c9 bd
       0.06521851 -0.02087577 -0.095076315 -0.098173305
0000e0 a2 62 55 3d ec 1d 13 3e bd a3 c0 3d 7b 1d 95 bd
       0.052096017 0.14366883 0.094062306 -0.072810136
0000f0 97 45 13 3e b6 85 3b 3e c7 df cc 3d 46 81 5a bd
       0.14382015 0.18312725 0.1000362 -0.05334594
000100 47 fb 4b bc 8a d5 4c 3e 40 51 32 bd de a9 8d bd
       -0.012450046 0.20003334 -0.043534517 -0.06917165
000110 1b 16 a9 bc 9b 2c b0 bd 81 46 d3 3c cc af a3 bc
       -0.020640424 -0.08602258 0.025790455 -0.019981287
000120 76 88 68 3d c5 85 21 bc 34 59 07 bd 94 92 11 be
       0.056770764 -0.009858553 -0.033044055 -0.14216071
000130 89 68 1c 3e 42 0e 91 bd 22 95 94 bd 37 00 f8 3d
       0.15274252 -0.070827976 -0.07255007 0.12109416
000140 96 4c 46 3d 08 ba e8 bc 97 16 8c 3d bf d9 3e be
       0.04841288 -0.02840902 0.06840246 -0.18637751
000150 ea 89 2a bc eb 9e 79 3d 4d 40 6e 3d 8c 54 0d 3d
       -0.010408858 0.06094257 0.05816679 0.03450446
000160 85 72 be 3d 55 b7 85 3d 72 35 a2 3d bc 7c b1 3d
       0.092991866 0.065291084 0.0792035 0.08666369
000170 3e 6f 79 bc 3b d5 0c 3c be 34 96 3d 81 7c 0f bd
       -0.015224276 0.00859576 0.073342785 -0.035030846
000180 71 de 8d bd 2a 0b cc 3d cf 8d 1f 3e 06 60 e6 3c
       -0.06927193 0.09963067 0.1558144 0.02812196
000190 c0 e3 04 bc ac 4e 3e be e3 0d 0e bc 9f ce a2 bd
       -0.00811094 -0.18584698 -0.008670303 -0.07949566
0001a0 4d e7 e3 ba 0c 82 3b bd e8 71 4e 3c 1e 3b d3 3c
       -0.0017387659 -0.04577832 0.0126004 0.025785025
0001b0 28 2c 74 3d 01 7f f1 3d 5e e2 f6 bb 3d 03 22 be
       0.059612423 0.11791802 -0.0075343093 -0.15821548
0001c0 15 bd bb 3d f1 e3 87 bd 3f 21 33 bd 04 62 37 3e
       0.09166924 -0.06635273 -0.043732878 0.17908484
0001d0 bb 7c db bd e6 06 c3 3c 8c 9f 13 bd 24 0d c9 3d
       -0.1071715 0.023807 -0.036040828 0.098169595
0001e0 3c 13 41 bd d2 f4 4a bd 0e da cf 3a a6 8a ac 3c
       -0.047137484 -0.049549885 0.0015857832 0.021062206
0001f0 de 62 87 3c c6 f3 99 3d e3 a0 ca 3c 3d 8b dc bd
       0.016526636 0.07517199 0.02473492 -0.10768745
000200 61 b9 96 bd 4f b0 41 3d 45 51 86 3c 3b 2f 5d 3d
       -0.07359577 0.04728728 0.016396174 0.05400012
000210 24 a8 03 3e bc 34 b0 3c e7 34 f5 bc 7e 0e 22 3c
       0.1285711 0.02150952 -0.029932452 0.0098911505
000220 35 34 3f bc cc 64 a4 bd ab 94 83 bd bb b2 db bd
       -0.011670162 -0.08027038 -0.064248405 -0.107274495
000230 de ec 9c 3d 77 c4 58 bd 52 39 71 3d a3 2a ad bc
       0.07662366 -0.05292174 0.058892556 -0.021138495
000240 4d 57 fd 3c cd 93 1b bc 01 e4 f7 3c 2f 5a 66 bd
       0.030925417 -0.009495688 0.030260088 -0.05623835
000250 26 90 9f 3c e4 8b c9 3c bf 76 10 bc 79 ae 1d bd
       0.019477915 0.024602838 -0.008817374 -0.03849647
000260 59 84 7b 3c dc 4c d0 3c 01 58 54 bd 66 3c 20 bd
       0.015351378 0.025427274 -0.05184174 -0.0391201
000270 dc d3 52 bd c4 10 a6 3d d1 dc 50 3e 53 10 b3 3d
       -0.051471576 0.081086665 0.20396735 0.08743348
000280 fc 09 f6 bd 96 e6 d7 3d dd ef 58 bd 91 3d d4 3d
       -0.12013623 0.10542028 -0.052963126 0.10363305
000290 94 b6 84 bd 78 ca 1c 3e 8c 59 49 bd 2f 71 1b 3e
       -0.064801365 0.1531161 -0.049157664 0.15179895
0002a0 7b d9 52 3d 36 61 dc bd c7 68 a1 bd 88 a1 a3 bd
       0.051476937 -0.10760729 -0.07881313 -0.07989794
0002b0 5e c5 60 be f8 bf e3 bd 45 53 1a 3d 97 eb 1e be
       -0.2195029 -0.111205995 0.03767707 -0.15519558
0002c0 ce 11 36 3d 9d f0 0d 3c 63 2d da bd 6e fc dd 3d
       0.044450574 0.008663324 -0.10653188 0.10839163
0002d0 ef f3 07 3e 8d 9a c5 3d 2a 4b ac 3d a4 dd 0b bc
       0.13276647 0.09648619 0.08412774 -0.00853673
0002e0 0b e9 d5 bd 92 f2 30 bc 1b 0f 26 bc e5 02 3a 3e
       -0.1044484 -0.010800021 -0.010135437 0.18165167
0002f0 15 e3 96 3d 39 b5 a2 3d c1 99 30 3d e0 1c f7 bc
       0.07367531 0.07944722 0.04311538 -0.030165136
000300 16 fd af bd dd e4 86 3d 88 53 a5 bc 1f d3 92 bd
       -0.08593194 0.06586621 -0.020181432 -0.071691744
000310 f3 3a 05 bd a5 38 23 3e 5b ad 69 bd 60 52 17 bd
       -0.03252692 0.15939577 -0.05705009 -0.036943793
000320 16 ed dd bc 39 5f 4f bc b6 3c b0 3d 35 b4 74 3d
       -0.02709059 -0.01265698 0.0860533 0.05974217
000330 f3 98 4b bd d0 a1 63 bd fa ec 2e 3d 4c 67 0a be
       -0.04970641 -0.05557424 0.042706467 -0.13515967
000340 81 0c 64 3d dc a3 48 3d e8 b0 1b bd 33 f4 a7 3a
       0.055675987 0.048984393 -0.038010508 0.0012813866
000350 d6 9d bc 3d f4 52 82 bd 9a 86 6f 3d a1 8b f9 3c
       0.09209792 -0.06363478 0.058477975 0.030462088
000360 1c c4 fc bd b3 b6 b0 3c 63 30 76 bd 95 e4 42 3d
       -0.123420924 0.021571493 -0.06010474 0.047581274
000370 37 c6 8e 3d bb f7 1e bc 61 24 17 bc e6 19 5f 3d
       0.069714 -0.009702618 -0.009224982 0.054468058
000380 a3 c7 cd 3c d1 48 d2 3d 46 0d 33 3c 2d b4 7e bc
       0.025119608 0.10267795 0.010928458 -0.015545887
000390 ab aa 99 bd 7e b5 fc bd 0b bd 42 3c 1d 2e ce bd
       -0.075032555 -0.123393044 0.011885892 -0.10067389
0003a0 b7 db 83 bb 03 29 48 bd 8b 94 f8 bd 97 63 a6 3d
       -0.004023995 -0.048867237 -0.12137707 0.08124464
0003b0 d0 9f 86 bd bc 03 d0 3c fc 8d 8e bd 4d 9e b2 3d
       -0.065734506 0.025392406 -0.06960675 0.087216
0003c0 64 26 ea bc 80 e9 1f 3d 7c cb 33 be 86 d9 38 bd
       -0.02858276 0.039041042 -0.17558092 -0.04512932
0003d0 05 91 1b be 34 bf 87 ba b6 ca fb 3d 60 1e ff 3d
       -0.1519204 -0.0010356666 0.122945234 0.124569654
0003e0 53 3a e1 3d 28 86 43 bd 98 f6 c1 3d a5 1c b6 3c
       0.109974526 -0.047735363 0.09470862 0.022230456
0003f0 b6 ec 51 bd b3 f8 d1 3d dd c2 11 3e 72 fc c4 bc
       -0.051251136 0.10252514 0.1423449 -0.024046157

network_body._body_endoder.seq_layers.2.bias f4 [128]
000000 00 00 00 00 00 00 00 00 00 00 00 00 00 00 00 00
       0.0 0.0 0.0 0.0
000010 00 00 00 00 00 00 00 00 00 00 00 00 00 00 00 00
       0.0 0.0 0.0 0.0
000020 00 00 00 00 00 00 00 00 00 00 00 00 00 00 00 00
       0.0 0.0 0.0 0.0
000030 00 00 00 00 00 00 00 00 00 00 00 00 00 00 00 00
       0.0 0.0 0.0 0.0
000040 00 00 00 00 00 00 00 00 00 00 00 00 00 00 00 00
       0.0 0.0 0.0 0.0
000050 00 00 00 00 00 00 00 00 00 00 00 00 00 00 00 00
       0.0 0.0 0.0 0.0
000060 00 00 00 00 00 00 00 00 00 00 00 00 00 00 00 00
       0.0 0.0 0.0 0.0
000070 00 00 00 00 00 00 00 00 00 00 00 00 00 00 00 00
       0.0 0.0 0.0 0.0
000080 00 00 00 00 00 00 00 00 00 00 00 00 00 00 00 00
       0.0 0.0 0.0 0.0
000090 00 00 00 00 00 00 00 00 00 00 00 00 00 00 00 00
       0.0 0.0 0.0 0.0
0000a0 00 00 00 00 00 00 00 00 00 00 00 00 00 00 00 00
       0.0 0.0 0.0 0.0
0000b0 00 00 00 00 00 00 00 00 00 00 00 00 00 00 00 00
       0.0 0.0 0.0 0.0
0000c0 00 00 00 00 00 00 00 00 00 00 00 00 00 00 00 00
       0.0 0.0 0.0 0.0
0000d0 00 00 00 00 00 00 00 00 00 00 00 00 00 00 00 00
       0.0 0.0 0.0 0.0
0000e0 00 00 00 00 00 00 00 00 00 00 00 00 00 00 00 00
       0.0 0.0 0.0 0.0
0000f0 00 00 00 00 00 00 00 00 00 00 00 00 00 00 00 00
       0.0 0.0 0.0 0.0
000100 00 00 00 00 00 00 00 00 00 00 00 00 00 00 00 00
       0.0 0.0 0.0 0.0
000110 00 00 00 00 00 00 00 00 00 00 00 00 00 00 00 00
       0.0 0.0 0.0 0.0
000120 00 00 00 00 00 00 00 00 00 00 00 00 00 00 00 00
       0.0 0.0 0.0 0.0
000130 00 00 00 00 00 00 00 00 00 00 00 00 00 00 00 00
       0.0 0.0 0.0 0.0
000140 00 00 00 00 00 00 00 00 00 00 00 00 00 00 00 00
       0.0 0.0 0.0 0.0
000150 00 00 00 00 00 00 00 00 00 00 00 00 00 00 00 00
       0.0 0.0 0.0 0.0
000160 00 00 00 00 00 00 00 00 00 00 00 00 00 00 00 00
       0.0 0.0 0.0 0.0
000170 00 00 00 00 00 00 00 00 00 00 00 00 00 00 00 00
       0.0 0.0 0.0 0.0
000180 00 00 00 00 00 00 00 00 00 00 00 00 00 00 00 00
       0.0 0.0 0.0 0.0
000190 00 00 00 00 00 00 00 00 00 00 00 00 00 00 00 00
       0.0 0.0 0.0 0.0
0001a0 00 00 00 00 00 00 00 00 00 00 00 00 00 00 00 00
       0.0 0.0 0.0 0.0
0001b0 00 00 00 00 00 00 00 00 00 00 00 00 00 00 00 00
       0.0 0.0 0.0 0.0
0001c0 00 00 00 00 00 00 00 00 00 00 00 00 00 00 00 00
       0.0 0.0 0.0 0.0
0001d0 00 00 00 00 00 00 00 00 00 00 00 00 00 00 00 00
       0.0 0.0 0.0 0.0
0001e0 00 00 00 00 00 00 00 00 00 00 00 00 00 00 00 00
       0.0 0.0 0.0 0.0
0001f0 00 00 00 00 00 00 00 00 00 00 00 00 00 00 00 00
       0.0 0.0 0.0 0.0

action_model._continuous_distribution.log_sigma f4 [1, 39]
000000 00 00 00 00 00 00 00 00 00 00 00 00 00 00 00 00
       0.0 0.0 0.0 0.0
000010 00 00 00 00 00 00 00 00 00 00 00 00 00 00 00 00
       0.0 0.0 0.0 0.0
000020 00 00 00 00 00 00 00 00 00 00 00 00 00 00 00 00
       0.0 0.0 0.0 0.0
000030 00 00 00 00 00 00 00 00 00 00 00 00 00 00 00 00
       0.0 0.0 0.0 0.0
000040 00 00 00 00 00 00 00 00 00 00 00 00 00 00 00 00
       0.0 0.0 0.0 0.0
000050 00 00 00 00 00 00 00 00 00 00 00 00 00 00 00 00
       0.0 0.0 0.0 0.0
000060 00 00 00 00 00 00 00 00 00 00 00 00 00 00 00 00
       0.0 0.0 0.0 0.0
000070 00 00 00 00 00 00 00 00 00 00 00 00 00 00 00 00
       0.0 0.0 0.0 0.0
000080 00 00 00 00 00 00 00 00 00 00 00 00 00 00 00 00
       0.0 0.0 0.0 0.0
000090 00 00 00 00 00 00 00 00 00 00 00 00
       0.0 0.0 0.0

action_model._continuous_distribution.mu.weight f4 [39, 128]
000000 e3 b9 82 3c ca f0 5b bc d8 68 e6 bc a4 69 b1 bc
       0.015957778 -0.013424108 -0.028126165 -0.021656819
000010 bf b4 80 3c 03 9d 9e 3b 7b 7e 19 3c 0a ea 12 3d
       0.015711186 0.0048404946 0.009368534 0.03586773
000020 25 06 df bb 07 64 9f bc 73 9e 00 3c 57 3e 99 bc
       -0.0068061524 -0.019456876 0.007850277 -0.018706484
000030 77 37 92 bc e2 0f 08 3d 19 45 3c 3c 55 dd 51 bc
       -0.017848713 0.033218272 0.011491084 -0.012809117
000040 74 5b 89 3c 43 ba 0d 3d 77 b1 a2 bc 17 59 1a 3d
       0.016767241 0.03460146 -0.019860012 0.03768262
000050 17 29 93 bb d5 f6 2c 3c 93 f2 75 bb 21 1d 86 3c
       -0.0044909823 0.010556896 -0.0037528619 0.016371312
000060 25 24 df 3c f3 92 65 3c b7 f6 4f 3a b2 c5 d4 3b
       0.027238915 0.014012086 0.0007933187 0.0064932937
000070 7f 08 b6 bc 17 fc 58 3c b8 ed 3d 3c 52 28 fd bc
       -0.022220848 0.013243697 0.011592321 -0.030903015
000080 a3 58 60 3a 7f 2e 22 bb 61 f8 00 3c 2f 56 da 3b
       0.000855813 -0.0024746952 0.007871718 0.006663106
000090 df 12 93 3b 38 a3 92 ba 2d 7e d1 3c 92 53 a9 3a
       0.0044883336 -0.0011187559 0.02557286 0.0012918583
0000a0 8b 64 af bc dd 95 b4 3c 2c 95 85 bc 6f ee ed bb
       -0.021410247 0.022044117 -0.016306482 -0.0072610895
0000b0 93 c7 32 bb 0a 62 75 3c 23 ad ed bc 6b fc dc 39
       -0.00272796 0.014976988 -0.029013222 0.00042149736
0000c0 5d 43 6b 3c 6f e7 40 bb 63 ca 8b 3c b2 74 17 bc
       0.014359322 -0.002943482 0.017064279 -0.009244131
0000d0 f8 2d ef bc 14 0b 12 bc 17 f2 cc 3b db f5 8a 3c
       -0.029196724 -0.008913774 0.0062544453 0.016962936
0000e0 b4 4e 1c bd 77 1d 04 3c 92 e9 fd 3b ef 08 03 3d
       -0.038160995 0.008063666 0.007748791 0.03199094
0000f0 a7 a4 ee bc 17 8e c2 3b bd 94 62 3c e1 2e 4c 3c
       -0.029131247 0.0059373486 0.013829407 0.012462349
000100 68 f3 f1 3b 3d 06 e5 3b 1f eb 97 bb 2b 32 14 ba
       0.0073837526 0.006989269 -0.004636183 -0.00056532276
000110 32 61 db 3c ae a7 ae bc 53 0b 90 3b 37 22 e0 3c
       0.026779745 -0.02132019 0.004395881 0.027360065
000120 df 86 b8 3c 96 67 8b bc e5 23 01 3d f4 85 19 3c
       0.022525249 -0.017017167 0.031528372 0.009370316
000130 a3 cc 84 bd 32 1e 20 3a fb 93 0b 3b c6 63 2a 3d
       -0.06484344 0.0006108015 0.002129792 0.041599058
000140 73 c4 b6 bc 6d 93 09 3c 72 a9 07 bd ec ec 84 3a
       -0.022310471 0.008396965 -0.03312058 0.0010141409
000150 11 47 01 bc f5 31 ec bc 58 8f 7c bc 9b 53 cc 3b
       -0.007890479 -0.028832415 -0.015415035 0.0062355525
000160 3a 19 f8 bc 45 eb 81 3c 13 e5 36 bc 6d c1 c2 3c
       -0.030285466 0.015859256 -0.011163014 0.023773873
000170 60 45 fa bc e8 78 21 3d 73 01 c5 3c 43 a8 35 ba
       -0.030550659 0.039421946 0.024048543 -0.0006929675
000180 d1 cf 2d bd 8f 7b 5b bc 9e ee 46 3c a5 76 5a 3c
       -0.042434517 -0.013396158 0.012141852 0.013333951
000190 e9 44 13 3c 5b 8f 9c 3c 50 a6 d4 bc 37 99 50 bc
       0.008988597 0.019111326 -0.02595821 -0.012731842
0001a0 37 86 92 bc 31 0e ab 3b 0f ce 03 3b 1a 2b d2 bb
       -0.017886264 0.0052201976 0.0020111834 -0.0064138295
0001b0 12 e3 05 bd 01 7c 97 3c 40 fa 7c bc 40 dd 86 bc
       -0.032687254 0.018491747 -0.015440524 -0.016462922
0001c0 c7 c9 11 3d bc 34 32 3d d7 ab 43 bd 50 58 dc bc
       0.03559282 0.043507323 -0.0477713 -0.02689758
0001d0 aa f5 3e 3c 43 81 bb 3c 03 8e 4b 3c 49 16 16 bc
       0.011655251 0.022888785 0.012423995 -0.009160587
0001e0 12 31 11 3d 1e f2 c6 3c 55 35 0e 3c bb 51 79 bb
       0.035447188 0.024285372 0.008679708 -0.00380431
0001f0 ba c4 ab bc 0d 81 16 3d be a7 1f 3c b8 e7 56 3c
       -0.02096783 0.036744166 0.009744583 0.0131167695
000200 cf 92 09 3d d7 1a de 3b 7d da 60 3c 21 1c aa 3c
       0.033587273 0.006778102 0.013723967 0.020765366
000210 a2 11 67 3c 66 2f 16 3c 6a 05 5e 3a ce 0a c0 3a
       0.014103325 0.009166574 0.00084694347 0.0014651658
000220 f3 d6 fd 3c 62 1a e5 3b 5b af 0f bc e1 20 cb ba
       0.030986285 0.0069916705 -0.008769835 -0.001549747
000230 93 18 d5 ba a7 bf 1b bb d7 c0 55 bc 44 52 98 3b
       -0.0016257934 -0.0023765357 -0.013046465 0.0046484787
000240 69 ca 3a bc c5 da 3f bc 44 ca c1 3a 93 06 24 3c
       -0.011400797 -0.011709874 0.0014785011 0.010011333
000250 7e f3 b8 3c 25 f6 01 bd e6 4a 2f bd 33 22 c2 3c
       0.022577044 -0.031728882 -0.042796038 0.023697948
000260 c3 ee 30 bb 4b 07 5a bc 32 8a f2 bc 27 b7 6e bc
       -0.0026997782 -0.013307403 -0.029606912 -0.014570034
000270 03 8a 05 bd 25 c9 e4 3b 75 fb e6 3c 70 79 6b 3d
       -0.03260232 0.006981986 0.028196076 0.05748886
000280 0b 4e b7 3b 60 c2 df 3c 90 bf e7 bc 07 41 32 bc
       0.0055940202 0.027314365 -0.028289586 -0.010879762
000290 17 9e c1 3c 5f a1 3d bc 0d 7d b2 bc 19 10 18 3d
       0.023634953 -0.011574118 -0.021788144 0.037124727
0002a0 b7 b0 c0 bb b2 0b 43 3b f7 9b 20 bc 50 2d f3 3c
       -0.005880441 0.002976161 -0.00980281 0.029684693
0002b0 78 38 d0 bc 9b e0 32 3d 21 4d 1d 3b f4 45 0e bc
       -0.025417551 0.04367123 0.0024002271 -0.00868367
0002c0 2e 06 23 bd 06 14 42 3c 70 06 40 3c f5 24 03 bc
       -0.039800815 0.011845594 0.011720285 -0.008004417
0002d0 8b 92 4d bc 04 ea a2 3b 63 38 4a bc b1 85 b7 bc
       -0.012547146 0.0049717445 -0.012342545 -0.022402616
0002e0 71 c6 94 bc f0 15 8d 3b de 39 90 3c c5 91 bd bb
       -0.01816103 0.0043055937 0.017605718 -0.0057851993
0002f0 b2 91 b2 bb 7d 76 1a bc f9 31 92 3c 2b 79 cb 3b
       -0.005449497 -0.009427664 0.017846094 0.0062095127
000300 6c a9 37 3c 7f b2 6f 3c 0f e2 ed bc a2 e2 15 3b
       0.011209827 0.014629959 -0.029038457 0.002287068
000310 af 1d d2 ba e5 b0 93 3b 63 c6 58 bb 54 fd a8 bc
       -0.0016030575 0.0045071715 -0.0033077232 -0.020628609
000320 18 69 3e 3c 63 ac 6e 3b b0 d7 e2 bc 67 5f d0 bc
       0.011621736 0.0036418668 -0.027690738 -0.025436116
000330 a1 d0 b8 3c 85 32 03 3d b8 7b ae bb 7b f1 aa bc
       0.02256042 0.0320306 -0.005324807 -0.0208671
000340 b4 44 87 3c 55 1d e3 b9 77 70 e9 3c ea a7 e0 bc
       0.016512252 -0.00043318668 0.02849601 -0.027423818
000350 d1 a0 2c bb 2a 09 8f 3b ad 4a e0 bb 71 55 19 bb
       -0.0026340971 0.004365106 -0.0068448395 -0.0023396874
000360 c6 3f b9 bb ab 96 f5 bc be f5 95 bc 77 3d 82 bc
       -0.0056533543 -0.02997907 -0.018305656 -0.01589845
000370 17 22 25 3d ab e8 a4 bc bb 1e 98 3b 35 c0 89 bb
       0.040315714 -0.020130476 0.004642335 -0.004203821
000380 df e4 ec 3c 5a 16 da 3b 6b 9c 0a bd 3b 69 1e bc
       0.028917728 0.0066554965 -0.033840578 -0.009668644
000390 df 03 11 3b d3 05 e7 3b 97 1f ab bc b9 69 99 3c
       0.0022127551 0.007050255 -0.020889087 0.01872717
0003a0 90 84 09 3d fd 19 c4 bc 3f 37 9e 3c 85 2d 7b 3b
       0.033573687 -0.023938173 0.019313453 0.0038326692
0003b0 7f 2e be 3a 53 25 0c 3b 66 d1 c3 3c b5 03 27 3c
       0.0014509707 0.0021384552 0.02390356 0.010193755
0003c0 07 1c 7f bb 5d d4 28 3d ca 01 67 b9 0a 04 07 bc
       -0.0038926618 0.04121815 -0.00022030543 -0.008240709
0003d0 cd 0e 53 bc 2f f2 a4 3c eb 2f bd bc 75 04 41 3b
       -0.012881947 0.020135013 -0.023094138 0.002945212
0003e0 46 6c 8d 3c 60 ca c4 bc 6f 0e e1 b9 48 39 34 3c
       0.017263543 -0.024022281 -0.00042926098 0.010999985
0003f0 d4 35 31 3b 57 f4 b3 3c b7 46 34 bc b6 be 4b bd
       0.002704014 0.021967096 -0.011003188 -0.049742423

action_model._continuous_distribution.mu.bias f4 [39]
000000 00 00 00 00 00 00 00 00 00 00 00 00 00 00 00 00
       0.0 0.0 0.0 0.0
000010 00 00 00 00 00 00 00 00 00 00 00 00 00 00 00 00
       0.0 0.0 0.0 0.0
000020 00 00 00 00 00 00 00 00 00 00 00 00 00 00 00 00
       0.0 0.0 0.0 0.0
000030 00 00 00 00 00 00 00 00 00 00 00 00 00 00 00 00
       0.0 0.0 0.0 0.0
000040 00 00 00 00 00 00 00 00 00 00 00 00 00 00 00 00
       0.0 0.0 0.0 0.0
000050 00 00 00 00 00 00 00 00 00 00 00 00 00 00 00 00
       0.0 0.0 0.0 0.0
000060 00 00 00 00 00 00 00 00 00 00 00 00 00 00 00 00
       0.0 0.0 0.0 0.0
000070 00 00 00 00 00 00 00 00 00 00 00 00 00 00 00 00
       0.0 0.0 0.0 0.0
000080 00 00 00 00 00 00 00 00 00 00 00 00 00 00 00 00
       0.0 0.0 0.0 0.0
000090 00 00 00 00 00 00 00 00 00 00 00 00
       0.0 0.0 0.0

network_body._body_endoder.seq_layers.0.weight f4 [128, 243]
000000 39 70 06 3c c5 83 91 3b d9 6f 10 bd aa 00 8a 3c
       0.008205467 0.004440757 -0.035262916 0.01684602
000010 39 b9 74 3d a2 1a 26 3e 02 5a 75 bb 4c d2 cf 3c
       0.059746955 0.16221097 -0.0037437682 0.025368832
000020 f9 3f 1f 3d 96 c6 72 3d e5 ab 00 be 4e cb a9 3d
       0.03887937 0.059271418 -0.12565573 0.082907304
000030 ae ff 26 bd 67 89 8d 3d 89 de 3f bd 67 f5 14 3d
       -0.04077118 0.06910973 -0.046843085 0.036366846
000040 f4 66 d0 ba b1 f1 bc 3d f2 07 f2 3a 17 ad 9a bd
       -0.0015899823 0.092257865 0.0018465503 -0.075525455
000050 b1 b5 37 bd 76 33 cc 3a 70 a7 09 3c 40 a4 6c 3d
       -0.04485101 0.0015579301 0.008401737 0.05777383
000060 57 e7 63 3d 19 ab 73 bd 66 8f 6b 3d 44 25 e9 bc
       0.055640545 -0.059489343 0.057509802 -0.028460152
000070 6e 0d 37 bd 2c 1b 00 bd 97 60 92 bc 0c f6 8c bc
       -0.044690542 -0.031275913 -0.017868323 -0.017207168
000080 77 e1 3c bd 70 1e a2 bd 38 ca 0b 3b 2c 6d 77 3d
       -0.046113458 -0.07915962 0.0021330249 0.06040685
000090 0b 2f a6 bd 4d a4 56 bc cf fc 22 3d 57 4f fd 3c
       -0.081144415 -0.013100696 0.03979188 0.030921621
0000a0 c8 a4 bc 3d 59 cc e0 3d 3a 0c 02 3e ce 35 dc bd
       0.09211117 0.10976476 0.12699977 -0.1075245
0000b0 e2 fa 76 bd 87 9c 75 3b bd 79 1d bd 66 b0 39 be
       -0.060297854 0.003747733 -0.038446177 -0.18133697
0000c0 b6 0e ba 3d 8e 14 3e 3d 36 d1 de bc 76 19 4e 3a
       0.09084837 0.04640632 -0.027199369 0.00078620703
0000d0 e7 cb 03 bc 2d 21 30 bd 5c 3f 63 bc 00 0a ab bd
       -0.00804422 -0.04300039 -0.0138700865 -0.08351517
0000e0 3a d5 95 3d f1 12 2d bd e6 da 0a 3d 58 ae 9f bd
       0.0731606 -0.042254392 0.033900164 -0.07796925
0000f0 f6 ac 32 bc 44 0a a5 3d f9 5b fa 3d 96 a4 3e bd
       -0.010905495 0.08058599 0.12224574 -0.04654368
000100 da a3 2e 3d 6a 56 04 be de 1c 52 3d 0c e8 00 3e
       0.04263673 -0.1292359 0.05129706 0.12588519
000110 7c 1b 30 3c e4 94 a9 3c c9 b9 88 3d b7 42 3d bd
       0.01074874 0.02070088 0.06676061 -0.046206202
000120 93 76 79 3c ac e5 ac 3b 45 72 81 bb e9 96 d5 bd
       0.015226024 0.0052764025 -0.0039503896 -0.104291745
000130 bc 63 1c bd 2f 0a b1 bd a1 d2 a2 3c 9a 71 ac bc
       -0.03818105 -0.086445205 0.019875826 -0.021050263
000140 01 67 8a bb f4 46 75 bd a5 7b c8 bb 92 16 e1 bb
       -0.004223705 -0.05988212 -0.006118255 -0.0068691457
000150 3a 18 84 bd c6 68 e5 bd 7b 3f c1 3c 6a 94 7f 3d
       -0.06449933 -0.112016246 0.02358984 0.062397398
000160 a5 77 d4 3b 16 7b 8a bd 28 76 33 bd 0a 01 aa bd
       0.0064839893 -0.06761758 -0.043813854 -0.083009794
000170 8c 47 1b bc 02 dd e4 3d 76 b0 5e bd a6 af 3f bd
       -0.009477507 0.111749664 -0.054367505 -0.04679837
000180 ec 19 7f 3b 5d da 5e 3c 8f 28 22 3e 52 e0 49 bc
       0.0038925363 0.013601867 0.15835784 -0.012321549
000190 81 99 c3 3a 1d 3d 9e bd 90 e6 83 3c 21 a2 a2 bd
       0.0014923067 -0.077265 0.016101152 -0.0794108
0001a0 62 b0 c3 bb dd 23 8b bd fa 80 86 3d 82 13 37 3d
       -0.005971954 -0.0679395 0.06567569 0.04469634
0001b0 f8 3b 69 bb 50 c3 f2 3c d1 ac c9 3a 3e 16 dc 3c
       -0.0035588723 0.029634148 0.0015386586 0.026866075
0001c0 7e b0 5d 3c 73 ef 0e bd 41 4b 45 3d 63 15 c9 bd
       0.013530849 -0.034896325 0.04816747 -0.09818532
0001d0 44 ee 17 3d 05 21 2b 3d 19 19 f6 3d 47 00 81 3d
       0.037092462 0.041779537 0.12016506 0.06298881
0001e0 b9 df 31 3d 93 f3 85 3d 4f 1b 83 3c 89 da a5 bd
       0.04342625 0.06540599 0.016004233 -0.08098323
0001f0 9e 82 9b bd f7 8e b8 bd 63 bd 28 bd 1f a7 f3 3c
       -0.075932726 -0.090116434 -0.04119624 0.029742775
000200 92 9a ca bd 26 dc 76 3b 88 fb fd bd 00 5b 13 bc
       -0.09892763 0.003766784 -0.124014914 -0.008993864
000210 9f c7 17 bc 3c 97 84 bd 86 80 8d bb 71 d2 4d bd
       -0.009263902 -0.06474158 -0.0043182997 -0.05024952
000220 76 b1 80 bc 52 b6 69 bd 25 52 fd bd ec de 34 bd
       -0.01570962 -0.05705864 -0.123691835 -0.044157907
000230 7c 5a ef bd 07 29 a0 bd 9b 4c eb 3c 82 06 6f 3d
       -0.116871804 -0.07820325 0.028723052 0.058355816
000240 5d 8a ff 3c 80 46 63 3b a3 a8 c8 ba 76 9a f5 3c
       0.031193906 0.0034679472 -0.0015309047 0.02998088
000250 f5 de 9b bc 7b 80 36 3d a5 4f d8 3d bc 82 29 3d
       -0.019027213 0.044556122 0.10562066 0.041384444
000260 f0 30 81 3d 43 f7 49 3d 8d f4 01 3d a7 de 63 bd
       0.06308162 0.049308073 0.031727362 -0.05563226
000270 27 9e 99 3c ec 66 83 3c ba 6c 20 bd 35 32 49 bd
       0.01875217 0.016040288 -0.03916619 -0.049120147
000280 9d 07 aa bd a9 92 82 3d 7b 7a 00 bd 97 09 a4 bd
       -0.08302233 0.063756295 -0.031366806 -0.080096416
000290 31 b5 4f bd 32 92 b2 bc 6d 3a 0d be 45 d9 ba 3d
       -0.050709907 -0.021798227 -0.13791819 0.09123472
0002a0 0c 34 1c 3e 5d b9 e6 bc fe eb b2 bc 5d 86 ed 3c
       0.1525423 -0.02816456 -0.021841045 0.028994733
0002b0 d8 b0 40 3d c3 e4 1c bd 12 ec 87 3c 45 28 70 3d
       0.04704365 -0.0383041 0.01659206 0.058632154
0002c0 67 70 e1 bd 68 4d da 3c dd c5 83 bc 60 09 1c bd
       -0.11007767 0.026648238 -0.01608556 -0.03809488
0002d0 82 76 81 bc 54 16 30 3d 99 49 71 3c 2e be 49 bc
       -0.01580358 0.042990044 0.01472702 -0.012313409
0002e0 b9 9b 2e 3e 5d 16 48 bd 3b d1 02 3d 69 36 9a bc
       0.17051591 -0.048849452 0.03193782 -0.018824773
0002f0 dd 36 a7 3c 45 8f 05 3e 64 00 82 bc 89 b2 31 bd
       0.020411903 0.13042934 -0.015869327 -0.043383155
000300 13 46 f1 3d 48 18 89 bc ab 6b 6d bc cd 85 ad 3d
       0.11780944 -0.016735211 -0.014491002 0.08472786
000310 ca df c6 bd 41 cd 4a 3d cc 14 a9 bd 64 97 b2 bc
       -0.09710653 0.04951215 -0.0825592 -0.021800704
000320 9e 65 4c ba 89 a2 ab 3d 01 3e 03 bd ef 6e 03 bd
       -0.00077971246 0.083806105 -0.032041553 -0.032088216
000330 c4 bd 02 bd cb e8 ff 3c 77 e5 8d 3d d2 ad e5 3b
       -0.031919256 0.031238934 0.069285326 0.0070092464
000340 f5 7d e3 3d 09 9e 0c bd b7 aa 82 bc 75 4e 3a bd
       0.11108009 -0.0343304 -0.015950544 -0.04548498
000350 89 72 4e bd 6c f0 4a bd 2e f9 a4 3c 18 ac c6 3d
       -0.050402198 -0.04954569 0.02013835 0.09700793
000360 9e 6b 98 bc ce ac 96 bd d9 bf eb bc ce 66 bf 3d
       -0.018606003 -0.07357179 -0.028778004 0.0934578
000370 31 69 0b 3d c7 de a6 bd 93 f7 08 3e 74 a8 a8 3c
       0.034035865 -0.0814796 0.13375692 0.020588137
000380 b1 21 56 bd 9c 8c 01 3d 36 e3 b4 3d 2e 5a 9b 3c
       -0.052278224 0.031628236 0.088323995 0.0189639
000390 a4 4d 89 bc ea e3 01 bd 53 8a f6 bb aa 67 73 3b
       -0.016760655 -0.031711496 -0.0075238138 0.0037140646
0003a0 61 1c 09 bd 09 a5 36 bd 8b ee 37 bd a3 ff 0b be
       -0.03347433 -0.044590984 -0.044905227 -0.13671736
0003b0 f2 3f 28 bd 26 cc ad bd f3 b1 54 3d 5f 38 ed bc
       -0.041076608 -0.08486204 0.051927518 -0.028957544
0003c0 e1 31 ff bd 9a b9 cb bc c7 58 b8 bd 25 a1 7a 3d
       -0.124606855 -0.024868775 -0.09001308 0.061188836
0003d0 e3 f5 36 3d 5d f7 bb 3c b0 a2 d2 bd 90 26 89 bd
       0.04466809 0.0229451 -0.102849364 -0.06696808
0003e0 1d 41 16 3d 5b 7d 17 bd e5 af 59 bd a3 31 b3 bc
       0.03668319 -0.036984783 -0.05314626 -0.021874255
0003f0 28 54 a5 3d 24 25 1f bd 8e 9d 33 bd 16 57 55 3d
       0.08072692 -0.03885378 -0.043851428 0.052085005

network_body._body_endoder.seq_layers.0.bias f4 [128]
000000 00 00 00 00 00 00 00 00 00 00 00 00 00 00 00 00
       0.0 0.0 0.0 0.0
000010 00 00 00 00 00 00 00 00 00 00 00 00 00 00 00 00
       0.0 0.0 0.0 0.0
000020 00 00 00 00 00 00 00 00 00 00 00 00 00 00 00 00
       0.0 0.0 0.0 0.0
000030 00 00 00 00 00 00 00 00 00 00 00 00 00 00 00 00
       0.0 0.0 0.0 0.0
000040 00 00 00 00 00 00 00 00 00 00 00 00 00 00 00 00
       0.0 0.0 0.0 0.0
000050 00 00 00 00 00 00 00 00 00 00 00 00 00 00 00 00
       0.0 0.0 0.0 0.0
000060 00 00 00 00 00 00 00 00 00 00 00 00 00 00 00 00
       0.0 0.0 0.0 0.0
000070 00 00 00 00 00 00 00 00 00 00 00 00 00 00 00 00
       0.0 0.0 0.0 0.0
000080 00 00 00 00 00 00 00 00 00 00 00 00 00 00 00 00
       0.0 0.0 0.0 0.0
000090 00 00 00 00 00 00 00 00 00 00 00 00 00 00 00 00
       0.0 0.0 0.0 0.0
0000a0 00 00 00 00 00 00 00 00 00 00 00 00 00 00 00 00
       0.0 0.0 0.0 0.0
0000b0 00 00 00 00 00 00 00 00 00 00 00 00 00 00 00 00
       0.0 0.0 0.0 0.0
0000c0 00 00 00 00 00 00 00 00 00 00 00 00 00 00 00 00
       0.0 0.0 0.0 0.0
0000d0 00 00 00 00 00 00 00 00 00 00 00 00 00 00 00 00
       0.0 0.0 0.0 0.0
0000e0 00 00 00 00 00 00 00 00 00 00 00 00 00 00 00 00
       0.0 0.0 0.0 0.0
0000f0 00 00 00 00 00 00 00 00 00 00 00 00 00 00 00 00
       0.0 0.0 0.0 0.0
000100 00 00 00 00 00 00 00 00 00 00 00 00 00 00 00 00
       0.0 0.0 0.0 0.0
000110 00 00 00 00 00 00 00 00 00 00 00 00 00 00 00 00
       0.0 0.0 0.0 0.0
000120 00 00 00 00 00 00 00 00 00 00 00 00 00 00 00 00
       0.0 0.0 0.0 0.0
000130 00 00 00 00 00 00 00 00 00 00 00 00 00 00 00 00
       0.0 0.0 0.0 0.0
000140 00 00 00 00 00 00 00 00 00 00 00 00 00 00 00 00
       0.0 0.0 0.0 0.0
000150 00 00 00 00 00 00 00 00 00 00 00 00 00 00 00 00
       0.0 0.0 0.0 0.0
000160 00 00 00 00 00 00 00 00 00 00 00 00 00 00 00 00
       0.0 0.0 0.0 0.0
000170 00 00 00 00 00 00 00 00 00 00 00 00 00 00 00 00
       0.0 0.0 0.0 0.0
000180 00 00 00 00 00 00 00 00 00 00 00 00 00 00 00 00
       0.0 0.0 0.0 0.0
000190 00 00 00 00 00 00 00 00 00 00 00 00 00 00 00 00
       0.0 0.0 0.0 0.0
0001a0 00 00 00 00 00 00 00 00 00 00 00 00 00 00 00 00
       0.0 0.0 0.0 0.0
0001b0 00 00 00 00 00 00 00 00 00 00 00 00 00 00 00 00
       0.0 0.0 0.0 0.0
0001c0 00 00 00 00 00 00 00 00 00 00 00 00 00 00 00 00
       0.0 0.0 0.0 0.0
0001d0 00 00 00 00 00 00 00 00 00 00 00 00 00 00 00 00
       0.0 0.0 0.0 0.0
0001e0 00 00 00 00 00 00 00 00 00 00 00 00 00 00 00 00
       0.0 0.0 0.0 0.0
0001f0 00 00 00 00 00 00 00 00 00 00 00 00 00 00 00 00
       0.0 0.0 0.0 0.0

network_body._body_endoder.seq_layers.2.weight f4 [128, 128]
000000 38 79 13 3e 96 d7 2b 3b c0 1b 25 3d 77 b0 32 3d
       0.1440171 0.0026221029 0.040309668 0.04362532
000010 3d d6 7b 3b 51 6c 11 be 59 d1 14 be fa 8e c1 bd
       0.0038427257 -0.14201476 -0.14532985 -0.09451099
000020 95 e2 c9 3c 07 21 ca bd 35 95 38 be c0 37 8d 3c
       0.024644176 -0.09869581 -0.18025668 0.017238498
000030 d3 b6 f1 bb bc b8 23 3d 1a 0c 53 3d 23 00 db bc
       -0.0073765307 0.0399711 0.051525213 -0.026733464
000040 f9 ec 83 bb 30 35 a4 3c 64 e8 3e 3c 25 73 45 be
       -0.004026052 0.020044893 0.011652086 -0.19282205
000050 a1 ed ec 3d 1d 0f 84 3d 0b 3e f5 3d 34 1a 0e be
       0.115687616 0.06448195 0.119747244 -0.13877183
000060 57 42 d5 bd 95 03 08 3c 85 a5 b0 3d 8b 36 1a 3e
       -0.10413044 0.008301635 0.0862532 0.15059869
000070 66 27 4f 3d d0 12 a3 3b ef 7d 54 be ab cc 8e 3d
       0.050574683 0.004976608 -0.20751165 0.06972631
000080 70 c7 b2 3c bb c0 b6 3c ce 40 8f bd 22 e2 9b bd
       0.021823615 0.022308698 -0.069947824 -0.07611491
000090 3e 64 ab 3d d0 8e 4e bb fe 95 0b 3e f3 a1 b9 3d
       0.08368729 -0.0031518228 0.13631436 0.090640925
0000a0 3e 53 af bd a5 de 5a bd 00 8e 41 3c 10 0f 6c bc
       -0.08560799 -0.053434987 0.011813641 -0.014407888
0000b0 0f 98 71 3d 63 6c dc bd 45 ba 3d bc da 70 2e bc
       0.058982905 -0.107628606 -0.011580055 -0.010647023
0000c0 ef 08 b8 bd 0f 90 ab 3d ed 50 ba bd 45 b0 e5 3d
       -0.08986079 0.08377086 -0.090974666 0.11215261
0000d0 2b 75 f1 3d fc 3b ce 3d ba 00 2d bd d2 63 94 3d
       0.11789926 0.10070035 -0.04223702 0.07245602
0000e0 86 08 b6 bd 2a 68 1b 3c 47 85 ac 3c fe 59 0c 3e
       -0.088883445 0.009485284 0.021059645 0.13706204
0000f0 2f a8 aa bd 86 5d 11 bc 6b 01 57 bd da 12 7c bd
       -0.0833286 -0.008872395 -0.052491587 -0.061541416
000100 b9 96 81 3d 02 bf 39 be cf fb 61 bc ab 4b 7b bc
       0.06327576 -0.1813927 -0.013792946 -0.015337865
000110 5b d1 1b bd 06 41 a7 3b 31 31 88 39 2c 61 05 3e
       -0.038041454 0.005104187 0.00025976592 0.1302535
000120 98 72 42 3d 9d 41 85 bd 66 71 80 bd ad e2 be 3d
       0.047472566 -0.06506655 -0.06271629 0.09320579
000130 b1 6c 1a be 4a ab 5d 3c 22 6e a3 3d 9a 59 11 3e
       -0.15080525 0.013529608 0.079799905 0.14194337
000140 63 9c 6e bd 3e e9 78 3d 18 8d e9 3c d8 3d 1b 3e
       -0.05825461 0.060769312 0.028509662 0.1516031
000150 95 3d d8 3b 43 41 df 3d 59 20 e5 bc 92 f1 92 3c
       0.006599138 0.109011196 -0.027969526 0.017937455
000160 af d2 1d 3d 59 03 9b 3d 5e e9 46 bd 4c ca 10 3e
       0.038531 0.07568998 -0.0485624 0.1413967
000170 0d 15 04 bc a8 ae 8b bd 50 14 37 3d 07 68 ca 3c
       -0.0080616595 -0.068204224 0.044697106 0.024707807
000180 42 cb 98 3c 44 b8 e8 bd 0b f3 09 3e 80 41 8b bd
       0.018651608 -0.11363271 0.1347162 -0.067996025
000190 a1 3b 22 be f9 28 21 3d fa dc 38 be 46 8e 86 bd
       -0.15843059 0.039345715 -0.18053046 -0.06570105
0001a0 c0 33 7e bd c7 6b f2 bd 45 fd 84 3c 38 97 7a 3d
       -0.06206107 -0.11836963 0.01623405 0.06117937
0001b0 6d 62 64 be 22 51 9a 3c af a7 30 bd 62 34 92 bd
       -0.22303171 0.018837515 -0.043128666 -0.071388975
0001c0 64 da 3a 3e 2f 56 a4 bd 9f e8 f1 bb 93 cb f7 bc
       0.18247372 -0.08024251 -0.007382467 -0.030248439
0001d0 40 8a 39 bd d1 4b b6 bd 07 a8 4d 3e 31 4b ce bc
       -0.04529786 -0.089011796 0.20083629 -0.025182338
0001e0 28 b0 9a 3d 6e 11 5e 3e 01 86 99 bc e1 fe 02 be
       0.075531304 0.21686336 -0.018740656 -0.12792541
0001f0 3d a8 bf bd 86 31 20 bc 18 a9 61 3e 90 42 34 be
       -0.09358261 -0.009777432 0.2203716 -0.17603517
000200 8f f3 6e bb 72 19 c8 3c dc dd c5 3b e3 da 03 3e
       -0.003646109 0.024426196 0.0060384106 0.12876467
000210 49 80 19 3d c5 c6 cd 3c a1 55 d9 3d c8 1c f0 3d
       0.037475858 0.025119195 0.106120355 0.117242396
000220 8b f1 14 be 85 03 aa bc bc d5 9f 3d 11 d8 e1 3c
       -0.14545266 -0.020753631 0.078044385 0.027568849
000230 cd 04 af 3c eb 1c 20 be 69 ef 76 bd cc 36 8f bd
       0.021364594 -0.15636031 -0.060286913 -0.069928735
000240 3f 65 a6 ba db ac 0a bd eb 36 83 3c 7d f7 e2 bd
       -0.0012694969 -0.033856254 0.016017398 -0.11082361
000250 0c b7 1f 3d 1e cd 04 3c 67 bc 80 bd fc b4 18 bd
       0.038992926 0.008105544 -0.06285935 -0.037281975
000260 05 ef a1 bd 11 66 76 bc 6d 96 48 be f6 05 29 bb
       -0.079069175 -0.015038983 -0.19588633 -0.0025790907
000270 b6 d2 ec 3b 13 2f 4f 3d c7 25 84 bd c3 36 bc 3c
       0.007227267 0.050582003 -0.06452518 0.022975331
000280 a6 ab dd 3d d8 0d 12 3e 9d 4f ea b9 68 10 e2 bd
       0.10823755 0.14263093 -0.00044691275 -0.110382855
000290 ca 5a 04 be 8b 6b 83 3d 2e ca 3f 3b 88 16 17 3d
       -0.12925258 0.064169966 0.0029264796 0.03688672
0002a0 48 49 85 bc ee 28 b8 3c 7d 84 5d 3d cb 15 64 3e
       -0.016270295 0.022480454 0.05408143 0.22273938
0002b0 cf 83 86 3d 9a 97 a6 3c 83 d4 5b bd 98 1e 4b be
       0.06568109 0.020335961 -0.053669464 -0.1983589
0002c0 d7 75 78 bc 89 15 0f bd 9a c3 86 3d b3 21 23 be
       -0.015164814 -0.034932647 0.06580277 -0.15930824
0002d0 57 2f b0 3d c9 77 3a be b0 92 01 bd 90 75 d3 3d
       0.08602779 -0.18209757 -0.031634033 0.10325158
0002e0 6a e2 e3 3c 9d e6 9c 3b 71 dd 9d bd 40 28 e6 3b
       0.027817924 0.0047882334 -0.07708252 0.007023841
0002f0 50 a9 72 3c fe df 25 3d 6d 17 52 3e 83 4d 0d 3c
       0.014810875 0.04049682 0.20516749 0.008624437
000300 2d 4b 23 3d 18 a8 ac bc e1 69 91 bd f1 cb 04 3e
       0.039866615 -0.021076247 -0.07100273 0.12968422
000310 3b 92 6d bd c9 72 67 3d 6e f4 1f be 1d 1c ab bd
       -0.058000784 0.056505952 -0.15620586 -0.083549716
000320 50 21 09 be 33 af 8b bd 05 f2 d3 3d 42 b2 ae 3d
       -0.13391614 -0.06820526 0.10348896 0.08530094
000330 2b 2f 06 3e 18 5f c4 bd 0a 5a 29 3e db 71 88 bd
       0.1310393 -0.0958845 0.16538253 -0.06662341
000340 a1 9b 81 bc b0 8d c8 bd a7 7c 83 3d 1f fb 42 be
       -0.01582128 -0.0979265 0.0642026 -0.19041108
000350 f1 c6 2c bd 51 39 cd 3c 27 00 7a bd e5 78 df bc
       -0.042181913 0.025051745 -0.0610353 -0.027279327
000360 a8 ed 26 3e 93 58 da bd 74 87 82 3d 62 01 11 be
       0.16301596 -0.106614254 0.06373492 -0.14160684
000370 90 94 17 3e 33 8d b2 3c f8 ff 7d 3c 1f 07 0d bd
       0.14802766 0.021795845 0.015502922 -0.03443062
000380 82 70 8e 3e 0f 1a 21 bd 29 b3 c1 bd a8 6d c3 bd
       0.27820212 -0.039331492 -0.09458 -0.095424
000390 fb 4a bb 3d b1 0d 5a bd 9e ea d2 3c 7f cc d5 3c
       0.09145161 -0.053235713 0.02574664 0.026098488
0003a0 a9 2b 0a 3d 02 88 ee bd c6 a6 d2 3c 98 09 dd 3d
       0.033733044 -0.11647035 0.02571429 0.107928455
0003b0 62 2f f5 3a f6 e3 06 3d df c2 ee bd db c8 e0 bd
       0.0018706138 0.032932244 -0.116582625 -0.1097581
0003c0 bb 12 19 3e d0 da 03 3e 9e 85 3f be 16 80 12 be
       0.14948551 0.12876439 -0.18703315 -0.14306673
0003d0 54 e8 ed ba 89 db 76 3c 05 57 9b bb e8 2f 76 bd
       -0.0018150904 0.01506699 -0.004740598 -0.06010428
0003e0 7d e7 58 3d e5 35 b8 bc bc 9c 16 3d 8e e9 d7 bc
       0.05295514 -0.022486636 0.036770567 -0.026356485
0003f0 59 16 28 bd fc 84 2e 3e df e1 8b bd 49 b4 68 3d
       -0.041036937 0.17042917 -0.06830191 0.05681256

network_body._body_endoder.seq_layers.2.bias f4 [128]
000000 00 00 00 00 00 00 00 00 00 00 00 00 00 00 00 00
       0.0 0.0 0.0 0.0
000010 00 00 00 00 00 00 00 00 00 00 00 00 00 00 00 00
       0.0 0.0 0.0 0.0
000020 00 00 00 00 00 00 00 00 00 00 00 00 00 00 00 00
       0.0 0.0 0.0 0.0
000030 00 00 00 00 00 00 00 00 00 00 00 00 00 00 00 00
       0.0 0.0 0.0 0.0
000040 00 00 00 00 00 00 00 00 00 00 00 00 00 00 00 00
       0.0 0.0 0.0 0.0
000050 00 00 00 00 00 00 00 00 00 00 00 00 00 00 00 00
       0.0 0.0 0.0 0.0
000060 00 00 00 00 00 00 00 00 00 00 00 00 00 00 00 00
       0.0 0.0 0.0 0.0
000070 00 00 00 00 00 00 00 00 00 00 00 00 00 00 00 00
       0.0 0.0 0.0 0.0
000080 00 00 00 00 00 00 00 00 00 00 00 00 00 00 00 00
       0.0 0.0 0.0 0.0
000090 00 00 00 00 00 00 00 00 00 00 00 00 00 00 00 00
       0.0 0.0 0.0 0.0
0000a0 00 00 00 00 00 00 00 00 00 00 00 00 00 00 00 00
       0.0 0.0 0.0 0.0
0000b0 00 00 00 00 00 00 00 00 00 00 00 00 00 00 00 00
       0.0 0.0 0.0 0.0
0000c0 00 00 00 00 00 00 00 00 00 00 00 00 00 00 00 00
       0.0 0.0 0.0 0.0
0000d0 00 00 00 00 00 00 00 00 00 00 00 00 00 00 00 00
       0.0 0.0 0.0 0.0
0000e0 00 00 00 00 00 00 00 00 00 00 00 00 00 00 00 00
       0.0 0.0 0.0 0.0
0000f0 00 00 00 00 00 00 00 00 00 00 00 00 00 00 00 00
       0.0 0.0 0.0 0.0
000100 00 00 00 00 00 00 00 00 00 00 00 00 00 00 00 00
       0.0 0.0 0.0 0.0
000110 00 00 00 00 00 00 00 00 00 00 00 00 00 00 00 00
       0.0 0.0 0.0 0.0
000120 00 00 00 00 00 00 00 00 00 00 00 00 00 00 00 00
       0.0 0.0 0.0 0.0
000130 00 00 00 00 00 00 00 00 00 00 00 00 00 00 00 00
       0.0 0.0 0.0 0.0
000140 00 00 00 00 00 00 00 00 00 00 00 00 00 00 00 00
       0.0 0.0 0.0 0.0
000150 00 00 00 00 00 00 00 00 00 00 00 00 00 00 00 00
       0.0 0.0 0.0 0.0
000160 00 00 00 00 00 00 00 00 00 00 00 00 00 00 00 00
       0.0 0.0 0.0 0.0
000170 00 00 00 00 00 00 00 00 00 00 00 00 00 00 00 00
       0.0 0.0 0.0 0.0
000180 00 00 00 00 00 00 00 00 00 00 00 00 00 00 00 00
       0.0 0.0 0.0 0.0
000190 00 00 00 00 00 00 00 00 00 00 00 00 00 00 00 00
       0.0 0.0 0.0 0.0
0001a0 00 00 00 00 00 00 00 00 00 00 00 00 00 00 00 00
       0.0 0.0 0.0 0.0
0001b0 00 00 00 00 00 00 00 00 00 00 00 00 00 00 00 00
       0.0 0.0 0.0 0.0
0001c0 00 00 00 00 00 00 00 00 00 00 00 00 00 00 00 00
       0.0 0.0 0.0 0.0
0001d0 00 00 00 00 00 00 00 00 00 00 00 00 00 00 00 00
       0.0 0.0 0.0 0.0
0001e0 00 00 00 00 00 00 00 00 00 00 00 00 00 00 00 00
       0.0 0.0 0.0 0.0
0001f0 00 00 00 00 00 00 00 00 00 00 00 00 00 00 00 00
       0.0 0.0 0.0 0.0
