Assets/ML-Agents/Examples/FirstTRexScene/results/trmodel/My Behavior/My Behavior-10304.onnx (onnx, 213233 bytes, 7 tensors)

action_model._continuous_distribution.log_sigma f4 [1, 39]
0	0x3c1067db	0.008813824
1	0x3c1067db	0.008813824
2	0x3c1067db	0.008813824
3	0x3c1067db	0.008813824
4	0x3c1067db	0.008813824
5	0x3c1067db	0.008813824
6	0x3c1067db	0.008813824
7	0x3c1067db	0.008813824
8	0x3c1067db	0.008813824
9	0x3c1067db	0.008813824
10	0x3c1067db	0.008813824
11	0x3c1067db	0.008813824
12	0x3c1067db	0.008813824
13	0x3c1067db	0.008813824
14	0x3c1067db	0.008813824
15	0x3c1067db	0.008813824
16	0x3c1067db	0.008813824
17	0x3c1067db	0.008813824
18	0x3c1067db	0.008813824
19	0x3c1067db	0.008813824
20	0x3c1067db	0.008813824
21	0x3c1067db	0.008813824
22	0x3c1067db	0.008813824
23	0x3c1067db	0.008813824
24	0x3c1067db	0.008813824
25	0x3c1067db	0.008813824
26	0x3c1067db	0.008813824
27	0x3c1067db	0.008813824
28	0x3c1067db	0.008813824
29	0x3c1067db	0.008813824
30	0x3c1067db	0.008813824
31	0x3c1067db	0.008813824
32	0x3c1067db	0.008813824
33	0x3c1067db	0.008813824
34	0x3c1067db	0.008813824
35	0x3c1067db	0.008813824
36	0x3c1067db	0.008813824
37	0x3c1067db	0.008813824
38	0x3c1067db	0.008813824

action_model._continuous_distribution.mu.bias f4 [39]
0	0x00000000	0.0
1	0x00000000	0.0
2	0x00000000	0.0
3	0x00000000	0.0
4	0x00000000	0.0
5	0x00000000	0.0
6	0x00000000	0.0
7	0x00000000	0.0
8	0x00000000	0.0
9	0x00000000	0.0
10	0x00000000	0.0
11	0x00000000	0.0
12	0x00000000	0.0
13	0x00000000	0.0
14	0x00000000	0.0
15	0x00000000	0.0
16	0x00000000	0.0
17	0x00000000	0.0
18	0x00000000	0.0
19	0x00000000	0.0
20	0x00000000	0.0
21	0x00000000	0.0
22	0x00000000	0.0
23	0x00000000	0.0
24	0x00000000	0.0
25	0x00000000	0.0
26	0x00000000	0.0
27	0x00000000	0.0
28	0x00000000	0.0
29	0x00000000	0.0
30	0x00000000	0.0
31	0x00000000	0.0
32	0x00000000	0.0
33	0x00000000	0.0
34	0x00000000	0.0
35	0x00000000	0.0
36	0x00000000	0.0
37	0x00000000	0.0
38	0x00000000	0.0

action_model._continuous_distribution.mu.weight f4 [39, 128]
0	0xbc30841f	-0.010773688
1	0xb8f62bd5	-0.000117383584
2	0xbd05df76	-0.032683812
3	0x3be96dad	0.00712367
4	0xbbdc0863	-0.006714867
5	0x3d03cd5f	0.03217828
6	0x3d0013cb	0.031268876
7	0x3ceb26e2	0.028705064
8	0x3c647510	0.0139439255
9	0xbcc4b494	-0.024011888
10	0x3c936b89	0.017995613
11	0xbcf950b8	-0.030433998
12	0xbc34dcd3	-0.011038977
13	0x3b6c347b	0.0036042023
14	0xbb1b6117	-0.0023708993
15	0x3cf4af02	0.029868606
16	0xbb93017b	-0.0044862605
17	0x3cda5ac0	0.026654601
18	0x3cfd358a	0.030909318
19	0x3c81320f	0.01577094
20	0x3c00a272	0.00785123
21	0xbc8841cc	-0.016632937
22	0xbba970db	-0.005170924
23	0xbc97c010	-0.0185242
24	0xbca09144	-0.019600518
25	0xbc41b2bb	-0.011822398
26	0x3c362703	0.0111177
27	0x3cb2380e	0.021755245
28	0xbb85d377	-0.0040840465
29	0x3c1d28ad	0.009592217
30	0x3c7f9b07	0.015600926
31	0xbc7e523a	-0.015522534
32	0x3bd89ce0	0.006610498
33	0xbc9e695b	-0.019337347
34	0x3b298f6d	0.0025872842
35	0x3b6f7c37	0.0036542544
36	0xbc92e674	-0.017932154
37	0x3c1c2f7b	0.009532805
38	0xbc1e3f58	-0.009658657
39	0x3c58f07d	0.013240931
40	0xbbd34258	-0.006447118
41	0x3c8061a7	0.015671564
42	0x3b9c90b4	0.004777992
43	0xbc0f837a	-0.008759374
44	0x3c11e544	0.008904759
45	0x3b8701ec	0.004120102
46	0xbb8b27f8	-0.004246708
47	0xbcaa4bd7	-0.020788116
48	0x3cd28685	0.02569891
49	0xbcf6df4a	-0.03013577
50	0xbc37cf97	-0.011218927
51	0x3c4812d9	0.012211525
52	0xbcb6c985	-0.022312889
53	0xbc064ca9	-0.008196988
54	0x3c5df9c3	0.013548317
55	0xbcf40b95	-0.029790679
56	0xbbb95601	-0.0056560044
57	0x3b1880e5	0.0023270187
58	0x3baca247	0.0052683684
59	0x3c787f00	0.015166998
60	0x3ca6d62f	0.020365803
61	0x3ccf5407	0.025308622
62	0xbcea977d	-0.028636688
63	0xbb242dad	-0.002505164
64	0x3af06a28	0.0018342184
65	0xb9e949d3	-0.00044496226
66	0xbc9dcc2a	-0.019262392
67	0xbc6eb588	-0.014569648
68	0x3cbbb3ff	0.022912977
69	0xbc4a7647	-0.012357301
70	0x3c877f2a	0.016540129
71	0xbd12f54c	-0.035878465
72	0xbb2102e3	-0.002456837
73	0xb89b3e5b	-7.4025906e-05
74	0x3d2bfa5b	0.041986804
75	0x3c623655	0.013806899
76	0xbc248c0b	-0.0100431545
77	0x3c311dfc	0.0108103715
78	0xbc6daae5	-0.014506076
79	0x3b2a0949	0.0025945476
80	0xbac2d413	-0.0014864228
81	0xbd3221bb	-0.0434892
82	0x3caa9465	0.020822713
83	0x3c17258c	0.0092252605
84	0x3c8265cf	0.015917687
85	0x3c27ab9d	0.010233787
86	0x3c42c62b	0.011888067
87	0xbc834bbe	-0.016027328
88	0xbad4df88	-0.0016240934
89	0x3ab6e83a	0.0013954707
90	0xbc010219	-0.007874035
91	0xbcbd0194	-0.023072042
92	0xbbcbcad9	-0.0062192497
93	0x3b73707d	0.0037145906
94	0xbc6fbaf3	-0.0146319745
95	0x3ce0e48f	0.027452735
96	0x3c03c055	0.008041461
97	0xbbd2842d	-0.006424448
98	0xbcc283c3	-0.02374447
99	0x3bce55ad	0.0062968344
100	0xb9c3239b	-0.00037219826
101	0x3d400d25	0.046887536
102	0x3b7eb7bb	0.0038866836
103	0x3c5ffaf5	0.013670673
104	0xbcb78297	-0.022401137
105	0x3c195257	0.00935801
106	0x3ca0c1eb	0.019623717
107	0xbc98afcf	-0.01863852
108	0xbc6373ed	-0.013882619
109	0xb9e90ba3	-0.00044449893
110	0xbb3e9aa2	-0.0029083868
111	0xbd14e5d5	-0.036351997
112	0x3cfe1693	0.031016624
113	0xbb3b6b6d	-0.0028597966
114	0xbbd2a545	-0.006428393
115	0x3c9b73fd	0.018976206
116	0xbc75ff9a	-0.015014553
117	0x3cb982fb	0.022645464
118	0x3cd00a12	0.025395427
119	0xbc74e117	-0.014946244
120	0xbab7227a	-0.0013972067
121	0x3c984da8	0.018591717
122	0xbc9bb1b2	-0.01900563
123	0x3cdbcf90	0.026832372
124	0xbc443e0f	-0.011977687
125	0xbab7da1c	-0.0014026794
126	0xbc3e9340	-0.011631787
127	0x3bd193d7	0.0063957977
128	0xbc83df13	-0.016097581
129	0x3bd9393f	0.0066291387
130	0xbc4f1c03	-0.012640956
131	0xbc2592a2	-0.010105761
132	0x3bef4b8f	0.0073027085
133	0x3c410700	0.011781454
134	0xb9c6f1a6	-0.00037945545
135	0xbbbfba9e	-0.005851104
136	0x3c669345	0.014073198
137	0x3cedd507	0.029032243
138	0xbd15a8cb	-0.036537927
139	0x3c22421e	0.009903459
140	0x3c935c7b	0.017988434
141	0xbc6d3a75	-0.014479269
142	0xbc80f256	-0.015740555
143	0xbc5431aa	-0.012951294
144	0xbbe3880b	-0.006943708
145	0x3c28a4d1	0.010293202
146	0xbc915f81	-0.017745735
147	0xbcd41328	-0.02588804
148	0x3ce7bee7	0.028289272
149	0x3bba747b	0.005690155
150	0x3cca042a	0.024660189
151	0xbcb553c5	-0.022134671
152	0xbc6c3470	-0.014416799
153	0xbb904487	-0.0044027003
154	0x38cf3bcb	9.8816665e-05
155	0x3b4cab1a	0.0031229914
156	0x3ca3a3df	0.0199756
157	0x3aba607a	0.0014219426
158	0x3b670ce5	0.0035255488
159	0xbc309765	-0.010778283
160	0xbc839602	-0.01606274
161	0xbb8c5437	-0.0042825
162	0x3c8dc673	0.017306542
163	0x3b8a3961	0.004218266
164	0x3ca1cfac	0.019752346
165	0xbc283955	-0.010267575
166	0x3c9aaf60	0.018882453
167	0x3ccd2ed2	0.02504674
168	0xbc265fd8	-0.010154687
169	0xbc72bd7d	-0.014815685
170	0xbc8ef012	-0.017448459
171	0x3aa1579f	0.0012309438
172	0x3ba540a0	0.0050431043
173	0x3c54d030	0.012989089
174	0xbd0f2b72	-0.034953542
175	0xbd0a1bc7	-0.033717897
176	0x3a08d273	0.00052193477
177	0x3cf1f6da	0.029536653
178	0x3ccd95df	0.025095878
179	0x3cbb2513	0.022844827
180	0xbcc12e1e	-0.02358156
181	0xbcadca7d	-0.021214718
182	0xbc389954	-0.011267025
183	0xbb71fc1d	-0.0036923953
184	0xba710b52	-0.0009195107
185	0x3c2c4b45	0.0105159925
186	0xba4f38a3	-0.0007904863
187	0x3c563378	0.013073795
188	0x3cfc2230	0.03077802
189	0xbc180e8a	-0.00928081
190	0xbc0ffe0f	-0.0087886
191	0xbcaf8cc3	-0.021429425
192	0x3c6b013f	0.014343559
193	0x3d21fc07	0.039546993
194	0x3c8d8bfa	0.01727866
195	0xbc3524a4	-0.011056099
196	0xbc500b1d	-0.012697962
197	0x3ca54517	0.020174546
198	0x3c90becf	0.01766911
199	0x3be044b2	0.0068441266
200	0x3cd50437	0.026002986
201	0x3ca15725	0.019694874
202	0xbcdeaee0	-0.027182996
203	0x3c3a5ad7	0.011374197
204	0xbbf921da	-0.0076029124
205	0xbbaaf524	-0.0052172113
206	0xbbb40c03	-0.005494596
207	0x3c26cb93	0.010180372
208	0x3c6b4c7f	0.0143615
209	0x3d33a63b	0.0438597
210	0x3ca14940	0.019688249
211	0xbc825c02	-0.015913013
212	0x3cdf5f6a	0.027267177
213	0xbc6a63c3	-0.014306012
214	0xbc7a4b2d	-0.015276712
215	0x3d1134ae	0.03545063
216	0xbc750a52	-0.014956074
217	0x3b3069e9	0.0026918596
218	0xbc1c8746	-0.009553736
219	0xbbe10cd5	-0.006867985
220	0x3c364c97	0.011126659
221	0x3c266fc4	0.010158483
222	0x3c56910a	0.013096103
223	0x3cde3d6d	0.0271289
224	0xbc1dd91e	-0.009634284
225	0x3c033e37	0.008010439
226	0x3d12903a	0.035782076
227	0xbcde83aa	-0.027162392
228	0xba84534e	-0.0010095628
229	0xbb2b0305	-0.002609433
230	0x3c3a32c2	0.011364641
231	0x3c24a021	0.010047943
232	0x3c598e1a	0.013278509
233	0xbc45d8d4	-0.012075622
234	0x3c2c00a3	0.010498199
235	0xbb2df73b	-0.0026545066
236	0xbb0edaef	-0.0021797975
237	0xbbb8997a	-0.00563353
238	0xbcd79203	-0.026314741
239	0x3a21dd0b	0.00061746006
240	0xbc99c530	-0.018770784
241	0xbcb372a7	-0.021905256
242	0x3c0bc523	0.008530888
243	0xbc503b27	-0.0127094155
244	0x3aa18229	0.0012322116
245	0x3d38749e	0.04503309
246	0xbc149b8f	-0.009070291
247	0x3b18b40d	0.0023300678
248	0x3baf554e	0.0053507453
249	0x3babf1eb	0.0052473447
250	0x3cf91a4b	0.030408045
251	0xb9ed1aaa	-0.0004522403
252	0x3bd05edf	0.0063589658
253	0x3cf6e120	0.030136645
254	0x3bd9c455	0.006645719
255	0x3acca53b	0.0015613207

network_body._body_endoder.seq_layers.0.bias f4 [128]
0	0x00000000	0.0
1	0x00000000	0.0
2	0x00000000	0.0
3	0x00000000	0.0
4	0x00000000	0.0
5	0x00000000	0.0
6	0x00000000	0.0
7	0x00000000	0.0
8	0x00000000	0.0
9	0x00000000	0.0
10	0x00000000	0.0
11	0x00000000	0.0
12	0x00000000	0.0
13	0x00000000	0.0
14	0x00000000	0.0
15	0x00000000	0.0
16	0x00000000	0.0
17	0x00000000	0.0
18	0x00000000	0.0
19	0x00000000	0.0
20	0x00000000	0.0
21	0x00000000	0.0
22	0x00000000	0.0
23	0x00000000	0.0
24	0x00000000	0.0
25	0x00000000	0.0
26	0x00000000	0.0
27	0x00000000	0.0
28	0x00000000	0.0
29	0x00000000	0.0
30	0x00000000	0.0
31	0x00000000	0.0
32	0x00000000	0.0
33	0x00000000	0.0
34	0x00000000	0.0
35	0x00000000	0.0
36	0x00000000	0.0
37	0x00000000	0.0
38	0x00000000	0.0
39	0x00000000	0.0
40	0x00000000	0.0
41	0x00000000	0.0
42	0x00000000	0.0
43	0x00000000	0.0
44	0x00000000	0.0
45	0x00000000	0.0
46	0x00000000	0.0
47	0x00000000	0.0
48	0x00000000	0.0
49	0x00000000	0.0
50	0x00000000	0.0
51	0x00000000	0.0
52	0x00000000	0.0
53	0x00000000	0.0
54	0x00000000	0.0
55	0x00000000	0.0
56	0x00000000	0.0
57	0x00000000	0.0
58	0x00000000	0.0
59	0x00000000	0.0
60	0x00000000	0.0
61	0x00000000	0.0
62	0x00000000	0.0
63	0x00000000	0.0
64	0x00000000	0.0
65	0x00000000	0.0
66	0x00000000	0.0
67	0x00000000	0.0
68	0x00000000	0.0
69	0x00000000	0.0
70	0x00000000	0.0
71	0x00000000	0.0
72	0x00000000	0.0
73	0x00000000	0.0
74	0x00000000	0.0
75	0x00000000	0.0
76	0x00000000	0.0
77	0x00000000	0.0
78	0x00000000	0.0
79	0x00000000	0.0
80	0x00000000	0.0
81	0x00000000	0.0
82	0x00000000	0.0
83	0x00000000	0.0
84	0x00000000	0.0
85	0x00000000	0.0
86	0x00000000	0.0
87	0x00000000	0.0
88	0x00000000	0.0
89	0x00000000	0.0
90	0x00000000	0.0
91	0x00000000	0.0
92	0x00000000	0.0
93	0x00000000	0.0
94	0x00000000	0.0
95	0x00000000	0.0
96	0x00000000	0.0
97	0x00000000	0.0
98	0x00000000	0.0
99	0x00000000	0.0
100	0x00000000	0.0
101	0x00000000	0.0
102	0x00000000	0.0
103	0x00000000	0.0
104	0x00000000	0.0
105	0x00000000	0.0
106	0x00000000	0.0
107	0x00000000	0.0
108	0x00000000	0.0
109	0x00000000	0.0
110	0x00000000	0.0
111	0x00000000	0.0
112	0x00000000	0.0
113	0x00000000	0.0
114	0x00000000	0.0
115	0x00000000	0.0
116	0x00000000	0.0
117	0x00000000	0.0
118	0x00000000	0.0
119	0x00000000	0.0
120	0x00000000	0.0
121	0x00000000	0.0
122	0x00000000	0.0
123	0x00000000	0.0
124	0x00000000	0.0
125	0x00000000	0.0
126	0x00000000	0.0
127	0x00000000	0.0

network_body._body_endoder.seq_layers.0.weight f4 [128, 243]
0	0x3d43ec66	0.04783287
1	0x3dc1f7a6	0.09471063
2	0xbd0fbbe9	-0.035091314
3	0x3e045fe3	0.12927203
4	0xbdc5a16a	-0.09649928
5	0xbe144700	-0.1448021
6	0x3d98605b	0.07440253
7	0xbc9c2edc	-0.019065313
8	0x3d39f90a	0.045403518
9	0x3d110b8f	0.035411414
10	0x3d1535f7	0.036428418
11	0xbbcc8b90	-0.006242223
12	0xbcb9c76e	-0.022678103
13	0x3dc87b5d	0.09789155
14	0x3d1aadd2	0.037763424
15	0xbc1ed38d	-0.009693992
16	0x3d0fc9d2	0.03510458
17	0x3d8a0124	0.06738499
18	0x3d5e6b0a	0.0543013
19	0xbd20d467	-0.039265063
20	0x3d3910a9	0.045181904
21	0x3d911908	0.070848525
22	0x3da7baf7	0.081899576
23	0xbd88bf4c	-0.06677112
24	0xbd0075a5	-0.031362195
25	0x3d411cd1	0.047146622
26	0xbc644cd4	-0.013934333
27	0xbc553c6c	-0.013014894
28	0xbdcdd176	-0.10049717
29	0x3a38aebd	0.0007045081
30	0x3db408fe	0.087907776
31	0xbd9e0627	-0.07716017
32	0x3d6cb43e	0.05778908
33	0x3d7f3158	0.062302917
34	0x3cf9c159	0.030487703
35	0x3dfce1e0	0.1234777
36	0x3e0df95c	0.13864654
37	0xbaa438a8	-0.0012529092
38	0xbdd55496	-0.10416524
39	0x3ca1db39	0.019757854
40	0x3d955b01	0.07292748
41	0xbd9a5269	-0.0753525
42	0xbb8969dc	-0.0041935276
43	0xbd07001f	-0.0329591
44	0x3daaad4e	0.083338365
45	0xbd99fd60	-0.075190306
46	0xbe49fc55	-0.19725163
47	0x3c98b6d3	0.018641865
48	0x3d96542c	0.07340273
49	0x3ca6ba42	0.020352487
50	0x3cc44936	0.023960691
51	0xbc9a59cb	-0.018841645
52	0x3dfd9818	0.12382525
53	0x3d8ac0e3	0.067750715
54	0x3d14b773	0.036307763
55	0xbe0e7b4d	-0.13914223
56	0xbd12cc55	-0.035839397
57	0x3d5120ba	0.0510566
58	0xbcceb9ca	-0.025235076
59	0xbe0297c4	-0.12753206
60	0x3d089fba	0.033355452
61	0xbe031f0a	-0.12804809
62	0x3d921da2	0.07134558
63	0xbd526cff	-0.051373478
64	0x3a8a14d4	0.0010534772
65	0x3d16f352	0.036853142
66	0xbce7189f	-0.028209982
67	0x3d866c69	0.06563646
68	0x3c920f07	0.017829431
69	0xbce415ff	-0.02784252
70	0xbdad820a	-0.084720686
71	0xbd055117	-0.032548036
72	0xbcdc6888	-0.026905313
73	0x3d792f05	0.060835857
74	0x3d876b0c	0.066122144
75	0xbdbc675b	-0.09199401
76	0x3c938a55	0.018010298
77	0xbdee15c7	-0.116252474
78	0xbcbc295d	-0.022968942
79	0xbd9143c2	-0.07093002
80	0xbdd349c8	-0.10316807
81	0xbd93efd4	-0.07223478
82	0xbe215500	-0.15755081
83	0x3daaa3e1	0.08332039
84	0x3dcfd58a	0.10148151
85	0xbc26c13d	-0.0101779075
86	0x3d25b97f	0.040460106
87	0xbca72356	-0.020402592
88	0x3d3273e8	0.043567568
89	0xbdc00f0a	-0.093778685
90	0x3bd4aba9	0.00649019
91	0xbd2d9e2c	-0.042387173
92	0xbc77c373	-0.015122282
93	0xbaf6ce57	-0.0018829805
94	0xbd286be2	-0.04111851
95	0xbda676f6	-0.08128159
96	0x3bc02f44	0.0058650095
97	0xbd2a6d86	-0.041608356
98	0xbc321b1c	-0.010870721
99	0x3dcc8086	0.099854514
100	0x3d9492d5	0.072545685
101	0xbd8b3528	-0.06797248
102	0xbd952aba	-0.0728354
103	0xbb7f9b4d	-0.0039002479
104	0x3d0775ee	0.03307145
105	0x3c8ee9de	0.017445501
106	0xbc581a7c	-0.013189908
107	0x3d75e6e5	0.06003465
108	0x3d3cadae	0.04606407
109	0xbd01aa54	-0.03165658
110	0x3bb52c49	0.005528961
111	0x3c21cd9c	0.009875681
112	0xbd0463fc	-0.032321915
113	0xbc2a80e9	-0.010406711
114	0x3d3713e5	0.044696707
115	0x3db12dd7	0.086513214
116	0xbce6148c	-0.02808597
117	0x3c99ece0	0.018789709
118	0x3e0e2182	0.1387997
119	0xbe061661	-0.13094474
120	0xbce74014	-0.028228797
121	0xbd311f6a	-0.04324285
122	0x3ce47d22	0.0278917
123	0xbc433a1a	-0.011915708
124	0xbcfd52eb	-0.030923327
125	0x3d154766	0.036445044
126	0xbc65658d	-0.014001262
127	0xbd82f22d	-0.063938476
128	0xbbc1997a	-0.0059081884
129	0xbd42de34	-0.04757519
130	0xbaa71501	-0.0012747349
131	0xbdcae5ff	-0.099071495
132	0xbc5f0f6d	-0.013614518
133	0x3d88ec5e	0.066857085
134	0xbcb7778c	-0.022395872
135	0x3c46766d	0.012113196
136	0xbde790a1	-0.11306883
137	0x3d793473	0.060841035
138	0xbd5d6237	-0.054048743
139	0x3d923a0a	0.07139976
140	0xbdfb6ab9	-0.12276215
141	0x3d3f396b	0.046685617
142	0x3cce4ec1	0.025184037
143	0x3ba48c84	0.0050216336
144	0x3bfe5d9c	0.007762624
145	0xbdf881b9	-0.12134118
146	0xbd4e28a5	-0.05033173
147	0x3dd57908	0.104234755
148	0x3db77f4f	0.08959829
149	0x3dd783a6	0.10523157
150	0x3daae23c	0.08343932
151	0x3d8b62da	0.06805964
152	0xbb4cdaa3	-0.0031258247
153	0x3cc1d560	0.023661315
154	0xbda90757	-0.08253353
155	0x3d91a8fb	0.071123086
156	0x3d385018	0.04499826
157	0x3d9b6c82	0.075890556
158	0x3d38a506	0.045079254
159	0xbd35ad2b	-0.0443546
160	0x3cdd41c6	0.027008902
161	0x3d46155a	0.048360206
162	0xbd6912f0	-0.056902826
163	0xbbd5a7ba	-0.0065202387
164	0x3b933e3c	0.004493503
165	0x3c569bb0	0.013098642
166	0x3cf2572e	0.029582586
167	0xbb9c9971	-0.004779034
168	0x3a1051d6	0.00055053586
169	0xbda726dc	-0.08161709
170	0x3d2dc5de	0.04242503
171	0x3daf5708	0.08561522
172	0xbb619c7f	-0.0034425554
173	0x3dc130f6	0.09433167
174	0x3d79bfcb	0.060973924
175	0x3d51e88d	0.05124717
176	0x3d2a7dcd	0.04162388
177	0xbce5bc03	-0.028043753
178	0x3cc2d50e	0.023783233
179	0x3d2a3808	0.04155734
180	0x3c1f84ca	0.009736249
181	0xbc29f542	-0.010373415
182	0x3d95b628	0.07310134
183	0xbd1775e1	-0.036977652
184	0x3dc65c6c	0.09685597
185	0x3d801d20	0.06255555
186	0xbd9f07e6	-0.077651784
187	0x3d87fbe6	0.06639843
188	0x3b07667d	0.0020660453
189	0xbd8e1cea	-0.06939109
190	0x3d95f44f	0.07321989
191	0x3d46312d	0.04838674
192	0xbd286b11	-0.04111773
193	0xbd64fb33	-0.055903625
194	0xbda2fa29	-0.079578705
195	0xbca1623a	-0.019700158
196	0x3db3b07e	0.087738976
197	0xbd9d72e7	-0.076879315
198	0x3dce090f	0.100603215
199	0x3cf3079d	0.029666716
200	0x3d52fa12	0.051508017
201	0x3d4cf577	0.05003878
202	0x3c9a233e	0.018815633
203	0x3d899d7f	0.06719493
204	0xbdc5d7da	-0.09660311
205	0xbda04ef0	-0.07827556
206	0x3d91c65c	0.07117912
207	0xbd4b137e	-0.049579136
208	0xbd853e5d	-0.065060355
209	0x3cd71600	0.026255608
210	0x3d9842f7	0.074346475
211	0xbd177836	-0.036979876
212	0xbdd42f8a	-0.1036063
213	0xbb6d4181	-0.0036202373
214	0xbda94ce9	-0.082666226
215	0xbcc76524	-0.02434022
216	0x3db55688	0.08854395
217	0x3d71e5e1	0.05905712
218	0x3d78acbd	0.06071161
219	0xbc1f5a59	-0.00972613
220	0xbc077148	-0.008266754
221	0x3dd8869a	0.10572548
222	0xbdb90270	-0.09033668
223	0x3d7352cf	0.059405144
224	0x3d623ee5	0.055235762
225	0x3d39b7c3	0.045341264
226	0x3d43e864	0.047829047
227	0xbde74c7d	-0.11293886
228	0x3d052130	0.032502353
229	0xbc086a64	-0.008326147
230	0xbceb25c2	-0.028704528
231	0xbd835e9f	-0.06414532
232	0x3cbee0c6	0.02330054
233	0x3e05c2ba	0.13062564
234	0xbdae8401	-0.085212715
235	0xbd88b203	-0.06674578
236	0xbbefa3db	-0.0073132343
237	0xbcbb87b8	-0.022891864
238	0x3c9d1394	0.019174375
239	0x3df518d5	0.11967627
240	0x3cc8c0ac	0.024505936
241	0xbc97321c	-0.018456511
242	0xbcf07d68	-0.029356673
243	0xbd5b5f03	-0.053557407
244	0x3ca6a721	0.020343365
245	0x3d701d5e	0.058621757
246	0xbd203f3f	-0.039122816
247	0x3c94e452	0.018175278
248	0x3d201c60	0.03908956
249	0x3dc08863	0.09401014
250	0x3d29a39d	0.0414158
251	0x3d4785e3	0.04871167
252	0x3d609e4c	0.054838464
253	0x3db7cad2	0.08974232
254	0xbdc2e4ce	-0.09516297
255	0xbe03ec4b	-0.12883107

network_body._body_endoder.seq_layers.2.bias f4 [128]
0	0x00000000	0.0
1	0x00000000	0.0
2	0x00000000	0.0
3	0x00000000	0.0
4	0x00000000	0.0
5	0x00000000	0.0
6	0x00000000	0.0
7	0x00000000	0.0
8	0x00000000	0.0
9	0x00000000	0.0
10	0x00000000	0.0
11	0x00000000	0.0
12	0x00000000	0.0
13	0x00000000	0.0
14	0x00000000	0.0
15	0x00000000	0.0
16	0x00000000	0.0
17	0x00000000	0.0
18	0x00000000	0.0
19	0x00000000	0.0
20	0x00000000	0.0
21	0x00000000	0.0
22	0x00000000	0.0
23	0x00000000	0.0
24	0x00000000	0.0
25	0x00000000	0.0
26	0x00000000	0.0
27	0x00000000	0.0
28	0x00000000	0.0
29	0x00000000	0.0
30	0x00000000	0.0
31	0x00000000	0.0
32	0x00000000	0.0
33	0x00000000	0.0
34	0x00000000	0.0
35	0x00000000	0.0
36	0x00000000	0.0
37	0x00000000	0.0
38	0x00000000	0.0
39	0x00000000	0.0
40	0x00000000	0.0
41	0x00000000	0.0
42	0x00000000	0.0
43	0x00000000	0.0
44	0x00000000	0.0
45	0x00000000	0.0
46	0x00000000	0.0
47	0x00000000	0.0
48	0x00000000	0.0
49	0x00000000	0.0
50	0x00000000	0.0
51	0x00000000	0.0
52	0x00000000	0.0
53	0x00000000	0.0
54	0x00000000	0.0
55	0x00000000	0.0
56	0x00000000	0.0
57	0x00000000	0.0
58	0x00000000	0.0
59	0x00000000	0.0
60	0x00000000	0.0
61	0x00000000	0.0
62	0x00000000	0.0
63	0x00000000	0.0
64	0x00000000	0.0
65	0x00000000	0.0
66	0x00000000	0.0
67	0x00000000	0.0
68	0x00000000	0.0
69	0x00000000	0.0
70	0x00000000	0.0
71	0x00000000	0.0
72	0x00000000	0.0
73	0x00000000	0.0
74	0x00000000	0.0
75	0x00000000	0.0
76	0x00000000	0.0
77	0x00000000	0.0
78	0x00000000	0.0
79	0x00000000	0.0
80	0x00000000	0.0
81	0x00000000	0.0
82	0x00000000	0.0
83	0x00000000	0.0
84	0x00000000	0.0
85	0x00000000	0.0
86	0x00000000	0.0
87	0x00000000	0.0
88	0x00000000	0.0
89	0x00000000	0.0
90	0x00000000	0.0
91	0x00000000	0.0
92	0x00000000	0.0
93	0x00000000	0.0
94	0x00000000	0.0
95	0x00000000	0.0
96	0x00000000	0.0
97	0x00000000	0.0
98	0x00000000	0.0
99	0x00000000	0.0
100	0x00000000	0.0
101	0x00000000	0.0
102	0x00000000	0.0
103	0x00000000	0.0
104	0x00000000	0.0
105	0x00000000	0.0
106	0x00000000	0.0
107	0x00000000	0.0
108	0x00000000	0.0
109	0x00000000	0.0
110	0x00000000	0.0
111	0x00000000	0.0
112	0x00000000	0.0
113	0x00000000	0.0
114	0x00000000	0.0
115	0x00000000	0.0
116	0x00000000	0.0
117	0x00000000	0.0
118	0x00000000	0.0
119	0x00000000	0.0
120	0x00000000	0.0
121	0x00000000	0.0
122	0x00000000	0.0
123	0x00000000	0.0
124	0x00000000	0.0
125	0x00000000	0.0
126	0x00000000	0.0
127	0x00000000	0.0

network_body._body_endoder.seq_layers.2.weight f4 [128, 128]
0	0xbbb7be1e	-0.0056073805
1	0x3b7a8f99	0.0038232564
2	0xbd4607e5	-0.048347373
3	0xbe0f2305	-0.13978203
4	0x3d8c7177	0.06857579
5	0x3d91ed17	0.071252994
6	0xbe49a823	-0.19693045
7	0x3de593f2	0.11209859
8	0x3c7bee63	0.01537666
9	0xbd279f74	-0.04092355
10	0x3dfbb0ac	0.12289557
11	0xbd167c51	-0.03673965
12	0x3d5f1ca2	0.054470666
13	0xbd2818c7	-0.041039255
14	0xbd8726d5	-0.065992035
15	0x3d842d8f	0.06454002
16	0x3d89e55a	0.067331985
17	0xbd90b178	-0.070650995
18	0x3a995283	0.0011697564
19	0xbc4b351f	-0.012402802
20	0x3c00fc5a	0.007872665
21	0x3df88e24	0.12136486
22	0xbe3a402a	-0.18188539
23	0x3be20cbb	0.0068984902
24	0x3d3460d5	0.04403766
25	0x3da96ea2	0.08273055
26	0xbd73be22	-0.059507497
27	0xbd675396	-0.056476198
28	0xbc880a9c	-0.016606621
29	0x3cf29fa5	0.02961714
30	0xbd506125	-0.050873894
31	0x3c7a8e75	0.015292753
32	0x3d5fa256	0.054598175
33	0x3d4f00c8	0.050537854
34	0xbdfe6973	-0.124224566
35	0xbd105bfe	-0.03524398
36	0xbd502ff9	-0.050827
37	0x3ca63367	0.020288182
38	0xbdaeaedb	-0.08529445
39	0x3d62c807	0.055366542
40	0x3e128d7d	0.14311786
41	0xbd4e8301	-0.050417904
42	0xbcbdf784	-0.023189314
43	0xbdb36a9b	-0.08760568
44	0xbd2b7c76	-0.041866742
45	0x3e15f30e	0.146435
46	0x3dbcb0af	0.09213387
47	0x3d5799f3	0.05263705
48	0xbd96e93f	-0.07368707
49	0x3ca5511a	0.020180274
50	0x3d95cd68	0.07314569
51	0x3d90ea56	0.07075946
52	0x3d915412	0.07096113
53	0x3e2f3166	0.17108688
54	0x3e16a871	0.14712693
55	0xbe1dd46c	-0.15413064
56	0x3d0f2bfb	0.034954052
57	0x3e372947	0.1788684
58	0x3d026010	0.031829894
59	0xbdcf4c00	-0.10121918
60	0xbd349bfa	-0.044094063
61	0x3d84c598	0.064830005
62	0x3dbb938d	0.091590025
63	0x3de424e2	0.11139847
64	0xbc97e9f9	-0.018544184
65	0xbe08a104	-0.13342673
66	0x3d8edc59	0.06975622
67	0xbcbd8cac	-0.023138367
68	0x3c12c569	0.008958199
69	0xbd720bd2	-0.059093304
70	0x3dc57bba	0.096427396
71	0x3cf4ed64	0.029898353
72	0x3d6cf808	0.05785373
73	0xbd7d16c3	-0.061789285
74	0xbda6167d	-0.08109758
75	0x3e183e6b	0.1486756
76	0x3e3d7bb2	0.18504217
77	0xbe1ab3b0	-0.15107608
78	0x3d70fa9e	0.058832757
79	0xbdfce63e	-0.12348603
80	0xbca2f9ac	-0.019894443
81	0xbce524b4	-0.027971603
82	0x3dcdf5dd	0.1005666
83	0x3c4f786a	0.012662986
84	0x3c9d6c22	0.0192166
85	0x3d5b112e	0.05348318
86	0x3ddb88d9	0.10719461
87	0x3dabe1ca	0.08392675
88	0xbd5ffe00	-0.054685593
89	0x3d9b51c0	0.07583952
90	0x3e4e1f92	0.2012923
91	0xbe0f643c	-0.1400308
92	0x3ad9ef00	0.0016627014
93	0x3d6ce2d4	0.057833508
94	0xbc8d9cd7	-0.017286701
95	0xbd8646f4	-0.06556502
96	0xbdab545f	-0.08365702
97	0xbc373ec9	-0.011184403
98	0xbd24adb7	-0.04020473
99	0xbde02b10	-0.109457135
100	0xbc41ab47	-0.011820621
101	0x3d575bc7	0.05257776
102	0x3e0d58a4	0.13803345
103	0xbbed8f66	-0.0072497604
104	0x3d0f0292	0.03491456
105	0x3d5bd08c	0.053665683
106	0xbe0da8cd	-0.13833924
107	0xbd25d5be	-0.040487044
108	0x3d2968c8	0.041359693
109	0x3e0a92c9	0.13532557
110	0x3e2dc8a9	0.16971077
111	0x3d40996c	0.047021315
112	0xbd20fd67	-0.039304163
113	0xbd20408d	-0.03912406
114	0x3d4e318e	0.050340228
115	0xbd8b4e65	-0.06802062
116	0x3ce64bce	0.028112318
117	0xbb993f82	-0.00467676
118	0x3e38a077	0.18029962
119	0xbddf0089	-0.10888774
120	0x3d28cc00	0.041210175
121	0xbe2663a8	-0.16248953
122	0xbde89509	-0.11356551
123	0xbdbcdd71	-0.09221924
124	0x3d170500	0.036870003
125	0x3d604adf	0.054758903
126	0x3d103ef7	0.035216298
127	0xbe2f084c	-0.17093009
128	0x3c8954f8	0.01676415
129	0xbdbb88b9	-0.09156937
130	0xbdef7131	-0.116915114
131	0xbc0b3033	-0.008495378
132	0xbbccce23	-0.0062501593
133	0x3dd906d2	0.10597004
134	0xbd522c9c	-0.051312074
135	0x3db4cbb1	0.088279136
136	0xbdb9b91e	-0.090685114
137	0x3e0ff3f2	0.14057902
138	0x3c2c169b	0.010503436
139	0xbcce90a9	-0.025215464
140	0xbdd1261d	-0.10212348
141	0xbde478b9	-0.111558385
142	0xbd40df90	-0.047088206
143	0xbe013fda	-0.12622014
144	0x3a235ce4	0.00062317983
145	0x3e4d1ad1	0.20029761
146	0xbba42cb0	-0.00501021
147	0xbd10b600	-0.03532982
148	0x3e050b87	0.12992679
149	0xbdce58be	-0.1007552
150	0xbe31a5e3	-0.17348437
151	0xbd6cb265	-0.057787318
152	0xbdd4cf1d	-0.10391066
153	0x3d9eb400	0.07749176
154	0x3c53d847	0.0129299825
155	0xbdb9ae8d	-0.09066496
156	0xbdc92473	-0.09821405
157	0x3cc6266d	0.024188245
158	0x3e091f9c	0.13390964
159	0xbe22e7e4	-0.15908772
160	0xbd51b320	-0.051196218
161	0xbc2839db	-0.0102677
162	0xba9afa87	-0.001182393
163	0xbdbdb53e	-0.09263085
164	0xbd9323ea	-0.071845844
165	0x3d7fb7be	0.06243109
166	0x3e41e93a	0.18936625
167	0x3d958f28	0.073026955
168	0x3d94241e	0.07233451
169	0x3d8fb953	0.0701777
170	0xbcef594c	-0.029217385
171	0x3b9dac22	0.0048117796
172	0x3bb11d09	0.0054050726
173	0xbe2da0a4	-0.16955811
174	0xbcdd99e9	-0.02705093
175	0xbc4e414b	-0.012588809
176	0xbe09c09c	-0.13452381
177	0x3e408620	0.18801165
178	0xbe09dcf3	-0.13463192
179	0x3c41d84b	0.011831353
180	0xbc9ea242	-0.01936448
181	0x3d9656cf	0.07340776
182	0xbc5b777c	-0.0133951865
183	0x3d3656dc	0.04451643
184	0xbdc9f865	-0.098618306
185	0xbd94a197	-0.07257383
186	0xbca444e8	-0.020052388
187	0x3e03481c	0.12820476
188	0xbd80e206	-0.062931105
189	0xbd2653b9	-0.040607188
190	0xbdb89382	-0.0901251
191	0xbc5e1a46	-0.013556069
192	0xbaabe2bc	-0.0013113837
193	0x3dd03055	0.101654686
194	0xbcd9c77b	-0.026584378
195	0x3e03cfa6	0.1287218
196	0x3e22a7e4	0.15884358
197	0x3e3b4993	0.18289785
198	0x3d461476	0.048359357
199	0x3db1a4a8	0.08673984
200	0x3c262d5f	0.010142653
201	0xbd804633	-0.062633894
202	0x3e004153	0.12524919
203	0x3c4b2e25	0.012401138
204	0xbca21beb	-0.019788703
205	0x3e6cf8fb	0.23141854
206	0xbdd4160b	-0.10355767
207	0xbd801791	-0.06254495
208	0xbcd0257a	-0.025408495
209	0x3d38e512	0.045140333
210	0xbe46ab5d	-0.19401307
211	0xbcf38784	-0.029727705
212	0x3e125d6a	0.14293447
213	0x3d87bd20	0.066278696
214	0xbca7ec82	-0.020498518
215	0x3d1279f9	0.035760853
216	0xbdcabcc1	-0.09899283
217	0x3d94903a	0.072540715
218	0xbcf92320	-0.030412257
219	0x3997d48c	0.00028959324
220	0xbd504de8	-0.050855547
221	0x3d13117b	0.035905343
222	0x3c9defa5	0.01927931
223	0x3d4452b5	0.047930438
224	0xbd4e0d4e	-0.050305657
225	0xbdeb68ed	-0.114946224
226	0x3cae8fa9	0.021308737
227	0xbd5959ec	-0.05306427
228	0x3cb763cc	0.022386454
229	0xbd53bbf3	-0.051692914
230	0x3d206c38	0.039165705
231	0x3d51bc13	0.051204752
232	0xbce4aebf	-0.027915357
233	0xbe6c360e	-0.23067495
234	0xbd4db6f8	-0.05022332
235	0xbd9391c0	-0.07205534
236	0xbc947bda	-0.018125463
237	0xbd337c4e	-0.043819718
238	0x3c10ff5b	0.008849944
239	0xbd0f25f2	-0.034948297
240	0x3de1aae1	0.11018921
241	0xbcc621ab	-0.024185976
242	0x3be8a02b	0.0070991716
243	0x3ddc9f1d	0.10772536
244	0x3c33fe27	0.010985888
245	0xbd0353c8	-0.032062322
246	0x3dc1fa23	0.09471538
247	0xbc1f1c8c	-0.009711396
248	0x3def91bb	0.11697718
249	0xbda10ea3	-0.0786412
250	0x3d045a66	0.032312773
251	0xbcd281c6	-0.025696646
252	0xbb12726d	-0.0022346035
253	0xbc60f58e	-0.01373042
254	0xbc8fb0a1	-0.017540278
255	0x3dae8326	0.08521108
