Assets/ML-Agents/Examples/FirstTRexScene/results/trmodel/My Behavior/My Behavior-3840.pt (torch, 411191 bytes, 12 tensors)

network_body._body_endoder.seq_layers.0.weight f4 [128, 243]
0.003810858 0.0074739167 0.044562984 0.0675014 0.025006637 -0.005682649 0.09614919 -0.0476276
0.065863244 0.11027662 -0.11341835 0.04237472 0.08018239 0.08051528 -0.0097323805 -0.016661566
-0.04919369 0.07746282 -0.057867423 0.03627659 -0.13571925 -0.02538932 -0.08118152 0.010780783
-0.033443443 -0.0045926925 0.019557368 -0.014907553 0.06452973 0.044718154 0.04663486 0.16402532
0.018366616 0.074279696 -0.08330427 0.020459527 -0.039571077 0.010385282 0.08065558 -0.029129319
-0.04079645 -0.031886492 -0.030986305 0.13301106 -0.054580063 0.083923586 0.043459322 0.053488337
-0.0054185973 -0.006241771 -0.11884167 -0.07614411 0.0065874658 -0.0046008867 0.048029773 0.1280736
-0.002778446 0.11277176 -0.0043837465 0.08847576 -0.069437854 0.033803362 -0.0136911385 0.058581214
-0.016515734 -0.09142986 0.04982968 -0.07463861 -0.029686317 -0.08927086 0.033397548 0.012556259
-0.06925483 0.00820655 0.11919526 -0.020999094 -0.033489354 0.08338456 0.12658603 -0.04800927
-0.05448427 0.05987223 0.0007079574 0.028276548 -0.017460687 0.027631018 -0.054662686 0.036500167
0.0002835579 -0.031300034 0.024471307 -0.028867017 -0.06168757 -0.07915673 -0.06887594 0.06478022
0.115680054 -0.091862835 -0.11555864 -0.016162945 0.02306109 -0.051647056 -0.07581247 -0.09109894
0.08755181 -0.03065786 0.0066968245 -0.059888836 -0.027478166 0.04302906 -0.10522209 0.010377959
0.03880956 0.037681814 0.037610654 0.07722607 0.09429683 0.11776914 0.07398383 0.036025926
0.12442123 -0.020636855 -0.059254013 0.0013653337 0.03148789 0.0007079438 0.00835034 0.025416205
-0.07990322 -0.057543207 0.054658595 -0.025660753 0.024158794 -0.06505601 0.14456624 -0.058161777
0.08886503 0.09934982 -0.06208325 -0.0035764924 0.04024405 0.06761358 -0.021081718 -0.065301254
-0.109569415 -0.019778397 -0.08422329 0.009704683 -0.06636311 -0.11275988 0.01341464 0.019657377
-0.050281152 0.13457023 0.06318493 0.0430943 0.065739095 -0.030350316 -0.018748354 -0.012251059
0.047474064 -0.01006141 -0.03320881 0.017712908 -0.06562176 -0.028759323 0.0121095255 0.062478647
-0.070429474 0.072643295 -0.061314363 0.015469734 -0.09418437 -0.032721438 0.033533484 0.033469427
-0.10230452 0.008720486 0.0644201 0.10608474 0.034397822 0.07606043 0.0087198755 -0.019602008
0.03643269 0.046342976 -0.040457875 0.011461507 -0.06747489 0.08285255 -0.017392939 -0.028962169
0.039486527 -0.0036164124 0.08009515 -0.079832286 -0.07230292 0.03452062 0.050919887 -0.027404917
0.114725225 0.02246962 0.06955504 -0.051040966 0.0857236 0.09775865 0.1092261 0.025914283
0.00832044 -0.0027913423 0.03930772 0.06590312 -0.07892141 0.03450818 0.05031995 0.020867188
0.026092425 0.023809936 0.0024671922 -0.012775453 0.075043045 0.042153243 0.055959 0.024846168
0.08090278 -0.04509929 -0.050546054 0.052900918 0.030728988 0.09169657 -0.058064446 -0.051632866
0.029567985 -0.0060107643 -0.17202485 -0.08119258 -0.14228745 0.010243254 0.07115003 -0.0054787253
0.09095903 0.1366856 0.037674055 -0.00036604475 -0.036579162 -0.09294507 0.036335953 0.000973801
-0.025265785 -0.07054765 0.09801752 -0.016438043 -0.06335196 -0.005326114 -0.004048951 0.07221997
00000000: 96bf 793b c2e7 f43b ad87 363d 2d3e 8a3d
00000010: b8da cc3c 8435 babb dee9 c43d 2915 43bd
00000020: 4fe3 863d b5d8 e13d e147 e8bd 1d91 2d3d
00000030: aa36 a43d 32e5 a43d 9074 1fbc d67d 88bc
00000040: 537f 49bd d4a4 9e3d 6406 6dbd c396 143d
00000050: fdf9 0abe 43fd cfbc 7f42 a6bd e2a1 303c
00000060: fefb 08bd 4c7e 96bb c636 a03c cf3e 74bc
00000070: 2a28 843d 622a 373d 3204 3f3d 41f6 273e
00000080: 9675 963c f41f 983d 6e9b aabd bd9a a73c
00000090: 4815 22bd 0827 2a3c c12e a53d 9ca0 eebc
000000a0: 2e1a 27bd 699b 02bd fed6 fdbc 0d34 083e
000000b0: 588f 5fbd 21e0 ab3d 6702 323d 9616 5b3d
000000c0: 7d8e b1bb c587 ccbb 4363 f3bd 71f1 9bbd
000000d0: abdb d73b 09c3 96bb deba 443d ba25 033e
000000e0: 9716 36bb e1f4 e63d 88a5 8fbb c732 b53d
000000f0: 6f35 8ebd 6575 0a3d cc50 60bc dbf2 6f3d
00000100: 014c 87bc 943f bbbd 351a 4c3d 21dc 98bd
00000110: b830 f3bc a4d3 b6bd decb 083d c4b8 4d3c
00000120: 7ad5 8dbd c474 063c a51c f43d 4b06 acbc
00000130: 222c 09bd 86c5 aa3d c59f 013e 5ea5 44bd
00000140: e62a 5fbd 953c 753d 3896 393a 38a4 e73c
00000150: b709 8fbc 725a e23c fbe5 5fbd 3381 153d
00000160: 7faa 9439 7734 00bd 0d78 c83c 867a ecbc
00000170: 1bac 7cbd ec1c a2bd d40e 8dbd 7eab 843d
00000180: aae9 ec3d 9522 bcbd 02aa ecbd 2768 84bc
00000190: 9cea bc3c dd8b 53bd 9143 9bbd 1592 babd
000001a0: 5d4e b33d 3126 fbbc 0971 db3b ff4d 75bd
000001b0: e419 e1bc 3d3f 303d ae7e d7bd 5108 2a3c
000001c0: c6f6 1e3d 3f58 1a3d a10d 1a3d b428 9e3d
000001d0: b21e c13d f230 f13d d684 973d ec8f 133d
000001e0: 8fd0 fe3d 9f0e a9bc 56b4 72bd fff4 b23a
000001f0: 72f9 003d 4e95 393a ddcf 083c a535 d03c
00000200: 4da4 a3bd 6db2 6bbd b1e1 5f3d 8036 d2bc
00000210: aae8 c53c 163c 85bd 2c09 143e 0b3b 6ebd
00000220: defe b53d eb77 cb3d 024b 7ebd 9663 6abb
00000230: f2d6 243d fd78 8a3d 91b3 acbc aabc 85bd
00000240: ee65 e0bd 4e06 a2bc 437d acbd 6400 1f3c
00000250: 62e9 87bd a7ee e6bd 14c9 5b3c 8208 a13c
00000260: 9cf3 4dbd c7cc 093e 1a67 813d a683 303d
00000270: 38a2 863d 3aa1 f8bc 2696 99bc aab8 48bc
00000280: 2a74 423d 9dd8 24bc f605 08bd a91a 913c
00000290: b464 86bd ac98 ebbc 0867 463c 9ce9 7f3d
000002a0: 543d 90bd 02c6 943d c524 7bbd c474 7d3c
000002b0: bce3 c0bd ea06 06bd 685a 093d 3d17 093d
000002c0: 0885 d1bd 5fe0 0e3c afee 833d f542 d93d
000002d0: bbe4 0c3d 92c5 9b3d cfdd 0e3c 6494 a0bc
000002e0: 723a 153d 22d2 3d3d 28b7 25bd 0bc9 3b3c
000002f0: 4630 8abd 99ae a93d a37b 8ebc 1242 edbc
00000300: a0bc 213d 5501 6dbb ed08 a43d 1c7f a3bd
00000310: 8e13 94bd 7e65 0d3d 5f91 503d 4780 e0bc
00000320: 0ff5 ea3d 3512 b83c df72 8e3d 5510 51bd
00000330: db8f af3d b035 c83d efb1 df3d 314a d43c
00000340: 7452 083c f4ee 36bb 2201 213d 37f8 863d
00000350: 8ca1 a1bd 7358 0d3d 4b1c 4e3d aaf1 aa3c
00000360: c8bf d53c 0e0d c33c 9eb0 213b 2250 51bc
00000370: 2bb0 993d e1a8 2c3d 4435 653d 318a cb3c
00000380: 5bb0 a53d 08ba 38bd 6109 4fbd a2ae 583d
00000390: 5cbb fb3c 69cb bb3d fcd4 6dbd fc7c 53bd
000003a0: 8f38 f23c f2f5 c4bb 4827 30be 4c48 a6bd
000003b0: cdb3 11be 52d3 273c 1bb7 913d e186 b3bb
000003c0: ba48 ba3d 4ff7 0b3e 1c50 1a3d b2e9 bfb9
000003d0: 08d4 15bd fc59 bebd 02d5 143d ae46 7f3a
000003e0: 31fa cebc 497b 90bd 69bd c83d 13a9 86bc
000003f0: acbe 81bd af86 aebb 10ad 84bb 10e8 933d

network_body._body_endoder.seq_layers.0.bias f4 [128]
0.0 0.0 0.0 0.0 0.0 0.0 0.0 0.0
0.0 0.0 0.0 0.0 0.0 0.0 0.0 0.0
0.0 0.0 0.0 0.0 0.0 0.0 0.0 0.0
0.0 0.0 0.0 0.0 0.0 0.0 0.0 0.0
0.0 0.0 0.0 0.0 0.0 0.0 0.0 0.0
0.0 0.0 0.0 0.0 0.0 0.0 0.0 0.0
0.0 0.0 0.0 0.0 0.0 0.0 0.0 0.0
0.0 0.0 0.0 0.0 0.0 0.0 0.0 0.0
0.0 0.0 0.0 0.0 0.0 0.0 0.0 0.0
0.0 0.0 0.0 0.0 0.0 0.0 0.0 0.0
0.0 0.0 0.0 0.0 0.0 0.0 0.0 0.0
0.0 0.0 0.0 0.0 0.0 0.0 0.0 0.0
0.0 0.0 0.0 0.0 0.0 0.0 0.0 0.0
0.0 0.0 0.0 0.0 0.0 0.0 0.0 0.0
0.0 0.0 0.0 0.0 0.0 0.0 0.0 0.0
0.0 0.0 0.0 0.0 0.0 0.0 0.0 0.0
00000000: 0000 0000 0000 0000 0000 0000 0000 0000
00000010: 0000 0000 0000 0000 0000 0000 0000 0000
00000020: 0000 0000 0000 0000 0000 0000 0000 0000
00000030: 0000 0000 0000 0000 0000 0000 0000 0000
00000040: 0000 0000 0000 0000 0000 0000 0000 0000
00000050: 0000 0000 0000 0000 0000 0000 0000 0000
00000060: 0000 0000 0000 0000 0000 0000 0000 0000
00000070: 0000 0000 0000 0000 0000 0000 0000 0000
00000080: 0000 0000 0000 0000 0000 0000 0000 0000
00000090: 0000 0000 0000 0000 0000 0000 0000 0000
000000a0: 0000 0000 0000 0000 0000 0000 0000 0000
000000b0: 0000 0000 0000 0000 0000 0000 0000 0000
000000c0: 0000 0000 0000 0000 0000 0000 0000 0000
000000d0: 0000 0000 0000 0000 0000 0000 0000 0000
000000e0: 0000 0000 0000 0000 0000 0000 0000 0000
000000f0: 0000 0000 0000 0000 0000 0000 0000 0000
00000100: 0000 0000 0000 0000 0000 0000 0000 0000
00000110: 0000 0000 0000 0000 0000 0000 0000 0000
00000120: 0000 0000 0000 0000 0000 0000 0000 0000
00000130: 0000 0000 0000 0000 0000 0000 0000 0000
00000140: 0000 0000 0000 0000 0000 0000 0000 0000
00000150: 0000 0000 0000 0000 0000 0000 0000 0000
00000160: 0000 0000 0000 0000 0000 0000 0000 0000
00000170: 0000 0000 0000 0000 0000 0000 0000 0000
00000180: 0000 0000 0000 0000 0000 0000 0000 0000
00000190: 0000 0000 0000 0000 0000 0000 0000 0000
000001a0: 0000 0000 0000 0000 0000 0000 0000 0000
000001b0: 0000 0000 0000 0000 0000 0000 0000 0000
000001c0: 0000 0000 0000 0000 0000 0000 0000 0000
000001d0: 0000 0000 0000 0000 0000 0000 0000 0000
000001e0: 0000 0000 0000 0000 0000 0000 0000 0000
000001f0: 0000 0000 0000 0000 0000 0000 0000 0000

network_body._body_endoder.seq_layers.2.weight f4 [128, 128]
-0.049055085 0.061759256 -0.056591503 0.05331304 -0.12032769 -0.13048224 0.020999506 -0.07921351
0.039859544 -0.030280929 0.02623904 -0.15381895 0.043604024 0.07267155 -0.013819656 0.08030883
0.1388209 -0.01932066 -0.0065962877 -0.054599065 0.021329908 -0.080359384 -0.060023032 -0.024916517
0.27379122 -0.15816619 -0.018266115 0.025022084 0.06343387 -0.044846926 -0.08948803 -0.03497276
0.14225174 0.0892132 -0.076625235 -0.055733062 -0.11386325 -0.15345998 -0.16360694 0.0936187
0.09135669 -0.075067945 -0.01608415 0.00035019964 0.01589574 0.040057465 -0.0005823513 -0.025758196
-0.059003025 -0.02061806 0.027662467 -0.055494756 -0.038390115 -0.015491627 -0.039777268 0.111741126
0.14529763 0.033073466 0.015634133 0.05205272 0.10823317 -0.16507466 0.08851335 -0.1650254
0.073353894 -0.10444493 0.14224227 0.058367494 0.10048423 0.008432828 0.21946852 -0.059902355
0.21778585 -0.15080161 -0.011358837 -0.1364552 -0.054551512 -0.01820494 -0.066145174 -0.048026733
0.20208977 0.11944183 0.025688304 0.07525066 -0.07241554 -0.05180606 -0.120910086 -0.062984064
0.12073091 0.03780504 -0.11416363 -0.05032066 0.05438997 0.00025016526 -0.07099094 0.1862109
0.056662735 0.063598216 0.04926234 0.028530167 -0.054505594 0.07851099 0.013706827 0.10648044
0.086776674 -0.021916388 -0.032580186 -0.04949826 0.028472433 0.09378504 0.07893402 -0.0085560465
0.11336466 0.1619182 -0.026456362 -0.03724101 -0.0106132245 0.07517794 0.14561191 0.011257464
-0.12656626 -0.0015561592 -0.11543423 0.08368346 0.020228965 -0.0034911132 -0.04421141 -0.10003746
-0.07121817 0.13812542 0.073560275 0.04834701 -0.1196221 -0.104376465 -0.046407994 0.12069432
-0.13180877 -0.06669166 -0.0025460322 -0.021644577 -0.015336212 -0.08679405 0.09661419 0.08423919
0.058307156 0.09709395 0.15829606 -0.1616388 0.05188592 -0.1066572 -0.14284964 -0.08263505
0.024695674 0.17401485 -0.032947574 -0.09208395 0.25263068 -0.03467102 0.11876804 -0.22059645
0.16329397 0.031183787 0.12544066 0.019300004 -0.09395372 0.08795814 0.061779708 0.05512143
-0.018412985 0.0156327 0.024696132 0.075828135 0.18394868 -0.0073190266 -0.045845192 -0.039785907
-0.11375509 -0.05019703 -0.11188253 -0.0754874 -0.04369879 -0.072731934 -0.007960277 0.14578363
0.09045334 0.022021968 -0.19258192 0.038846448 0.120358594 -0.00933937 -0.11685312 -0.007255403
0.033206157 -0.05608778 -0.012107823 -0.07861594 -0.037366584 0.062133785 0.10041072 0.023139557
-0.08582315 0.07839116 0.10142805 0.018957991 0.008731085 0.102940135 -0.020629475 0.019114131
0.050427996 -0.09614264 0.11102192 -0.011564316 0.01683412 -0.13547568 0.0025253408 0.033506118
0.044386625 -0.08376869 0.008588476 0.03709827 -0.04568338 -0.042172484 -0.057681702 -0.015978584
-0.09233901 -0.111748554 0.14916842 -0.09916118 0.05265352 0.13068353 -0.082223535 -0.044417795
0.026757484 -0.09745796 0.08909783 0.07708984 -0.04549425 0.0039730542 -0.1261764 0.0024833353
-0.12740117 0.005931664 -0.09294756 -0.13055716 -0.08256604 0.04617812 0.053469136 -0.03669329
-0.02397488 -0.04344056 0.0017280394 0.081113644 0.025578838 0.025977576 0.0042953626 0.05805484
00000000: fced 48bd 46f7 7c3d 7ecc 67bd c65e 5a3d
00000010: 5d6e f6bd 239d 05be 2807 ac3c b13a a2bd
00000020: c343 233d b60f f8bc 41f3 d63c b782 1dbe
00000030: 229a 323d d2d4 943d d76b 62bc f578 a43d
00000040: 1127 0e3e 5c46 9ebc ac25 d8bb 45a3 5fbd
00000050: 0fbc ae3c 7693 a4bd b6da 75bd b91d ccbc
00000060: 5d2e 8c3e 51f6 21be d2a2 95bc 1dfb cc3c
00000070: 9ee9 813d 69b1 37bd 8045 b7bd 993f 0fbd
00000080: 71aa 113e 69b5 b63d b1ed 9cbd 5a48 64bd
00000090: 2331 e9bd 9d24 1dbe 9488 27be 29bb bf3d
000000a0: 3719 bb3d 39bd 99bd e8c2 83bc 009b b739
000000b0: c837 823c 4c13 243d efa8 18ba da02 d3bc
000000c0: 28ad 71bd 35e7 a8bc 669c e23c 784e 63bd
000000d0: f43e 1dbd 98d0 7dbc 7ded 22bd 88d8 e43d
000000e0: e7c8 143e 0b78 073d 2713 803c 3c35 553d
000000f0: 5aa9 dd3d 5509 29be 7d46 b53d 6bfc 28be
00000100: 913a 963d 39e7 d5bd f5a7 113e c112 6f3d
00000110: adca cd3d d829 0a3c 5bbc 603e 2c5c 75bd
00000120: 4103 5f3e bd6b 1abe 6a1a 3abc e9ba 0bbe
00000130: 6871 5fbd 8722 95bc 1f77 87bd aeb7 44bd
00000140: 9ff0 4e3e eb9d f43d 4770 d23c 051d 9a3d
00000150: 994e 94bd 9732 54bd b59f f7bd cafd 80bd
00000160: c441 f73d 75d9 1a3d 9fce e9bd 091d 4ebd
00000170: 04c8 5e3d 9d28 8339 b363 91bd 12ae 3e3e
00000180: 2f17 683d c83f 823d 4fc7 493d 19b8 e93c
00000190: 4241 5fbd 5fca a03d 9992 603c 6b12 da3d
000001a0: f8b7 b13d ff89 b3bc cd72 05bd b0be 4abd
000001b0: 053f e93c 5f12 c03d 29a8 a13d a92e 0cbc
000001c0: bb2b e83d e2cd 253e 03bb d8bc 088a 18bd
000001d0: 17e3 2dbc e4f6 993d 4a1b 153e 3a71 383c
000001e0: 969a 01be 0af8 cbba c868 ecbd 3c62 ab3d
000001f0: 37b7 a53c 29cb 64bb 0617 35bd 71e0 ccbd
00000200: d5da 91bd c070 0d3e c5a6 963d 8407 463d
00000210: 6efc f4bd 54c3 d5bd 4f16 3ebd 952e f73d
00000220: e1f8 06be a395 88bd 55db 26bb f84f b1bc
00000230: bc44 7bbc 14c1 b1bd a9dd c53d 9985 ac3d
00000240: 7cd3 6e3d 31d9 c63d 5d18 223e a484 25be
00000250: 5586 543d 176f dabd 2d47 12be 913c a9bd
00000260: 954e ca3c f330 323e 09f4 06bd 8396 bcbd
00000270: cf58 813e 3303 0ebd a83c f33d 09e4 61be
00000280: 8936 273e 2475 ff3c 8473 003e 0b1b 9e3c
00000290: cf6a c0bd 6623 b43d b80c 7d3d 02c7 613d
000002a0: d4d6 96bc 2610 803c 8b4f ca3c c84b 9b3d
000002b0: 0b5d 3c3e 72d4 efbb 2bc8 3bbd 8cf6 22bd
000002c0: 6ef8 e8bd 679b 4dbd ab22 e5bd 2399 9abd
000002d0: 81fd 32bd 7bf4 94bd d26b 02bc 4e48 153e
000002e0: 9a3f b93d 6a67 b43c 3234 45be 741d 1f3d
000002f0: 917e f63d 2804 19bc b050 efbd bbbe edbb
00000300: 2e03 083d 4dbc 65bd e45f 46bc 6501 a1bd
00000310: b40d 19bd ff7f 7e3d 23a4 cd3d 2b8f bd3c
00000320: 0cc4 afbd 8b8b a03d 82b9 cf3d ca4d 9b3c
00000330: d30c 0f3c 47d2 d23d 25ff a8bc 3d95 9c3c
00000340: 968d 4e3d 6fe6 c4bd 765f e33d 4278 3dbc
00000350: b5e7 893c 23ba 0abe 3080 253b b63d 093d
00000360: c0ce 353d eb8e abbd aeb6 0c3c 5bf4 173d
00000370: 7f1e 3bbd 0ebd 2cbd a643 6cbd 85e5 82bc
00000380: 3c1c bdbd 6ddc e4bd 9bbf 183e 0415 cbbd
00000390: 38ab 573d e7d1 053e d064 a8bd 6fef 35bd
000003a0: 8332 db3c 0a98 c7bd ec78 b63d 47e1 9d3d
000003b0: 2e58 3abd 6530 823b 6334 01be 74bf 223b
000003c0: 7475 02be 675e c23b 4a5b bebd c7b0 05be
000003d0: 6218 a9bd 4525 3d3d 7402 5b3d b44b 16bd
000003e0: f866 c4bc bbee 31bd 617f e23a e91e a63d
000003f0: b68a d13c edce d43c 1dc0 8c3b e9ca 6d3d

network_body._body_endoder.seq_layers.2.bias f4 [128]
0.0 0.0 0.0 0.0 0.0 0.0 0.0 0.0
0.0 0.0 0.0 0.0 0.0 0.0 0.0 0.0
0.0 0.0 0.0 0.0 0.0 0.0 0.0 0.0
0.0 0.0 0.0 0.0 0.0 0.0 0.0 0.0
0.0 0.0 0.0 0.0 0.0 0.0 0.0 0.0
0.0 0.0 0.0 0.0 0.0 0.0 0.0 0.0
0.0 0.0 0.0 0.0 0.0 0.0 0.0 0.0
0.0 0.0 0.0 0.0 0.0 0.0 0.0 0.0
0.0 0.0 0.0 0.0 0.0 0.0 0.0 0.0
0.0 0.0 0.0 0.0 0.0 0.0 0.0 0.0
0.0 0.0 0.0 0.0 0.0 0.0 0.0 0.0
0.0 0.0 0.0 0.0 0.0 0.0 0.0 0.0
0.0 0.0 0.0 0.0 0.0 0.0 0.0 0.0
0.0 0.0 0.0 0.0 0.0 0.0 0.0 0.0
0.0 0.0 0.0 0.0 0.0 0.0 0.0 0.0
0.0 0.0 0.0 0.0 0.0 0.0 0.0 0.0
00000000: 0000 0000 0000 0000 0000 0000 0000 0000
00000010: 0000 0000 0000 0000 0000 0000 0000 0000
00000020: 0000 0000 0000 0000 0000 0000 0000 0000
00000030: 0000 0000 0000 0000 0000 0000 0000 0000
00000040: 0000 0000 0000 0000 0000 0000 0000 0000
00000050: 0000 0000 0000 0000 0000 0000 0000 0000
00000060: 0000 0000 0000 0000 0000 0000 0000 0000
00000070: 0000 0000 0000 0000 0000 0000 0000 0000
00000080: 0000 0000 0000 0000 0000 0000 0000 0000
00000090: 0000 0000 0000 0000 0000 0000 0000 0000
000000a0: 0000 0000 0000 0000 0000 0000 0000 0000
000000b0: 0000 0000 0000 0000 0000 0000 0000 0000
000000c0: 0000 0000 0000 0000 0000 0000 0000 0000
000000d0: 0000 0000 0000 0000 0000 0000 0000 0000
000000e0: 0000 0000 0000 0000 0000 0000 0000 0000
000000f0: 0000 0000 0000 0000 0000 0000 0000 0000
00000100: 0000 0000 0000 0000 0000 0000 0000 0000
00000110: 0000 0000 0000 0000 0000 0000 0000 0000
00000120: 0000 0000 0000 0000 0000 0000 0000 0000
00000130: 0000 0000 0000 0000 0000 0000 0000 0000
00000140: 0000 0000 0000 0000 0000 0000 0000 0000
00000150: 0000 0000 0000 0000 0000 0000 0000 0000
00000160: 0000 0000 0000 0000 0000 0000 0000 0000
00000170: 0000 0000 0000 0000 0000 0000 0000 0000
00000180: 0000 0000 0000 0000 0000 0000 0000 0000
00000190: 0000 0000 0000 0000 0000 0000 0000 0000
000001a0: 0000 0000 0000 0000 0000 0000 0000 0000
000001b0: 0000 0000 0000 0000 0000 0000 0000 0000
000001c0: 0000 0000 0000 0000 0000 0000 0000 0000
000001d0: 0000 0000 0000 0000 0000 0000 0000 0000
000001e0: 0000 0000 0000 0000 0000 0000 0000 0000
000001f0: 0000 0000 0000 0000 0000 0000 0000 0000

action_model._continuous_distribution.log_sigma f4 [1, 39]
0.0 0.0 0.0 0.0 0.0 0.0 0.0 0.0
0.0 0.0 0.0 0.0 0.0 0.0 0.0 0.0
0.0 0.0 0.0 0.0 0.0 0.0 0.0 0.0
0.0 0.0 0.0 0.0 0.0 0.0 0.0 0.0
0.0 0.0 0.0 0.0 0.0 0.0 0.0
00000000: 0000 0000 0000 0000 0000 0000 0000 0000
00000010: 0000 0000 0000 0000 0000 0000 0000 0000
00000020: 0000 0000 0000 0000 0000 0000 0000 0000
00000030: 0000 0000 0000 0000 0000 0000 0000 0000
00000040: 0000 0000 0000 0000 0000 0000 0000 0000
00000050: 0000 0000 0000 0000 0000 0000 0000 0000
00000060: 0000 0000 0000 0000 0000 0000 0000 0000
00000070: 0000 0000 0000 0000 0000 0000 0000 0000
00000080: 0000 0000 0000 0000 0000 0000 0000 0000
00000090: 0000 0000 0000 0000 0000 0000

action_model._continuous_distribution.mu.weight f4 [39, 128]
0.012132505 0.025342012 0.019779846 -0.009242766 -0.001482554 -0.015018322 -0.04087018 0.021722978
0.023000047 -0.00080146885 -0.019924022 0.042482685 -0.008343364 0.012294563 0.002638595 0.0055159107
0.01000273 -0.0041208095 -0.02675493 0.019534837 -0.033167478 -0.03532071 -0.027251085 0.010795019
0.004016525 0.025807006 -0.005989007 -0.0215895 0.012450933 -0.031940576 0.024658 0.010633994
0.009697986 -0.0041701826 -0.0021133823 -0.007946591 0.009214583 0.011462006 -0.00020083855 -0.013723572
-0.006462083 -0.00020999294 0.001600814 -0.0144088585 0.010051884 0.023856806 0.016732572 0.014785198
-0.010303922 -0.009506155 -0.0030385486 -0.0062908926 0.013584839 -0.012061335 -0.020476235 -0.030269673
0.026201112 0.0012114123 0.008391739 -0.0061561656 0.012455623 0.0153062 -0.015247934 -0.028817091
0.023155537 0.0050763553 0.006432199 -0.0041522183 -0.024362082 -0.0025632295 0.012951027 0.012465771
0.0017509152 -0.00019205107 0.0017837903 -0.012261968 -0.03889863 -0.011728144 -0.045434516 -0.008201353
-0.013317828 0.018522063 -0.00019649358 -0.007008996 -0.0043372004 0.02874956 -0.023162572 -0.008933049
0.040128868 0.004007667 0.03270973 -0.048802096 0.0098917205 -0.008931101 0.0060951817 0.011632216
-0.029339094 -0.029880146 0.006327424 0.010375649 -0.01027361 -0.0019412715 0.006139612 -0.0011263383
-0.007378255 -0.0026387929 -0.008785687 -0.024708195 0.009684939 -0.010236712 -0.0040921518 -0.025219386
0.016107295 -0.0152356615 -0.00802122 -0.027715608 -0.0038312783 -0.01421406 -0.018883456 -0.0044876924
-0.005017608 -0.012731746 -0.014426586 -0.012911453 0.011214058 -0.03673978 0.015880732 -0.0025959238
0.032422587 -0.008340739 0.0127391815 -0.018031077 -0.0022785065 0.004759878 0.0020483143 -0.013084486
0.008326561 -0.012894272 -0.02398343 -0.016326128 -0.006168224 -0.012202489 -0.0060521713 0.008964725
0.012708311 -0.0051342417 0.022605808 -0.018877769 0.005413623 -0.010873974 -0.010903128 -0.017222257
0.017448438 -0.0039438503 0.031267323 -0.010497435 -0.004951015 0.026580637 -0.014213944 0.012766676
0.0155783985 -0.00046197098 0.045403227 0.010609961 0.014602681 0.007758697 -0.015214923 0.0026714762
0.0026575697 0.010484128 -0.019286117 -0.022432199 0.015874365 0.006291501 -0.0066679316 -0.009574823
-0.013671818 -0.0010637749 0.007070569 0.0014414091 0.0020000602 0.008389641 -0.011251687 -0.021505628
0.021248715 -0.003397913 0.0066253105 -0.04639839 0.010459005 -0.012217886 -0.0008132676 0.03840182
0.022086954 0.037355594 -0.014726824 -0.00021216257 0.013850263 0.026538944 -0.026052823 -0.012323047
-0.0010146342 0.011754996 0.013567326 -0.023753455 0.015051319 0.023070976 -0.012476216 -0.015839351
-0.008543071 -0.00029009624 -0.0041338205 -0.017432487 0.0017247064 0.014790704 -0.014356235 -0.00015045957
0.0020485478 0.010862857 0.013226643 -0.018316863 0.0006856945 -0.011135436 0.008493944 0.021483589
0.020240977 -0.0150468 0.006616851 0.0025040116 -0.018256286 -0.0020241048 -0.007863021 0.008769459
0.013630072 -0.026269292 -0.014119878 0.036189344 -0.04566078 -0.015084294 0.0056057065 0.008519686
0.018511599 -0.0133776935 -0.022655463 -0.010376397 -0.011046371 0.035568215 0.0022588891 0.0007655178
-0.00872112 0.010231889 0.0065990463 0.013969143 -0.025364712 0.011437881 0.0327284 -0.0007311022
00000000: 6ac7 463c 0d9a cf3c 5809 a23c f86e 17bc
00000010: 4252 c2ba 680f 76bc 7d67 27bd 63f4 b13c
00000020: 986a bc3c aa19 52ba b437 a3bc 5302 2e3d
00000030: 9bb2 08bc 236f 493c 47ec 2c3b d0be b43b
00000040: 7ee2 233c db07 87bb 282d dbbc 8607 a03c
00000050: 9fda 07bd 73ac 10bd ab3d dfbc 97dd 303c
00000060: 0e9d 833b 3769 d33c 6f3f c4bb 77dc b0bc
00000070: 00ff 4b3c 1fd4 02bd 93ff c93c 343a 2e3c
00000080: 4de4 1e3c 07a6 88bb ac80 0abb 6b32 02bc
00000090: c3f8 163c 23cb 3b3c 3098 52b9 d5d8 60bc
000000a0: e2bf d3bb 8d31 5cb9 68d2 d13a 2213 6cbc
000000b0: a8b0 243c 596f c33c bf12 893c 9d3d 723c
000000c0: c8d1 28bc b4bf 1bbc 6322 47bb d523 cebb
000000d0: f292 5e3c e89c 45bc c7bd a7bc 1bf8 f7bc
000000e0: b7a3 d63c 40c8 9e3a 817d 093c a9b9 c9bb
000000f0: ab12 4c3c dbc6 7a3c 78d2 79bc d211 ecbc
00000100: aeb0 bd3c 8e57 a63b 32c5 d23b 550f 88bb
00000110: fd92 c7bc dbfb 27bb 8b30 543c 3c3d 4c3c
00000120: f77e e53a 5161 49b9 12ce e93a 6ce6 48bc
00000130: 2b54 1fbd 6727 40bc 8b19 3abd f85e 06bc
00000140: 0533 5abc 95bb 973c d809 4eb9 b8ab e5bb
00000150: 131f 8ebb 3284 eb3c 6fbf bdbc ec5b 12bc
00000160: 2b5e 243d bf52 833b a3fa 053d b5e4 47bd
00000170: e210 223c c153 12bc 17ba c73b 0d95 3e3c
00000180: 8a58 f0bc 35c7 f4bc 4856 cf3b a0fe 293c
00000190: a552 28bc 4372 feba cc2e c93b a4a1 93ba
000001a0: 4ac5 f1bb 99ef 2cbb d8f1 0fbc d768 cabc
000001b0: 94ad 1e3c e2b7 27bc 7517 86bb e398 cebc
000001c0: 72f3 833c ff9e 79bc 6f6b 03bc d80b e3bc
000001d0: 2f16 7bbb 17e2 68bc 7ab1 9abc 7e0d 93bb
000001e0: bf6a a4bb d098 50bc 7d5d 6cbc 8f8a 53bc
000001f0: 2bbb 373c 747c 16bd 4f18 823c 6020 2abb
00000200: 8ccd 043d 98a7 08bc 00b8 503c e9b5 93bc
00000210: ff52 15bb c0f8 9b3b 033d 063b 5060 56bc
00000220: 216c 083c 7f42 53bc e678 c4bc 5fbe 85bc
00000230: d01e cabb f3ec 47bc 4b51 c6bb c8e0 123c
00000240: 8536 503c 243d a8bb d12f b93c 8da5 9abc
00000250: c364 b13b c128 32bc 09a3 32bc b115 8dbc
00000260: 07f0 8e3c 6a3b 81bb 2a12 003d 6ffd 2bbc
00000270: 203c a2bb a3bf d93c 9ae1 68bc 522b 513c
00000280: 8a3c 7f3c b234 f2b9 bcf8 393d 67d5 2d3c
00000290: 1540 6f3c ab3c fe3b 0348 79bc ef13 2f3b
000002a0: 9f2a 2e3b 9fc5 2b3c ebfd 9dbc bbc3 b7bc
000002b0: f50a 823c f028 ce3b aa7e dabb b8df 1cbc
000002c0: c3ff 5fbc 5d6e 8bba 3bb0 e73b aaed bc3a
000002d0: 7113 033b b474 093c ff58 38bc 922c b0bc
000002e0: c911 ae3c 85af 5ebb 2219 d93b 3d0c 3ebd
000002f0: 3f5c 2b3c 872d 48bc 7731 55ba 3a4b 1d3d
00000300: b3ef b43c 2e02 193d c748 71bc f577 5eb9
00000310: 37ec 623c 3368 d93c bb6c d5bc 9be6 49bc
00000320: 79fd 84ba 0798 403c 7d49 5e3c 9b96 c2bc
00000330: cf99 763c 58ff bc3c 0b69 4cbc 87c1 81bc
00000340: 3df8 0bbc 0f18 98b9 0075 87bb 93ce 8ebc
00000350: 8b0f e23a b554 723c 6a36 6bbc afc4 1db9
00000360: ee40 063b 20fa 313c 90b4 583c 3f0d 96bc
00000370: 2ec0 333a 6771 36bc 2f2a 0b3c 5afe af3c
00000380: 68d0 a53c da86 76bc 2bd2 d83b 581a 243b
00000390: 358e 95bc d8a6 04bb e7d3 00bc c7ad 0f3c
000003a0: aa50 5f3c b332 d7bc 1057 67bc 473b 143d
000003b0: cc06 3bbd 1d24 77bc 13b0 b73b 2796 0b3c
000003c0: a3a5 973c 1d2e 5bbc f397 b9bc c301 2abc
000003d0: d7fb 34bc faaf 113d df09 143b 08ad 483a
000003e0: 07e3 0ebc a7a3 273c d03c d83b d5de 643c
000003f0: a8c9 cfbc f365 3b3c 370e 063d 70a7 3fba

action_model._continuous_distribution.mu.bias f4 [39]
0.0 0.0 0.0 0.0 0.0 0.0 0.0 0.0
0.0 0.0 0.0 0.0 0.0 0.0 0.0 0.0
0.0 0.0 0.0 0.0 0.0 0.0 0.0 0.0
0.0 0.0 0.0 0.0 0.0 0.0 0.0 0.0
0.0 0.0 0.0 0.0 0.0 0.0 0.0
00000000: 0000 0000 0000 0000 0000 0000 0000 0000
00000010: 0000 0000 0000 0000 0000 0000 0000 0000
00000020: 0000 0000 0000 0000 0000 0000 0000 0000
00000030: 0000 0000 0000 0000 0000 0000 0000 0000
00000040: 0000 0000 0000 0000 0000 0000 0000 0000
00000050: 0000 0000 0000 0000 0000 0000 0000 0000
00000060: 0000 0000 0000 0000 0000 0000 0000 0000
00000070: 0000 0000 0000 0000 0000 0000 0000 0000
00000080: 0000 0000 0000 0000 0000 0000 0000 0000
00000090: 0000 0000 0000 0000 0000 0000

network_body._body_endoder.seq_layers.0.weight f4 [128, 243]
-0.03646144 -0.0819405 0.010804553 0.054913606 -0.051156253 0.08030653 -0.003708489 0.1151245
-0.03854203 0.073101826 0.13977034 0.058817606 -0.09549142 0.018856239 0.014311976 -0.027388185
-0.10532584 -0.07781848 0.041401386 -0.026814552 -0.04097412 0.0034450346 0.016227415 -0.008584145
0.08325935 0.0033667455 -0.062426154 0.064277686 -0.10402257 -0.0033737803 -0.031202056 0.027629582
-0.122791894 -0.07647239 0.00037924462 -0.013944847 0.091440834 -0.07097744 -0.11583337 -0.0420317
-0.027279478 -0.03924118 -0.03355408 0.0102558145 0.020141952 -0.0028764477 0.022927135 0.013265903
0.04724892 -0.10022854 -0.016975041 0.032269668 0.026821405 0.08045325 -0.009430401 -0.12658876
0.052792907 0.018453427 0.01928548 0.09632726 0.051989567 -0.045907874 -0.051102195 -0.05340229
-0.16169079 -0.042739123 0.058476195 0.06584001 0.02204911 0.04362077 0.021037506 0.0574
-0.0268769 0.027118921 -0.0021019531 -0.11182808 -0.109768465 -0.044830576 -0.008727679 -0.008509325
0.10055007 -0.040576033 0.07561199 -0.072501734 -0.03784645 -0.084073946 -0.0051628817 0.03305069
-0.020048195 -0.028875623 0.0473182 -0.01759994 0.03250583 -0.100682855 -0.019113738 -0.067360476
0.12398116 -0.09974022 -0.018187115 -0.0071455217 0.09375143 0.07481749 -0.0011944693 -0.035175618
0.00014078135 -0.03609786 -0.016977785 -0.058772996 0.014980115 0.03169052 0.14013483 -0.11752101
0.017712321 -0.06383262 -0.010541361 -0.042277675 0.012522501 -0.06560495 -0.07261976 -0.13875733
-0.10901537 -0.00865607 -0.04369107 0.016867219 0.03341748 -0.10855604 -0.1478901 -0.01341848
-0.074204065 0.08033291 0.07972247 -0.07759697 -0.0031699105 0.018775417 -0.009704296 0.007901831
-0.061841123 -0.16753945 0.06169777 -0.11420677 0.021402145 0.05577026 0.059286956 -0.034984615
0.11580611 -0.0047992086 0.100892864 0.03420177 0.017620131 0.0042489655 -0.03973822 -0.04613041
0.04776838 0.022612376 0.032473862 -0.014413391 0.05559723 0.13880728 0.015949167 -0.039847367
0.0157973 -0.012183515 -0.044980735 0.0334996 -0.026916098 -0.011664149 -0.10859037 -0.04194423
0.07564542 0.09988649 -0.116746545 0.01699991 0.020563638 -0.06705737 -0.034503803 0.03455979
0.07649585 0.06890762 0.1046501 -0.026350424 0.12306505 -0.022944236 -0.078617655 -0.06630292
0.11597906 -0.00032091158 0.03560317 -0.039101053 0.013704813 -0.1494371 0.035384074 0.030533206
-0.0515705 0.032174323 0.100033686 -0.027803117 0.054958567 -0.0071394728 0.016045813 0.021501414
-0.02822748 0.006252565 -0.038189776 -0.06947269 -0.110833555 -0.06028488 -0.0076845735 0.06281667
-0.05007239 0.11681749 -0.03492539 0.033001598 -0.02820381 -0.07446848 0.014325497 -0.033467755
0.00667236 0.03460859 0.06555733 0.060894404 -0.02502161 0.00959214 -0.015489919 -0.021325462
0.0060481094 0.018323477 0.044143103 0.093788445 -0.017031189 0.10903494 0.015405312 0.06736701
0.081457555 0.043956965 -0.0053736935 -0.030445525 0.016445907 -0.015396556 0.048552003 -0.04392184
-0.017707363 -0.06471508 0.02741319 -0.047682974 0.11021232 0.00348503 0.021385327 -0.037845697
0.033277094 0.0022107584 0.03047801 0.078199685 -0.11590667 -0.0089656105 0.051642817 0.04467143
00000000: 9758 15bd 6cd0 a7bd 9405 313c 17ed 603d
00000010: 3889 51bd c077 a43d 1f0a 73bb 65c6 eb3d
00000020: 3fde 1dbd 69b6 953d f51f 0f3e bbea 703d
00000030: 0191 c3bd 6678 9a3c c77c 6a3c 305d e0bc
00000040: 13b5 d7bd 4c5f 9fbd 8094 293d 31aa dbbc
00000050: 7bd4 27bd 17c6 613b 5bef 843c 84a4 0cbc
00000060: e183 aa3d 9ea4 5c3b 91b2 7fbd 05a4 833d
00000070: c909 d5bd a41a 5dbb 749b ffbc 6f57 e23c
00000080: 517a fbbd 8e9d 9cbd 5ad5 c639 ed78 64bc
00000090: 5545 bb3d 9f5c 91bd 0c3a edbd 6f29 2cbd
000000a0: 3679 dfbc 5cbb 20bd 0170 09bd 0108 283c
000000b0: bc00 a53c c982 3cbb b0d1 bb3c 3b59 593c
000000c0: 1588 413d 9f44 cdbd 3e0f 8bbc 332d 043d
000000d0: 90b8 db3c acc4 a43d f881 1abc 7ca0 01be
000000e0: 603d 583d a42b 973c 95fc 9d3c 3a47 c53d
000000f0: 03f3 543d e509 3cbd 8950 51bd 5cbc 5abd
00000100: 4592 25be 380f 2fbd bc84 6f3d 21d7 863d
00000110: 56a0 b43c b1ab 323d d956 ac3c 431c 6b3d
00000120: f22c dcbc 8028 de3c ecc0 09bb 1f06 e5bd
00000130: 4ace e0bd 44a0 37bd 8afe 0ebc b26a 0bbc
00000140: 32ed cd3d 0e33 26bd 76da 9a3d ca7b 94bd
00000150: e104 1bbd f62e acbd 642d a9bb 2960 073d
00000160: 1d3c a4bc 928c ecbc bbd0 413d c02d 90bc
00000170: d524 053d d032 cebd 6a94 9cbc 4af4 89bd
00000180: d6e9 fd3d 9a44 ccbd 25fd 94bc fb24 eabb
00000190: c000 c03d ea39 993d bd8f 9cba 4f14 10bd
000001a0: b59e 1339 5adb 13bd ff14 8bbc f4bb 70bd
000001b0: 286f 753c ebcd 013d 817f 0f3e dbae f0bd
000001c0: 6e19 913c adba 82bd acb5 2cbc 5b2b 2dbd
000001d0: 2d2b 4d3c e35b 86bd abb9 94bd 6716 0ebe
000001e0: 7343 dfbd 30d2 0dbc 68f5 32bd 1f2d 8a3c
000001f0: c4e0 083d a152 debd 8170 17be 2fd9 5bbc
00000200: 4df8 97bd 9585 a43d 8945 a33d 29eb 9ebd
00000210: 46be 4fbb e7ce 993c c4fe 1ebc ae76 013c
00000220: 1e4d 7dbd 768f 2bbe cdb6 7c3d 3de5 e9bd
00000230: 8d53 af3c 5b6f 643d e1d6 723d 074c 0fbd
00000240: c12b ed3d ae42 9dbb eba0 ce3d 2817 0c3d
00000250: 1858 903c e83a 8b3b 8bc4 22bd 3ef3 3cbd
00000260: c7a8 433d 973d b93c 5003 053d 2526 6cbc
00000270: ecb9 633d 7f23 0e3e d4a7 823c fe36 23bd
00000280: 5769 813c 5e9d 47bc b83d 38bd e036 093d
00000290: 267f dcbc fd1a 3fbc a164 debd b7cd 2bbd
000002a0: fceb 9a3d 4a91 cc3d d018 efbd 6543 8b3c
000002b0: 1375 a83c 6055 89bd dc53 0dbd 918e 0d3d
000002c0: dba9 9c3d 701f 8d3d cb52 d63d d8dc d7bc
000002d0: 8709 fc3d 8df5 bbbc 4b02 a1bd d3c9 87bd
000002e0: 6e86 ed3d 0640 a8b9 a1d4 113d 6d28 20bd
000002f0: 278a 603c 0a06 19be e4ee 103d c620 fa3c
00000300: 973b 53bd 39c9 033d 76de cc3d 5dc3 e3bc
00000310: 3c1c 613d 3df2 e9bb 8272 833c bc23 b03c
00000320: 513d e7bc 51e2 cc3b e26c 1cbd b347 8ebd
00000330: b4fc e2bd 47ed 76bd e0ce fbbb 07a6 803d
00000340: b518 4dbd 023e ef3d ed0d 0fbd af2c 073d
00000350: ad0b e7bc ee82 98bd 7db5 6a3c 7c15 09bd
00000360: d0a3 da3b bdc1 0d3d ec42 863d 696c 793d
00000370: 1ffa ccbc 5a28 1d3c 6ec9 7dbc bcb2 aebc
00000380: 382f c63b 1e1b 963c 66cf 343d 2814 c03d
00000390: fe84 8bbc b64d df3d 9066 7c3c b7f7 893d
000003a0: 38d3 a63d 380c 343d cf15 b0bb e568 f9bc
000003b0: 91b9 863c d641 7cbc 77de 463d 63e7 33bd
000003c0: 080f 91bc 5789 84bd a091 e03c 394f 43bd
000003d0: ffb6 e13d 1a65 643b 4830 af3c 1704 1bbd
000003e0: 904d 083d 5fe2 103b 05ad f93c 2827 a03d
000003f0: 7a60 edbd 7fe4 12bc 6b87 533d 64f9 363d

network_body._body_endoder.seq_layers.0.bias f4 [128]
0.0 0.0 0.0 0.0 0.0 0.0 0.0 0.0
0.0 0.0 0.0 0.0 0.0 0.0 0.0 0.0
0.0 0.0 0.0 0.0 0.0 0.0 0.0 0.0
0.0 0.0 0.0 0.0 0.0 0.0 0.0 0.0
0.0 0.0 0.0 0.0 0.0 0.0 0.0 0.0
0.0 0.0 0.0 0.0 0.0 0.0 0.0 0.0
0.0 0.0 0.0 0.0 0.0 0.0 0.0 0.0
0.0 0.0 0.0 0.0 0.0 0.0 0.0 0.0
0.0 0.0 0.0 0.0 0.0 0.0 0.0 0.0
0.0 0.0 0.0 0.0 0.0 0.0 0.0 0.0
0.0 0.0 0.0 0.0 0.0 0.0 0.0 0.0
0.0 0.0 0.0 0.0 0.0 0.0 0.0 0.0
0.0 0.0 0.0 0.0 0.0 0.0 0.0 0.0
0.0 0.0 0.0 0.0 0.0 0.0 0.0 0.0
0.0 0.0 0.0 0.0 0.0 0.0 0.0 0.0
0.0 0.0 0.0 0.0 0.0 0.0 0.0 0.0
00000000: 0000 0000 0000 0000 0000 0000 0000 0000
00000010: 0000 0000 0000 0000 0000 0000 0000 0000
00000020: 0000 0000 0000 0000 0000 0000 0000 0000
00000030: 0000 0000 0000 0000 0000 0000 0000 0000
00000040: 0000 0000 0000 0000 0000 0000 0000 0000
00000050: 0000 0000 0000 0000 0000 0000 0000 0000
00000060: 0000 0000 0000 0000 0000 0000 0000 0000
00000070: 0000 0000 0000 0000 0000 0000 0000 0000
00000080: 0000 0000 0000 0000 0000 0000 0000 0000
00000090: 0000 0000 0000 0000 0000 0000 0000 0000
000000a0: 0000 0000 0000 0000 0000 0000 0000 0000
000000b0: 0000 0000 0000 0000 0000 0000 0000 0000
000000c0: 0000 0000 0000 0000 0000 0000 0000 0000
000000d0: 0000 0000 0000 0000 0000 0000 0000 0000
000000e0: 0000 0000 0000 0000 0000 0000 0000 0000
000000f0: 0000 0000 0000 0000 0000 0000 0000 0000
00000100: 0000 0000 0000 0000 0000 0000 0000 0000
00000110: 0000 0000 0000 0000 0000 0000 0000 0000
00000120: 0000 0000 0000 0000 0000 0000 0000 0000
00000130: 0000 0000 0000 0000 0000 0000 0000 0000
00000140: 0000 0000 0000 0000 0000 0000 0000 0000
00000150: 0000 0000 0000 0000 0000 0000 0000 0000
00000160: 0000 0000 0000 0000 0000 0000 0000 0000
00000170: 0000 0000 0000 0000 0000 0000 0000 0000
00000180: 0000 0000 0000 0000 0000 0000 0000 0000
00000190: 0000 0000 0000 0000 0000 0000 0000 0000
000001a0: 0000 0000 0000 0000 0000 0000 0000 0000
000001b0: 0000 0000 0000 0000 0000 0000 0000 0000
000001c0: 0000 0000 0000 0000 0000 0000 0000 0000
000001d0: 0000 0000 0000 0000 0000 0000 0000 0000
000001e0: 0000 0000 0000 0000 0000 0000 0000 0000
000001f0: 0000 0000 0000 0000 0000 0000 0000 0000

network_body._body_endoder.seq_layers.2.weight f4 [128, 128]
-0.032992255 -0.21909332 -0.049585696 0.10460985 -0.13419513 -0.030210963 0.003940281 -0.084649265
-0.0047286632 0.08010143 -0.046762772 0.13082252 0.0715422 -0.0048850053 -0.00987527 0.036689278
-0.08678176 -0.073727295 0.057807416 0.23594442 -0.060341425 0.066635154 0.056511678 0.11036773
0.013317748 0.105295934 0.108096436 -0.00019943382 -0.10278513 0.005320536 -0.05070679 0.15577663
0.037971646 -0.06562209 -0.02620707 -0.12081258 -0.18466565 -0.08597108 0.08238105 -0.039121315
0.090045854 0.059344426 0.007344409 0.030828256 0.09642753 -0.067259 0.099223614 -0.048079584
0.060639266 -0.1974035 -0.124112144 0.08229238 0.02440699 -0.03337054 -0.14209135 0.11190508
-0.052034404 0.015372187 0.04281061 -0.20276397 0.090481654 -0.10581102 -0.0087762335 0.008087139
-0.0072210273 0.089124545 -0.054089177 0.08255089 -0.2264643 0.14074656 -0.039354056 -0.09938681
-0.12479562 -0.002088756 -0.01761598 -0.099711105 -0.12238691 -0.050393663 -0.0693586 -0.122012176
0.18658157 -0.1330577 0.052090023 -0.067961454 -0.11148299 -0.071993336 -0.0018839787 -0.0020089038
0.035087653 0.108793944 0.1770556 -0.03429076 -0.12057738 -0.077688485 -0.13402764 -0.16375533
0.055116665 0.008594635 -0.029997181 -0.058769234 -0.12388673 0.07121336 -0.14551474 -0.06714812
-0.014853441 -0.016502103 -0.0029189442 0.02650622 0.102204055 0.150016 -0.018018572 -0.037845626
-0.074918985 -0.13708979 0.12900995 -0.07606936 -0.014315605 -0.06389615 0.114493705 0.122153826
-0.048387468 0.031623546 0.10765032 0.14258899 0.07405065 -0.11394519 0.025365403 0.11661293
0.05978573 -0.09242175 -0.0027405368 -0.076338135 -0.099534534 -0.09403126 -0.078438915 0.11532958
0.06688174 0.0688915 -0.029061804 0.058461662 -0.0071557933 0.060740884 -0.00057740114 -0.02702226
-0.024914337 -0.069582716 0.16388816 0.020751307 -0.044375047 -0.09766421 -0.15015773 -0.037323557
-0.09080583 0.14722255 -0.022351364 -0.00074963056 -0.06854639 -0.043275025 0.11891794 0.03892192
-0.024404874 0.03565491 -0.07488967 -0.06438466 0.056422893 -0.08223052 -0.016047742 -0.063285634
-0.16050361 0.027585512 0.023717023 -0.16212916 0.037924197 -0.04451969 0.091050096 0.017478082
-0.11234904 0.00018068081 -0.13201904 0.068832316 0.058204144 -0.034456845 -0.05497369 -0.027405413
0.00053255534 -0.07231156 0.22438738 0.032703105 0.012025324 0.076667085 -0.08628059 -0.09333858
-0.0039509167 0.2127381 -0.0043176655 0.036996286 -0.01045176 0.08160174 -0.04260455 0.021608792
-0.08368907 -0.046418674 -0.12237763 0.11057431 0.067853175 -0.09771204 0.07933062 -0.13774188
0.051894028 0.09369851 -0.027294796 0.21410657 0.1474328 -0.0398715 0.035965413 -0.04970037
-0.04539333 0.03483056 -0.18465877 -0.012449315 0.2004622 0.007451701 0.011921149 0.10970977
0.0005952179 -0.07359674 -0.107563004 0.13231911 -0.040620863 -0.038254257 -0.09068281 -0.015788486
0.014839557 0.13097304 0.047409404 -0.06233733 -0.031124974 0.02363644 0.0515903 -0.0077974335
0.020471955 -0.02182834 0.1519542 0.09564364 0.0814395 -0.13936949 0.16595198 0.026141416
-0.15556099 0.16832939 -0.028311424 -0.04897278 0.20990287 -0.09215758 -0.25217015 0.06483369
00000000: e322 07bd 005a 60be 5f1a 4bbd b03d d63d
00000010: 736a 09be fb7c f7bc 791d 813b 985c adbd
00000020: e7f2 9abb 380c a43d 528a 3fbd 57f6 053e
00000030: b884 923d 6512 a0bb e2cb 21bc 7f47 163d
00000040: a3ba b1bd 56fe 96bd 78c7 6c3d 6a9b 713e
00000050: 9228 77bd 0378 883d ca78 673d 7a08 e23d
00000060: af32 5a3c 65a5 d73d aa61 dd3d 1c1f 51b9
00000070: 0381 d2bd e457 ae3b ecb1 4fbd e983 1f3e
00000080: 2888 1b3d e064 86bd 36b0 d6bc 966c f7bd
00000090: fe18 3dbe 9b11 b0bd 65b7 a83d ac3d 20bd
000000a0: f669 b83d 2413 733d 5ea9 f03b 8a8b fc3c
000000b0: cc7b c53d 16bf 89bd c035 cb3d 19ef 44bd
000000c0: e160 783d 2524 4abe 822e febd e888 a83d
000000d0: 2bf1 c73c 8caf 08bd 6580 11be 7e2e e53d
000000e0: 0722 55bd a0db 7b3c 2e5a 2f3d 5ca1 4fbe
000000f0: 724e b93d 73b3 d8bd 31ca 0fbc eb7f 043c
00000100: 5e9e ecbb ee86 b63d 9d8c 5dbd 7110 a93d
00000110: 42e6 67be de1f 103e b831 21bd 508b cbbd
00000120: d994 ffbd 83e3 08bb 634f 90bc 5635 ccbd
00000130: fda5 fabd 9669 4ebd e20b 8ebd 85e1 f9bd
00000140: 3d0f 3f3e 4740 08be 595c 553d 602f 8bbd
00000150: 3251 e4bd 3e71 93bd d6ef f6ba d0a7 03bb
00000160: 12b8 0f3d 5ccf de3d 104e 353e 7874 0cbd
00000170: 46f1 f6bd 241b 9fbd 8b3e 09be 7aaf 27be
00000180: 03c2 613d 83d0 0c3c a6bc f5bc 02b8 70bd
00000190: 53b8 fdbd 4fd8 913d d101 15be f484 89bd
000001a0: d95b 73bc 6b2f 87bc c24b 3fbb 9323 d93c
000001b0: 5c50 d13d cb9d 193e af9b 93bc 0404 1bbd
000001c0: 206f 99bd 4461 0cbe 2f1b 043e 41ca 9bbd
000001d0: 008c 6abc fcdb 82bd ad7b ea3d c92b fa3d
000001e0: f031 46bd b187 013d c577 dc3d d902 123e
000001f0: dea7 973d 195c e9bd 1bcb cf3c c3d2 ee3d
00000200: e2e1 743d 9d47 bdbd 949a 33bb 2b57 9cbd
00000210: c3d8 cbbd 7693 c0bd 95a4 a0bd ea31 ec3d
00000220: 4bf9 883d fd16 8d3d 0513 eebc 7f75 6f3d
00000230: 257b eabb 6fcb 783d bc5c 17ba c95d ddbc
00000240: 2719 ccbc 6281 8ebd 4cd2 273e a5fe a93c
00000250: 9cc2 35bd 2c04 c8bd f3c2 19be 96e0 18bd
00000260: 68f8 b9bd 82c1 163e 351a b7bc db82 44ba
00000270: 0d62 8cbd 2741 31bd 408b f33d 976c 1f3d
00000280: bbec c7bc e20a 123d c15f 99bd 1bdc 83bd
00000290: b11b 673d 7a68 a8bd 8e76 83bc e69b 81bd
000002a0: 0f5b 24be 03fb e13c 344a c23c 3005 26be
000002b0: 6756 1b3d 475a 36bd 7978 ba3d 322e 8f3c
000002c0: 4117 e6bd 2375 3d39 0030 07be f5f7 8c3d
000002d0: 7867 6e3d 9f22 0dbd 182c 61bd 5181 e0bc
000002e0: 2f9b 0b3a 1518 94bd cec5 653e b1f3 053d
000002f0: dd05 453c a203 9d3d e1b3 b0bd 4c28 bfbd
00000300: b176 81bb 04d8 593e 347b 8dbb 6b89 173d
00000310: dc3d 2bbc d01e a73d 1c82 2ebd ec04 b13c
00000320: 2d65 abbd 8221 3ebd 1fa1 fabd c974 e23d
00000330: 9bf6 8a3d 401d c8bd 1878 a23d 350c 0dbe
00000340: d58e 543d 01e5 bf3d 5699 dfbc c13e 5b3e
00000350: a0f8 163e 4c50 23bd 7850 133d 9d92 4bbd
00000360: 5bee 39bd 7daa 0e3d 3017 3dbe 36f8 4bbc
00000370: f745 4d3e 662d f43b ec50 433c 84af e03d
00000380: 6608 1c3a e3b9 96bd fe49 dcbd a97e 073e
00000390: 1062 26bd 7fb0 1cbd e9b7 b9bd db56 81bc
000003a0: 9d21 733c cc1d 063e 5d30 423d 6e55 7fbd
000003b0: cdf9 febc 35a1 c13c 5a50 533d 9d81 ffbb
000003c0: cdb4 a73c 59d1 b2bc e299 1b3e d0e0 c33d
000003d0: c1c9 a63d e0b6 0ebe 51ef 293e 8626 d63c
000003e0: 614b 1fbe 8a5e 2c3e 5ced e7bc af97 48bd
000003f0: c7f0 563e 1dbd bcbd 721c 81be 87c7 843d

network_body._body_endoder.seq_layers.2.bias f4 [128]
0.0 0.0 0.0 0.0 0.0 0.0 0.0 0.0
0.0 0.0 0.0 0.0 0.0 0.0 0.0 0.0
0.0 0.0 0.0 0.0 0.0 0.0 0.0 0.0
0.0 0.0 0.0 0.0 0.0 0.0 0.0 0.0
0.0 0.0 0.0 0.0 0.0 0.0 0.0 0.0
0.0 0.0 0.0 0.0 0.0 0.0 0.0 0.0
0.0 0.0 0.0 0.0 0.0 0.0 0.0 0.0
0.0 0.0 0.0 0.0 0.0 0.0 0.0 0.0
0.0 0.0 0.0 0.0 0.0 0.0 0.0 0.0
0.0 0.0 0.0 0.0 0.0 0.0 0.0 0.0
0.0 0.0 0.0 0.0 0.0 0.0 0.0 0.0
0.0 0.0 0.0 0.0 0.0 0.0 0.0 0.0
0.0 0.0 0.0 0.0 0.0 0.0 0.0 0.0
0.0 0.0 0.0 0.0 0.0 0.0 0.0 0.0
0.0 0.0 0.0 0.0 0.0 0.0 0.0 0.0
0.0 0.0 0.0 0.0 0.0 0.0 0.0 0.0
00000000: 0000 0000 0000 0000 0000 0000 0000 0000
00000010: 0000 0000 0000 0000 0000 0000 0000 0000
00000020: 0000 0000 0000 0000 0000 0000 0000 0000
00000030: 0000 0000 0000 0000 0000 0000 0000 0000
00000040: 0000 0000 0000 0000 0000 0000 0000 0000
00000050: 0000 0000 0000 0000 0000 0000 0000 0000
00000060: 0000 0000 0000 0000 0000 0000 0000 0000
00000070: 0000 0000 0000 0000 0000 0000 0000 0000
00000080: 0000 0000 0000 0000 0000 0000 0000 0000
00000090: 0000 0000 0000 0000 0000 0000 0000 0000
000000a0: 0000 0000 0000 0000 0000 0000 0000 0000
000000b0: 0000 0000 0000 0000 0000 0000 0000 0000
000000c0: 0000 0000 0000 0000 0000 0000 0000 0000
000000d0: 0000 0000 0000 0000 0000 0000 0000 0000
000000e0: 0000 0000 0000 0000 0000 0000 0000 0000
000000f0: 0000 0000 0000 0000 0000 0000 0000 0000
00000100: 0000 0000 0000 0000 0000 0000 0000 0000
00000110: 0000 0000 0000 0000 0000 0000 0000 0000
00000120: 0000 0000 0000 0000 0000 0000 0000 0000
00000130: 0000 0000 0000 0000 0000 0000 0000 0000
00000140: 0000 0000 0000 0000 0000 0000 0000 0000
00000150: 0000 0000 0000 0000 0000 0000 0000 0000
00000160: 0000 0000 0000 0000 0000 0000 0000 0000
00000170: 0000 0000 0000 0000 0000 0000 0000 0000
00000180: 0000 0000 0000 0000 0000 0000 0000 0000
00000190: 0000 0000 0000 0000 0000 0000 0000 0000
000001a0: 0000 0000 0000 0000 0000 0000 0000 0000
000001b0: 0000 0000 0000 0000 0000 0000 0000 0000
000001c0: 0000 0000 0000 0000 0000 0000 0000 0000
000001d0: 0000 0000 0000 0000 0000 0000 0000 0000
000001e0: 0000 0000 0000 0000 0000 0000 0000 0000
000001f0: 0000 0000 0000 0000 0000 0000 0000 0000

value_heads.value_heads.extrinsic.weight f4 [1, 128]
-0.07664722 -0.13527952 -0.043625146 0.15869677 -0.062421247 -0.00094373524 -0.013383329 0.1367957
-0.16982685 -0.14952156 -0.20718384 -0.012141749 -0.09792573 -0.10372442 -0.16311063 -0.059250996
-0.17938782 0.059267014 0.02759771 0.071264714 -0.12361095 0.115513384 -0.0112966 -0.07420257
-0.098722234 -0.21464986 0.016799644 -0.07710166 0.12424728 0.046124697 -0.14307722 -0.20815724
-0.02923964 0.16651666 -0.078487396 -0.029051065 -0.16347596 -0.016622186 -0.081638426 -0.054232657
-0.12394759 -0.11967172 -0.16885903 0.10801825 -0.17312768 -0.17309652 -0.15676019 -0.15783289
0.09099713 0.008089051 0.019940674 -0.19050395 -0.1397222 0.06334081 -0.16728145 -0.102182426
0.12387505 0.019744903 -0.062237605 0.16730666 -0.041975066 -0.0611241 -0.103646725 -0.21010259
0.052515775 0.06510529 -0.1505292 -0.05715239 0.06345123 -0.034408122 0.065010995 -0.14002684
0.18587387 0.06287941 -0.111110434 -0.07984114 -0.2142946 -0.1565463 -0.20783855 0.11684415
-0.16368829 0.037291586 -0.13236503 -0.21063168 -0.18212816 -0.13429704 -0.12918517 -0.19721183
0.15153104 0.017128587 -0.08327164 0.20776758 -0.12158436 0.0061662793 -0.20318392 -0.16667059
-0.21456614 0.017771095 -0.16232225 -0.14913258 -0.11859568 -0.19172926 -0.13514987 0.21239784
0.050801784 -0.09489221 -0.15075347 -0.08685051 -0.07152319 -0.104892015 0.12948701 0.03248036
-0.1431655 -0.10083552 -0.17828986 -0.049148202 0.1851168 -0.11391092 0.11179191 -0.12523198
-0.20185961 0.07685134 0.18062472 0.018493399 0.15066764 -0.07518749 0.18293822 -0.17661273
00000000: 38f9 9cbd b786 0abe 48b0 32bd 6881 223e
00000010: 6cad 7fbd 0065 77ba c045 5bbc 2c14 0c3e
00000020: 17e7 2dbe 2e1c 19be 0028 54be 30ee 46bc
00000030: 498d c8bd 786d d4bd 7906 27be 2cb1 72bd
00000040: 71b1 37be f8c1 723d 9814 e23c 3cf3 913d
00000050: bd27 fdbd 4892 ec3d 6015 39bc 84f7 97bd
00000060: e22e cabd 2ccd 5bbe 689f 893c 7ae7 9dbd
00000070: 5c75 fe3d 40ed 3c3d d682 12be 2c27 55be
00000080: f887 efbc 5883 2a3e 00be a0bd 80fc edbc
00000090: 3e66 27be 402b 88bc 0c32 a7bd 1023 5ebd
000000a0: 3cd8 fdbd 7216 f5bd 62e9 2cbe ac38 dd3d
000000b0: 6248 31be 3740 31be be85 20be f29e 21be
000000c0: b45c ba3d f087 043c a05a a33c 7813 43be
000000d0: 5613 0fbe d4b8 813d d44b 2bbe 0545 d1bd
000000e0: 34b2 fd3d 10c0 a13c dcec 7ebd 7052 2b3e
000000f0: 0cee 2bbd 445d 7abd bc44 d4bd 2225 57be
00000100: c81a 573d ec55 853d 5424 1abe a018 6abd
00000110: b8f2 813d 88ef 0cbd 7c24 853d 3263 0fbe
00000120: b855 3e3e ecc6 803d de8d e3bd c083 a3bd
00000130: 0b70 5bbe ac4d 20be a1d3 54be fc4b ef3d
00000140: e79d 27be 10bf 183d b38a 07be d5af 57be
00000150: ce7f 3abe 2a85 09be 1e49 04be e6f1 49be
00000160: f42a 1b3e 4051 8c3c 528a aabd 06c1 543e
00000170: 3901 f9bd 800e ca3b 720f 50be b2ab 2abe
00000180: 3ab7 5bbe b094 913c ce37 26be 36b6 18be
00000190: 4be2 f2bd ad54 44be ba64 0abe d27e 593e
000001a0: 8815 503d d956 c2bd 1e5f 1abe aede b1bd
000001b0: c07a 92bd a0d1 d6bd 3e98 043e 200a 053d
000001c0: fa99 12be da82 cebd 9e91 36be a04f 49bd
000001d0: 428f 3d3e 214a e9bd 28f3 e43d d03c 00be
000001e0: 49b4 4ebe 3c64 9d3d b0f5 383e 787f 973c
000001f0: 9e48 1a3e e6fb 99bd 2854 3b3e f8d9 34be
