Assets/ML-Agents/Examples/FirstTRexScene/results/trmodel/My Behavior/My Behavior-5184.pt (torch, 411191 bytes, 12 tensors)

network_body._body_endoder.seq_layers.0.weight f4 [128, 243]
000000 84 6c 99 3d 01 42 4a 3b 8f 23 d7 3c 1e a0 55 bd
       0.07491401 0.0030862095 0.026262073 -0.052154653
000010 81 30 7f bb 71 42 64 3d c9 da 5f 3c dc c0 30 3c
       -0.0038938823 0.055727426 0.013663002 0.010788169
000020 63 14 48 3c 66 69 88 3c 80 45 e0 bc 02 d0 fe bd
       0.012211892 0.01665182 -0.02737689 -0.12442018
000030 4d 71 b8 3c 16 ba 74 bd c2 0d 9a 3d 86 26 07 3e
       0.022514964 -0.059747778 0.07522155 0.1319829
000040 53 f5 9b 3d e1 f1 50 3d 4d d3 f1 bc af 6d a7 3d
       0.07615151 0.051011924 -0.029519701 0.08175217
000050 7d 99 11 3d ae 29 61 bd d4 cc bd 3b 45 b4 53 3c
       0.03554677 -0.05497139 0.0057922397 0.012921398
000060 16 1d 21 3d 27 5c ad 3d 6e ed d6 bc 64 48 60 bd
       0.03933438 0.08464842 -0.026236262 -0.054756537
000070 cc f7 44 3d a6 3a 0b 3d 4f 49 a0 bd 32 69 a5 3c
       0.04808788 0.03399148 -0.078264825 0.020191763
000080 1d 5a 01 3d 88 aa 45 3d e3 a0 97 3c 69 c9 87 3d
       0.03158008 0.048258334 0.018509334 0.06630213
000090 19 0f 45 3c da 78 fa 3c 89 e8 6d 3e 36 79 ba bc
       0.012027525 0.030575205 0.23233236 -0.022762876
0000a0 ff 81 21 bd 5c 58 db 3c 01 73 a3 bd 46 29 25 bd
       -0.039430615 0.026775531 -0.0798092 -0.040322565
0000b0 87 d7 27 be 11 a3 c8 bc 69 57 7a 3c d2 42 fc 3c
       -0.16390811 -0.024491819 0.015279629 0.030793581
0000c0 a3 83 8c bd bc a5 f9 bd 5c eb 26 3e 04 af ed 3c
       -0.06861045 -0.121898144 0.1630072 0.029014118
0000d0 57 c5 67 3d 46 54 5c bd fb 3c d0 3d 62 d1 3a bd
       0.056584682 -0.053791307 0.10167881 -0.04560984
0000e0 ca d8 15 3d 4c 90 40 bd 54 90 2c 3d 35 73 d2 3d
       0.0365837 -0.047012612 0.04212983 0.1027588
0000f0 c5 f2 e0 3d d9 8e b5 bc 73 03 a3 bc c8 89 00 3e
       0.109838046 -0.022162842 -0.019899106 0.1255256
000100 7f 15 30 3d fb 2b 57 bc fe 61 c4 bd 88 26 be 3d
       0.04298925 -0.013133044 -0.09589003 0.09284693
000110 6f 5b 3b bd be 71 12 bd c9 d5 e0 bb 02 e8 ab bd
       -0.045741495 -0.035753004 -0.0068614227 -0.08393861
000120 f2 02 30 bd 23 d1 b0 bd 00 ab ed 3d 72 0d a6 bb
       -0.04297156 -0.0863364 0.11604881 -0.005067521
000130 07 87 8c 3b 7b 96 29 3e 3f f8 42 3e 03 1e 13 be
       0.0042885575 0.1656131 0.19040011 -0.14366917
000140 4e 72 f5 3d 71 00 d3 bd d3 d7 63 3b 78 43 ae bd
       0.119846925 -0.103028186 0.0034766092 -0.085089624
000150 85 b0 53 bc 7d 1c 62 bd 7d 5d 36 3d 8c 11 4e 3d
       -0.0129205035 -0.05520295 0.04452275 0.050309703
000160 8e 27 8d 3c de 35 91 b9 58 42 a2 3d 01 bc a9 3d
       0.017230775 -0.0002769669 0.0792281 0.08287812
000170 f5 f5 20 bd db 7f da 3b 30 60 44 bd 16 85 eb bd
       -0.039297063 0.0066680736 -0.047943294 -0.114999935
000180 91 23 82 bd b0 3d 85 bc 32 7e ca bd 63 68 af 3c
       -0.0635444 -0.016264766 -0.09887351 0.02141208
000190 55 a1 99 3c 50 2f 2f 3d 03 bb 16 3d 05 fd b8 bd
       0.018753687 0.04276973 0.036799442 -0.09032635
0001a0 c5 74 c6 bd d7 99 e1 bc cd 47 bd bd 43 2b a0 bd
       -0.09690241 -0.027539177 -0.092422105 -0.078207515
0001b0 1a 6d d0 3d a2 4e 11 3a da 28 bc bd 3b 3a 7b bd
       0.101770595 0.0005543028 -0.09187479 -0.06133483
0001c0 1c 63 c3 bc 6c 3e 4f 3d 79 c6 11 3d d7 2a c4 bc
       -0.02385097 0.05059664 0.03558967 -0.023946209
0001d0 c5 b4 c4 bb 7d 98 3c bd 89 0d a4 3b 20 90 f4 bb
       -0.0060029947 -0.04604386 0.0050064963 -0.00746347
0001e0 62 dc f8 3d 83 ee 23 3d 7d 48 38 bd 8b d5 94 3d
       0.1215141 0.040022384 -0.044991005 0.072672926
0001f0 c9 14 0a 3d 3b 20 0c 3d 7b 11 90 3c b3 1f 6e 3b
       0.03371123 0.034210425 0.01758646 0.0036334812
000200 2e 93 51 bd ab 81 86 3d 7e ea cc bd d0 19 e2 bb
       -0.051165752 0.06567701 -0.10005663 -0.0069000497
000210 c4 25 95 3d 27 38 08 be f7 55 02 bd 67 42 ff 3a
       0.07282594 -0.1330267 -0.031820264 0.0019474745
000220 5e f9 a7 3d 0a c9 83 bd ea d0 06 bd 10 77 37 3c
       0.0820186 -0.064348295 -0.03291408 0.01119782
000230 eb 18 0b 3d 42 99 00 be 89 79 94 bd 70 08 97 bd
       0.03395931 -0.12558463 -0.072497435 -0.07374656
000240 62 1d 57 bb 57 65 88 3d 33 df 7f bd 55 fd d4 bc
       -0.003282391 0.06659954 -0.06246872 -0.025999704
000250 db 89 80 3d 10 ed 14 bc 5c b4 05 3c 61 78 4d 3e
       0.06276294 -0.009089723 0.008160677 0.20065452
000260 17 50 65 bd 5b dc 24 bd 52 9d 87 bd 3e f5 40 3c
       -0.055984583 -0.04024921 -0.06621803 0.01177722
000270 52 90 88 bd fb ef 53 ba f7 0b 1d bd f5 21 90 bb
       -0.06668152 -0.0008084771 -0.03834149 -0.0043985792
000280 2b 9e 28 bd ee 3a 24 3d 57 07 03 bd a0 f1 52 3d
       -0.041166466 0.040095262 -0.03198942 0.051499963
000290 9e 58 1d 3e b2 52 b3 bc ab 75 d0 bc 4e 61 8b 3d
       0.15365836 -0.021890018 -0.025446733 0.06805669
0002a0 da 2d d4 3c 72 ce 40 bd b7 d4 49 3d 6d 5a 06 3d
       0.02590077 -0.04707188 0.049275126 0.03280108
0002b0 5e 25 b1 bc 08 19 13 3c 7c 4e 61 3d d5 b6 8a bd
       -0.021624263 0.008978136 0.05500649 -0.06773154
0002c0 d3 3a 37 3c da d3 fc bd 97 34 39 3c dd bf 6b bd
       0.011183458 -0.12345095 0.011304042 -0.057556022
0002d0 0a 73 81 3c 59 06 28 3d 58 fc 35 3d 26 fb 28 3d
       0.015801925 0.04102168 0.044430107 0.04125514
0002e0 50 58 72 3c 55 43 82 bd 86 6c 71 bd 91 3f 77 bd
       0.014791563 -0.06360499 -0.058941387 -0.060363356
0002f0 98 02 1c 3d 02 21 fa bd 5b 6c 3a bd 28 9b ba 3d
       0.03808841 -0.12213327 -0.045513492 0.09111625
000300 ac ff a5 3d a8 8c f4 3d 13 5e 3d bc 96 ba 0c be
       0.08105406 0.119408906 -0.011558074 -0.13743052
000310 d9 92 29 bd fd 1c c7 3d 14 b3 79 bc a8 05 93 bc
       -0.04139981 0.09722326 -0.015240449 -0.017947033
000320 ed 54 88 3d 64 a5 2e 3d 8a 04 f1 bd 73 d9 71 bd
       0.06656823 0.042638198 -0.11768444 -0.059045266
000330 5a 7e 83 3d 4a 88 67 bd a7 33 5e 3d 29 0c fb 3d
       0.06420584 -0.05652646 0.05424848 0.12258179
000340 2c 2d ff bc b1 5f a9 bc dc d0 31 bd 83 74 41 3d
       -0.03114947 -0.020675512 -0.043412074 0.047230255
000350 9a 54 62 bd 1c 32 5c bc e7 7e c1 bd 1e 41 a6 bc
       -0.055256464 -0.013439681 -0.09448033 -0.020294722
000360 9e a0 48 bd b4 2e 9b 3c 26 52 5a bd ba 3c 4f bc
       -0.0489813 0.018943168 -0.053301 -0.012648756
000370 56 d7 0b bd c4 e1 34 3d 87 76 3b bd b3 1d c3 3d
       -0.034140907 0.04416062 -0.045767333 0.09527149
000380 8c c5 31 3d bd 47 9f 3d e2 40 1d bd f6 da 8c bc
       0.043401286 0.07777355 -0.038391955 -0.017194252
000390 65 60 93 3d d3 f9 22 3d eb cb 34 3e 86 34 c9 3c
       0.0719612 0.039789032 0.17655914 0.024561178
0003a0 96 04 ff bb 12 ec ac bd 81 28 89 bc ee a1 b3 3d
       -0.007782529 -0.08443464 -0.016742947 0.0877112
0003b0 b4 5f b6 bd c8 61 d8 3c 38 b8 b1 3d a5 89 dc bc
       -0.08904973 0.026413813 0.08677715 -0.026921103
0003c0 c1 f3 d2 bd ce 86 5a bd 86 06 3f 3d 72 2c ad bc
       -0.103003986 -0.053351216 0.04663708 -0.021139357
0003d0 5a 70 fe bc ae 74 64 3a 37 d7 32 bc c0 f9 cd bd
       -0.031059433 0.00087148964 -0.010915569 -0.10057402
0003e0 7e 6b bc 3c 79 4b 5f 3d cb 78 9c bd 6c 1e 3b bd
       0.023000475 0.054515336 -0.07640227 -0.04568331
0003f0 ac 29 70 3d 36 85 e4 3b 74 9b da 3c 99 d7 97 bc
       0.05863349 0.006973888 0.026685454 -0.018535422

network_body._body_endoder.seq_layers.0.bias f4 [128]
000000 00 00 00 00 00 00 00 00 00 00 00 00 00 00 00 00
       0.0 0.0 0.0 0.0
000010 00 00 00 00 00 00 00 00 00 00 00 00 00 00 00 00
       0.0 0.0 0.0 0.0
000020 00 00 00 00 00 00 00 00 00 00 00 00 00 00 00 00
       0.0 0.0 0.0 0.0
000030 00 00 00 00 00 00 00 00 00 00 00 00 00 00 00 00
       0.0 0.0 0.0 0.0
000040 00 00 00 00 00 00 00 00 00 00 00 00 00 00 00 00
       0.0 0.0 0.0 0.0
000050 00 00 00 00 00 00 00 00 00 00 00 00 00 00 00 00
       0.0 0.0 0.0 0.0
000060 00 00 00 00 00 00 00 00 00 00 00 00 00 00 00 00
       0.0 0.0 0.0 0.0
000070 00 00 00 00 00 00 00 00 00 00 00 00 00 00 00 00
       0.0 0.0 0.0 0.0
000080 00 00 00 00 00 00 00 00 00 00 00 00 00 00 00 00
       0.0 0.0 0.0 0.0
000090 00 00 00 00 00 00 00 00 00 00 00 00 00 00 00 00
       0.0 0.0 0.0 0.0
0000a0 00 00 00 00 00 00 00 00 00 00 00 00 00 00 00 00
       0.0 0.0 0.0 0.0
0000b0 00 00 00 00 00 00 00 00 00 00 00 00 00 00 00 00
       0.0 0.0 0.0 0.0
0000c0 00 00 00 00 00 00 00 00 00 00 00 00 00 00 00 00
       0.0 0.0 0.0 0.0
0000d0 00 00 00 00 00 00 00 00 00 00 00 00 00 00 00 00
       0.0 0.0 0.0 0.0
0000e0 00 00 00 00 00 00 00 00 00 00 00 00 00 00 00 00
       0.0 0.0 0.0 0.0
0000f0 00 00 00 00 00 00 00 00 00 00 00 00 00 00 00 00
       0.0 0.0 0.0 0.0
000100 00 00 00 00 00 00 00 00 00 00 00 00 00 00 00 00
       0.0 0.0 0.0 0.0
000110 00 00 00 00 00 00 00 00 00 00 00 00 00 00 00 00
       0.0 0.0 0.0 0.0
000120 00 00 00 00 00 00 00 00 00 00 00 00 00 00 00 00
       0.0 0.0 0.0 0.0
000130 00 00 00 00 00 00 00 00 00 00 00 00 00 00 00 00
       0.0 0.0 0.0 0.0
000140 00 00 00 00 00 00 00 00 00 00 00 00 00 00 00 00
       0.0 0.0 0.0 0.0
000150 00 00 00 00 00 00 00 00 00 00 00 00 00 00 00 00
       0.0 0.0 0.0 0.0
000160 00 00 00 00 00 00 00 00 00 00 00 00 00 00 00 00
       0.0 0.0 0.0 0.0
000170 00 00 00 00 00 00 00 00 00 00 00 00 00 00 00 00
       0.0 0.0 0.0 0.0
000180 00 00 00 00 00 00 00 00 00 00 00 00 00 00 00 00
       0.0 0.0 0.0 0.0
000190 00 00 00 00 00 00 00 00 00 00 00 00 00 00 00 00
       0.0 0.0 0.0 0.0
0001a0 00 00 00 00 00 00 00 00 00 00 00 00 00 00 00 00
       0.0 0.0 0.0 0.0
0001b0 00 00 00 00 00 00 00 00 00 00 00 00 00 00 00 00
       0.0 0.0 0.0 0.0
0001c0 00 00 00 00 00 00 00 00 00 00 00 00 00 00 00 00
       0.0 0.0 0.0 0.0
0001d0 00 00 00 00 00 00 00 00 00 00 00 00 00 00 00 00
       0.0 0.0 0.0 0.0
0001e0 00 00 00 00 00 00 00 00 00 00 00 00 00 00 00 00
       0.0 0.0 0.0 0.0
0001f0 00 00 00 00 00 00 00 00 00 00 00 00 00 00 00 00
       0.0 0.0 0.0 0.0

network_body._body_endoder.seq_layers.2.weight f4 [128, 128]
000000 09 e6 8a 3d 8f 60 b7 3d c4 a4 c0 bd 7d ad 70 3d
       0.06782157 0.08953964 -0.094064265 0.0587592
000010 21 58 4b bc 75 1a 04 be be 79 22 3e 3a bf 9e 3c
       -0.012411148 -0.12900718 0.15866753 0.019378293
000020 37 78 c0 bd f3 30 7f bd 8d d5 0b 3d c7 d6 db 3d
       -0.09397929 -0.06230254 0.034139205 0.10734325
000030 ca 0b 6f bc 8b ac 7c 3d 57 f0 69 3d 93 51 85 bc
       -0.014590213 0.061687987 0.05711397 -0.01627425
000040 01 a6 ce 3b a8 ba 61 3c 07 db 3d bb 4e 89 76 3d
       0.0063064103 0.0137774125 -0.0028969662 0.060189538
000050 7e d0 0e 3d c6 5c a8 3b 99 7f 55 bd 9c 3d 42 3e
       0.034866802 0.0051380126 -0.05212364 0.18968815
000060 d4 5f 91 3d ae 9c 66 be 2b 29 ab bd 34 f0 d6 bd
       0.07098356 -0.22520706 -0.083574615 -0.10495034
000070 0d e9 40 3d a7 40 16 3d 36 9b 0b be 02 25 e0 bc
       0.047097255 0.03668275 -0.13633427 -0.027361397
000080 64 ff a5 3c 33 cf 3a 3d 31 01 54 bc 05 d4 c7 3d
       0.020263381 0.045607757 -0.012939737 0.097572364
000090 da 3b 83 3b 1b 30 49 bd e7 14 8f bd 26 60 1e 3e
       0.0040049376 -0.049118143 -0.06986409 0.15466365
0000a0 c4 91 eb 3d c2 5f 95 bd 68 90 91 3d 4f 32 ee 3c
       0.11502412 -0.07293655 0.071076214 0.029076723
0000b0 12 30 40 ba 32 68 24 3e e7 da 06 be 56 37 f6 3d
       -0.0007331382 0.16055372 -0.13169442 0.12022273
0000c0 9e 40 a7 3d 59 8a c3 3c f2 0c 88 3d a7 73 02 bd
       0.081666216 0.02386968 0.06643094 -0.031848576
0000d0 a0 5f 4c be 84 bc 62 3b cc 24 1a be 1b a2 cb bd
       -0.19958353 0.0034597227 -0.150531 -0.099430285
0000e0 a7 d0 95 3b 40 f5 1f 3d ae cb 46 be 52 e6 e9 3c
       0.0045719924 0.039052248 -0.19413635 0.028552208
0000f0 a4 f1 8b 3d 89 c6 20 bd 19 18 d5 3d 60 b3 44 bd
       0.06833199 -0.039251838 0.10404987 -0.048022628
000100 ba 3b 97 bd 44 9e 1f 3e 7a 3e e4 bc 78 98 2c bd
       -0.07384439 0.15587717 -0.027861822 -0.042137593
000110 96 ed b3 bd ee 5f 20 bd 05 90 ad bc da c0 e0 3d
       -0.0878555 -0.039153986 -0.021186838 0.109742835
000120 c2 09 92 bd af 65 b3 bd 59 7c 97 3d b0 a3 d1 3d
       -0.071307674 -0.08759629 0.07396764 0.10236299
000130 76 8a a2 3c de 89 21 bd ca 9d 94 3c 27 53 a2 3d
       0.019841414 -0.03943812 0.018141646 0.07926016
000140 4e e6 67 bd f5 a9 b0 bc 10 ab c3 bd c1 c8 75 3d
       -0.05661612 -0.021565417 -0.09554112 0.060005907
000150 a4 d5 bc bd 98 1f c7 3d b8 dc 1a 3d 75 bc d4 3d
       -0.09220436 0.09722823 0.03780815 0.10387508
000160 bd 2a ba ba a6 50 35 bc e9 6c 88 bd fc 9e 0a bd
       -0.0014203411 -0.011066591 -0.06661398 -0.033843026
000170 25 e5 7f bb 0d 25 93 bd ac d9 44 3d e8 fe 74 3d
       -0.0039046493 -0.07184801 0.04805915 0.05981341
000180 2f 06 79 3d dd 0c 1b be 54 a3 db 3d 45 95 9f bd
       0.060796913 -0.15141626 0.10724512 -0.07792143
000190 61 82 94 bd a1 9a ef 3c 74 0d bd 3d 97 c1 e9 3c
       -0.0725143 0.029248537 0.092310816 0.028534694
0001a0 75 c8 eb 3d 2e 36 8c 3d 93 43 e2 3d b0 97 52 3c
       0.115128435 0.068462715 0.11048045 0.012853548
0001b0 39 05 b8 3d 41 f9 90 3d f0 3b 10 3d d4 82 43 3d
       0.08985371 0.070787914 0.03521341 0.04773219
0001c0 a4 63 df bd 90 d4 22 be 23 f0 9a 3d 42 d9 48 bd
       -0.10907677 -0.15901399 0.07565334 -0.04903532
0001d0 17 16 ae 3d b8 48 d2 3d 68 67 30 3a ef ce 25 3d
       0.08500307 0.10267776 0.0006729276 0.04048055
0001e0 a4 c9 b7 bb 9a 48 20 3e ba bd df 3c 63 6a 34 bd
       -0.005608754 0.15652695 0.027312148 -0.04404677
0001f0 b1 ce 22 bd 73 ac b0 bd b2 00 e1 bd 9c 71 ee 3c
       -0.039747898 -0.08626642 -0.10986461 0.029106908
000200 45 d1 76 3d 19 eb b8 bd 31 82 ba bd 5c c9 b1 bd
       0.06025817 -0.09029216 -0.09106863 -0.086809844
000210 01 b9 06 3d b3 b3 2a 3e b2 17 41 be 95 8e b4 3d
       0.032891277 0.16670112 -0.18856695 0.08816258
000220 40 43 e9 3c a6 e6 94 3d 2f ec 41 39 ea 61 0e be
       0.02847445 0.07270555 0.000184939 -0.13904539
000230 41 42 fb 3c 5c 43 8c 3d 2d a8 22 3e fe 6f de bd
       0.03067124 0.06848785 0.15884466 -0.108612046
000240 f7 58 e3 3b 15 fd 60 3e ca 03 78 3c 36 93 0a bd
       0.0069380957 0.21971543 0.015137622 -0.033831798
000250 91 04 68 3d b1 95 53 bd 95 6c 25 bd d8 76 18 3b
       0.05664498 -0.05165643 -0.040386755 0.0023264196
000260 d5 61 14 be 86 a5 02 3d e9 3d 3c 3e 9e 2a d5 bd
       -0.14490445 0.031896137 0.18382992 -0.10408519
000270 6c be ac 3b fe f4 68 bd f7 1c 30 be c2 5d 23 3d
       0.0052717235 -0.056874268 -0.17198549 0.039884336
000280 e1 b0 d2 3c a6 3d 01 bd f0 90 31 3d c0 24 ed 3c
       0.025719108 -0.031552933 0.043351114 0.028948188
000290 e0 ab a0 3d 95 e3 ec bd 7d 39 1d bd 83 d5 d8 bb
       0.078452826 -0.11566845 -0.038384903 -0.0066172495
0002a0 9e a0 f6 3b 9b bb ae bd d2 0e 34 3e 67 e8 32 3d
       0.0075264713 -0.08531877 0.17583779 0.043678667
0002b0 9e a7 f6 bc ef 11 94 bd 4a 12 d8 bd b2 ea 07 be
       -0.030109223 -0.07229983 -0.10550363 -0.13273123
0002c0 da d9 04 be 40 8b 19 3d 28 00 a5 3c 55 61 a8 bd
       -0.12973729 0.037486315 0.020141676 -0.082216896
0002d0 e6 dc ca bd e4 a3 9b bd 74 2d a2 bc b2 b4 2d be
       -0.09905414 -0.07599619 -0.019797064 -0.16963461
0002e0 1f cc f1 bc 10 50 d9 3d e6 0f 48 bc fe 7b 87 3c
       -0.029516278 0.10610974 -0.012210822 0.016538616
0002f0 16 2a 39 bb 09 67 09 3e 47 3d 90 3d 12 80 1d be
       -0.0028253845 0.13418211 0.07042938 -0.15380886
000300 0d 08 45 bd 75 2a 3f bd 50 78 ee bc 37 b6 a5 3d
       -0.04810338 -0.04667135 -0.029110104 0.08091395
000310 c6 b7 d3 bd 08 14 14 3d 75 b7 99 3d d1 d9 ae bd
       -0.103377864 0.036151916 0.07505695 -0.08537639
000320 d3 88 23 bd 3e 78 a0 3d 16 3e c2 bc 8e 28 02 3d
       -0.039925408 0.078354344 -0.023711246 0.031776957
000330 f3 d7 85 3d 86 cb ff bd 2a 08 91 bd 07 58 c4 bb
       0.0653533 -0.12489991 -0.07081635 -0.005991939
000340 0e 94 cc bd b9 57 9a 3d 4e 4c 41 3c 5f c3 3c be
       -0.09989177 0.07536263 0.011797978 -0.18433903
000350 7b 17 a2 bd a0 1d 23 be db ec 02 bd b9 c6 b5 3c
       -0.07914635 -0.1592927 -0.031964164 0.022189485
000360 21 16 10 bd 3f 3d 9c bc ca 90 82 3d 1a f0 65 3d
       -0.035177354 -0.019072173 0.063752726 0.05613718
000370 a1 ed a0 bd 03 68 31 3d 6e 2b 73 bd b7 88 df bd
       -0.07857824 0.043312084 -0.05936759 -0.10914748
000380 70 c1 e1 3d cf eb 3a 3c a4 23 68 3e c2 c9 dd bd
       0.110232234 0.01140876 0.22669846 -0.10829498
000390 3e 0b e7 bb 0a 10 e8 bc a8 bb 13 3d 78 59 43 3d
       -0.0070509007 -0.02832796 0.036067635 0.047692746
0003a0 1c 89 9e 3d 03 f9 11 bd fa 6b 2c 3d f5 51 18 bd
       0.07740995 -0.035637867 0.042095162 -0.037187535
0003b0 66 bc 4d 3c 8b 1a 0c bc dd ad 0b 3e 12 22 06 3e
       0.012557125 -0.00855125 0.13640542 0.13098934
0003c0 1c d6 e2 3d cf 30 55 3e d6 58 1f bd be 04 d3 3a
       0.11075994 0.208194 -0.03890308 0.0016099436
0003d0 3c b7 9f 3d 61 65 1f 3d 48 f7 e7 3c ad 22 db bd
       0.07798621 0.03891504 0.028316155 -0.10699973
0003e0 97 90 01 3e 95 25 90 3d 6b da 64 bd 68 5c 11 3e
       0.12652813 0.07038418 -0.055872362 0.14195406
0003f0 5e 09 16 3e e5 39 48 3d cd c3 ee bd 9f e8 30 3d
       0.14652011 0.048883338 -0.1165844 0.043190595

network_body._body_endoder.seq_layers.2.bias f4 [128]
000000 00 00 00 00 00 00 00 00 00 00 00 00 00 00 00 00
       0.0 0.0 0.0 0.0
000010 00 00 00 00 00 00 00 00 00 00 00 00 00 00 00 00
       0.0 0.0 0.0 0.0
000020 00 00 00 00 00 00 00 00 00 00 00 00 00 00 00 00
       0.0 0.0 0.0 0.0
000030 00 00 00 00 00 00 00 00 00 00 00 00 00 00 00 00
       0.0 0.0 0.0 0.0
000040 00 00 00 00 00 00 00 00 00 00 00 00 00 00 00 00
       0.0 0.0 0.0 0.0
000050 00 00 00 00 00 00 00 00 00 00 00 00 00 00 00 00
       0.0 0.0 0.0 0.0
000060 00 00 00 00 00 00 00 00 00 00 00 00 00 00 00 00
       0.0 0.0 0.0 0.0
000070 00 00 00 00 00 00 00 00 00 00 00 00 00 00 00 00
       0.0 0.0 0.0 0.0
000080 00 00 00 00 00 00 00 00 00 00 00 00 00 00 00 00
       0.0 0.0 0.0 0.0
000090 00 00 00 00 00 00 00 00 00 00 00 00 00 00 00 00
       0.0 0.0 0.0 0.0
0000a0 00 00 00 00 00 00 00 00 00 00 00 00 00 00 00 00
       0.0 0.0 0.0 0.0
0000b0 00 00 00 00 00 00 00 00 00 00 00 00 00 00 00 00
       0.0 0.0 0.0 0.0
0000c0 00 00 00 00 00 00 00 00 00 00 00 00 00 00 00 00
       0.0 0.0 0.0 0.0
0000d0 00 00 00 00 00 00 00 00 00 00 00 00 00 00 00 00
       0.0 0.0 0.0 0.0
0000e0 00 00 00 00 00 00 00 00 00 00 00 00 00 00 00 00
       0.0 0.0 0.0 0.0
0000f0 00 00 00 00 00 00 00 00 00 00 00 00 00 00 00 00
       0.0 0.0 0.0 0.0
000100 00 00 00 00 00 00 00 00 00 00 00 00 00 00 00 00
       0.0 0.0 0.0 0.0
000110 00 00 00 00 00 00 00 00 00 00 00 00 00 00 00 00
       0.0 0.0 0.0 0.0
000120 00 00 00 00 00 00 00 00 00 00 00 00 00 00 00 00
       0.0 0.0 0.0 0.0
000130 00 00 00 00 00 00 00 00 00 00 00 00 00 00 00 00
       0.0 0.0 0.0 0.0
000140 00 00 00 00 00 00 00 00 00 00 00 00 00 00 00 00
       0.0 0.0 0.0 0.0
000150 00 00 00 00 00 00 00 00 00 00 00 00 00 00 00 00
       0.0 0.0 0.0 0.0
000160 00 00 00 00 00 00 00 00 00 00 00 00 00 00 00 00
       0.0 0.0 0.0 0.0
000170 00 00 00 00 00 00 00 00 00 00 00 00 00 00 00 00
       0.0 0.0 0.0 0.0
000180 00 00 00 00 00 00 00 00 00 00 00 00 00 00 00 00
       0.0 0.0 0.0 0.0
000190 00 00 00 00 00 00 00 00 00 00 00 00 00 00 00 00
       0.0 0.0 0.0 0.0
0001a0 00 00 00 00 00 00 00 00 00 00 00 00 00 00 00 00
       0.0 0.0 0.0 0.0
0001b0 00 00 00 00 00 00 00 00 00 00 00 00 00 00 00 00
       0.0 0.0 0.0 0.0
0001c0 00 00 00 00 00 00 00 00 00 00 00 00 00 00 00 00
       0.0 0.0 0.0 0.0
0001d0 00 00 00 00 00 00 00 00 00 00 00 00 00 00 00 00
       0.0 0.0 0.0 0.0
0001e0 00 00 00 00 00 00 00 00 00 00 00 00 00 00 00 00
       0.0 0.0 0.0 0.0
0001f0 00 00 00 00 00 00 00 00 00 00 00 00 00 00 00 00
       0.0 0.0 0.0 0.0

action_model._continuous_distribution.log_sigma f4 [1, 39]
000000 00 00 00 00 00 00 00 00 00 00 00 00 00 00 00 00
       0.0 0.0 0.0 0.0
000010 00 00 00 00 00 00 00 00 00 00 00 00 00 00 00 00
       0.0 0.0 0.0 0.0
000020 00 00 00 00 00 00 00 00 00 00 00 00 00 00 00 00
       0.0 0.0 0.0 0.0
000030 00 00 00 00 00 00 00 00 00 00 00 00 00 00 00 00
       0.0 0.0 0.0 0.0
000040 00 00 00 00 00 00 00 00 00 00 00 00 00 00 00 00
       0.0 0.0 0.0 0.0
000050 00 00 00 00 00 00 00 00 00 00 00 00 00 00 00 00
       0.0 0.0 0.0 0.0
000060 00 00 00 00 00 00 00 00 00 00 00 00 00 00 00 00
       0.0 0.0 0.0 0.0
000070 00 00 00 00 00 00 00 00 00 00 00 00 00 00 00 00
       0.0 0.0 0.0 0.0
000080 00 00 00 00 00 00 00 00 00 00 00 00 00 00 00 00
       0.0 0.0 0.0 0.0
000090 00 00 00 00 00 00 00 00 00 00 00 00
       0.0 0.0 0.0

action_model._continuous_distribution.mu.weight f4 [39, 128]
000000 fa 55 84 bc e8 46 f3 bc 11 6f 07 3d af 82 4d 3c
       -0.016154278 -0.029696897 0.033064906 0.012543364
000010 aa 9a 7d bb f0 e5 59 bc 3f 11 4b 3c 9b 75 7e 3b
       -0.0038696923 -0.01329945 0.0123942485 0.0038827423
000020 93 e5 a5 bb 87 f0 88 bb ed d0 f5 3c 4d c8 f9 bb
       -0.005062768 -0.0041790637 0.03000685 -0.0076227547
000030 38 bb fd bc 58 bf 59 bc 30 bd b4 3b f6 84 aa 3c
       -0.030973062 -0.013290249 0.005515717 0.020815354
000040 6e a5 10 3c a2 8d 33 3c 1d 6a 41 3c 44 1e ad bc
       0.008828504 0.010959061 0.0118050845 -0.021132596
000050 6e ef 1d bb a3 77 60 3c 48 67 f3 3c 3d 30 da 3b
       -0.002409901 0.013700399 0.029712334 0.0066585825
000060 45 77 be 3c 02 a1 a2 bc ff d0 a5 bb 23 e4 9b 3b
       0.023250232 -0.019852165 -0.0050603147 0.0047574206
000070 35 cd 67 bb 26 6e b6 3b 0f 50 cd bc 77 ae 56 bc
       -0.0035370116 0.00556733 -0.025062589 -0.013103119
000080 93 03 b9 3c 9b 06 a0 3c 9c ab 24 bb b7 bb f0 bb
       0.022584712 0.0195344 -0.0025126701 -0.007346596
000090 51 78 13 3c 8a e7 6a 3c 6a c2 56 bc 7f 06 ca bc
       0.009000854 0.01433743 -0.013107875 -0.0246613
0000a0 c9 55 a6 3c d8 19 e7 3b 0d 80 e0 bb 75 19 88 bc
       0.020304577 0.0070526414 -0.0068512023 -0.016613701
0000b0 e3 45 fe bc 60 2f 53 bb ec 0a 8e 3c 08 d3 aa bc
       -0.031039184 -0.0032224283 0.017339192 -0.02085258
0000c0 ed 58 df 3c 22 1b d9 3c 8d 2b 98 3c 78 65 f3 bb
       0.027264083 0.026502196 0.018575454 -0.0074278675
0000d0 ba 53 87 3c df 37 d2 bb b9 74 8a bb 22 0a e5 bc
       0.016519416 -0.0064153518 -0.00422534 -0.027958933
0000e0 26 ae ab 3c 4d ce f7 3b 82 ed f4 bc 53 03 21 3c
       0.020957064 0.0075624348 -0.029898409 0.009827453
0000f0 82 29 87 3c d7 be 8b 3c 50 c0 8c ba 1b f0 8b bc
       0.016499285 0.017058773 -0.0010738466 -0.017082265
000100 9d e2 a6 bc 58 75 96 3c 3b 7b 94 3c 37 13 3d bc
       -0.02037173 0.0183665 0.018125167 -0.011540226
000110 f6 54 2d bc c3 a3 60 3b 4a 9b cb bb 97 06 b9 3c
       -0.010579338 0.0034277297 -0.0062135803 0.02258615
000120 e5 b9 ff 3c ca 8c e6 bb 82 c4 f2 bb 8b c4 6f bc
       0.031216571 -0.0070358263 -0.0074086795 -0.014634262
000130 95 b8 9f 3b 82 eb 8a 3c 7e 3f 29 3d d0 2f 35 3b
       0.004874299 0.016958002 0.041320316 0.0027646907
000140 27 75 e6 3c 88 db 86 bc f8 72 e1 bc 37 2d 1e bc
       0.028132034 -0.016462103 -0.027520642 -0.009654335
000150 78 15 52 ba cd 71 8c 3c e3 ae 27 bc b3 5c e8 bb
       -0.00080140634 0.017144108 -0.010234567 -0.0070911287
000160 97 1c f4 bb 1b 22 74 bc 5c 5c 0f 3c a5 c5 06 3d
       -0.0074496972 -0.0149007095 0.008750048 0.032903332
000170 83 9a 0a 39 07 4c 19 3c bf 86 2f bd 74 c0 94 bb
       0.00013218266 0.009356505 -0.042853113 -0.0045395438
000180 93 8f e8 3c 99 bf 37 ba 04 e1 c4 bc ed 06 d0 3b
       0.028388774 -0.0007009446 -0.024033077 0.006348482
000190 f8 4b ec bb 03 e9 b1 bc e6 db a4 3c d2 0c 27 bc
       -0.0072112046 -0.021717554 0.020124387 -0.010195928
0001a0 d8 03 91 bc e3 42 44 3c 03 24 8a bb fe 33 14 3c
       -0.017702028 0.011978838 -0.0042157187 0.009045599
0001b0 f2 fe de bc e8 2b ed 3c ed 51 55 3c f5 c2 07 3c
       -0.027221177 0.0289516 0.013020021 0.0082862275
0001c0 20 cc 9f bb a0 b5 78 3c 93 75 4d bc cf cf e6 3c
       -0.0048766285 0.0151800215 -0.012540239 0.028175263
0001d0 bb 78 b6 bc 83 91 ca bc 40 ba 9b bc cf 91 ce bc
       -0.022274366 -0.024727589 -0.01900971 -0.025216011
0001e0 d3 2b 8b 3c 13 72 9b bc d3 a7 83 bc 73 97 d5 bc
       0.01698867 -0.018975293 -0.016071236 -0.026073193
0001f0 8a d7 45 3d 73 53 12 3c 36 0f 8e 3b 68 49 68 3b
       0.048301257 0.008931029 0.0043353094 0.0035444144
000200 0f 9e 51 ba e3 d3 37 bc 1a c0 e7 3b 50 2c cc bc
       -0.000799627 -0.011219951 0.007072461 -0.024923474
000210 ff 4f db bc e0 0c fd ba 87 85 b3 bc 53 04 84 3b
       -0.026771544 -0.0019306205 -0.021914257 0.004028836
000220 57 1d ae 3b 9a f4 4e 39 3d e6 f6 bb 1b 8c 59 3b
       0.005313556 0.00019736812 -0.0075347708 0.0033195082
000230 1d cd 08 3c 55 79 20 bc 5b 1a 0a bd b6 70 a7 3c
       0.008349684 -0.009794553 -0.03371654 0.020439487
000240 73 0a c6 3c 9b b8 0c bc d6 70 10 3b b8 37 36 3b
       0.024174904 -0.008588935 0.0022039912 0.0027804207
000250 01 f3 a1 bb 7b 1e 9a bc fe e5 c9 3b 74 b0 15 3c
       -0.0049422984 -0.018813362 0.0061614504 0.009136308
000260 19 9c 31 bc b8 fe 83 bc 8f 3f 6c 3c 5e 9e 9e bb
       -0.010840439 -0.01611267 0.01441945 -0.004840656
000270 d7 af c7 bc fb 3c 6f bb 73 5f e9 bc be 1f 3e bc
       -0.02437584 -0.0036504853 -0.028487897 -0.011604248
000280 07 3f f8 ba 4e 43 1e ba 6d ac 71 3b f5 88 f6 3a
       -0.0018939682 -0.0006037251 0.0036876455 0.0018809127
000290 22 89 5f 3c 64 e0 bb 3c e2 9f 3f bc c3 5a 1d 3c
       0.013643535 0.022934146 -0.011695834 0.009604159
0002a0 3d d4 29 3c 24 3e 00 3c 05 9b 53 bc 6d d3 09 3d
       0.010365543 0.0078273155 -0.0129153775 0.033648897
0002b0 8d 9b e2 3c aa fe b1 3b d3 de d4 3b d3 de 17 3c
       0.027662063 0.0054319697 0.0064962893 0.009269434
0002c0 fc 9d 12 3b 90 3c 0c bd b7 7b 91 bb 0f ab c1 bb
       0.0022371998 -0.034237444 -0.004439797 -0.0059102844
0002d0 cf 7c 9e 3c 1a 73 1e 3c 6f 76 e9 3b f7 a8 8b bc
       0.019346623 0.009670997 0.007124714 -0.017048342
0002e0 b1 07 27 bc d7 da 26 3c fb 68 ae ba 90 fb 25 bc
       -0.010194705 0.010184011 -0.0013306433 -0.010130778
0002f0 4d 0d e6 bb 99 01 c6 3b fa 7f 3c bc 4d d2 a3 bb
       -0.0070206285 0.006042671 -0.011505121 -0.004999435
000300 7f c9 20 bb 4b 86 3e 3d 9f b4 0d 3d 72 cf 13 bc
       -0.0024534164 0.04651479 0.03459608 -0.009021627
000310 22 e0 5a 3c e5 20 e3 bc a0 36 e6 3b 88 bd 8e bc
       0.0133591015 -0.027725646 0.007025555 -0.01742436
000320 08 8a 88 bc 23 41 c4 bc 7f 56 9a bc 1b da 6a 3c
       -0.01666738 -0.02395684 -0.018840073 0.014334227
000330 9d ed 47 bc 91 6d bb 3b 71 7e 8d ba 7a 1c 3f bb
       -0.0122026475 0.0057198484 -0.0010795129 -0.002916126
000340 d5 06 e2 bc 03 a7 26 bc 88 90 dd 3a ef 45 d6 3c
       -0.027591148 -0.010171655 0.0016904036 0.026156394
000350 f0 85 d7 bc 1a 3d 2d 3c 55 1a 8e bb 57 4d 89 3b
       -0.026308984 0.01057365 -0.004336635 0.004190128
000360 9c 75 b4 bb da b1 99 bb f5 c9 e1 3b a3 9d 3e 3c
       -0.005507184 -0.004690391 0.00689053 0.011634263
000370 f3 f5 62 3c 6a 26 f9 bc 9d 11 49 bb 33 46 8a bc
       0.013852584 -0.030413825 -0.0030680664 -0.016879177
000380 4b 1f 01 3d 4b 07 ea 3c 7f 7d 3e bb eb 70 4f bc
       0.031523984 0.02856793 -0.00290665 -0.012661199
000390 e9 1a 0c bc 6a 88 59 3c fa cc 53 bc 70 9e d6 3c
       -0.008551338 0.013277153 -0.012927288 0.026198596
0003a0 55 87 1a bd d3 73 9d bb da 4b d4 3c 7a 70 6a 3c
       -0.03772672 -0.004805067 0.025915075 0.014309043
0003b0 fe e8 ca 3c c3 03 18 3a ae d2 23 bc 23 d7 57 3c
       0.024769302 0.00057989004 -0.00999896 0.013173851
0003c0 88 96 d4 3c e2 c3 65 3c bc c0 95 3c 5e be c1 bc
       0.025950685 0.014023753 0.01828038 -0.023650344
0003d0 9a 30 db bb ff 1f 21 3c 8a fb f1 bc 30 74 85 bc
       -0.0066891434 0.009834289 -0.029538888 -0.016290754
0003e0 43 79 2a bb 18 4e 42 bc 4d b1 f3 bb 88 4d 54 bc
       -0.002601222 -0.011859439 -0.0074369074 -0.012957938
0003f0 2f c5 51 3c 73 d2 16 3c 2f 33 5a bc 78 c3 fe 3a
       0.01280336 0.009205448 -0.013317867 0.0019436916

action_model._continuous_distribution.mu.bias f4 [39]
000000 00 00 00 00 00 00 00 00 00 00 00 00 00 00 00 00
       0.0 0.0 0.0 0.0
000010 00 00 00 00 00 00 00 00 00 00 00 00 00 00 00 00
       0.0 0.0 0.0 0.0
000020 00 00 00 00 00 00 00 00 00 00 00 00 00 00 00 00
       0.0 0.0 0.0 0.0
000030 00 00 00 00 00 00 00 00 00 00 00 00 00 00 00 00
       0.0 0.0 0.0 0.0
000040 00 00 00 00 00 00 00 00 00 00 00 00 00 00 00 00
       0.0 0.0 0.0 0.0
000050 00 00 00 00 00 00 00 00 00 00 00 00 00 00 00 00
       0.0 0.0 0.0 0.0
000060 00 00 00 00 00 00 00 00 00 00 00 00 00 00 00 00
       0.0 0.0 0.0 0.0
000070 00 00 00 00 00 00 00 00 00 00 00 00 00 00 00 00
       0.0 0.0 0.0 0.0
000080 00 00 00 00 00 00 00 00 00 00 00 00 00 00 00 00
       0.0 0.0 0.0 0.0
000090 00 00 00 00 00 00 00 00 00 00 00 00
       0.0 0.0 0.0

network_body._body_endoder.seq_layers.0.weight f4 [128, 243]
000000 79 b2 c3 bc cc cc 93 3d 21 9f 34 3d aa 7a 1e bd
       -0.023888813 0.07216796 0.04409707 -0.0386912
000010 a8 3c 10 bd 35 26 3c bd 39 ce c2 3b 94 0a 98 3c
       -0.035214096 -0.045934875 0.005944994 0.018559732
000020 a1 0b a0 3d 97 c3 fa 3a 3d 8c 7a bd c1 dc 5d 3d
       0.07814718 0.0019131777 -0.061168898 0.054165605
000030 9d 97 44 bd d9 cf 8e 3d 0b ee c0 bd 6b 52 94 bd
       -0.047996152 0.069732375 -0.09420403 -0.072422825
000040 b4 05 53 3d 91 e5 a0 3d c2 a5 53 3d 84 87 96 bc
       0.05151911 0.07856286 0.05167175 -0.018375166
000050 c5 47 b5 3c cb c1 19 bd 70 11 08 3d 3e 50 84 3c
       0.022128949 -0.03753833 0.033219755 0.016151544
000060 c7 3d 36 bd 27 f9 27 bd df 04 2e be a5 d1 b6 3c
       -0.04449251 -0.041009095 -0.16994046 0.022316763
000070 c5 d0 27 3e 3f db db bb b3 0d 41 3d be 3a e1 3b
       0.16388233 -0.006709486 0.047132205 0.0068734577
000080 cf db be 3c e8 06 22 be 5a 8c 1e be c9 92 06 bd
       0.023298172 -0.15822947 -0.15483227 -0.03285483
000090 85 cb af bd b8 2f 8c bc c5 9a 21 bd b2 5a ad bd
       -0.0858374 -0.017112598 -0.03945424 -0.084645644
0000a0 93 4f e5 3d 85 92 9e bd 11 10 a9 3d 2e 31 e7 3c
       0.11196818 -0.0774279 0.082550175 0.028221693
0000b0 06 0b aa bd 44 06 85 bd d1 58 34 bc b1 32 3d bd
       -0.08302884 -0.06495336 -0.011007504 -0.04619092
0000c0 eb 47 46 3c 18 54 ad bc 31 d0 2f 3d 18 3e de 3d
       0.0121021075 -0.021158263 0.042923156 0.10851687
0000d0 ed 3d bd bd 93 50 c4 bd 17 78 ee bc 35 41 8b bd
       -0.09240327 -0.09585681 -0.029109998 -0.06799547
0000e0 03 05 ea bc 00 b1 36 bc c2 f3 84 bd 27 6f 8e bd
       -0.028566843 -0.0111505985 -0.064918056 -0.069547944
0000f0 73 de 80 3d c0 e7 44 bc 6b 6e 88 3c b3 e4 88 3d
       0.06292429 -0.012018144 0.016654214 0.06684246
000100 52 8d fa bc 9d b7 05 3c a4 f7 bb 3b 25 07 07 bd
       -0.030584965 0.008161453 0.005736308 -0.032965798
000110 f3 9e 7d 3d a3 b6 e4 bc b9 c3 f3 3c 47 21 39 3d
       0.061919164 -0.02791912 0.029756414 0.04519775
000120 4b 38 f8 bc 32 8a 4b bb 56 00 d6 bc 7a 8e c8 bc
       -0.03030028 -0.0031057713 -0.026123207 -0.024482
000130 53 32 0f 3d 4c 49 10 bd 22 fc 75 bd ba a0 bc 3d
       0.034960102 -0.03522615 -0.060054906 0.09210344
000140 02 af a1 bc cf 01 93 bd d8 33 32 bc 08 54 93 bc
       -0.01973677 -0.07178079 -0.010876618 -0.017984405
000150 1d ac 84 bd 23 a3 26 bd 74 ed 8f bd bd 92 78 bd
       -0.064781405 -0.040682923 -0.070277125 -0.060686816
000160 31 77 ce bd 08 e5 51 3c d7 14 d3 bb f1 83 4b 3d
       -0.10081328 0.012810953 -0.0064416933 0.049686376
000170 f3 4e a5 3c dd 0d 03 bc c2 ae e6 3d b4 6a c4 bd
       0.020179247 -0.007998911 0.11263801 -0.095906645
000180 66 e1 dc 3d a7 22 97 bc 63 88 67 3d 48 ab d2 bd
       0.10785179 -0.01844914 0.056526553 -0.102865756
000190 1e bb 6b b8 a0 d1 cc bc 42 e2 c8 3c 4f 2a 12 3e
       -5.6202633e-05 -0.0250023 0.02452195 0.14273952
0001a0 ae 5b 8c bd 49 8c cd 3d aa fd 1f be 6c 58 53 3d
       -0.06853424 0.10036523 -0.15624109 0.051597998
0001b0 df b8 b5 3c 3e 3a a6 bc 37 db 30 3e 97 26 1b bd
       0.02218288 -0.020291444 0.17271124 -0.0378786
0001c0 90 fa 96 bb 5b 40 24 be 9a 4a a3 3b 72 83 20 bc
       -0.004607506 -0.16040175 0.0049832584 -0.009796964
0001d0 79 3c c0 3c ff 92 20 3d dc 2d 1d bd 07 6e e3 3d
       0.023466336 0.039202686 -0.038373813 0.111049704
0001e0 40 38 b9 bc f4 df 1c 3d 6c f6 8d 3d db 2b 67 3d
       -0.02260983 0.038299516 0.06931767 0.05643831
0001f0 35 9f 44 3e 22 77 ae 3d 17 9d 28 3d 69 3b 36 3e
       0.19201358 0.085188165 0.041165438 0.177961
000200 39 33 fd bc 32 fb 10 3d 6d c8 37 3c 15 51 50 3d
       -0.030908214 0.03539581 0.011217219 0.050858576
000210 1c 7e 05 3c b4 18 97 bd 3c b2 a7 3d d6 b7 87 bd
       0.008147743 -0.073777586 0.081882924 -0.06626861
000220 1d a6 5d 3c 26 f0 df bd d1 5b e3 bc 0e 75 a3 3d
       0.013528374 -0.109344766 -0.027753742 0.07981311
000230 d6 63 ea 3c eb 83 e3 bc d3 43 8c 3d 7d 1f 05 bd
       0.028612059 -0.027772864 0.06848874 -0.032500733
000240 e0 79 57 bd 90 f8 c8 bd 56 d9 05 be 6c 8c 2e 3d
       -0.052606463 -0.098130345 -0.13071188 0.042614385
000250 cf 66 4f bc de 8b 84 bb b5 81 46 3c a3 53 56 3d
       -0.012658789 -0.004044994 0.0121158855 0.052325856
000260 1b f9 d8 bc 23 77 1b 3e ea e2 96 3d 40 93 9d 3c
       -0.02648597 0.15182166 0.07367499 0.019235253
000270 35 d9 0f 3a c4 78 bb 3d 0f 1f 1b bd 1a e1 0f 3d
       0.00054873835 0.091538936 -0.037871417 0.035126783
000280 86 f4 a2 bd 02 39 f5 3d ec d5 0a 3d fe 55 b4 3b
       -0.079567954 0.11973764 0.033895418 0.005503415
000290 35 a6 a1 bd 2e 25 1c bc 2f 6d 44 bd ad f3 27 3c
       -0.078930296 -0.009530349 -0.047955688 0.010250968
0002a0 65 ae 06 be 9e 86 04 bd 35 a6 b8 3d a8 d2 fd bc
       -0.13152464 -0.032354943 0.090160765 -0.030984238
0002b0 b6 16 49 be 35 70 52 bb db 58 a1 3c 82 c8 15 3c
       -0.1963757 -0.0032110338 0.01969569 0.009142043
0002c0 46 a0 33 bb 84 33 90 3d f8 2b c1 bc a1 e5 8a bb
       -0.0027408763 0.07041076 -0.023580536 -0.0042387997
0002d0 c4 0a d3 3d af c2 21 3d 93 65 10 bd c9 41 1e 3c
       0.10304788 0.039492305 -0.03525312 0.009659239
0002e0 50 68 02 3d d7 da b4 3d b6 27 ad bc c6 79 86 3d
       0.03183776 0.08830803 -0.0211371 0.06566195
0002f0 f6 4a dc bd 9d b4 f4 3d 6a 2c 0c be 2f 9f 41 3d
       -0.10756485 0.11948512 -0.13688818 0.04727095
000300 81 9c 19 be 3d 93 1b 3c 85 cd 1c be 0e 21 62 bb
       -0.15001108 0.009495554 -0.15312774 -0.0034504565
000310 ec 1f ec 3c 74 d3 1c 3c 73 1d 03 bd c2 83 f5 bd
       0.028823815 0.009571899 -0.032010507 -0.119880214
000320 ea 19 78 bc 52 2b 84 bd 50 6c 0a bd 6d ae 20 bd
       -0.015142897 -0.06453575 -0.0337947 -0.039228845
000330 0c 58 62 3c e5 1a 86 3d ae 3e 10 3d ed 6f 03 bd
       0.013814937 0.065480985 0.035216026 -0.032089163
000340 52 53 13 be 3b 7f af bc 45 1f e3 3d 19 fc a4 3d
       -0.14387253 -0.021422973 0.110899486 0.08055896
000350 a2 c5 20 3e b2 6b 39 3c d9 4b b9 bc 34 34 dc bd
       0.15700391 0.0113171805 -0.022619175 -0.107521445
000360 54 67 de 3c 23 a7 aa bc 36 4a 98 3d 96 29 c0 3c
       0.02714888 -0.02083165 0.074360296 0.02345733
000370 0a b1 2e bd 61 4b d9 3d 48 7d 68 b9 6c 0c 72 3d
       -0.042649306 0.106100805 -0.00022171915 0.059093878
000380 af e3 62 3c 78 73 41 bd bb 1f 17 3d 6c dc a5 bd
       0.013848229 -0.04722926 0.036895495 -0.08098683
000390 bc a3 5a bd 9a 0c 6c bd 7d 71 5b bd 92 df 53 bd
       -0.053378806 -0.057629205 -0.053575028 -0.051726885
0003a0 11 09 be 3c 3a e6 2e bc 50 52 9a 3d 7d af 92 3d
       0.023197683 -0.0106750075 0.07535231 0.07162378
0003b0 1a 1f df bb 55 a9 e8 bc 63 40 fc ba 09 31 1f bd
       -0.0068091275 -0.028401056 -0.0019245263 -0.038865123
0003c0 b2 86 1f 3d be d0 45 3d f2 c3 6e bd e4 a7 8c bb
       0.038946815 0.048294775 -0.058292337 -0.004292475
0003d0 19 2e 4a bd 10 f8 57 3d 57 29 09 bd 7f 68 f7 bc
       -0.04936037 0.052726805 -0.03348669 -0.030201195
0003e0 a2 7b 7d 3d 70 6e 89 bb 6f 4e 11 bc d0 fe 41 bd
       0.061885484 -0.0041940734 -0.008868798 -0.04736215
0003f0 47 13 b0 3d f8 24 25 be ea dc 3b 3c ec 4d 20 3d
       0.08597427 -0.16127384 0.011466244 0.039136812

network_body._body_endoder.seq_layers.0.bias f4 [128]
000000 00 00 00 00 00 00 00 00 00 00 00 00 00 00 00 00
       0.0 0.0 0.0 0.0
000010 00 00 00 00 00 00 00 00 00 00 00 00 00 00 00 00
       0.0 0.0 0.0 0.0
000020 00 00 00 00 00 00 00 00 00 00 00 00 00 00 00 00
       0.0 0.0 0.0 0.0
000030 00 00 00 00 00 00 00 00 00 00 00 00 00 00 00 00
       0.0 0.0 0.0 0.0
000040 00 00 00 00 00 00 00 00 00 00 00 00 00 00 00 00
       0.0 0.0 0.0 0.0
000050 00 00 00 00 00 00 00 00 00 00 00 00 00 00 00 00
       0.0 0.0 0.0 0.0
000060 00 00 00 00 00 00 00 00 00 00 00 00 00 00 00 00
       0.0 0.0 0.0 0.0
000070 00 00 00 00 00 00 00 00 00 00 00 00 00 00 00 00
       0.0 0.0 0.0 0.0
000080 00 00 00 00 00 00 00 00 00 00 00 00 00 00 00 00
       0.0 0.0 0.0 0.0
000090 00 00 00 00 00 00 00 00 00 00 00 00 00 00 00 00
       0.0 0.0 0.0 0.0
0000a0 00 00 00 00 00 00 00 00 00 00 00 00 00 00 00 00
       0.0 0.0 0.0 0.0
0000b0 00 00 00 00 00 00 00 00 00 00 00 00 00 00 00 00
       0.0 0.0 0.0 0.0
0000c0 00 00 00 00 00 00 00 00 00 00 00 00 00 00 00 00
       0.0 0.0 0.0 0.0
0000d0 00 00 00 00 00 00 00 00 00 00 00 00 00 00 00 00
       0.0 0.0 0.0 0.0
0000e0 00 00 00 00 00 00 00 00 00 00 00 00 00 00 00 00
       0.0 0.0 0.0 0.0
0000f0 00 00 00 00 00 00 00 00 00 00 00 00 00 00 00 00
       0.0 0.0 0.0 0.0
000100 00 00 00 00 00 00 00 00 00 00 00 00 00 00 00 00
       0.0 0.0 0.0 0.0
000110 00 00 00 00 00 00 00 00 00 00 00 00 00 00 00 00
       0.0 0.0 0.0 0.0
000120 00 00 00 00 00 00 00 00 00 00 00 00 00 00 00 00
       0.0 0.0 0.0 0.0
000130 00 00 00 00 00 00 00 00 00 00 00 00 00 00 00 00
       0.0 0.0 0.0 0.0
000140 00 00 00 00 00 00 00 00 00 00 00 00 00 00 00 00
       0.0 0.0 0.0 0.0
000150 00 00 00 00 00 00 00 00 00 00 00 00 00 00 00 00
       0.0 0.0 0.0 0.0
000160 00 00 00 00 00 00 00 00 00 00 00 00 00 00 00 00
       0.0 0.0 0.0 0.0
000170 00 00 00 00 00 00 00 00 00 00 00 00 00 00 00 00
       0.0 0.0 0.0 0.0
000180 00 00 00 00 00 00 00 00 00 00 00 00 00 00 00 00
       0.0 0.0 0.0 0.0
000190 00 00 00 00 00 00 00 00 00 00 00 00 00 00 00 00
       0.0 0.0 0.0 0.0
0001a0 00 00 00 00 00 00 00 00 00 00 00 00 00 00 00 00
       0.0 0.0 0.0 0.0
0001b0 00 00 00 00 00 00 00 00 00 00 00 00 00 00 00 00
       0.0 0.0 0.0 0.0
0001c0 00 00 00 00 00 00 00 00 00 00 00 00 00 00 00 00
       0.0 0.0 0.0 0.0
0001d0 00 00 00 00 00 00 00 00 00 00 00 00 00 00 00 00
       0.0 0.0 0.0 0.0
0001e0 00 00 00 00 00 00 00 00 00 00 00 00 00 00 00 00
       0.0 0.0 0.0 0.0
0001f0 00 00 00 00 00 00 00 00 00 00 00 00 00 00 00 00
       0.0 0.0 0.0 0.0

network_body._body_endoder.seq_layers.2.weight f4 [128, 128]
000000 e2 38 de 3c b1 0c 05 3e 7a ea f0 bd c0 4e 99 3d
       0.027126733 0.12993123 -0.11763473 0.074857235
000010 1c 18 a2 3d 5f 10 ec bc 29 28 44 bc 4f 3b 10 3e
       0.07914755 -0.0288164 -0.011972466 0.14085124
000020 d6 61 2c 3e 23 9b 80 bd ec f1 6c 3d df 5a cf 3b
       0.16834196 -0.0627959 0.057847902 0.0063279714
000030 84 81 1c bd 29 6f 0f bd 36 e0 84 3d 33 69 a5 3d
       -0.038209453 -0.03501812 0.06488077 0.08076706
000040 5c bf 37 3c 01 15 0d bd 30 73 18 bd 07 f0 a6 3d
       0.011215057 -0.03444386 -0.037219226 0.0815125
000050 78 d2 99 bd 03 3e 0f 3e af 12 4a 3d 97 b0 7b bd
       -0.07510847 0.139885 0.049334224 -0.061447706
000060 d4 a9 82 3c a6 17 20 bd 14 30 33 bb 6a 95 cf 3d
       0.015950121 -0.039085053 -0.002734189 0.1013592
000070 b4 0e 12 3c da e8 44 3d 90 98 18 be 7f aa 29 3e
       0.008914638 0.048073627 -0.14901948 0.16568945
000080 4f 6c c4 3d 09 04 cf bc 26 ec 01 bd 7b ec 0f be
       0.09590971 -0.025270479 -0.03171935 -0.14055054
000090 72 13 15 3d d2 9c 12 be 2b 79 24 bd 56 c6 5e be
       0.036395498 -0.14317635 -0.040154617 -0.21755347
0000a0 89 8e 2b be 5a c2 9f 3c ce 80 69 3d 60 16 9e 3d
       -0.16753592 0.019501854 0.057007603 0.077191114
0000b0 27 01 34 bc 45 d8 62 bd 3b 4b 24 bd 33 67 b7 bd
       -0.010986603 -0.055382032 -0.040110808 -0.089552306
0000c0 7c 35 d3 3d 46 60 c4 3c c1 30 6a 3c 30 a4 28 3e
       0.10312936 0.023971688 0.01429385 0.16468883
0000d0 c9 3b 8d 3d 9b fe 02 bd 0f 44 70 3e 36 d8 c5 bc
       0.06896169 -0.031981092 0.23463462 -0.024150949
0000e0 1e c4 da bb 7a 32 21 3d 4f 82 40 3d 8a e6 39 3e
       -0.006676211 0.03935478 0.046999272 0.1815435
0000f0 b1 b8 df 3d ac 1e f1 3c 64 49 99 bd 15 17 94 3d
       0.10923899 0.02943357 -0.07484701 0.07230965
000100 d8 1b fd bd 9e b2 0b 3d 20 42 0a 3d 7b 43 82 3d
       -0.123588264 0.03410589 0.033754468 0.06360527
000110 6d a5 36 bd c7 d7 35 3e 48 3f ca 3c 06 6f e8 3c
       -0.044591356 0.17758094 0.024688378 0.028373253
000120 ee 9b 9e bd e4 7f 34 bc 0f 21 ae 3d 35 c2 1a be
       -0.07744585 -0.01101682 0.08502399 -0.15113147
000130 d3 f6 8b bd 20 a9 ae bb b8 77 7f bd 3b c4 c5 3c
       -0.06834187 -0.00533022 -0.062370032 0.024141422
000140 80 49 b9 bd ca e3 b7 3d e8 6c fb bd d8 2d 0a bd
       -0.09047222 0.08978994 -0.122766316 -0.033735126
000150 c8 9b 21 bc 20 dc 4d bc 64 0c a5 bd 29 ad ec bd
       -0.009863801 -0.012564689 -0.08059004 -0.11556465
000160 64 1b de 3d 9d 57 58 bd 9f 52 13 bd 47 be bb 3c
       0.10845068 -0.05281793 -0.035967465 0.02291788
000170 2f d5 a5 bd b9 04 50 3e a9 98 27 3e 53 e5 b4 3d
       -0.08097302 0.20314302 0.16366829 0.088328026
000180 15 68 ec bb 43 13 fc 3d 81 03 38 3d 59 94 ed 3d
       -0.007214556 0.123083614 0.044925217 0.11600561
000190 43 80 28 bb d9 06 7b be 45 04 38 3d 20 4a 02 bd
       -0.0025711216 -0.24514331 0.044925947 -0.031808972
0001a0 e4 08 04 bd d8 98 e9 bc 8d 2f 25 bd b3 87 22 bc
       -0.03223504 -0.028515264 -0.04032855 -0.0099200485
0001b0 47 9f f7 bd 48 69 5a 3d 66 9a 17 bc 56 ed 7e bc
       -0.120909266 0.05332306 -0.00925312 -0.015559515
0001c0 28 85 ca bd fc ca 06 bd 12 2b d4 3c 36 69 d5 bd
       -0.09888679 -0.032908425 0.025899444 -0.10420458
0001d0 6d 89 81 bc 87 53 7a 3c 60 5b 2c bc 94 29 6c 3d
       -0.0158126 0.0152787035 -0.010519832 0.05765684
0001e0 bc fa d7 3d 0f b9 e6 bd 95 3a b3 3c 14 80 42 be
       0.10545871 -0.11265766 0.02187852 -0.1899417
0001f0 d7 1d 41 3c 8e b9 83 bd 4e 17 3e be cd d2 50 3d
       0.0117868995 -0.06431876 -0.18563578 0.050982285
000200 24 e1 ad bb b2 2c ab bc 02 d6 29 3c ba ec 1f be
       -0.00530638 -0.020895336 0.010365965 -0.15617648
000210 ee d5 c6 bd 1e c9 f6 3d b4 a9 3e be ee f8 02 3e
       -0.097087726 0.12050079 -0.18619424 0.12790272
000220 a7 6c ca 3d 3e 81 af bd e4 06 27 bd 33 05 c8 bb
       0.09884005 -0.08569573 -0.040778056 -0.0061041354
000230 3c 94 37 3d 1e fd 04 bd 3d a7 8f 3d b0 66 3e 3a
       0.0448191 -0.032467954 0.0701432 0.00072632264
000240 08 b2 9e bd 11 43 ed bd cc a0 7a 3d ad 1c 8f bd
       -0.077488005 -0.115850575 0.061188504 -0.06987891
000250 0e 71 02 3d 77 33 84 3d c4 62 32 bd 59 ee 0b 3e
       0.0318461 0.06455129 -0.04355122 0.13665141
000260 5f 90 1d 3e 44 4f 07 3e 4c 0a ee bd 3c ac 9f bb
       0.15387104 0.13213831 -0.11623058 -0.004872827
000270 61 20 9b bc 77 dc 08 be 24 28 df bd d6 f5 bd bb
       -0.018936338 -0.1336535 -0.10896328 -0.005797128
000280 cc d1 0e 3d d0 40 2b 3e 9f c2 bd 3d c6 bf 0d bd
       0.034868047 0.16723943 0.09265637 -0.034606718
000290 a5 9f 96 3b 8d be 02 3d ab 32 8b 3c aa 0a 90 3a
       0.004596668 0.031920005 0.016991934 0.0010989506
0002a0 57 5d 44 3c 8a 4d d2 bc 11 49 5a bd c3 df 7c bd
       0.011985145 -0.02567174 -0.053292338 -0.061736833
0002b0 92 97 29 be 49 5d 12 3b e5 e1 11 bd 23 72 1b bd
       -0.16561726 0.0022333434 -0.03561582 -0.037950646
0002c0 af d6 d8 3d f9 a8 3b 3d 5f 3f 9c bd 8b 9d b8 bd
       0.10587823 0.04581544 -0.076292746 -0.09014424
0002d0 86 a7 19 be d1 99 2b 3d c8 06 8b 3c e5 84 a7 bd
       -0.15005311 0.041894738 0.016971007 -0.081796445
0002e0 f7 eb 22 bd 4b b3 c3 3d a3 b5 1f bd 4d e7 ab 3d
       -0.039775815 0.09555682 -0.03899158 0.083937265
0002f0 5f 58 c9 bd 63 2e 9a bc 96 bc 16 bd cf fa 36 3d
       -0.098313086 -0.018820947 -0.036800943 0.044672783
000300 60 74 1e 3c aa 72 1b be 09 4f a9 bd 8c 1d 58 3d
       0.009671301 -0.1518046 -0.08267028 0.052762553
000310 d3 17 71 3c 32 b5 72 bd 34 87 20 3d 27 62 a1 3c
       0.014715153 -0.059254833 0.03919144 0.019700123
000320 d8 01 84 ba b5 d4 be bd c2 d9 2c bd cd 50 20 be
       -0.001007135 -0.093179144 -0.042199858 -0.15655823
000330 ef 0e 04 3d d1 b6 07 3d 18 67 f4 3c 5b cd 6b 3d
       0.032240804 0.03313333 0.029834315 0.05756889
000340 71 61 6d bd f6 6b f6 3c e4 fc 38 bd 0a fb 07 3e
       -0.057954255 0.030080777 -0.04516305 0.13279358
000350 fc 68 39 3e 01 89 39 3d ff 76 5e 3d 8d 33 84 bd
       0.18106455 0.045296673 0.054312702 -0.06455145
000360 7b d9 ba b9 97 f5 a5 3d 74 96 f0 3d 46 28 bf bc
       -0.0003563872 0.08103483 0.11747447 -0.023334634
000370 8c d8 05 be aa 5a 65 3d 36 de 27 be ba 9d bf 3c
       -0.13070887 0.055994667 -0.1639336 0.02339064
000380 47 4a 1f 3d 40 c6 a7 bd 2f a9 9f 3c 9e 04 b0 bd
       0.038889196 -0.0819211 0.019489853 -0.08594631
000390 a9 91 2f 3d 88 c1 9b bd 2b d5 66 3d e9 4d 83 bd
       0.04286352 -0.076052725 0.056355637 -0.064113446
0003a0 3b bc 29 3e 8e d0 90 bd 5e 81 6c bd 5f 9f 4e 3e
       0.1657571 -0.07071029 -0.05774056 0.20177983
0003b0 1c 60 0e 3e cb 82 91 bb 36 ee 22 3d b4 4b ef bd
       0.1390385 -0.0044406406 0.039777957 -0.11684361
0003c0 bf 44 05 3b 79 e8 9a 3c bd c6 83 3d 88 b5 b6 bd
       0.0020335165 0.01890968 0.06434391 -0.08921343
0003d0 f5 fe cb 3c e4 d4 9c bd 91 c9 d7 bc da af 81 bb
       0.024901846 -0.07657793 -0.026341232 -0.0039577307
0003e0 78 81 2e 3d cc f1 bb bb 96 50 d6 3d b5 c6 8b bc
       0.04260394 -0.0057356115 0.10464589 -0.017062524
0003f0 a0 04 ad bd 88 40 7e 3b 7a 7a 67 3e c2 99 98 3d
       -0.08448148 0.0038795788 0.22605315 0.07451202

network_body._body_endoder.seq_layers.2.bias f4 [128]
000000 00 00 00 00 00 00 00 00 00 00 00 00 00 00 00 00
       0.0 0.0 0.0 0.0
000010 00 00 00 00 00 00 00 00 00 00 00 00 00 00 00 00
       0.0 0.0 0.0 0.0
000020 00 00 00 00 00 00 00 00 00 00 00 00 00 00 00 00
       0.0 0.0 0.0 0.0
000030 00 00 00 00 00 00 00 00 00 00 00 00 00 00 00 00
       0.0 0.0 0.0 0.0
000040 00 00 00 00 00 00 00 00 00 00 00 00 00 00 00 00
       0.0 0.0 0.0 0.0
000050 00 00 00 00 00 00 00 00 00 00 00 00 00 00 00 00
       0.0 0.0 0.0 0.0
000060 00 00 00 00 00 00 00 00 00 00 00 00 00 00 00 00
       0.0 0.0 0.0 0.0
000070 00 00 00 00 00 00 00 00 00 00 00 00 00 00 00 00
       0.0 0.0 0.0 0.0
000080 00 00 00 00 00 00 00 00 00 00 00 00 00 00 00 00
       0.0 0.0 0.0 0.0
000090 00 00 00 00 00 00 00 00 00 00 00 00 00 00 00 00
       0.0 0.0 0.0 0.0
0000a0 00 00 00 00 00 00 00 00 00 00 00 00 00 00 00 00
       0.0 0.0 0.0 0.0
0000b0 00 00 00 00 00 00 00 00 00 00 00 00 00 00 00 00
       0.0 0.0 0.0 0.0
0000c0 00 00 00 00 00 00 00 00 00 00 00 00 00 00 00 00
       0.0 0.0 0.0 0.0
0000d0 00 00 00 00 00 00 00 00 00 00 00 00 00 00 00 00
       0.0 0.0 0.0 0.0
0000e0 00 00 00 00 00 00 00 00 00 00 00 00 00 00 00 00
       0.0 0.0 0.0 0.0
0000f0 00 00 00 00 00 00 00 00 00 00 00 00 00 00 00 00
       0.0 0.0 0.0 0.0
000100 00 00 00 00 00 00 00 00 00 00 00 00 00 00 00 00
       0.0 0.0 0.0 0.0
000110 00 00 00 00 00 00 00 00 00 00 00 00 00 00 00 00
       0.0 0.0 0.0 0.0
000120 00 00 00 00 00 00 00 00 00 00 00 00 00 00 00 00
       0.0 0.0 0.0 0.0
000130 00 00 00 00 00 00 00 00 00 00 00 00 00 00 00 00
       0.0 0.0 0.0 0.0
000140 00 00 00 00 00 00 00 00 00 00 00 00 00 00 00 00
       0.0 0.0 0.0 0.0
000150 00 00 00 00 00 00 00 00 00 00 00 00 00 00 00 00
       0.0 0.0 0.0 0.0
000160 00 00 00 00 00 00 00 00 00 00 00 00 00 00 00 00
       0.0 0.0 0.0 0.0
000170 00 00 00 00 00 00 00 00 00 00 00 00 00 00 00 00
       0.0 0.0 0.0 0.0
000180 00 00 00 00 00 00 00 00 00 00 00 00 00 00 00 00
       0.0 0.0 0.0 0.0
000190 00 00 00 00 00 00 00 00 00 00 00 00 00 00 00 00
       0.0 0.0 0.0 0.0
0001a0 00 00 00 00 00 00 00 00 00 00 00 00 00 00 00 00
       0.0 0.0 0.0 0.0
0001b0 00 00 00 00 00 00 00 00 00 00 00 00 00 00 00 00
       0.0 0.0 0.0 0.0
0001c0 00 00 00 00 00 00 00 00 00 00 00 00 00 00 00 00
       0.0 0.0 0.0 0.0
0001d0 00 00 00 00 00 00 00 00 00 00 00 00 00 00 00 00
       0.0 0.0 0.0 0.0
0001e0 00 00 00 00 00 00 00 00 00 00 00 00 00 00 00 00
       0.0 0.0 0.0 0.0
0001f0 00 00 00 00 00 00 00 00 00 00 00 00 00 00 00 00
       0.0 0.0 0.0 0.0
