Assets/ML-Agents/Examples/FirstTRexScene/results/trmodel/My Behavior/My Behavior-1344.onnx (onnx, 74175 bytes, 7 tensors)

action_model._continuous_distribution.log_sigma f4 [1, 2]
00000000: 0000 0000 0000 0000
0.0 0.0

action_model._continuous_distribution.mu.bias f4 [2]
00000000: 0000 0000 0000 0000
0.0 0.0

action_model._continuous_distribution.mu.weight f4 [2, 128]
00000000: b08d dbb9 c920 04bd 7b25 e33c 558e aabc
00000010: 2fa9 b23c fb0b 73bc 562e 9f3c f705 143d
00000020: 1387 ab3c 34d8 20bd 54d2 2f3b bb9f 8f3b
00000030: 07dd 26bd 5780 25bd 0245 553d 9838 bdbb
00000040: 64bf 1abb ad80 ee3c 2f45 f13a 3b42 e0bc
00000050: c64a 0c3d c3c9 813c 141f 0d3d bff2 98bb
00000060: 57c2 b13a 8f67 67bc 1a2c 163b 0b0b 1cbc
00000070: 345d b93c 1e3e 253c c9c1 32b9 f037 943c
00000080: 7977 8ebc 13f0 bc3a 5879 e23b 8e00 3fbb
00000090: 0a6c afbb d54f 32bb 78c7 d4bb d2bf 5fbc
000000a0: 7038 a13c 47c6 bc3c 5798 343c d3ec b7bc
000000b0: fb76 07bd 2ef7 b83b 5855 3a3d aca6 3b3c
000000c0: 53ea bbbc 6d4d 10bc 955a 35bc 55c9 6d3c
000000d0: 6f19 693c ec12 c7bb 0cde c33c f082 e0b9
000000e0: 1c23 c3bc 6f5c 12bc 6e47 293c 3a00 d83b
000000f0: 9744 75bc 8b0d ccbc 9746 71bc db6b 393c
00000100: 1ef3 1f3c fe8f 87bc 4a8a 0a3d e226 f83b
00000110: b531 12bc 46f7 983b e814 31bc dea8 9cbb
00000120: 6a8d 29bd c33a f73b 1f2b 323b fa7b b33b
00000130: 1f18 b7bc 2a1a a4bb d3a6 a93c c591 82bc
00000140: f161 49bc edd4 d8bc 853b f5bb 2f9d 1dbc
00000150: 2000 e63c f81a 62bc 2476 b73c 0b8e 663d
00000160: 1795 923c a891 223b 2391 ca3c f8c8 6cbc
00000170: cd20 223b 5309 473b 7bb2 303b d763 923c
00000180: 277b 8dbc 038e 073d c552 e93c 55f2 aebc
00000190: c025 8f3c 489b e039 b781 e83c 3734 4b3b
000001a0: e4ad 0ebc 123b 213d 94c1 823a bff4 3e3c
000001b0: e61e 853c c08a b6bc a260 b2bc a2ea 16ba
000001c0: b50e 82bc bec0 af3b 2a02 7bbc 1904 483c
000001d0: 2f31 0d3c e9a8 9f3c bb89 c2bc 6065 febb
000001e0: b760 28b9 ea16 923b 05a5 903c 8792 c63b
000001f0: 52ba ddba 8907 093c 3756 1c3c e391 a9bb
00000200: 8378 1ebd 37db 0a3b 80cb 7e3b 7bd7 a73b
00000210: 919a bfbb 5008 013d f849 183b 431d f43c
00000220: 4d84 163b 02bb 63bc 2328 543b f20b d5bc
00000230: 6d0b 173b 7f6d 3d3c 8844 bf3c ccb3 aebc
00000240: ac36 263c ed57 ae3c e80b 643c 8f76 813c
00000250: 0d6c ea3c 0398 623c db23 c7bb 18f6 4dbc
00000260: 50c3 7cbb b7ac 14bc adb7 aebc c0f7 093c
00000270: 2d7a 753c 3b1d aaba e5ca 4b3c f8b6 ba3a
00000280: 9f24 9cbc e340 b83c 2afd 00bd 1f0a 64bb
00000290: 2b49 bbbc b7e9 0d3d 5766 243c 8dbf 7dbc
000002a0: a64e 20bd 9e8c 153a 69e8 8cbc 6503 213b
000002b0: a049 e0bc 7945 2a3c 025c b13c 46c6 3bbc
000002c0: 23cc 3dbc 5ea1 4a3c 5386 95bc b3e1 fa3a
000002d0: 728a 043c e527 5c3b cb23 d1bb a40c 8a3c
000002e0: bbc6 e7bb bb84 883b 486d 3e3b 6b36 0b3c
000002f0: 6508 e13b 0aca c03c 3735 9d3b a38e 853b
00000300: 837f 5b3c 632c a5bc 0df6 f43b 392e 1f3c
00000310: ccce 1cbc 3230 4bbb 7854 04bd 7c87 adbc
00000320: 9d5b 73bb b0c6 01bb 1b32 7fbc c21d 19bd
00000330: 11fc c03b 1d4b 54bc 5827 483c b7fb e03a
00000340: 98c9 0d3b 964d 12bb c854 e73a eee8 1abc
00000350: a207 ed3c 1812 2d3b 484b 283c 179a e73c
00000360: 2d98 f5bc eb94 913a 600b 8ebc 3ff1 873c
00000370: 77ed adbc b34b 473b a725 07bc 47d6 4bbc
00000380: eba6 2d3b 06a7 403c a842 ac3c ab97 b3bc
00000390: 47ba a03c be2b 02bd a266 b6bb 2cd4 3fbc
000003a0: 95ed 93bc dab6 43bc f590 ed3c 68be ce3a
000003b0: dc81 273c 0dfa ddbb 6d3c 77bc eb4e 8dbc
000003c0: 28d2 0c3c 118f 963c 7cfb 2e3a 03de 303c
000003d0: 923b 8dbc 2f0d 5dbc af30 093c c41d 9d3c
000003e0: 7e03 953c 3f56 0fbc da13 d5bb 13ca f63c
000003f0: ca52 553b 60da 6abc ef47 49bc ff73 38bb
-0.000418765 -0.03225783 0.027727833 -0.020819822 0.021809189 -0.014834399 0.019431274 0.0361385
0.020938432 -0.039268687 0.0026828246 0.004383055 -0.04073813 -0.040405598 0.052067764 -0.0057745688
-0.0023612613 0.029114092 0.0018407459 -0.027375331 0.034250997 0.015843278 0.034453467 -0.0046676095
0.0013561946 -0.014123811 0.002291447 -0.009524117 0.02262745 0.010085611 -0.00017047593 0.01809308
-0.017390953 0.0014414809 0.006911438 -0.0029144618 -0.0053534554 -0.0027208228 -0.006493505 -0.013656573
0.019680232 0.023043765 0.011022649 -0.022451794 -0.033072453 0.0056447005 0.045491546 0.011453312
-0.022938883 -0.008807522 -0.01106896 0.014513333 0.014227255 -0.0060752537 0.023909591 -0.00042822165
-0.023820452 -0.008933171 0.010331972 0.006591824 -0.014969966 -0.024908802 -0.014726303 0.011317219
0.0097625535 -0.016548153 0.03382329 0.0075729946 -0.008922984 0.004668149 -0.010808207 -0.0047808727
-0.04139463 0.0075448467 0.0027186347 0.0054774256 -0.022350369 -0.005008002 0.02070943 -0.015938649
-0.012291417 -0.026468718 -0.007483902 -0.009619995 0.028076231 -0.013800375 0.022395201 0.056287806
0.017893357 0.0024806056 0.02472741 -0.014452212 0.002473879 0.0030370548 0.0026961851 0.017869873
-0.017270638 0.033094417 0.02848185 -0.021355787 0.017474055 0.00042840303 0.028382165 0.0031006464
-0.008708451 0.039362974 0.0009975904 0.011655032 0.016250085 -0.022282958 -0.021774594 -0.0005757009
-0.015876153 0.005363553 -0.01532034 0.012208008 0.008617683 0.019489722 -0.023747316 -0.0077635497
-0.00016057758 0.004458298 0.017656812 0.006059948 -0.001691649 0.008363613 0.00954204 -0.0051748618
-0.038689148 0.002118779 0.003887862 0.005122123 -0.005847283 0.031502068 0.0023237448 0.02979911
0.002296704 -0.013899567 0.0032372556 -0.026006673 0.0023047582 0.01156175 0.023348108 -0.021325968
0.010144871 0.02128216 0.013918854 0.015803603 0.028615976 0.013830188 -0.0060772724 -0.01257088
-0.0038568564 -0.009074382 -0.021327818 0.008420885 0.014982742 -0.0012978682 0.012438511 0.0014245203
-0.019060431 0.022491878 -0.031491436 -0.0034796072 -0.022862038 0.034646716 0.010034165 -0.015487564
-0.039137505 0.00057048525 -0.017200666 0.0024568674 -0.027378857 0.01039254 0.021650318 -0.011460846
-0.0115843145 0.0123675745 -0.018252527 0.001914075 0.008089649 0.0033593115 -0.0063824407 0.01685173
-0.007073251 0.0041662133 0.0029056836 0.008496861 0.006867456 0.02353384 0.0047976035 0.0040758415
0.0133971 -0.020162767 0.0074756206 0.00971561 -0.009570789 -0.0031004068 -0.03230712 -0.021182768
-0.0037133463 -0.0019802265 -0.015575911 -0.037381895 0.0058894237 -0.0129573615 0.0122164115 0.0017164861
0.0021635052 -0.0022324077 0.0017649168 -0.009454949 0.028934304 0.002640849 0.010271855 0.028271718
-0.02997979 0.0011107003 -0.017339408 0.016594527 -0.021231396 0.003041011 -0.008248723 -0.012441224
0.0026497196 0.0117585715 0.021027878 -0.021922907 0.019620074 -0.031779997 -0.005566434 -0.011708301
-0.018057624 -0.011945451 0.028999785 0.0015773298 0.010223832 -0.006774193 -0.01509009 -0.017249545
0.008595027 0.018378766 0.00066750473 0.010795119 -0.01724032 -0.013491913 0.0083734235 0.019179232
0.018190142 -0.00874859 -0.0065026106 0.030125653 0.0032550567 -0.014334291 -0.012285217 -0.002814531

network_body._body_endoder.seq_layers.0.bias f4 [128]
00000000: 0000 0000 0000 0000 0000 0000 0000 0000
00000010: 0000 0000 0000 0000 0000 0000 0000 0000
00000020: 0000 0000 0000 0000 0000 0000 0000 0000
00000030: 0000 0000 0000 0000 0000 0000 0000 0000
00000040: 0000 0000 0000 0000 0000 0000 0000 0000
00000050: 0000 0000 0000 0000 0000 0000 0000 0000
00000060: 0000 0000 0000 0000 0000 0000 0000 0000
00000070: 0000 0000 0000 0000 0000 0000 0000 0000
00000080: 0000 0000 0000 0000 0000 0000 0000 0000
00000090: 0000 0000 0000 0000 0000 0000 0000 0000
000000a0: 0000 0000 0000 0000 0000 0000 0000 0000
000000b0: 0000 0000 0000 0000 0000 0000 0000 0000
000000c0: 0000 0000 0000 0000 0000 0000 0000 0000
000000d0: 0000 0000 0000 0000 0000 0000 0000 0000
000000e0: 0000 0000 0000 0000 0000 0000 0000 0000
000000f0: 0000 0000 0000 0000 0000 0000 0000 0000
00000100: 0000 0000 0000 0000 0000 0000 0000 0000
00000110: 0000 0000 0000 0000 0000 0000 0000 0000
00000120: 0000 0000 0000 0000 0000 0000 0000 0000
00000130: 0000 0000 0000 0000 0000 0000 0000 0000
00000140: 0000 0000 0000 0000 0000 0000 0000 0000
00000150: 0000 0000 0000 0000 0000 0000 0000 0000
00000160: 0000 0000 0000 0000 0000 0000 0000 0000
00000170: 0000 0000 0000 0000 0000 0000 0000 0000
00000180: 0000 0000 0000 0000 0000 0000 0000 0000
00000190: 0000 0000 0000 0000 0000 0000 0000 0000
000001a0: 0000 0000 0000 0000 0000 0000 0000 0000
000001b0: 0000 0000 0000 0000 0000 0000 0000 0000
000001c0: 0000 0000 0000 0000 0000 0000 0000 0000
000001d0: 0000 0000 0000 0000 0000 0000 0000 0000
000001e0: 0000 0000 0000 0000 0000 0000 0000 0000
000001f0: 0000 0000 0000 0000 0000 0000 0000 0000
0.0 0.0 0.0 0.0 0.0 0.0 0.0 0.0
0.0 0.0 0.0 0.0 0.0 0.0 0.0 0.0
0.0 0.0 0.0 0.0 0.0 0.0 0.0 0.0
0.0 0.0 0.0 0.0 0.0 0.0 0.0 0.0
0.0 0.0 0.0 0.0 0.0 0.0 0.0 0.0
0.0 0.0 0.0 0.0 0.0 0.0 0.0 0.0
0.0 0.0 0.0 0.0 0.0 0.0 0.0 0.0
0.0 0.0 0.0 0.0 0.0 0.0 0.0 0.0
0.0 0.0 0.0 0.0 0.0 0.0 0.0 0.0
0.0 0.0 0.0 0.0 0.0 0.0 0.0 0.0
0.0 0.0 0.0 0.0 0.0 0.0 0.0 0.0
0.0 0.0 0.0 0.0 0.0 0.0 0.0 0.0
0.0 0.0 0.0 0.0 0.0 0.0 0.0 0.0
0.0 0.0 0.0 0.0 0.0 0.0 0.0 0.0
0.0 0.0 0.0 0.0 0.0 0.0 0.0 0.0
0.0 0.0 0.0 0.0 0.0 0.0 0.0 0.0

network_body._body_endoder.seq_layers.0.weight f4 [128, 9]
00000000: a61c e7bc 8cb4 b0bd 5001 e8be ea5e d83e
00000010: 62df d03e f27a f9be e72c 2cbe 7091 163d
00000020: 25e6 93be 5b7a af3c 1f19 30be ceda 3d3e
00000030: a05f 0d3f 07fd 2fbe 5e8f 3a3f abe9 50bc
00000040: ac38 f7bd e637 4abe 50cf e03d 0079 3bbe
00000050: 3460 ce3d 303c 5fbe 16c2 dbbe 5c7e 8cbe
00000060: 988d ccbd 4c9d f0be 4a6d 2dbf 94c6 673e
00000070: 88e3 be3e 0a10 85be bf01 1ebe ed1e 95bd
00000080: 155e 8abc bbcc e1bc 22b6 e6bd 6009 4f3e
00000090: f2a6 cdbd 67ff 63be fc4a be3d 0c20 ad3e
000000a0: 1cea dabd 1cb3 903e 3608 083f 2d8b 8abe
000000b0: 2ac2 e03d b761 bd3e bfbd 363e 5b2d 733e
000000c0: 0c8f a93e 54a7 04bf 617b 9cbd 5280 c53e
000000d0: 7aeb 0a3f b4a5 d23e 007e c9be 0f47 9e3d
000000e0: b299 7b3f c6e4 52bf fbb1 06bd ae61 9fbe
000000f0: 3fbe 473d d91c 083e 1715 39be d4f0 35bf
00000100: 8a4d 45bb 56ee 75bf 2aeb 3dbe ae05 a83b
00000110: e3fd 45bf a3bf b3be 0097 8ebe 58b6 9fbe
00000120: 4c11 09bd 4f0e 083f 2464 9dbe 34ab f93e
00000130: a427 d9be 14b6 d23d 7d85 97be 8366 f33e
00000140: 223e 38bc 2e81 ca3e ded8 823e 8731 a93e
00000150: fc0c 13be ec96 9d3e 30e8 e63e cb61 793e
00000160: d02b 95be e840 623d e2f5 613e 1cb5 103c
00000170: 74ed abbd 07c5 4d3e 0a73 483e 677d d8bd
00000180: 128d 073f 4eb8 373d ea2f 9a3c d8aa 9ebc
00000190: 5cb0 873e 9b4d 773e e0ab 9ebe 0cb8 1e3e
000001a0: 52ce 123f 86d3 db3e 1233 8c3e cc1f 013f
000001b0: 8863 e6be 77d3 bc3d dfc2 de3e e860 913c
000001c0: 732b 1a3f 90b9 1e3e 9a4f 4dbf a0da 063e
000001d0: c436 843d 1309 26be 863b cb3d 72a5 e5be
000001e0: ab06 c23d 1260 393e c1d1 08bf e085 5a3e
000001f0: 4a91 123f b036 ddbe c4c2 bdbe 60d9 363e
00000200: c8e1 60bd bb91 c1bd 0a64 cb3e 4350 0f3f
00000210: 9fc9 55bd 9887 a13e aa6e 9f3e 00f8 c83d
00000220: 0312 12bf 3b0a 693d 8fc1 23bf 9292 9c3d
00000230: d2af a23c d674 043e 6f0a 8ebd 8663 093f
00000240: 1424 debe 5e6c 0e3f 3d86 893d 566e 8abe
00000250: c2a0 1b3e 724d a1be c1d7 833d a557 12be
00000260: 3e03 7f3d f790 e4be 7a50 f9be 4cc8 68be
00000270: dbd5 cbbc 642c cfbe 4746 f63e 26be 1cbf
00000280: 52a2 f93e fb06 f0bd c689 54be ecb8 723e
00000290: ce5b 18be b7a2 473d e3f7 113f a8bc c83e
000002a0: fadc ad3e 0381 d8be e42e 823d cab5 e13e
000002b0: 94aa 90be b6a4 ae3e b138 8abe 408c 02bf
000002c0: 8570 a03d 860e 533e 2c43 47bd a96e 113d
000002d0: ebe4 32be 7c5f 19bc 20f6 463e 7e3e ce3e
000002e0: d20d 0fbf be33 cd3e ef29 08be 3a8e 08be
000002f0: 2f22 ab3e febd e03e 00dc 9e3e a60f 39bd
00000300: 0e9a 1abc cb35 313d c868 1a3f 4c3b e33e
00000310: b42d 433d 315f 903e eb4e dabe 0b62 4d3e
00000320: 6bb1 e63e 62ce 2cbe 1838 a33e d081 43be
00000330: 5846 0e3f 5cd1 e43d 70f3 cdbe 03a2 e8bd
00000340: f892 8cbc ea28 8ebe de8f 96bd c218 d83e
00000350: 7e0f 32be b051 bcbd e8c4 663e b852 b53e
00000360: 722a 593d 8e9d dc3e afc3 0b3f a669 90b9
00000370: 4cc9 21bd 722e b2be 81d6 123e 681e 183e
00000380: 8882 533f 4e90 303f 9213 e53d dea7 c6be
00000390: be18 123f 7abc 9d3e 9c63 82be 0ec7 113e
000003a0: 9212 153e f4c5 bdbe c807 61be 0492 f83c
000003b0: 344e 1c3e f6d8 8c3e 1295 323f b491 33bf
000003c0: 0e6d a13d d3bd 3b3e f216 84be 0c49 98be
000003d0: d7ce dbbe e0e0 573e 02fd d1bc 5e22 1c3f
000003e0: 8c28 fc3e 066d 5abe ae71 0c3e f6ff c9bd
000003f0: 67ca cabe 7340 673d c89b b1bb 8cfb 36be
-0.028211903 -0.086281866 -0.453135 0.42259914 0.40795428 -0.48726612 -0.16814004 0.036759794
-0.28886524 0.021420648 -0.17197083 0.18540499 0.5522404 -0.17186366 0.7287501 -0.012751023
-0.12071356 -0.19747886 0.10977042 -0.18307877 0.10076943 -0.21800303 -0.42921513 -0.27440155
-0.09987944 -0.46995008 -0.67744887 0.22634345 0.37282968 -0.259888 -0.15430354 -0.07281289
-0.016890565 -0.027563443 -0.11265208 0.2021842 -0.10041608 -0.22265397 0.09291646 0.33813512
-0.10689184 0.2826165 0.5313753 -0.27059308 0.10974534 0.36988613 0.1784582 0.2374777
0.3311695 -0.5181782 -0.0764072 0.38574463 0.5426556 0.41142046 -0.39353943 0.07728397
0.98281395 -0.8238033 -0.03288458 -0.3112921 0.048765417 0.13292255 -0.18074451 -0.710706
-0.0030106031 -0.96066797 -0.18546739 0.00512763 -0.77340525 -0.35107145 -0.2784958 -0.31193805
-0.03346376 0.53146833 -0.30740464 0.4876343 -0.42413056 0.10288635 -0.2959403 0.47539148
-0.011245282 0.3955168 0.25556082 0.330456 -0.14360422 0.30779207 0.4509902 0.24353711
-0.2913499 0.05523768 0.22066453 0.008832242 -0.083949 0.20094691 0.19575134 -0.105707936
0.5294963 0.0448535 0.018821675 -0.019368574 0.2650174 0.24150698 -0.30990505 0.15499896
0.5734607 0.42934817 0.27382714 0.50439143 -0.4499781 0.09220021 0.4350805 0.017746404
0.6022255 0.15500474 -0.8019959 0.13169336 0.06455758 -0.16214399 0.099234626 -0.44852787
0.09473928 0.18103054 -0.5344506 0.21340132 0.57252944 -0.43205786 -0.37062657 0.1785636
-0.05490282 -0.09451624 0.3972476 0.55981845 -0.052194234 0.31548762 0.31139117 0.09812927
-0.57058734 0.056894522 -0.6396722 0.076451436 0.019859228 0.12935194 -0.06935584 0.53667486
-0.433869 0.55634105 0.06715057 -0.27037305 0.15198043 -0.315044 0.06437636 -0.14291246
0.06225895 -0.4464185 -0.4869421 -0.22732657 -0.024882248 -0.40463555 0.48100492 -0.61227643
0.48756653 -0.117200814 -0.20755681 0.23703355 -0.1487877 0.04873916 0.5701887 0.39206433
0.33957654 -0.42285928 0.063566 0.44084007 -0.2825514 0.3411004 -0.26996377 -0.50995255
0.078339614 0.20611009 -0.048648044 0.035505924 -0.17470138 -0.009361144 0.19429827 0.40282053
-0.55880463 0.4007854 -0.13297246 -0.13335505 0.33424518 0.43894953 0.31027222 -0.04518094
-0.009436144 0.04326419 0.60316133 0.44381177 0.047651008 0.28197625 -0.42638335 0.20056932
0.45057234 -0.16875604 0.31878734 -0.19092488 0.55576086 0.11172745 -0.4022479 -0.11359026
-0.017159924 -0.2776559 -0.07351659 0.4220639 -0.17388722 -0.09195268 0.22536051 0.35414672
0.053018995 0.43088955 0.54595464 -0.00027544535 -0.039498612 -0.3480106 0.14339639 0.14855349
0.8262105 0.6897019 0.11185373 -0.38799948 0.57069004 0.3080786 -0.2546662 0.1423609
0.14557865 -0.3706509 -0.21975625 0.030343063 0.15264207 0.27509278 0.69758713 -0.701442
0.07882129 0.18334131 -0.25798756 -0.2974323 -0.42931244 0.21081877 -0.025633339 0.6098994
0.49249685 -0.21330652 0.1371524 -0.09863274 -0.39607546 0.056457948 -0.005420182 -0.17869395

network_body._body_endoder.seq_layers.2.bias f4 [128]
00000000: 0000 0000 0000 0000 0000 0000 0000 0000
00000010: 0000 0000 0000 0000 0000 0000 0000 0000
00000020: 0000 0000 0000 0000 0000 0000 0000 0000
00000030: 0000 0000 0000 0000 0000 0000 0000 0000
00000040: 0000 0000 0000 0000 0000 0000 0000 0000
00000050: 0000 0000 0000 0000 0000 0000 0000 0000
00000060: 0000 0000 0000 0000 0000 0000 0000 0000
00000070: 0000 0000 0000 0000 0000 0000 0000 0000
00000080: 0000 0000 0000 0000 0000 0000 0000 0000
00000090: 0000 0000 0000 0000 0000 0000 0000 0000
000000a0: 0000 0000 0000 0000 0000 0000 0000 0000
000000b0: 0000 0000 0000 0000 0000 0000 0000 0000
000000c0: 0000 0000 0000 0000 0000 0000 0000 0000
000000d0: 0000 0000 0000 0000 0000 0000 0000 0000
000000e0: 0000 0000 0000 0000 0000 0000 0000 0000
000000f0: 0000 0000 0000 0000 0000 0000 0000 0000
00000100: 0000 0000 0000 0000 0000 0000 0000 0000
00000110: 0000 0000 0000 0000 0000 0000 0000 0000
00000120: 0000 0000 0000 0000 0000 0000 0000 0000
00000130: 0000 0000 0000 0000 0000 0000 0000 0000
00000140: 0000 0000 0000 0000 0000 0000 0000 0000
00000150: 0000 0000 0000 0000 0000 0000 0000 0000
00000160: 0000 0000 0000 0000 0000 0000 0000 0000
00000170: 0000 0000 0000 0000 0000 0000 0000 0000
00000180: 0000 0000 0000 0000 0000 0000 0000 0000
00000190: 0000 0000 0000 0000 0000 0000 0000 0000
000001a0: 0000 0000 0000 0000 0000 0000 0000 0000
000001b0: 0000 0000 0000 0000 0000 0000 0000 0000
000001c0: 0000 0000 0000 0000 0000 0000 0000 0000
000001d0: 0000 0000 0000 0000 0000 0000 0000 0000
000001e0: 0000 0000 0000 0000 0000 0000 0000 0000
000001f0: 0000 0000 0000 0000 0000 0000 0000 0000
0.0 0.0 0.0 0.0 0.0 0.0 0.0 0.0
0.0 0.0 0.0 0.0 0.0 0.0 0.0 0.0
0.0 0.0 0.0 0.0 0.0 0.0 0.0 0.0
0.0 0.0 0.0 0.0 0.0 0.0 0.0 0.0
0.0 0.0 0.0 0.0 0.0 0.0 0.0 0.0
0.0 0.0 0.0 0.0 0.0 0.0 0.0 0.0
0.0 0.0 0.0 0.0 0.0 0.0 0.0 0.0
0.0 0.0 0.0 0.0 0.0 0.0 0.0 0.0
0.0 0.0 0.0 0.0 0.0 0.0 0.0 0.0
0.0 0.0 0.0 0.0 0.0 0.0 0.0 0.0
0.0 0.0 0.0 0.0 0.0 0.0 0.0 0.0
0.0 0.0 0.0 0.0 0.0 0.0 0.0 0.0
0.0 0.0 0.0 0.0 0.0 0.0 0.0 0.0
0.0 0.0 0.0 0.0 0.0 0.0 0.0 0.0
0.0 0.0 0.0 0.0 0.0 0.0 0.0 0.0
0.0 0.0 0.0 0.0 0.0 0.0 0.0 0.0

network_body._body_endoder.seq_layers.2.weight f4 [128, 128]
00000000: 0427 c6ba e66c e0bc 7b87 143e d147 d3bd
00000010: 0a4c 983d 0925 953c 1355 0c3e e1af d3bd
00000020: 5b98 3d3d 5f1a bebc 7145 273d 80b5 2e3e
00000030: 7d7f 72bd b6fa 13bd 3c9f c53d 017c de3d
00000040: 1f3c e0bd 0026 ad3c 4def 873d 004a a9bd
00000050: baf2 91bd 0486 bbbd 8f3f a4bd 146d b73d
00000060: 4029 3abb a3ad 223e 9763 4abe 8b26 d2bd
00000070: 60d3 49bd a066 bd3d 5d4e d53d 5e6e 95bd
00000080: 9227 76bd 81db f73d d9b5 803c 20b8 b53d
00000090: 26c4 56be 605b abbc f389 b0bc 0dac bc3d
000000a0: 8817 c8bd ce89 843c a264 6fbd 27f4 d13c
000000b0: ede7 debd f6cc ce3d b0dd 2f3e 3024 01be
000000c0: 3177 143d 8651 7f3c 24aa 23be c53a 1739
000000d0: 7fbd cfbd 93be a0bd 19e5 a4bc 3464 003e
000000e0: bc31 2f3e 153a f0bc e490 4e3d aaad bcbd
000000f0: 66a2 783c 9781 41bd f89e 6bbc 99c4 07bd
00000100: fcf8 b73d befb b13d 6d38 19bd 5f22 5dbd
00000110: 2900 823c 9411 89bd d3b3 52bd 92c7 2abb
00000120: ad41 17bc 82fe 76bd c749 b63b ec9b a43d
00000130: 81c1 2c3c b9ab 503c 2fe9 2b3d b68e e7bc
00000140: 0217 5cbd bc0c b63d 5b10 c7bd 7bbb 94bc
00000150: f0bd ba3d 2c83 c93d 9f03 a1bd 63b3 a3bd
00000160: 98db ad3c af2f 2abe ca01 4bba bfd4 d4bc
00000170: 0e7f d83d 818f 933d e543 bcbc dd5f 823d
00000180: cad8 b13b c0d2 ecbc fdc0 47bd 3abb 263d
00000190: 58c6 16be 0941 a03b a465 49bc f0a5 983d
000001a0: 0ee7 d33d 0923 7abc 6e89 50be 570a b5bb
000001b0: 41e3 4ebd 5023 86bc d37b 3c3d 8ea9 48bd
000001c0: 8954 3cbd 1c25 46bc 774b 833d c283 b4bd
000001d0: ff28 7a3d a77d aebc da9a 26bd 6d71 e5bc
000001e0: 0d31 b9bb 0abf 43bd 95e8 f7bd 987d 24bc
000001f0: fe49 133e 8d39 f6bc 49b0 6f3d 9174 fd3d
00000200: 869e f13c d76b 513e 50b1 9d3d 3eff 243d
00000210: f65b c5bd 0cce 083d 47ed e2bd 4442 1a3b
00000220: 628f 133c 551c 883d d186 783d 40ff 8b3c
00000230: c8c1 f9bd 3415 e93d 1dae 6fbd 55ba 5dbd
00000240: e39e a83d bcfb 43bd 0bb4 023e e5a0 713d
00000250: 7a4d d43c 469d 2c3e 0122 f73c b189 873c
00000260: 0cf9 adbd 34ed 2ebd d6ce ebbc 353a ec3c
00000270: 09f2 a0bd 5313 dc3d 3bab dc3b fa40 8b3d
00000280: bb77 06be 39ad 9abd b2ec ecbc 9ca6 183e
00000290: 0236 323e 3742 3cbc 9dfb 0fbd 6e44 cabb
000002a0: 0712 b8bd 9ef1 10bb 8521 d53d fe79 09be
000002b0: 94ba d63d dd1a c43c aa4c c43d 335c 95bd
000002c0: bad0 fb3c a23c 283d 15a8 303d cdbb 923d
000002d0: 9c44 163d beee 4e3e 5029 9b3d 2c16 7dbb
000002e0: cd01 273d 3f64 6c3c 13e0 dcbd 6df2 c93c
000002f0: e900 61bc fe35 a63d c5a1 79bc 75ef b2bd
00000300: 298f d83b 3bce 2cbd d168 343d 7108 aabd
00000310: c0da 86ba f537 ccbd f4f0 fb3d 346a 7f3d
00000320: dfdc b8bd 773a 603d a3db c3bd 6e25 e6bd
00000330: d992 983c b98f 8b3d 40bc f2bc 8013 e23c
00000340: da3d 6cbe ffe6 31be c360 6ebd ff34 86bc
00000350: b652 c33c 3edc cd3d 43cf acbd 13d5 89bd
00000360: 78ac 093d 4297 28be cc15 a6bd d631 98bc
00000370: 5ecf 773d 034d bebd 363c 913d e954 3d3a
00000380: 8071 803d 8106 c23d 039f e1bd c550 253e
00000390: d639 803d b543 81bd 3375 e4bc 70f2 393d
000003a0: 4a4e b6bd 4de7 183d cdfb 1abe 9c8f 9c3d
000003b0: 8dda 893c 4bc2 cebc 8ec9 d3bd 4f64 873d
000003c0: 762e 0a3e 0687 4b3a a5b2 20bc 0699 a03c
000003d0: 7675 00bd 3103 83bc 26b4 bf3c 0960 74bd
000003e0: 9b14 493d 4d78 373d ac83 50bd a864 13be
000003f0: 7b46 563c d79f 1dbe 353d da3d a6d0 563d
-0.0015117829 -0.027395677 0.14504807 -0.10316432 0.07436378 0.018206136 0.13704328 -0.103362806
0.046287876 -0.023205934 0.04083771 0.17061424 -0.059203614 -0.03612777 0.09649512 0.108634956
-0.10948967 0.021136284 0.0663744 -0.082660675 -0.071263745 -0.09156421 -0.08019935 0.08956352
-0.0028405935 0.1588655 -0.19764553 -0.10261258 -0.04927385 0.0924809 0.10415337 -0.072964415
-0.06009633 0.12102414 0.015711712 0.0887301 -0.20973262 -0.020917594 -0.021550154 0.092125036
-0.09770113 0.016178992 -0.05844558 0.025629116 -0.1088408 0.10097687 0.17174411 -0.1261146
0.036246482 0.015583402 -0.15982872 0.00014422376 -0.101435654 -0.07848849 -0.020128774 0.12538224
0.17108816 -0.02932457 0.050431147 -0.09212811 0.015175438 -0.047242727 -0.014381163 -0.033146475
0.08983037 0.08690594 -0.037407327 -0.053987857 0.015869217 -0.06692806 -0.051441025 -0.0026058895
-0.009231967 -0.06030131 0.005562994 0.08037552 0.010544182 0.012736254 0.041970428 -0.028266292
-0.05373288 0.08889148 -0.097199164 -0.018155804 0.09118259 0.09839472 -0.07862019 -0.079932
0.021222875 -0.16619752 -0.0007744102 -0.025980351 0.10571109 0.072051056 -0.022981593 0.06365941
0.0054274546 -0.028909087 -0.048768032 0.040705897 -0.147241 0.0048905653 -0.012292299 0.07453525
0.103468046 -0.015267142 -0.20364925 -0.0055249142 -0.050509695 -0.01637426 0.046016525 -0.048989825
-0.045979057 -0.0120938085 0.06410878 -0.08814193 0.061074253 -0.02130015 -0.04067502 -0.028008187
-0.0056515993 -0.04778961 -0.121049084 -0.0100397095 0.14383695 -0.03005674 0.058517728 0.12375749
0.029494535 0.20451294 0.07699835 0.04028248 -0.09636681 0.033399627 -0.11080413 0.0023538033
0.009006353 0.06646029 0.060675446 0.017089486 -0.12195164 0.11380997 -0.058515657 -0.05413278
0.0823343 -0.047847494 0.12763993 0.05899133 0.02591585 0.1685687 0.030167582 0.016545149
-0.084947675 -0.042706683 -0.02878515 0.028836349 -0.078586645 0.10745873 0.0067342795 0.06799503
-0.13131611 -0.07552571 -0.028921459 0.14907306 0.17403415 -0.011490396 -0.035152066 -0.0061727082
-0.089878134 -0.0022116671 0.10406784 -0.13425443 0.10484806 0.02393859 0.09584935 -0.07292976
0.030739177 0.04107345 0.043129046 0.071647264 0.036686525 0.2020826 0.07576239 -0.0038617952
0.0407732 0.014428197 -0.10784926 0.02465173 -0.013733127 0.08115767 -0.015236323 -0.08737079
0.006608863 -0.042188864 0.044045273 -0.08302391 -0.0010288581 -0.099716105 0.123018175 0.062357143
-0.09026503 0.054743256 -0.09563377 -0.11237608 0.01862471 0.06814522 -0.02963078 0.027597189
-0.2307047 -0.17373274 -0.058197748 -0.016382692 0.02384315 0.100517735 -0.084379695 -0.06730094
0.033611745 -0.1646395 -0.08109626 -0.018578451 0.060500495 -0.092920326 0.070915624 0.00072224304
0.062716484 0.09473897 -0.11016657 0.16144092 0.06261031 -0.06311742 -0.027887916 0.045397222
-0.08901651 0.03732996 -0.15135117 0.07644579 0.016827846 -0.02523913 -0.10341178 0.06610929
0.13494286 0.00077639555 -0.009808217 0.019604217 -0.03136202 -0.015992733 0.023401331 -0.0596619
0.049091917 0.044792462 -0.050906822 -0.14393866 0.013078327 -0.15393005 0.106562056 0.052445076
