Assets/ML-Agents/Examples/FirstTRexScene/results/trmodel/My Behavior/My Behavior-4224.pt (torch, 411191 bytes, 12 tensors)

network_body._body_endoder.seq_layers.0.weight f4 [128, 243]
-0.015365487 -0.08335575 -0.04884271 -0.07708854 -0.07779815 0.10853461 0.031404518 -0.06968762
-0.066071056 -0.11012543 -0.0043987352 -0.104463585 0.0057345685 -0.13859797 0.08106387 -0.012694406
0.078767516 -0.0928573 0.005383929 -0.052306443 0.009197221 -0.014158269 -0.025787639 0.028255597
-0.016191315 0.05058565 -0.0013277432 -0.065042675 -0.05080493 0.0035347033 0.052895155 -0.025713848
-0.028178569 0.03704818 0.0936027 0.022625536 -0.03467603 0.063947424 0.047143325 0.019458368
-0.052099124 -0.07870184 0.016899463 -0.062207274 0.03522336 -0.11144199 -6.257525e-05 0.04182522
-0.072906315 0.018748313 0.12843677 -0.0011092097 -0.027860451 -0.004905164 -0.03648394 0.040881168
0.041795127 -0.03106629 0.04626009 -0.016648144 0.031132495 -0.006278921 0.017205935 -0.10233971
-0.09210996 0.051832322 0.0017290435 0.014207822 0.09825786 0.039341502 -0.002515124 0.0137318745
-0.009095844 0.06658084 0.03940772 0.0019724546 -0.066663094 0.048394714 -0.012067793 0.025236357
0.008107139 0.06663866 -0.010271267 0.028678339 -0.007744007 0.038141362 0.10748156 -0.08819016
-0.02743102 0.086998165 -0.03456832 -0.039264612 -0.122451045 -0.038190223 -0.10892204 0.119510025
-0.012915346 0.027522773 -0.04474231 -0.02170712 0.059872925 0.0031019768 0.031384245 -0.060917065
-0.05617683 0.05151659 0.06389779 -0.0074769165 0.06916463 -0.033338334 0.11445936 0.053880543
-0.026325164 0.0738941 -0.06841015 0.12501861 -0.064366676 -0.07591016 0.07271067 0.08097294
0.16014305 0.084993385 -0.059892233 -0.12195922 0.08481455 0.09271404 -0.01504127 0.055258
0.019003706 -0.002593799 -0.012181711 0.06500337 0.11443954 -0.0077360705 -0.042231247 0.0179864
-0.0078051207 0.0716379 -0.06806049 -0.036506314 -0.051473822 -0.022260047 0.033765472 0.052006837
0.007063768 -0.067028455 -0.0427393 -0.05077956 0.051835943 -0.03744686 0.030524006 0.08827787
-0.01562529 0.0633103 0.06373915 -0.109425664 0.009916617 0.007256023 0.118531436 0.013248662
-0.0366522 0.082540214 -0.060011063 0.033802148 -0.07833435 -0.054874796 -0.06568082 -0.073113695
-0.012096043 0.027979564 -0.05831773 0.08136934 0.031981245 -0.01100825 0.08019765 -0.14630891
-0.06267057 -0.0066651884 -0.0544319 -0.18751939 0.07429012 0.007352024 0.04822906 -0.006999438
0.041134745 0.005722797 0.094770335 0.010539912 -0.018463684 0.04749377 0.04147576 -0.03337038
-0.04343321 -0.037193358 -0.028170733 -0.050420016 0.038181383 -0.055961933 0.026597112 0.107396916
0.040817883 0.02201178 0.07610488 0.042478263 0.036378723 0.13093029 -0.08089599 -0.0066773435
0.040128663 -0.050135333 0.012164878 -0.023850925 0.035835437 -0.13183202 0.06982489 0.06676343
-0.0057620336 -0.09720733 -0.020540023 -0.024634657 -0.055527724 -0.03515378 -0.045539748 0.06529539
-0.039768323 -0.035572752 -0.070107445 -0.1252039 0.047807556 -0.033177078 0.04265793 -0.1080555
0.008542274 -0.15511876 -0.0034979598 -0.021501342 -0.028701426 -0.005090108 0.01663145 0.07240987
-0.02303104 -0.026674705 0.0139223775 0.10633481 0.034569625 -0.06518726 -0.0927699 -0.006900539
0.12996465 -0.0017375319 -0.06797304 0.18046972 0.02890182 -0.024965724 0.011952929 0.015493772
00000000: 86bf 7bbc 6bb6 aabd 4b0f 48bd 99e0 9dbd
00000010: a354 9fbd 6547 de3d 06a2 003d 62b8 8ebd
00000020: 4350 87bd 7189 e1bd 4423 90bb 01f1 d5bd
00000030: 0ce9 bb3b a0ec 0dbe d004 a63d 33fc 4fbc
00000040: dd50 a13d f82b bebd ab6b b03b 483f 56bd
00000050: f1af 163c 16f8 67bc 9940 d3bc 4878 e73c
00000060: a6a3 84bc e632 4f3d ab07 aeba 1835 85bd
00000070: d518 50bd 7ba6 673b 97a8 583d d9a5 d2bc
00000080: bed6 e6bc d5bf 173d c6b2 bf3d 3059 b93c
00000090: 7408 0ebd def6 823d 5c19 413d 2867 9f3c
000000a0: e465 55bd 6e2e a1bd be70 8a3c 0ecd 7ebd
000000b0: 5f46 103d b33b e4bd d53a 83b8 ec50 2b3d
000000c0: e84f 95bd 1096 993c ee84 033e e762 91ba
000000d0: 9a3b e4bc 7fbb a0bb 2f70 15bd 0373 273d
000000e0: 5e31 2b3d bb7e febc 387b 3d3d b061 88bc
000000f0: 9309 ff3c 68bf cdbb 76f3 8c3c 7b97 d1bd
00000100: 26a4 bcbd 214e 543d 13a1 e23a edc7 683c
00000110: 6b3b c93d 8e24 213d c7d4 24bb a8fb 603c
00000120: bc06 15bc 895b 883d fd69 213d 4c44 013b
00000130: a986 88bd 8939 463d feb7 45bc 7abc ce3c
00000140: ced3 043c da79 883d d148 28bc d6ee ea3c
00000150: 70c1 fdbb 1e3a 1c3d 4b1f dc3d 0b9d b4bd
00000160: 05b7 e0bc 182c b23d 8397 0dbd eed3 20bd
00000170: 9dc7 fabd 5a6d 1cbd 8512 dfbd acc1 f43d
00000180: e39a 53bc 7077 e13c b643 37bd 21d3 b1bc
00000190: 503d 753d 894a 4b3b c48c 003d 2c84 79bd
000001a0: ad19 66bd 0f03 533d d8dc 823d ec00 f5bb
000001b0: 2fa6 8d3d c78d 08bd ab69 ea3d d8b1 5c3d
000001c0: dfa7 d7bc ca55 973d 9f1a 8cbd e104 003e
000001d0: add2 83bd c976 9bbd 55e9 943d 24d5 a53d
000001e0: 8afc 233e 0311 ae3d 8f51 75bd c1c5 f9bd
000001f0: 40b3 ad3d dce0 bd3d a96f 76bc 3656 623d
00000200: a9ad 9b3c bafc 29bb cd95 47bc 7d20 853d
00000210: 475f ea3d dd7e fdbb acfa 2cbd 3758 933c
00000220: 19c2 ffbb e4b6 923d 4c63 8bbd a587 15bd
00000230: 37d6 52bd b45a b6bc aa4d 0a3d 1f05 553d
00000240: 2e77 e73b 3746 89bd 670f 2fbd 3afe 4fbd
00000250: ed51 543d e161 19bd 7b0d fa3c 07cb b43d
00000260: 9c00 80bc d5a8 813d ac89 823d 901a e0bd
00000270: 4e79 223c efc3 ed3b 9cc0 f23d eb10 593c
00000280: 9e20 16bd d80a a93d 29ce 75bd 1f74 0a3d
00000290: c26d a0bd 65c4 60bd aa83 86bd a2bc 95bd
000002a0: 7b2e 46bc 6635 e53c 92de 6ebd f8a4 a63d
000002b0: c4fe 023d f25b 34bc aa3e a43d 01d2 15be
000002c0: 6e59 80bd a767 dabb fcf3 5ebd 1505 40be
000002d0: 6b25 983d 3fe9 f03b d68b 453d 8b5b e5bb
000002e0: e87c 283d 4d86 bb3b f316 c23d 98af 2c3c
000002f0: 2741 97bc d488 423d 7de2 293d 61af 08bd
00000300: 06e7 31bd 1058 18bd 4fc6 e6bc 3885 4ebd
00000310: 1564 1c3d 5738 65bd 30e2 d93c eaf2 db3d
00000320: a730 273d 0c52 b43c e0dc 9b3d b0fd 2d3d
00000330: db01 153d 9712 063e ccac a5bd 9ecd dabb
00000340: f45d 243d b55a 4dbd 324f 473c 0463 c3bc
00000350: 2ec8 123d f9fe 06be 5a00 8f3d 44bb 883d
00000360: 71cf bcbb a314 c7bd 8d43 a8bc 9fce c9bc
00000370: 0a71 63bd 69fd 0fbd e387 3abd 97b9 853d
00000380: 1ce4 22bd bcb4 11bd 7e94 8fbd 7335 00be
00000390: dbd1 433d b0e4 07bd 15ba 2e3d 344c ddbd
000003a0: e5f4 0b3c 74d7 1ebe 073e 65bb 9523 b0bc
000003b0: 411f ebbc ecca a6bb ae3e 883c a04b 943d
000003c0: 97ab bcbc e984 dabc af1a 643c 11c6 d93d
000003d0: e198 0d3d e680 85bd 25fe bdbd eb1d e2bb
000003e0: 7415 053e e5bd e3ba 7335 8bbd 0ecd 383e
000003f0: 82c3 ec3c eb84 ccbc 38d6 433c 97d9 7d3c

network_body._body_endoder.seq_layers.0.bias f4 [128]
0.0 0.0 0.0 0.0 0.0 0.0 0.0 0.0
0.0 0.0 0.0 0.0 0.0 0.0 0.0 0.0
0.0 0.0 0.0 0.0 0.0 0.0 0.0 0.0
0.0 0.0 0.0 0.0 0.0 0.0 0.0 0.0
0.0 0.0 0.0 0.0 0.0 0.0 0.0 0.0
0.0 0.0 0.0 0.0 0.0 0.0 0.0 0.0
0.0 0.0 0.0 0.0 0.0 0.0 0.0 0.0
0.0 0.0 0.0 0.0 0.0 0.0 0.0 0.0
0.0 0.0 0.0 0.0 0.0 0.0 0.0 0.0
0.0 0.0 0.0 0.0 0.0 0.0 0.0 0.0
0.0 0.0 0.0 0.0 0.0 0.0 0.0 0.0
0.0 0.0 0.0 0.0 0.0 0.0 0.0 0.0
0.0 0.0 0.0 0.0 0.0 0.0 0.0 0.0
0.0 0.0 0.0 0.0 0.0 0.0 0.0 0.0
0.0 0.0 0.0 0.0 0.0 0.0 0.0 0.0
0.0 0.0 0.0 0.0 0.0 0.0 0.0 0.0
00000000: 0000 0000 0000 0000 0000 0000 0000 0000
00000010: 0000 0000 0000 0000 0000 0000 0000 0000
00000020: 0000 0000 0000 0000 0000 0000 0000 0000
00000030: 0000 0000 0000 0000 0000 0000 0000 0000
00000040: 0000 0000 0000 0000 0000 0000 0000 0000
00000050: 0000 0000 0000 0000 0000 0000 0000 0000
00000060: 0000 0000 0000 0000 0000 0000 0000 0000
00000070: 0000 0000 0000 0000 0000 0000 0000 0000
00000080: 0000 0000 0000 0000 0000 0000 0000 0000
00000090: 0000 0000 0000 0000 0000 0000 0000 0000
000000a0: 0000 0000 0000 0000 0000 0000 0000 0000
000000b0: 0000 0000 0000 0000 0000 0000 0000 0000
000000c0: 0000 0000 0000 0000 0000 0000 0000 0000
000000d0: 0000 0000 0000 0000 0000 0000 0000 0000
000000e0: 0000 0000 0000 0000 0000 0000 0000 0000
000000f0: 0000 0000 0000 0000 0000 0000 0000 0000
00000100: 0000 0000 0000 0000 0000 0000 0000 0000
00000110: 0000 0000 0000 0000 0000 0000 0000 0000
00000120: 0000 0000 0000 0000 0000 0000 0000 0000
00000130: 0000 0000 0000 0000 0000 0000 0000 0000
00000140: 0000 0000 0000 0000 0000 0000 0000 0000
00000150: 0000 0000 0000 0000 0000 0000 0000 0000
00000160: 0000 0000 0000 0000 0000 0000 0000 0000
00000170: 0000 0000 0000 0000 0000 0000 0000 0000
00000180: 0000 0000 0000 0000 0000 0000 0000 0000
00000190: 0000 0000 0000 0000 0000 0000 0000 0000
000001a0: 0000 0000 0000 0000 0000 0000 0000 0000
000001b0: 0000 0000 0000 0000 0000 0000 0000 0000
000001c0: 0000 0000 0000 0000 0000 0000 0000 0000
000001d0: 0000 0000 0000 0000 0000 0000 0000 0000
000001e0: 0000 0000 0000 0000 0000 0000 0000 0000
000001f0: 0000 0000 0000 0000 0000 0000 0000 0000

network_body._body_endoder.seq_layers.2.weight f4 [128, 128]
0.07840045 -0.16355258 0.14862153 0.10526899 -0.06761521 0.12036877 -0.13118698 -0.12905455
-0.06727659 -0.08346555 0.10470989 0.015936527 -0.12719993 0.019377766 0.11230427 -0.12430642
-0.043168638 0.07951813 -0.17365077 -0.06682227 0.08660858 -0.063459106 0.09124733 0.04085765
0.18594968 -0.14135414 0.3210948 0.043005094 0.047971558 -0.082739554 -0.046867017 -0.12010032
-0.023208708 0.07578825 0.1039705 0.028458089 -0.06674533 0.059253003 0.12534532 -0.08691343
-0.009959816 0.081825405 -0.057762876 -0.0015368363 0.08306248 0.028187905 0.11369216 0.04138446
-0.032453876 -0.045954615 -0.111172594 0.026067704 0.13102272 0.013392951 0.005372944 -0.041534252
0.056392718 0.09531634 -0.07914704 -0.0300223 -0.1054378 -0.053794634 -0.10698766 -0.066808656
-0.033824153 0.008069053 -0.12688103 0.09958104 -0.10260582 -0.034230296 -0.0020524457 -0.023705188
0.067732364 -0.06915433 0.017015824 -0.17778403 -0.015658887 0.095780544 0.056902036 -0.021496292
-0.09409518 0.022509847 -0.10379068 0.08444555 0.0037536756 0.17561316 -0.008788889 -0.11050254
-0.002269786 0.087489076 -0.21957354 -0.017146561 -0.051654253 -0.124281816 -0.005039882 0.024880804
-0.007028899 -0.12607743 0.03321273 -0.19757034 -0.036205724 -0.057653412 0.16188666 0.060734984
-0.011543972 -0.026033485 -0.13486356 -0.08173044 -0.092234 -0.16633897 0.028437616 0.051096804
0.019173881 0.058550015 -0.15319319 -0.07112532 0.06468901 -0.06162464 -0.17404391 -0.10787923
0.10737586 0.07553238 -0.011346821 -0.05229509 0.0776998 0.09099522 0.080033295 0.1095175
0.048901808 -0.23442644 -0.02398352 0.021195196 -0.19414596 -0.0741667 -0.12929004 -0.05188627
-0.14178304 -0.090594836 0.033805896 -0.08472763 0.09795235 -0.050404526 0.0884477 0.14803207
0.10863213 -0.07704744 -0.076051876 0.1637703 0.022973042 0.031153586 0.047963925 -0.1401425
0.039817438 -0.20768858 0.16103545 -0.071741655 0.045508895 -0.108477406 0.06662993 -0.02311991
0.004043437 -0.09389234 -0.027846219 -0.1627384 0.04989845 -0.028205242 0.03585134 0.03959764
0.15710402 -0.025270175 0.11108625 0.030131208 -0.007966511 -0.11594695 -0.12527584 -0.04945204
-0.04883427 0.0108031 -0.055543344 0.046062864 0.014718971 0.21810144 -0.030101666 -0.057689488
-0.0048429514 -0.047315642 -0.0024060798 0.08386772 0.14137664 -0.017798161 0.10248159 0.0428618
0.06693098 0.14026338 -0.089123175 0.010567315 0.117688045 0.024474 0.18651707 0.09853307
-0.09145105 0.020464143 0.09887476 0.2007822 -0.10118021 -0.034664083 -0.063764274 -0.1063487
-0.16154489 -0.01611689 -0.08478427 0.11558779 -0.07915818 -0.00414329 0.047657263 0.027979743
0.116290815 -0.039355997 0.08610782 0.112344496 0.102771856 -0.011714723 -0.022071201 -0.13319142
-0.1007169 0.086058065 0.13993838 -0.090450495 -0.0843898 -0.066997424 0.011354618 -0.15337732
0.018415982 -0.06850486 -0.08707104 -0.047137197 0.031753562 0.057118434 0.054446504 -0.11722174
-0.16970469 0.0072126915 -0.097583205 -0.092732474 -0.15493432 0.032548454 -0.025425555 0.09728859
-0.038815975 0.06813723 0.16287078 -0.021839911 0.08898247 0.026711624 -0.05407693 -0.059085984
00000000: 6a90 a03d 547a 27be 3e30 183e 4597 d73d
00000010: d879 8abd e783 f63d e155 06be e026 04be
00000020: 4fc8 89bd fcef aabd 2472 d63d 528d 823c
00000030: b340 02be 1fbe 9e3c c8ff e53d 5d94 febd
00000040: 99d1 30bd 67da a23d 82d1 31be 1dda 88bd
00000050: d75f b13d d9f6 81bd e1df ba3d 5a5a 273d
00000060: 9869 3e3e 24bf 10be 8a66 a43e 1c26 303d
00000070: d37d 443d 5b73 a9bd a1f7 3fbd 28f7 f5bd
00000080: 3020 bebc df36 9b3d 7cee d43d f020 e93c
00000090: c7b1 88bd 47b3 723d 865a 003e abff b1bd
000000a0: 7f2e 23bc 1494 a73d c498 6cbd ab6f c9ba
000000b0: a91c aa3d 52ea e63c 6fd7 e83d c082 293d
000000c0: 5bee 04bd e83a 3cbd 75ae e3bd f08b d53c
000000d0: d22a 063e 1c6e 5b3c 850f b03b d21f 2abd
000000e0: 0dfc 663d 3735 c33d d817 a2bd 54f1 f5bc
000000f0: c6ef d7bd c357 5cbd 591c dbbd fad2 88bd
00000100: 328b 0abd 1034 043c 1aed 01be 25f1 cb3d
00000110: 0023 d2bd 1135 0cbd 5382 06bb 6231 c2bc
00000120: 44b7 8a3d c9a0 8dbd c564 8b3c 040d 36be
00000130: 1147 80bc 9728 c43d 1c12 693d fe18 b0bc
00000140: f9b4 c0bd 9266 b83c 3590 d4bd caf1 ac3d
00000150: 3a00 763b f0d3 333e 46ff 0fbc 284f e2bd
00000160: b1c0 14bb 792d b33d e3d7 60be f276 8cbc
00000170: 6993 53bd 7787 febd 9825 a5bb d4d2 cb3c
00000180: ae52 e6bb 711a 01be 120a 083d e14f 4abe
00000190: 744c 14bd fc25 6cbd 9ec5 253e 3fc5 783d
000001a0: ee22 3dbc 2d44 d5bc ac19 0abe 4a62 a7bd
000001b0: 2ee5 bcbd c354 2abe 01f6 e83c e24a 513d
000001c0: 8b12 9d3c 24d2 6f3d adde 1cbe 27aa 91bd
000001d0: ac7b 843d 1e6a 7cbd 9138 32be c9ef dcbd
000001e0: e0e7 db3d b8b0 9a3d 04e8 39bc 6033 56bd
000001f0: 1321 9f3d b45b ba3d 7fe8 a33d b64a e03d
00000200: 434d 483d 7c0d 70be 1679 c4bc 8ca1 ad3c
00000210: 33ce 46be b6e4 97bd 9c64 04be b386 54bd
00000220: 932f 11be c989 b9bd 0d78 0a3d ae85 adbd
00000230: 3e9b c83d fa74 4ebd 1124 b53d b895 173e
00000240: 867a de3d 0ccb 9dbd 16c1 9bbd 67b3 273e
00000250: f631 bc3c ce35 ff3c d275 443d 8481 0fbe
00000260: 9c17 233d 51ac 54be 7ae6 243e 4aed 92bd
00000270: 8967 3a3d 6729 debd 4675 883d f765 bdbc
00000280: cf7e 843b a14a c0bd c11d e4bc e5a4 26be
00000290: 5162 4c3d ae0e e7bc dbd8 123d 2331 223d
000002a0: e0df 203e 6603 cfbc 3081 e33d b9d5 f63c
000002b0: f885 02bc 9875 edbd 4f48 00be 398e 4abd
000002c0: 7206 48bd 7cff 303c 6b81 63bd 6aac 3c3d
000002d0: d727 713c fc55 5f3e c597 f6bc d04b 6cbd
000002e0: 9fb1 9ebb 0cce 41bd 52af 1dbb d7c2 ab3d
000002f0: 0ac5 103e 73cd 91bc dee1 d13d db8f 2f3d
00000300: 1c13 893d 34a1 0f3e 3686 b6bd 8822 2d3c
00000310: 6e06 f13d b37d c83c 55fe 3e3e b5cb c93d
00000320: b04a bbbd 6ba4 a73c da7e ca3d d999 4d3e
00000330: 9237 cfbd edfb 0dbd d896 82bd 59cd d9bd
00000340: 066c 25be 9107 84bc 60a3 adbd 4bb9 ec3d
00000350: af1d a2bd 70c4 87bb 4334 433d c635 e53c
00000360: e129 ee3d c133 21bd 4c59 b03d df14 e63d
00000370: 0d7a d23d 1cef 3fbc aace b4bc 5563 08be
00000380: a944 cebd 363f b03d 024c 0f3e 1c3e b9bd
00000390: 8fd4 acbd f235 89bd b808 3a3c f20e 1dbe
000003a0: 1ddd 963c 474c 8cbd 4d52 b2bd ef12 41bd
000003b0: 0610 023d 05f5 693d 4c03 5f3d f411 f0bd
000003c0: 11c7 2dbe 7158 ec3b b4d9 c7bd 86ea bdbd
000003d0: 1aa7 1ebe 8751 053d 4149 d0bc 3e3f c73d
000003e0: 80fd 1ebd 888b 8b3d 99c7 263e 9de9 b2bc
000003f0: 713c b63d 56d2 da3c c57f 5dbd 2504 72bd

network_body._body_endoder.seq_layers.2.bias f4 [128]
0.0 0.0 0.0 0.0 0.0 0.0 0.0 0.0
0.0 0.0 0.0 0.0 0.0 0.0 0.0 0.0
0.0 0.0 0.0 0.0 0.0 0.0 0.0 0.0
0.0 0.0 0.0 0.0 0.0 0.0 0.0 0.0
0.0 0.0 0.0 0.0 0.0 0.0 0.0 0.0
0.0 0.0 0.0 0.0 0.0 0.0 0.0 0.0
0.0 0.0 0.0 0.0 0.0 0.0 0.0 0.0
0.0 0.0 0.0 0.0 0.0 0.0 0.0 0.0
0.0 0.0 0.0 0.0 0.0 0.0 0.0 0.0
0.0 0.0 0.0 0.0 0.0 0.0 0.0 0.0
0.0 0.0 0.0 0.0 0.0 0.0 0.0 0.0
0.0 0.0 0.0 0.0 0.0 0.0 0.0 0.0
0.0 0.0 0.0 0.0 0.0 0.0 0.0 0.0
0.0 0.0 0.0 0.0 0.0 0.0 0.0 0.0
0.0 0.0 0.0 0.0 0.0 0.0 0.0 0.0
0.0 0.0 0.0 0.0 0.0 0.0 0.0 0.0
00000000: 0000 0000 0000 0000 0000 0000 0000 0000
00000010: 0000 0000 0000 0000 0000 0000 0000 0000
00000020: 0000 0000 0000 0000 0000 0000 0000 0000
00000030: 0000 0000 0000 0000 0000 0000 0000 0000
00000040: 0000 0000 0000 0000 0000 0000 0000 0000
00000050: 0000 0000 0000 0000 0000 0000 0000 0000
00000060: 0000 0000 0000 0000 0000 0000 0000 0000
00000070: 0000 0000 0000 0000 0000 0000 0000 0000
00000080: 0000 0000 0000 0000 0000 0000 0000 0000
00000090: 0000 0000 0000 0000 0000 0000 0000 0000
000000a0: 0000 0000 0000 0000 0000 0000 0000 0000
000000b0: 0000 0000 0000 0000 0000 0000 0000 0000
000000c0: 0000 0000 0000 0000 0000 0000 0000 0000
000000d0: 0000 0000 0000 0000 0000 0000 0000 0000
000000e0: 0000 0000 0000 0000 0000 0000 0000 0000
000000f0: 0000 0000 0000 0000 0000 0000 0000 0000
00000100: 0000 0000 0000 0000 0000 0000 0000 0000
00000110: 0000 0000 0000 0000 0000 0000 0000 0000
00000120: 0000 0000 0000 0000 0000 0000 0000 0000
00000130: 0000 0000 0000 0000 0000 0000 0000 0000
00000140: 0000 0000 0000 0000 0000 0000 0000 0000
00000150: 0000 0000 0000 0000 0000 0000 0000 0000
00000160: 0000 0000 0000 0000 0000 0000 0000 0000
00000170: 0000 0000 0000 0000 0000 0000 0000 0000
00000180: 0000 0000 0000 0000 0000 0000 0000 0000
00000190: 0000 0000 0000 0000 0000 0000 0000 0000
000001a0: 0000 0000 0000 0000 0000 0000 0000 0000
000001b0: 0000 0000 0000 0000 0000 0000 0000 0000
000001c0: 0000 0000 0000 0000 0000 0000 0000 0000
000001d0: 0000 0000 0000 0000 0000 0000 0000 0000
000001e0: 0000 0000 0000 0000 0000 0000 0000 0000
000001f0: 0000 0000 0000 0000 0000 0000 0000 0000

action_model._continuous_distribution.log_sigma f4 [1, 39]
0.0 0.0 0.0 0.0 0.0 0.0 0.0 0.0
0.0 0.0 0.0 0.0 0.0 0.0 0.0 0.0
0.0 0.0 0.0 0.0 0.0 0.0 0.0 0.0
0.0 0.0 0.0 0.0 0.0 0.0 0.0 0.0
0.0 0.0 0.0 0.0 0.0 0.0 0.0
00000000: 0000 0000 0000 0000 0000 0000 0000 0000
00000010: 0000 0000 0000 0000 0000 0000 0000 0000
00000020: 0000 0000 0000 0000 0000 0000 0000 0000
00000030: 0000 0000 0000 0000 0000 0000 0000 0000
00000040: 0000 0000 0000 0000 0000 0000 0000 0000
00000050: 0000 0000 0000 0000 0000 0000 0000 0000
00000060: 0000 0000 0000 0000 0000 0000 0000 0000
00000070: 0000 0000 0000 0000 0000 0000 0000 0000
00000080: 0000 0000 0000 0000 0000 0000 0000 0000
00000090: 0000 0000 0000 0000 0000 0000

action_model._continuous_distribution.mu.weight f4 [39, 128]
-0.006870477 0.015465304 0.002765433 -0.0058767176 0.01523864 0.0014541321 0.009964614 -0.011977083
-0.011115322 0.016464379 0.0051152944 0.015785998 0.013149502 -0.025477184 -0.010867963 0.021853367
-0.012101696 -0.011284555 0.027805379 0.0067529813 0.0036024319 0.019386409 -0.0066372934 0.0021800797
0.0357994 -0.0112887835 0.018200953 -0.0033288635 0.010993235 0.0038813667 -0.013120777 -0.0191824
0.03174289 -0.001839754 -0.017601484 -0.0042353594 0.003194207 -0.0116518615 -0.02558071 -0.020217204
0.00034934105 -0.034468584 0.004560886 0.0014398752 0.022382647 0.016773526 0.023346063 -0.03413954
0.0020222322 -0.007493368 -0.02650851 0.0061933603 -0.015599998 -0.016488489 0.003031958 0.011170564
0.04045429 -0.02171787 -0.009311064 0.030730465 0.028933082 -0.008337113 -0.047269277 0.014648162
0.011725563 0.005792555 -0.007163167 0.00323109 0.02428971 -0.01226508 0.0022181063 0.0036951755
-0.008615636 0.023658726 0.0020216347 9.721456e-05 0.03361253 -0.012478985 0.011678363 0.021971142
0.021991013 0.00023365613 -0.007197073 0.009428459 0.0066795535 -0.008951447 0.001604284 0.0060550203
-0.030471226 0.022910733 0.007553154 0.0067254314 -0.010531824 0.028067593 0.00025725385 0.0017309788
0.014642398 0.016358286 0.022418119 -0.0052961507 -0.008808665 0.0076617994 0.008974041 0.010373743
-0.013476409 0.015251416 -0.006894653 -0.006939733 0.003117295 0.014290984 0.02734006 0.01284082
0.041831262 -0.01580259 0.029239094 -0.0060792156 0.00013065079 -0.0392768 0.0033477375 0.017667089
0.011598063 0.027624434 0.014906819 0.015120462 -0.013968199 -0.0316771 0.0006505935 0.0073892954
0.030293573 -0.0016449926 0.009483698 -0.012867308 0.01728449 -0.0038316154 -0.0020764738 0.052452613
0.018005924 0.027274674 0.015137188 0.02496819 0.0076152557 -0.001565053 -0.0015125208 -0.017385848
-0.008788838 -0.0062061115 0.01452882 0.031745702 -0.022846092 0.0067161107 0.009507502 0.009476345
-0.009471246 0.022347165 0.0021400235 -0.0034623183 0.0073836558 0.047967374 -0.043428916 -0.0016836788
0.020768026 0.030688614 -0.016343508 0.038944468 0.00897797 0.009549051 0.0019474382 -0.019140301
-0.00865456 -0.006230218 0.006094781 -0.008920063 -0.02810981 0.024900846 -0.01934277 -0.0017857322
-0.0078007295 -0.0051665786 0.004500648 0.00230805 -0.03185804 0.025065979 0.009986941 0.0027673442
-0.011938528 0.010748482 -0.022610664 -0.012211933 0.005895711 -0.012582784 0.02114281 -0.009113765
-0.019830821 -0.0019763282 0.020742161 -0.014765662 -0.0077031027 0.0017260489 -0.003752124 0.013311073
0.016103916 -0.016481468 -0.03592811 -0.002261604 0.0058106044 -0.02048498 -0.003212164 0.0039121243
0.004959976 -0.0044289953 -0.008658589 0.015488127 0.024241446 0.017061725 -0.001729803 0.010567786
-0.014293111 -0.0026554137 0.008061607 -0.031085849 0.0052179443 -0.0019202753 -0.023488468 0.009656624
0.0009395526 -0.008543959 0.014537655 0.0012452466 -0.005568975 -0.015441894 -0.021835873 0.013170423
-0.024535578 0.0037119356 -0.008368885 -0.017589893 0.0030059915 -0.0071899677 -0.0075332704 0.00430978
0.002042486 -0.00025620995 -0.0013367499 -0.01707696 0.014325464 -0.020000517 -0.006863318 0.006884124
-0.0028071841 -0.0031685364 -0.003758937 -0.008518734 -0.0090481 0.016914245 0.010715264 -0.0076766885
00000000: bd21 e1bb 3062 7d3c 443c 353b 7b91 c0bb
00000010: 7dab 793c 9498 be3a 9f42 233c 873b 44bc
00000020: 0a1d 36bc 4ee0 863c 339e a73b a351 813c
00000030: 0271 573c 87b5 d0bc 8a0f 32bc d505 b33c
00000040: 3146 46bc dbe2 38bc 1bc8 e33c 1d48 dd3b
00000050: c716 6c3b 3fd0 9e3c a77d d9bb abdf 0e3b
00000060: 64a2 123d 97f4 38bc 2a1a 953c 1029 5abb
00000070: f81c 343c 875e 7e3b 87f8 56bc 6924 9dbc
00000080: d504 023d e723 f1ba fd30 90bc c5c8 8abb
00000090: e755 513b 73e7 3ebc a38e d1bc 8d9e a5bc
000000a0: c327 b739 ee2e 0dbd 7c73 953b 32ba bc3a
000000b0: d05b b73c a268 893c 3e40 bf3c e7d5 0bbd
000000c0: 6d87 043b ed8a f5bb 6028 d9bc acf1 ca3b
000000d0: 2297 7fbc de12 87bc d0b3 463b be04 373c
000000e0: 66b3 253d ade9 b1bc 6f8d 18bc 75be fb3c
000000f0: 1205 ed3c 6398 08bc 6e9d 41bd d8fe 6f3c
00000100: 931c 403c 79cf bd3b 00b9 eabb b2c0 533b
00000110: 37fb c63c 79f3 48bc a65d 113b c22a 723b
00000120: 9928 0dbc f2cf c13c 677d 043b abdf cb38
00000130: 4bad 093d a874 4cbc 9b56 3f3c d3fc b33c
00000140: 7f26 b43c 9701 7539 6dd5 ebbb d379 1a3c
00000150: 28e0 da3b 17a9 12bc d746 d23a 3169 c63b
00000160: cb9e f9bc 4aaf bb3c 7380 f73b 0261 dc3b
00000170: ac8d 2cbc 02ee e53c 07e0 8639 03e2 e23a
00000180: abe6 6f3c d001 863c 34a6 b73c 558b adbb
00000190: 3852 10bc d50f fb3b db07 133c a2f6 293c
000001a0: 28cc 5cbc 13e1 793c 8bec e1bb b366 e3bb
000001b0: 884b 4c3b bb24 6a3c 43f8 df3c 4d62 523c
000001c0: 4257 2b3d 6f74 81bc d386 ef3c 2834 c7bb
000001d0: 4eff 0839 b6e0 20bd b765 5b3b 92ba 903c
000001e0: cd05 3e3c a34c e23c bb3b 743c d0bb 773c
000001f0: dfda 64bc d9bf 01bd 978c 2a3a e721 f23b
00000200: 3a2a f83c cb9c d7ba 8361 1b3c 67d1 52bc
00000210: 3498 8d3c d71b 7bbb 7315 08bb 8dd8 563d
00000220: 2981 933c 236f df3c f801 783c 178a cc3c
00000230: 6589 f93b 7722 cdba c73f c6ba c46c 8ebc
00000240: 0fff 0fbc a35c cbbb 4a0a 6e3c c807 023d
00000250: ba27 bbbc d212 dc3b 5bc5 1b3c ac42 1b3c
00000260: 492d 1bbc 6711 b73c a33f 0c3b 10e8 62bb
00000270: 98f2 f13b 7079 443d 85e2 31bd e3ae dcba
00000280: b521 aa3c b066 fb3c d2e2 85bc 3c84 1f3d
00000290: 5618 133c 9f73 1c3c 2f41 ff3a 1fcc 9cbc
000002a0: dbcb 0dbc db26 ccbb bbb6 c73b 7525 12bc
000002b0: 8b46 e6bc dcfc cb3c bb74 9ebc 3b0f eaba
000002c0: 439d ffbb 674c a9bb 2c7a 933b a742 173b
000002d0: 937d 02bd 2b57 cd3c 44a0 233c 555c 353b
000002e0: d199 43bc 671a 303c 003a b9bc 8f14 48bc
000002f0: cf30 c13b 0528 4ebc b033 ad3c e751 15bc
00000300: 3f74 a2bc 4985 01bb 77eb a93c adeb 71bc
00000310: 4f6a fcbb 973c e23a 32e6 75bb b016 5a3c
00000320: 5cec 833c 2504 87bc 5b29 13bd 6b37 14bb
00000330: e266 be3b 1ed0 a7bc 2b83 52bb 4731 803b
00000340: 4b87 a23b 1b21 91bb c1dc 0dbc eac1 7d3c
00000350: ff95 c63c 08c5 8b3c 8fba e2ba 8224 2d3c
00000360: a72d 6abc 7306 2ebb d514 043c c0a7 febc
00000370: 4afb aa3b bfb1 fbba e36a c0bc d136 1e3c
00000380: 4f4c 763a f6fb 0bbc 582f 6e3c 8b37 a33a
00000390: f37b b6bb ffff 7cbc 25e1 b2bc c2c8 573c
000003a0: d6fe c8bc f243 733b a61d 09bc ae18 90bc
000003b0: 2b00 453b d299 ebbb a7d9 f6bb 0e39 8d3b
000003c0: 3bdb 053b eb53 86b9 e235 afba fbe4 8bbc
000003d0: 5ab5 6a3c 20d8 a3bc afe5 e0bb 3894 e13b
000003e0: bcf8 37bb 38a7 4fbb 7f58 76bb 2992 0bbc
000003f0: 7b3e 14bc be8f 8a3c 138f 2f3c bb8c fbbb

action_model._continuous_distribution.mu.bias f4 [39]
0.0 0.0 0.0 0.0 0.0 0.0 0.0 0.0
0.0 0.0 0.0 0.0 0.0 0.0 0.0 0.0
0.0 0.0 0.0 0.0 0.0 0.0 0.0 0.0
0.0 0.0 0.0 0.0 0.0 0.0 0.0 0.0
0.0 0.0 0.0 0.0 0.0 0.0 0.0
00000000: 0000 0000 0000 0000 0000 0000 0000 0000
00000010: 0000 0000 0000 0000 0000 0000 0000 0000
00000020: 0000 0000 0000 0000 0000 0000 0000 0000
00000030: 0000 0000 0000 0000 0000 0000 0000 0000
00000040: 0000 0000 0000 0000 0000 0000 0000 0000
00000050: 0000 0000 0000 0000 0000 0000 0000 0000
00000060: 0000 0000 0000 0000 0000 0000 0000 0000
00000070: 0000 0000 0000 0000 0000 0000 0000 0000
00000080: 0000 0000 0000 0000 0000 0000 0000 0000
00000090: 0000 0000 0000 0000 0000 0000

network_body._body_endoder.seq_layers.0.weight f4 [128, 243]
-0.02657032 -0.05624414 0.10365696 0.07548711 0.15675093 0.009372474 0.0046849665 0.057394646
0.09250321 0.012927596 0.029711183 0.044691492 -0.03432019 0.009851027 0.03401711 0.04057287
-0.033030435 0.052207444 0.069269076 -0.040712994 0.0054862592 0.10462541 0.03699455 -0.10048128
0.039326325 -0.024472428 -0.061745808 0.05606786 -0.0072994004 -0.13573739 -0.041135997 -0.072516195
-0.05576616 0.0031645568 -0.07782756 -0.03545238 -0.14905652 -0.06366233 -0.0801848 -0.044185404
-0.032460403 -0.01405415 -0.07821416 0.101651125 -0.012294844 -0.053361427 -0.13495098 -0.010031895
-0.06041532 0.006484278 0.030780606 -0.022312773 -0.0013113657 -0.053721543 0.005715618 0.08120714
0.053694975 0.059955455 0.042429518 -0.048398666 0.03347378 -0.039390348 0.038358834 0.06659034
0.019584684 -0.008458371 0.11811926 0.019223433 -0.023917768 0.08374153 0.01900551 0.028669605
-0.028736962 -0.0638364 0.018450847 0.0670505 -0.0606027 0.11805773 0.013939375 0.019483067
0.044751227 0.0926786 0.023541553 0.057475924 -0.043819424 -0.061752405 0.06487147 -0.064738415
0.0116094565 -0.023111723 0.03904905 0.070267476 0.018641572 0.042634863 0.004717378 -0.077480406
0.034823377 -0.010875154 -0.000853051 0.02741764 0.0055480883 -0.09692541 -0.03673118 -0.0074349223
-0.1307732 -0.011945176 0.02044521 -0.039142434 -0.0055051656 -0.03903413 -0.044218317 -0.01002041
-0.023384746 -0.019750306 0.05848761 -0.049004648 -0.076952994 -0.00070561556 0.0027884925 -0.010269485
-0.10823742 -0.08341294 0.05252186 0.03061162 0.0044287075 0.051906552 0.025080726 -0.016754126
-0.0033978391 0.004845578 -0.07772643 -0.071158364 -0.021931067 0.0088910945 0.022345953 -0.060944054
-0.0067365775 -0.1094 0.11462541 -0.09545915 -0.020220382 0.018157281 0.0034529122 -0.0003595156
-0.044401806 -0.07987638 -0.0012931587 -0.017852265 -0.12244418 0.009827229 0.04804003 0.031195343
-0.03805831 0.0851262 -0.15441811 -0.011406 0.014921388 0.0574625 0.078414 -0.09794301
-0.08036343 -0.023782391 -0.038026426 -0.0097552175 0.0021022893 0.10419684 0.050759733 0.0827625
0.06695652 -0.035144143 0.0031477176 -0.0024231637 0.054419015 0.013774853 0.0012812907 -0.06894748
-0.047607765 0.010831705 0.042191125 -0.1449761 -0.035926703 -0.048053168 0.0664099 0.0004503791
0.016684981 -0.010818969 -0.072887965 -0.010380734 -0.040910766 0.0063953847 -0.100505084 -0.011024809
0.09367373 -0.045065947 0.13908006 0.043747555 -0.03528699 -0.002251081 0.053597834 -0.033866353
-0.050729115 -0.039794028 -0.09287548 0.025657915 0.054844446 -0.061682414 0.052147232 -0.027078874
0.023529727 -0.011370702 -0.043632805 0.04950487 -0.029125936 -0.014388299 -0.004980942 -0.027061505
-0.11553565 -0.009875985 -0.010569127 -0.010739603 -0.11919068 -0.068212934 -0.009668142 0.10869056
-0.09619708 -0.10752889 0.02466027 -0.08763485 0.10677408 -0.011361309 -0.11819599 -0.023388542
0.0009821326 -0.050373424 0.0028303138 0.011437767 0.020167422 0.036316216 -0.098958075 -0.016558407
0.009653849 -0.022472331 0.06113993 -0.06302328 -0.020049723 0.012177291 -0.04125135 0.07872531
-0.13122846 -0.021312479 -0.025791004 0.017936397 -0.060681183 0.038376648 0.05572501 0.043702036
00000000: 00aa d9bc 4160 66bd 1a4a d43d fc98 9a3d
00000010: 5183 203e 018f 193c 5984 993b a616 6b3d
00000020: 5372 bd3d 45ce 533c de64 f33c 6d0e 373d
00000030: 5493 0cbd 3466 213c 8655 0b3d bd2f 263d
00000040: ec4a 07bd 79d7 553d f2dc 8d3d abc2 26bd
00000050: 14c6 b33b d945 d63d 9987 173d 21c9 cdbd
00000060: a414 213d 677a c8bc 2ce9 7cbd 6aa7 653d
00000070: cf2f efbb befe 0abe 387e 28bd 5f83 94bd
00000080: 0f6b 64bd 7464 4f3b 0e64 9fbd 8436 11bd
00000090: 46a2 18be 6561 82bd ee37 a4bd c1fb 34bd
000000a0: 33f5 04bd 6143 66bc bf2e a0bd 772e d03d
000000b0: 5070 49bc 8391 5abd 9730 0abe d15c 24bc
000000c0: 0e76 77bd 117a d43b 9c27 fc3c 47c9 b6bc
000000d0: 22e2 abba 1f0b 5cbd 144a bb3b ee4f a63d
000000e0: 43ef 5b3d da93 753d 93ca 2d3d ae3d 46bd
000000f0: cd1b 093d c657 21bd 271e 1d3d 8460 883d
00000100: 0f70 a03c fb94 0abc 83e8 f13d 767a 9d3c
00000110: 32ef c3bc ae80 ab3d 71b1 9b3c 85dc ea3c
00000120: c769 ebbc a9bc 82bd 3b26 973c c651 893d
00000130: 893a 78bd 40c8 f13d fa61 643c f49a 9f3c
00000140: 104d 373d 47ce bd3d 37da c03c e06b 6b3d
00000150: ff7b 33bd 17f0 7cbd 55db 843d 9395 84bd
00000160: 9735 3e3c cc54 bdbc e6f1 1f3d 65e8 8f3d
00000170: 36b6 983c e5a1 2e3d 3c94 9a3b 0cae 9ebd
00000180: f5a2 0e3d b42d 32bc 499f 5fba f59a e03c
00000190: bdcc b53b d480 c6bd 6f73 16bd a6a0 f3bb
000001a0: 69e9 05be b3b5 43bc b77c a73c d153 20bd
000001b0: ad64 b4bb 40e2 1fbd 441e 35bd a52c 24bc
000001c0: 5e91 bfbc 65cb a1bc b490 6f3d 19b9 48bd
000001d0: 8899 9dbd 0ff9 38ba 24bf 363b 5841 28bc
000001e0: 95ab ddbd 67d4 aabd 2921 573d 38c5 fa3c
000001f0: b11e 913b f79b 543d 1876 cd3c f33f 89bc
00000200: 48ae 5ebb a8c7 9e3b 092f 9fbd 7abb 91bd
00000210: c8a8 b3bc f4ab 113c dc0e b73c 79a0 79bd
00000220: 82be dcbb 1b0d e0bd bac0 ea3d 1680 c3bd
00000230: 37a5 a5bc 94be 943c 414a 623b 5e7d bcb9
00000240: abde 35bd 3a96 a3bd 357f a9ba ea3e 92bc
00000250: 04c4 fabd 6302 213c 9fc5 443d 608d ff3c
00000260: 08e3 1bbd a556 ae3d c81f 1ebe 3be0 3abc
00000270: d678 743c cc5d 6b3d 8597 a03d 5896 c8bd
00000280: 9595 a4bd 4ad3 c2bc 99c1 1bbd 59d4 1fbc
00000290: 90c6 093b 2765 d53d 70e9 4f3d 637f a93d
000002a0: 8020 893d 4ef3 0fbd f049 4e3b f1cd 1ebb
000002b0: 79e6 5e3d ecaf 613c fbf0 a73a 5634 8dbd
000002c0: 5c00 43bd 7777 313c 9ad0 2c3d 9d74 14be
000002d0: e127 13bd 66d3 44bd ea01 883d dc20 ec39
000002e0: f1ae 883c 0c42 31bc 4946 95bd f413 2abc
000002f0: 0c92 27bd 6090 d13b 9cd5 cdbd 67a1 34bc
00000300: 03d8 bf3d 1297 38bd 016b 0e3e a330 333d
00000310: 1789 10bd df86 13bb 6789 5b3d 72b7 0abd
00000320: 55c9 4fbd 10ff 22bd 8035 bebd 8c30 d23c
00000330: 92a4 603d b3a6 7cbd 5698 553d 84d4 ddbc
00000340: 6ac1 c03c 2e4c 3abc 50b8 32bd 9ec5 4a3d
00000350: 8499 eebc e6bc 6bbc 2b37 a3bb 17b0 ddbc
00000360: f49d ecbd e2ce 21bc 222a 2dbc 29f5 2fbc
00000370: 3e1a f4bd 39b3 8bbd 2067 1ebc 2899 de3d
00000380: fa02 c5bd 1b38 dcbd 5604 ca3c e679 b3bd
00000390: 5eac da3d c924 3abc bd10 f2bd 5499 bfbc
000003a0: e7ba 803a 5d54 4ebd c97c 393b 7965 3b3c
000003b0: 2636 a53c 50c0 143d 88aa cabd 7fa5 87bc
000003c0: 2d2b 1e3c e517 b8bc dd6d 7a3d 5912 81bd
000003d0: 513f a4bc 4383 473c 2df7 28bd bc3a a13d
000003e0: c160 06be 8297 aebc a847 d3bc 5aef 923c
000003f0: d58c 78bd d530 1d3d e83f 643d e800 333d

network_body._body_endoder.seq_layers.0.bias f4 [128]
0.0 0.0 0.0 0.0 0.0 0.0 0.0 0.0
0.0 0.0 0.0 0.0 0.0 0.0 0.0 0.0
0.0 0.0 0.0 0.0 0.0 0.0 0.0 0.0
0.0 0.0 0.0 0.0 0.0 0.0 0.0 0.0
0.0 0.0 0.0 0.0 0.0 0.0 0.0 0.0
0.0 0.0 0.0 0.0 0.0 0.0 0.0 0.0
0.0 0.0 0.0 0.0 0.0 0.0 0.0 0.0
0.0 0.0 0.0 0.0 0.0 0.0 0.0 0.0
0.0 0.0 0.0 0.0 0.0 0.0 0.0 0.0
0.0 0.0 0.0 0.0 0.0 0.0 0.0 0.0
0.0 0.0 0.0 0.0 0.0 0.0 0.0 0.0
0.0 0.0 0.0 0.0 0.0 0.0 0.0 0.0
0.0 0.0 0.0 0.0 0.0 0.0 0.0 0.0
0.0 0.0 0.0 0.0 0.0 0.0 0.0 0.0
0.0 0.0 0.0 0.0 0.0 0.0 0.0 0.0
0.0 0.0 0.0 0.0 0.0 0.0 0.0 0.0
00000000: 0000 0000 0000 0000 0000 0000 0000 0000
00000010: 0000 0000 0000 0000 0000 0000 0000 0000
00000020: 0000 0000 0000 0000 0000 0000 0000 0000
00000030: 0000 0000 0000 0000 0000 0000 0000 0000
00000040: 0000 0000 0000 0000 0000 0000 0000 0000
00000050: 0000 0000 0000 0000 0000 0000 0000 0000
00000060: 0000 0000 0000 0000 0000 0000 0000 0000
00000070: 0000 0000 0000 0000 0000 0000 0000 0000
00000080: 0000 0000 0000 0000 0000 0000 0000 0000
00000090: 0000 0000 0000 0000 0000 0000 0000 0000
000000a0: 0000 0000 0000 0000 0000 0000 0000 0000
000000b0: 0000 0000 0000 0000 0000 0000 0000 0000
000000c0: 0000 0000 0000 0000 0000 0000 0000 0000
000000d0: 0000 0000 0000 0000 0000 0000 0000 0000
000000e0: 0000 0000 0000 0000 0000 0000 0000 0000
000000f0: 0000 0000 0000 0000 0000 0000 0000 0000
00000100: 0000 0000 0000 0000 0000 0000 0000 0000
00000110: 0000 0000 0000 0000 0000 0000 0000 0000
00000120: 0000 0000 0000 0000 0000 0000 0000 0000
00000130: 0000 0000 0000 0000 0000 0000 0000 0000
00000140: 0000 0000 0000 0000 0000 0000 0000 0000
00000150: 0000 0000 0000 0000 0000 0000 0000 0000
00000160: 0000 0000 0000 0000 0000 0000 0000 0000
00000170: 0000 0000 0000 0000 0000 0000 0000 0000
00000180: 0000 0000 0000 0000 0000 0000 0000 0000
00000190: 0000 0000 0000 0000 0000 0000 0000 0000
000001a0: 0000 0000 0000 0000 0000 0000 0000 0000
000001b0: 0000 0000 0000 0000 0000 0000 0000 0000
000001c0: 0000 0000 0000 0000 0000 0000 0000 0000
000001d0: 0000 0000 0000 0000 0000 0000 0000 0000
000001e0: 0000 0000 0000 0000 0000 0000 0000 0000
000001f0: 0000 0000 0000 0000 0000 0000 0000 0000

network_body._body_endoder.seq_layers.2.weight f4 [128, 128]
-0.045234557 -0.035624634 -0.15476584 0.008018011 0.038809814 0.07102862 -0.09576469 -0.12416183
0.037254293 0.02668154 0.02902398 -0.018906789 0.08669104 -0.014237257 0.18932763 0.06151504
-0.032830123 -0.023490999 -0.09843507 0.049600944 -0.011697083 -0.012340631 0.12493342 0.17523216
0.1629756 0.025385913 -0.040630348 -0.024935527 0.014257603 0.15623404 0.16917078 0.012775272
0.035333015 -0.009601656 -0.12634754 0.07930092 0.062329963 -0.08407288 -0.10613666 0.21035866
-0.008553496 -0.052316293 -0.12897085 0.06547943 -0.01962554 -0.03932152 0.07872715 0.019864941
-0.023023793 -0.1273631 0.08608194 -0.009965531 -0.07230331 -0.014714837 0.0016770479 -0.05892217
0.032375675 0.04900118 -0.10071656 0.051587492 0.15167926 -0.042142406 0.039598458 -0.0218144
-0.046536688 0.103817515 -0.022461578 -0.080127835 -0.0076117977 0.057725266 0.068488665 0.0036890544
-0.032037124 -0.14806987 0.0934224 -0.057600506 -0.062136278 -0.040510442 -0.0688492 -0.013188896
-0.0660996 -0.021643972 0.033657834 0.08977825 -0.08121529 0.04576964 0.044178445 -0.014237763
-0.08358581 0.13725781 0.10334553 -0.10758931 -0.0030038392 0.07102379 0.0342856 0.06346977
-0.033194065 -0.07021262 0.02888835 0.013894732 -0.017827122 0.05785261 0.012422744 -0.0071191774
0.047446035 0.018491589 -0.1288355 0.05516164 -0.1378026 0.027539114 -0.10848399 -0.025679445
0.009196597 0.14687084 -0.124306805 0.22025998 0.04414894 -0.07857916 -0.052918922 -0.17836657
-0.052216772 -0.07192288 -0.09387222 -0.14042015 0.0979025 0.13103583 0.0041917083 0.053476896
0.17992388 0.19441774 0.0052499883 -0.11989259 0.10255095 0.021560632 -0.03733217 -0.016574366
0.04868818 0.019190457 -0.14889145 0.008505592 -0.118383646 -0.047538087 0.03195994 0.007548675
0.023195151 -0.032215077 0.07760672 0.09026292 0.027343648 -0.06650644 0.1904066 0.04829987
-0.0024321207 0.144432 -0.080714464 0.15164764 -0.043849126 -0.12239649 -0.00035006469 0.026911795
0.020118758 0.04933308 -0.015479284 -0.1053767 0.14123487 -0.12607463 0.074941635 -0.09973453
0.105713904 0.06881594 -0.06691243 -0.06910888 -0.087417185 0.026872823 -0.059180465 0.052749906
-0.042857688 -0.09873778 -0.033463284 -0.0039636833 -0.023067713 -0.05008389 -0.09026251 -0.1625242
-0.028017925 0.047822606 -0.06565028 -0.07479739 0.018385503 -0.04347841 -0.009961644 -0.12071253
-0.1636924 -0.07925308 -0.1194271 0.1221813 0.027788779 -0.052960254 0.062114798 0.150177
-0.07293969 -0.08723823 -0.11811635 -0.17107993 0.09016513 -0.04038204 0.09064224 0.15053988
-0.05757858 -0.019152004 0.16208093 0.049295522 0.059814937 0.087913625 0.05200228 -0.0581032
-0.219259 0.16027139 -0.056028493 -0.038682718 0.02989876 0.21192457 0.04588143 -0.025179315
0.06935153 0.002856019 -0.005085882 -0.03400952 -0.1933572 -0.18714623 0.035489734 0.021245971
-0.011865442 -0.03443646 -0.006792699 0.053250086 -0.05583253 -0.2583078 0.16654481 0.068743825
-0.05620584 -0.055945653 0.09786507 0.051054843 -0.015725251 -0.080006965 0.08414201 0.045645554
-0.04221499 0.109996006 -0.03394142 -0.078091905 -0.03468836 -0.18886705 -0.12033134 -0.065167464
00000000: df47 39bd 23eb 11bd f07a 1ebe fa5d 033c
00000010: 0af7 1e3d 7477 913d 4720 c4bd 8f48 febd
00000020: f597 183d 3f93 da3c b3c3 ed3c 69e2 9abc
00000030: 128b b13d 6243 69bc 1adf 413e 32f7 7b3d
00000040: e178 06bd 3270 c0bc 5398 c9bd 5c2a 4b3d
00000050: 1fa5 3fbc 5c30 4abc 18dd ff3d 0f70 333e
00000060: 13e3 263e 1ef6 cf3c 026c 26bd 9745 ccbc
00000070: b998 693c d1fb 1f3e 1b3b 2d3e 604f 513c
00000080: 5ab9 103d 4450 1dbc 4061 01be 8568 a23d
00000090: b44d 7f3d 672e acbd 2d5e d9bd 4368 573e
000000a0: f623 0cbc 9c49 56bd ef10 04be 141a 863d
000000b0: bec5 a0bc 9a0f 21bd b33b a13d cdbb a23c
000000c0: 659c bcbc 796b 02be ba4b b03d 7746 23bc
000000d0: c213 94bd 8016 71bc 64d0 db3a 6058 71bd
000000e0: 5b9c 043d 76b5 483d 7c44 cebd 684d 533d
000000f0: cf51 1b3e 849d 2cbd fe31 223d 1db4 b2bc
00000100: 419d 3ebd 479e d43d 5801 b8bc 101a a4bd
00000110: 636c f9bb 5471 6c3d c943 8c3d 10c4 713b
00000120: 5c39 03bd a19f 17be 3e54 bf3d 82ee 6bbd
00000130: 9c82 7ebd 47ee 25bd cf00 8dbd 3d16 58bc
00000140: 3a5f 87bd b34e b1bc ccdc 093d a9dd b73d
00000150: 3454 a6bd f278 3b3d 75f4 343d 8245 69bc
00000160: 0a2f abbd 508d 0c3e d2a6 d33d c957 dcbd
00000170: 0fdc 44bb ec74 913d 0f6f 0c3d 70fc 813d
00000180: 80f6 07bd a2cb 8fbd 43a7 ec3c bba6 633c
00000190: 2f0a 92bc dcf6 6c3d c488 4b3c fd47 e9bb
000001a0: c656 423d ac7b 973c 74ed 03be 2cf1 613d
000001b0: 201c 0dbe b599 e13c db2c debd b35d d2bc
000001c0: 53ad 163c 4f65 163e 9194 febd d58b 613e
000001d0: 85d5 343d 1cee a0bd 83c1 58bd baa5 36be
000001e0: 41e1 55bd 4e4c 93bd 1440 c0bd 4dca 0fbe
000001f0: 1b81 c83d 422e 063e 995a 893b 970a 5b3d
00000200: f73d 383e 7215 473e 1808 ac3b 3f8a f5bd
00000210: 3c06 d23d ec9f b03c 9ee9 18bd f7c6 87bc
00000220: 426d 473d 4e35 9d3c 0077 18be 0a5b 0b3c
00000230: 2073 f2bd 4cb7 42bd 6de8 023d e05a f73b
00000240: c203 be3c f5f3 03bd 46f0 9e3d c4db b83d
00000250: c9ff df3c 8734 88bd f3f9 423e 16d6 453d
00000260: 3764 1fbb fbe5 133e a04d a5bd 8549 1b3e
00000270: 249b 33bd 03ab fabd e388 b7b9 2076 dc3c
00000280: 18d0 a43c 7c11 4a3d d39c 7dbc bdcf d7bd
00000290: e09f 103e b519 01be 007b 993d 9e41 ccbd
000002a0: 8880 d83d 5fef 8c3d 6209 89bd f588 8dbd
000002b0: c807 b3bd 6524 dc3c 3767 72bd 4910 583d
000002c0: 8b8b 2fbd 0837 cabd cc10 09bd c9e1 81bb
000002d0: 80f8 bcbc c424 4dbd 8ddb b8bd be6c 26be
000002e0: d985 e5bc a3e1 433d a773 86bd 602f 99bd
000002f0: 329d 963c 6b16 32bd 2a36 23bc 2238 f7bd
00000300: fb9e 27be 704f a2bd 3296 f4bd 303a fa3d
00000310: 4ba5 e33c daec 58bd 166c 7e3d 00c8 193e
00000320: 6761 95bd f5a9 b2bd fce6 f1bd 942f 2fbe
00000330: 7fa8 b83d a367 25bd a4a2 b93d 2027 1a3e
00000340: 84d7 6bbd aae4 9cbc 8bf8 253e 1aea 493d
00000350: 8200 753d 0f0c b43d 5800 553d 9ffd 6dbd
00000360: 6e85 60be 2f1e 243e 227e 65bd c571 1ebd
00000370: 3fee f43c c102 593e 2bee 3b3d da44 cebc
00000380: 2d08 8e3d 0c2c 3b3b 78a7 a6bb 914d 0bbd
00000390: 6eff 45be 43a3 3fbe af5d 113d 080c ae3c
000003a0: 4567 42bc 3f0d 0dbd 4a95 debb c31c 5a3d
000003b0: a7b0 64bd ec40 84be b98a 2a3e 90c9 8c3d
000003c0: 1838 66bd 4527 65bd 7b6d c83d e21e 513d
000003d0: 3ed2 80bc b1da a3bd a552 ac3d d5f6 3a3d
000003e0: a0e9 2cbd 9645 e13d 2906 0bbd a6ee 9fbd
000003f0: 6215 0ebd 5d66 41be 4770 f6bd 8576 85bd

network_body._body_endoder.seq_layers.2.bias f4 [128]
0.0 0.0 0.0 0.0 0.0 0.0 0.0 0.0
0.0 0.0 0.0 0.0 0.0 0.0 0.0 0.0
0.0 0.0 0.0 0.0 0.0 0.0 0.0 0.0
0.0 0.0 0.0 0.0 0.0 0.0 0.0 0.0
0.0 0.0 0.0 0.0 0.0 0.0 0.0 0.0
0.0 0.0 0.0 0.0 0.0 0.0 0.0 0.0
0.0 0.0 0.0 0.0 0.0 0.0 0.0 0.0
0.0 0.0 0.0 0.0 0.0 0.0 0.0 0.0
0.0 0.0 0.0 0.0 0.0 0.0 0.0 0.0
0.0 0.0 0.0 0.0 0.0 0.0 0.0 0.0
0.0 0.0 0.0 0.0 0.0 0.0 0.0 0.0
0.0 0.0 0.0 0.0 0.0 0.0 0.0 0.0
0.0 0.0 0.0 0.0 0.0 0.0 0.0 0.0
0.0 0.0 0.0 0.0 0.0 0.0 0.0 0.0
0.0 0.0 0.0 0.0 0.0 0.0 0.0 0.0
0.0 0.0 0.0 0.0 0.0 0.0 0.0 0.0
00000000: 0000 0000 0000 0000 0000 0000 0000 0000
00000010: 0000 0000 0000 0000 0000 0000 0000 0000
00000020: 0000 0000 0000 0000 0000 0000 0000 0000
00000030: 0000 0000 0000 0000 0000 0000 0000 0000
00000040: 0000 0000 0000 0000 0000 0000 0000 0000
00000050: 0000 0000 0000 0000 0000 0000 0000 0000
00000060: 0000 0000 0000 0000 0000 0000 0000 0000
00000070: 0000 0000 0000 0000 0000 0000 0000 0000
00000080: 0000 0000 0000 0000 0000 0000 0000 0000
00000090: 0000 0000 0000 0000 0000 0000 0000 0000
000000a0: 0000 0000 0000 0000 0000 0000 0000 0000
000000b0: 0000 0000 0000 0000 0000 0000 0000 0000
000000c0: 0000 0000 0000 0000 0000 0000 0000 0000
000000d0: 0000 0000 0000 0000 0000 0000 0000 0000
000000e0: 0000 0000 0000 0000 0000 0000 0000 0000
000000f0: 0000 0000 0000 0000 0000 0000 0000 0000
00000100: 0000 0000 0000 0000 0000 0000 0000 0000
00000110: 0000 0000 0000 0000 0000 0000 0000 0000
00000120: 0000 0000 0000 0000 0000 0000 0000 0000
00000130: 0000 0000 0000 0000 0000 0000 0000 0000
00000140: 0000 0000 0000 0000 0000 0000 0000 0000
00000150: 0000 0000 0000 0000 0000 0000 0000 0000
00000160: 0000 0000 0000 0000 0000 0000 0000 0000
00000170: 0000 0000 0000 0000 0000 0000 0000 0000
00000180: 0000 0000 0000 0000 0000 0000 0000 0000
00000190: 0000 0000 0000 0000 0000 0000 0000 0000
000001a0: 0000 0000 0000 0000 0000 0000 0000 0000
000001b0: 0000 0000 0000 0000 0000 0000 0000 0000
000001c0: 0000 0000 0000 0000 0000 0000 0000 0000
000001d0: 0000 0000 0000 0000 0000 0000 0000 0000
000001e0: 0000 0000 0000 0000 0000 0000 0000 0000
000001f0: 0000 0000 0000 0000 0000 0000 0000 0000

value_heads.value_heads.extrinsic.weight f4 [1, 128]
0.18460795 -0.15820062 -0.09730925 -0.11687781 -0.007846907 0.2099171 -0.03872657 -0.040775552
0.12948298 -0.014726147 0.16084233 0.11958936 -0.18117926 0.19510016 -0.1989079 -0.13662255
0.10116932 0.15138006 -0.08041611 0.024931625 0.19940689 0.1497593 0.19919541 -0.007858723
0.19830266 0.11276665 0.0045443326 0.007169813 -0.21118435 -0.14279127 -0.07050951 0.16758817
-0.09752413 0.14444289 0.06743139 -0.07152924 -0.14345771 -0.00513947 0.1713754 0.19178757
0.14099172 0.016871184 -0.1909655 0.17260998 -0.09900388 0.21536154 0.06307837 0.062570035
-0.15706547 -0.17394513 0.14134526 0.17041123 -0.18917501 -0.17339465 0.07301763 0.095278144
0.029296488 -0.14790669 0.041490883 -0.09876525 0.06335938 0.00599955 -0.11244536 0.17980266
-0.041875392 -0.01724197 -0.021463871 -0.20956917 0.08544019 -0.17684373 0.07225916 0.15005252
0.013926595 -0.05298093 0.10938671 -0.20475993 -0.061038494 0.13937682 -0.007460922 0.008539408
0.009535804 -0.12569976 -0.15213513 0.0025718063 0.043037057 0.11969122 0.18469137 0.08115953
-0.102429755 0.08570087 0.11724833 0.084717214 0.031578675 -0.20843601 -0.04674709 -0.10011928
-0.0964803 0.104867786 0.13650852 0.19881278 0.011965632 -0.17632826 0.0799025 -0.024947852
-0.1397525 0.09809309 -0.0668578 -0.19124775 0.061538935 -0.20553397 -0.16954063 0.15112275
-0.10325867 -0.030442625 -0.20765233 0.11798766 0.18351534 -0.12594387 0.00543195 -0.13814148
0.20624453 -0.016020715 -0.20934193 -0.121639386 0.06737083 -0.19575334 -0.20112345 -0.07635072
00000000: de09 3d3e 58ff 21be 124a c7bd a25d efbd
00000010: 5090 00bc 82f4 563e c09f 1ebd 4404 27bd
00000020: 3097 043e f045 71bc dab3 243e 44eb f43d
00000030: 0e87 39be 56c8 473e 83ae 4bbe c8e6 0bbe
00000040: dc31 cf3d 6003 1b3e 34b1 a4bd 683d cc3c
00000050: 5231 4c3e 805a 193e e2f9 4b3e e0c1 00bc
00000060: da0f 4b3e 34f2 e63d a0e8 943b c0f0 ea3b
00000070: b640 58be e037 12be 4a67 90bd 3c9c 2b3e
00000080: bbba c7bd d6e8 133e 7819 8a3d ec7d 92bd
00000090: 94e6 12be 0069 a8bb 087d 2f3e f663 443e
000000a0: 2260 103e 7035 8a3c 768c 43be acc0 303e
000000b0: 8cc2 cabd bc87 5c3e 3c2f 813d b824 803d
000000c0: c5d5 20be ac1e 32be d0bc 103e 4880 2e3e
000000d0: 18b7 41be 5e8e 31be 448a 953d 3021 c33d
000000e0: 30ff ef3c da74 17be 58f2 293d 6f45 cabd
000000f0: 90c2 813d e097 c43b c149 e6bd 301e 383e
00000100: 8885 2bbd 083f 8dbc 00d5 afbc 4d99 56be
00000110: 44fb ae3d 8616 35be 9cfc 933d 5ea7 193e
00000120: 602c 643c 8802 59bd 2406 e03d 96ac 51be
00000130: 8003 7abd ccb8 0e3e c07a f4bb e0e8 0b3c
00000140: 103c 1c3c 70b7 00be 50c9 1bbe c08b 283b
00000150: a047 303d ac20 f53d bc1f 3d3e f836 a63d
00000160: b1c6 d1bd f083 af3d e41f f03d 3880 ad3d
00000170: a458 013d 4070 55be e079 3fbd 560b cdbd
00000180: 7797 c5bd ecc4 d63d e4c8 0b3e 9495 4b3e
00000190: 800b 443c 658f 34be eca3 a33d 705f ccbc
000001a0: 481b 0fbe 08e5 c83d beec 88bd 73d6 43be
000001b0: 4010 7c3d 7f77 52be 0f9c 2dbe ecbf 1a3e
000001c0: 4879 d3bd d062 f9bc d0a2 54be 84a3 f13d
000001d0: 72eb 3b3e 6ef7 00be 80fe b13b f674 0dbe
000001e0: c431 533e e03d 83bc bb5d 56be 121e f9bd
000001f0: b8f9 893d 9073 48be 4ef3 4dbe c45d 9cbd
