Assets/ML-Agents/Examples/FirstTRexScene/results/trmodel/My Behavior/My Behavior-192.pt (torch, 411191 bytes, 12 tensors)

network_body._body_endoder.seq_layers.0.weight f4 [128, 243]
00000000: 5f50 0bbd 13e3 6abd ba88 aabd 1afa 8b3d
00000010: 4f6a e9bc a690 4ebd 0d03 273d d20b 993d
00000020: 0416 8c3d f661 653d 1389 cabb 57c7 39bc
00000030: 5495 843d e6a4 e9bb eb17 00bb 2dc7 c13c
00000040: 4088 7a3c bd01 2c3d 702d 8c3d 87d8 0fbc
00000050: 6403 a53d b352 0a3e 8d02 a2bd 0d20 97bc
00000060: 579e d8bd 7e9f f53b 1731 cdbd 63c1 02bd
00000070: 2416 18bd 2789 c8bc 3bb3 a8bc 05c9 52bd
00000080: a8e3 593d 09a5 ddbb 1110 42be 20dc 0bbc
00000090: 6955 3fbd 0972 1abd 1c6d cb3d 09e4 a3bd
000000a0: 7bee f93a 973b 13bd 591b b43c 23a6 93bd
000000b0: 4aa4 f7bc e1b8 5dbb 6fe6 013d c6db 143e
000000c0: 7156 29bc b085 123d 9c3a 62bd e77a 51bd
000000d0: 3e77 313d 6870 563d 983f 93bd 9de1 0f3e
000000e0: ec14 e13b 179d 20bc 147b 2b3d 1aa7 3b3c
000000f0: 47fd d83c 16a0 0a3e e015 23bd ce42 f7bd
00000100: aea2 0bbd fd61 64bb 817a 09bd 6196 6abd
00000110: 4afc 773d b929 1d3d a72b 0bbd 3f46 0cbe
00000120: a4fb bb3c d550 d0bd ba0c 71bd 7180 b8bc
00000130: 9ab9 9d3d 80ed 2bbd 487e 343b 9ae3 3cbd
00000140: 6523 80bd 2357 c63c ba3f 33bd 5f7f c3bc
00000150: 96ec b53a 924b 513d b007 b93c 670f 84bd
00000160: cc75 5d3b 1807 023b b9c0 2ebc f091 303d
00000170: a937 893d 5fef c83d 4dfe 563d 271e a7bc
00000180: 3358 37bc 7a69 62bd 89b3 213d 29c6 e83c
00000190: d9d7 5eba 4857 c73c befb cb3c b0b2 023c
000001a0: 08a8 263d 5d41 123e 0004 3fbc a5a2 c23d
000001b0: ab39 823d 5b49 ad3d 5dea ec3c c2f0 633c
000001c0: 0552 943c c8d4 acbb 2c10 96bd 70c3 35bd
000001d0: b275 a0bc f5f8 503d c082 babd 0e36 a9bc
000001e0: 0b04 b9bd 3685 2f3c e81c ee3b 4f94 cc3c
000001f0: 7faa 88bd beb9 753b 429e 6c3d 735b 6a3d
00000200: 6b1a b1bd 2d6b fdbc 3af2 adbd 37d0 bfbd
00000210: a4bd d13c 8712 b1bc 71a8 403c 24ad 8fbd
00000220: c367 8a3d 49e2 7ebc 34e9 203d 367a 293d
00000230: 8c8c 8dbc f75b 81bc 9728 cc3c baa0 9f3c
00000240: b999 c23d e8c1 6bbd 3da4 07bd ef08 113d
00000250: 022c b0bd bb9b f4bb b4a0 9bbd fcec 9b3b
00000260: fdeb 2ebe 50f6 af3d f8f1 f7bb 608e b53c
00000270: 30f1 c93b 174e a93d fbdf 1ebd 2d86 29bd
00000280: 8bb2 02bc 2677 37be 68a3 12bd 0258 e93b
00000290: c098 843c 5267 9bbd d59e 79bd c9b1 fdba
000002a0: 2a7a f43b 95bc d5bc fb78 d73d 6ee7 f8bc
000002b0: 7b24 ed3d 38be 1c3e a563 0bbd 0b29 043d
000002c0: ee55 94bc f305 183e 7590 733d 89ce 44bc
000002d0: 83c0 8e3b a76e 4cbd 5b95 78bd 52ae a7bc
000002e0: 798b ff3c 8b38 a1bc 339c db3c 5b51 dfbd
000002f0: 584f 62bd f72e babd 17f3 5c3d ab3e 09bb
00000300: e27f 88bd 9bc7 873d 7173 51bd fca3 6b3d
00000310: 39a6 513a f536 18be 838d 073d cb79 4ebd
00000320: f435 793d 04f3 7e3d 18a3 9dbc 7906 e1bc
00000330: b058 373d 47ea ab3b 66a0 b6bd be43 863d
00000340: 7b1b d63d 8e06 3bbd 0d06 97bc b0f4 60bd
00000350: 1912 dd3d 8b64 d3bd f598 1b3c 7b3f 86bd
00000360: f9e3 8a3b 2cf2 673c c850 053e 6c03 843c
00000370: 8af1 02bd 1723 ff3c f6a3 9bbd 65a0 ab3d
00000380: c44d 813b bb9c 14bc 6648 afbc 2758 dd3c
00000390: c986 933d ecd8 f03d e105 b0bd e17a 06bc
000003a0: 647e 353c 2e38 223d 98e5 69bd a72e 043e
000003b0: b8d1 e6bd 1f5b 1bbd e6e5 343c c9ba fdbd
000003c0: ac24 9dbd 15d8 233d b4e2 c5bc 800b 7739
000003d0: 69fc 8abc 6342 823d 8101 bf3c e943 4d3d
000003e0: aaa4 f2bd fb8d 143e 7a88 783c f947 0f3d
000003f0: b875 ed3c a0cf 1a3e 38b1 6c3d 4856 0fbd
-0.034012195 -0.05734546 -0.0832686 0.068348125 -0.028493075 -0.050430916 0.040774394 0.07472958
0.06840137 0.056001626 -0.0061808913 -0.01133903 0.064737946 -0.007130253 -0.0019545506 0.023654545
0.015291274 0.041993845 0.06844604 -0.0087796515 0.08057287 0.1350811 -0.07910643 -0.0184479
-0.10577076 0.0074958196 -0.10019129 -0.03192271 -0.03713049 -0.024479462 -0.020593276 -0.05146124
0.053195626 -0.0067640585 -0.18951441 -0.008536369 -0.046712313 -0.03770641 0.0993292 -0.08002479
0.0019068265 -0.0359455 0.021985697 -0.072094224 -0.030229706 -0.003383212 0.0317139 0.14536962
-0.010335551 0.035772026 -0.055231676 -0.0511426 0.04332661 0.052353293 -0.07189864 0.14050908
0.006868949 -0.009803078 0.041865423 0.011453414 0.02648796 0.1353763 -0.039815784 -0.12073289
-0.03409069 -0.0034848445 -0.033564094 -0.05727232 0.060543336 0.038369868 -0.033977177 -0.13698672
0.02294714 -0.101716675 -0.058850028 -0.022522183 0.07701416 -0.041974545 0.002754109 -0.046115495
-0.06256751 0.024211472 -0.043761946 -0.023864446 0.0013879712 0.05109746 0.022586673 -0.0644825
0.0033792136 0.0019840654 -0.010666066 0.043107927 0.067000695 0.098112814 0.052488614 -0.02040012
-0.011190462 -0.05527637 0.03947786 0.028414803 -0.0008500792 0.024333611 0.024900313 0.007977173
0.04068759 0.14282747 -0.0116586685 0.09503678 0.063586555 0.08461257 0.028920347 0.013912382
0.018105516 -0.005274389 -0.07327303 -0.044375837 -0.019587371 0.051018674 -0.0910697 -0.020655658
-0.09033974 0.010712912 0.0072666295 0.024973063 -0.066731445 0.0037494744 0.057768114 0.05721612
-0.08647617 -0.030934894 -0.08493467 -0.09365886 0.025603123 -0.02161528 0.01175891 -0.07015446
0.06758072 -0.01555688 0.0392849 0.041376315 -0.017278932 -0.015790923 0.024921698 0.01948582
0.095019765 -0.05755797 -0.033115614 0.03540891 -0.08602144 -0.0074648536 -0.07599011 0.0047584753
-0.1708221 0.08591902 -0.0075666867 0.022162616 0.006162785 0.082668476 -0.038787823 -0.041387726
-0.007977138 -0.17916545 -0.035800368 0.007121087 0.016186118 -0.07588066 -0.06094249 -0.0019355352
0.007460852 -0.0260909 0.10521122 -0.030383792 0.11579224 0.15306938 -0.034030575 0.032265704
-0.01810738 0.1484602 0.059463937 -0.012012132 0.0043564453 -0.049910214 -0.06068931 -0.020468865
0.031194435 -0.019680282 0.02680788 -0.10904189 -0.05525145 -0.09090989 0.053942766 -0.0020941894
-0.06665017 0.066298686 -0.051135484 0.057529435 0.00079974864 -0.14864714 0.03309394 -0.05040912
0.06084247 0.062243477 -0.019242808 -0.027468907 0.044762313 0.005246434 -0.08917312 0.065558895
0.1045446 -0.045660548 -0.018435502 -0.054920852 0.107944675 -0.103219114 0.009496917 -0.06555077
0.0042386022 0.014156859 0.13019097 0.016114913 -0.03196863 0.031144662 -0.075996324 0.08380202
0.003946038 -0.009070571 -0.021396827 0.027019573 0.072034426 0.117601246 -0.08594871 -0.008208008
0.011077497 0.03960436 -0.057103723 0.12908421 -0.112704694 -0.037928697 0.01104114 -0.12389142
-0.0767301 0.040000994 -0.024155952 0.0002356004 -0.016966062 0.063603185 0.023316147 0.050113592
-0.118478134 0.14507286 0.015169257 0.034980748 0.028986797 0.15118265 0.057786196 -0.034994394

network_body._body_endoder.seq_layers.0.bias f4 [128]
00000000: 0000 0000 0000 0000 0000 0000 0000 0000
00000010: 0000 0000 0000 0000 0000 0000 0000 0000
00000020: 0000 0000 0000 0000 0000 0000 0000 0000
00000030: 0000 0000 0000 0000 0000 0000 0000 0000
00000040: 0000 0000 0000 0000 0000 0000 0000 0000
00000050: 0000 0000 0000 0000 0000 0000 0000 0000
00000060: 0000 0000 0000 0000 0000 0000 0000 0000
00000070: 0000 0000 0000 0000 0000 0000 0000 0000
00000080: 0000 0000 0000 0000 0000 0000 0000 0000
00000090: 0000 0000 0000 0000 0000 0000 0000 0000
000000a0: 0000 0000 0000 0000 0000 0000 0000 0000
000000b0: 0000 0000 0000 0000 0000 0000 0000 0000
000000c0: 0000 0000 0000 0000 0000 0000 0000 0000
000000d0: 0000 0000 0000 0000 0000 0000 0000 0000
000000e0: 0000 0000 0000 0000 0000 0000 0000 0000
000000f0: 0000 0000 0000 0000 0000 0000 0000 0000
00000100: 0000 0000 0000 0000 0000 0000 0000 0000
00000110: 0000 0000 0000 0000 0000 0000 0000 0000
00000120: 0000 0000 0000 0000 0000 0000 0000 0000
00000130: 0000 0000 0000 0000 0000 0000 0000 0000
00000140: 0000 0000 0000 0000 0000 0000 0000 0000
00000150: 0000 0000 0000 0000 0000 0000 0000 0000
00000160: 0000 0000 0000 0000 0000 0000 0000 0000
00000170: 0000 0000 0000 0000 0000 0000 0000 0000
00000180: 0000 0000 0000 0000 0000 0000 0000 0000
00000190: 0000 0000 0000 0000 0000 0000 0000 0000
000001a0: 0000 0000 0000 0000 0000 0000 0000 0000
000001b0: 0000 0000 0000 0000 0000 0000 0000 0000
000001c0: 0000 0000 0000 0000 0000 0000 0000 0000
000001d0: 0000 0000 0000 0000 0000 0000 0000 0000
000001e0: 0000 0000 0000 0000 0000 0000 0000 0000
000001f0: 0000 0000 0000 0000 0000 0000 0000 0000
0.0 0.0 0.0 0.0 0.0 0.0 0.0 0.0
0.0 0.0 0.0 0.0 0.0 0.0 0.0 0.0
0.0 0.0 0.0 0.0 0.0 0.0 0.0 0.0
0.0 0.0 0.0 0.0 0.0 0.0 0.0 0.0
0.0 0.0 0.0 0.0 0.0 0.0 0.0 0.0
0.0 0.0 0.0 0.0 0.0 0.0 0.0 0.0
0.0 0.0 0.0 0.0 0.0 0.0 0.0 0.0
0.0 0.0 0.0 0.0 0.0 0.0 0.0 0.0
0.0 0.0 0.0 0.0 0.0 0.0 0.0 0.0
0.0 0.0 0.0 0.0 0.0 0.0 0.0 0.0
0.0 0.0 0.0 0.0 0.0 0.0 0.0 0.0
0.0 0.0 0.0 0.0 0.0 0.0 0.0 0.0
0.0 0.0 0.0 0.0 0.0 0.0 0.0 0.0
0.0 0.0 0.0 0.0 0.0 0.0 0.0 0.0
0.0 0.0 0.0 0.0 0.0 0.0 0.0 0.0
0.0 0.0 0.0 0.0 0.0 0.0 0.0 0.0

network_body._body_endoder.seq_layers.2.weight f4 [128, 128]
00000000: eeb9 f5bc 4ada b2bd 3c5b a23d 96b2 86bc
00000010: 1f72 733d cfea 05bc 1173 693e 9165 78bd
00000020: 294a d33c 8375 01be e5d0 6e3d a59c 0cbe
00000030: 1f1a 86bd 061f af3d ed7f 96bd bbaf a33d
00000040: 6d07 aa3d 9108 68bb 972c 0d3d f819 a43d
00000050: 4307 8abc f705 efbd 5757 a83d 6aba 123d
00000060: e6de 143d d488 95bd 0feb 55bc 596b 2d3b
00000070: 5ac1 91bd 8c30 313c 6f68 0b3e 9a52 d1bd
00000080: 7cf2 0f3d 175e 72bd bae3 5bbd 218a 65bd
00000090: dc77 35bd dbae 3abd dd46 dcbc 25c2 ef3b
000000a0: a77c 473d a435 62bd 3114 fa3d 7572 76bc
000000b0: 477f 873e 0cb2 8fbd d920 0b3d ea7e a6bd
000000c0: 8bc0 1ebd b918 53bd 11b1 923b 75a0 38bd
000000d0: 934e 67bc f145 83bd 4396 303e e51a 31bc
000000e0: b2c3 34bd 892d 233d abb2 b9bd ef33 28be
000000f0: 06f4 c6bd f437 8dbc 39c8 6abd 99c9 653d
00000100: 59df c33d 824a a63d 6ab8 563d 38b4 aebc
00000110: 0b16 c93d 1c82 80bd 4536 f0bd ffc0 813d
00000120: dd22 493d 0c91 983b 2f6c 913d e176 9b3c
00000130: bfaf 4f3e ba0a 4bbc bdc0 afbd 53ac 643c
00000140: 0770 2ebd 26a3 2fbd 4912 cf3d a406 8fbd
00000150: 228c cc3b 6f5b 17be 1991 7fbc 4187 31bd
00000160: 1d53 29be 27f5 653d c8b9 f0bc 2bc6 2c3d
00000170: 223a 053d 8f9c 82bd 853f cfbd 48cf 93bc
00000180: 0f9c 1fbd a347 e73c 5fc6 73bd 5539 dd3b
00000190: 91a9 5a3c 1315 b9bd a258 8fbc d58c c0bb
000001a0: ad45 54bd 251a 8e3d 09b7 633c a42a 4abd
000001b0: 0667 c23c 106e d03b ddf7 49bd a739 0fbe
000001c0: 52b9 b23c 6e15 f23c 6803 593d b40c 8a3c
000001d0: 241a 0f3e bbed 103e f1f0 e5bd d869 abbd
000001e0: 401b 05bd 2db6 fd3d 9e0f 80bd 4ee7 1c3c
000001f0: fef8 89bd 2bc6 7c3d 7bde 6c3c aa5f 94bd
00000200: 8420 d1bc d1ba 643d f8bf 8dbd 4cc1 c63d
00000210: 731b 5c3c 2788 71bd 94ea be3d 3695 bebc
00000220: 75fe 083d b347 1b3e e6c2 f6bd a492 4b3d
00000230: 8f74 263d 4ae9 233e 61ae e53a 9c8f f1bd
00000240: 0a6b 2b3d 4398 6abe ad5c 8a3b 5005 dfbd
00000250: b0a0 c43d dc04 a43d 2cdb 82bd 1b90 ba3c
00000260: 0477 79bd 7868 99bd 8712 5dbb 00ca 3abd
00000270: 4e07 3ebe e8b8 a63d cbe5 08bd 205d 2cbd
00000280: 6b1b 6abe badb 2b3e 03bb 8dbc ea4e 74be
00000290: 686d 8c3c e3e5 2a3d 3fc8 8fbd 8f32 ccbc
000002a0: 30bd c83c 20ec f13c b54f 9cbc 9fe0 e83d
000002b0: 9e0b b13c 3479 8abd 44c9 1ebd 4a62 253d
000002c0: 6d62 f2bd 5ed0 183d c397 4a3e b0fa 91bd
000002d0: e816 8fbb 406d fdbd c6ff b3bd a7a5 3dbd
000002e0: c865 e4bc c5bf 60bc d648 053d d2a1 9fbd
000002f0: aff0 133d 61d2 34bd 997c 013e a98c e23b
00000300: acc9 50bd 215f 2abd 6385 13be fc34 8ebd
00000310: f7e6 03be 60ef d7bd 1065 b73d cd37 263c
00000320: 1876 5ebe 311e 0fbe 1a0f 3e3e a354 ca3d
00000330: 8623 d1bd ea55 3cbd 74fc 5ebb 6879 0dbd
00000340: 8bfb 963c ffd6 c3bc 74f4 adbc eaef cfbc
00000350: 202d c6bd 88af d33b 58f3 2e3e bb0f 7b3c
00000360: 4afe fcbc 101f 6bbe 3773 373d 0e2d c6bd
00000370: 0ebf 933d 2968 b5bd 4f04 8e3d 8824 f13c
00000380: cdef efbd ea82 733c 43c7 09bd 5d7f b33d
00000390: e91f c3bb 2386 1a3e f71d 833c a922 a2bc
000003a0: 328a b2bd 1ee2 ebbd 7fef c0bc b131 30bd
000003b0: 79b7 e23c 0f6f 29bc 7f19 b6bb 753b a5bd
000003c0: 3709 5bbd 8106 7c3d c636 0fbe 6b40 703d
000003d0: 00ad 62bd bbe4 52bd 23dd 64be e0a1 fd3d
000003e0: 2cec dcbc 1f21 44bc 5649 37bb cf70 81bc
000003f0: 26ad 993c 15b5 7dbd bab1 83bc 8b60 863a
-0.029995885 -0.087330416 0.07927558 -0.016442578 0.059435006 -0.0081736585 0.227978 -0.060643736
0.025792198 -0.12642483 0.058304686 -0.1373163 -0.06547951 0.08550839 -0.07348619 0.07992502
0.083021976 -0.0035405497 0.034466352 0.08012766 -0.016849166 -0.116710596 0.08219784 0.03582231
0.036345385 -0.073014885 -0.013056531 0.002646169 -0.07116957 0.010814797 0.13614057 -0.10220833
0.03514336 -0.059171762 -0.053683974 -0.056039933 -0.04430376 -0.04557691 -0.026889259 0.007316845
0.048702862 -0.055226937 0.122108825 -0.015041937 0.26464292 -0.070163816 0.033966873 -0.08129676
-0.038757842 -0.05153725 0.0044766744 -0.0450749 -0.014117855 -0.06409825 0.1724482 -0.010809635
-0.044131942 0.039838348 -0.09067281 -0.16426061 -0.097145125 -0.017238595 -0.057319853 0.05610046
0.095640846 0.0811968 0.052421965 -0.02132617 0.098186575 -0.062748164 -0.11729101 0.06335639
0.049105514 0.004655963 0.071007125 0.018977584 0.20281886 -0.012392694 -0.08581684 0.013957101
-0.042587306 -0.0428802 0.101109095 -0.069836885 0.006242291 -0.14780973 -0.015598559 -0.04334188
-0.16535611 0.056142 -0.029385462 0.042181175 0.032526143 -0.063775174 -0.10119537 -0.018043175
-0.03896719 0.028232401 -0.059515353 0.0067512193 0.013346092 -0.09037223 -0.017498318 -0.0058761635
-0.05182426 0.069385804 0.013898619 -0.04935707 0.023730766 0.0063607767 -0.049308646 -0.13986836
0.021816883 0.029551234 0.052981764 0.01685176 0.13974816 0.14153187 -0.112275966 -0.083697975
-0.03249669 0.12388263 -0.06252979 0.009576632 -0.067369446 0.061712425 0.01445734 -0.07244809
-0.0255282 0.055842225 -0.06921381 0.09704837 0.013434279 -0.058967736 0.09322086 -0.023264509
0.033445794 0.1516407 -0.12048893 0.049700394 0.040638503 0.16006961 0.0017523282 -0.117949694
0.041850127 -0.22909646 0.0042224736 -0.10889685 0.09600961 0.08008739 -0.0638946 0.022773793
-0.060904518 -0.07490629 -0.0033732967 -0.0456028 -0.18557474 0.08140737 -0.033422273 -0.042081
-0.22862022 0.16783038 -0.017301088 -0.23858228 0.017142013 0.041723143 -0.07020616 -0.024926452
0.024504274 0.029531538 -0.019080976 0.11370968 0.021611985 -0.06761399 -0.03876616 0.04037694
-0.118351795 0.03730809 0.19784455 -0.07127893 -0.0043667443 -0.123743534 -0.08789019 -0.046300557
-0.027880564 -0.013717596 0.032540165 -0.07794537 0.036118206 -0.044145945 0.12645186 0.0069137407
-0.05097358 -0.04159463 -0.14406352 -0.069437 -0.12881075 -0.10543704 0.08954823 0.01014514
-0.21724737 -0.13976361 0.18560448 0.098794244 -0.10211854 -0.04598037 -0.0034024986 -0.03453961
0.018430492 -0.023906229 -0.021234728 -0.025382955 -0.09676576 0.006460134 0.17085016 0.015323575
-0.030882973 -0.22961068 0.04478761 -0.09676562 0.07214175 -0.088577576 0.069344155 0.029436365
-0.1171566 0.014862755 -0.033637296 0.08764527 -0.0059547317 0.15090232 0.0160055 -0.019791918
-0.08717765 -0.11517738 -0.0235517 -0.04301614 0.027675377 -0.01034142 -0.0055572386 -0.08067981
-0.053475585 0.06152964 -0.13985738 0.058655184 -0.055340767 -0.051487666 -0.22349982 0.12384391
-0.026968084 -0.011970787 -0.0027967296 -0.015800862 0.018759321 -0.06194027 -0.016075958 0.0010252161

network_body._body_endoder.seq_layers.2.bias f4 [128]
00000000: 0000 0000 0000 0000 0000 0000 0000 0000
00000010: 0000 0000 0000 0000 0000 0000 0000 0000
00000020: 0000 0000 0000 0000 0000 0000 0000 0000
00000030: 0000 0000 0000 0000 0000 0000 0000 0000
00000040: 0000 0000 0000 0000 0000 0000 0000 0000
00000050: 0000 0000 0000 0000 0000 0000 0000 0000
00000060: 0000 0000 0000 0000 0000 0000 0000 0000
00000070: 0000 0000 0000 0000 0000 0000 0000 0000
00000080: 0000 0000 0000 0000 0000 0000 0000 0000
00000090: 0000 0000 0000 0000 0000 0000 0000 0000
000000a0: 0000 0000 0000 0000 0000 0000 0000 0000
000000b0: 0000 0000 0000 0000 0000 0000 0000 0000
000000c0: 0000 0000 0000 0000 0000 0000 0000 0000
000000d0: 0000 0000 0000 0000 0000 0000 0000 0000
000000e0: 0000 0000 0000 0000 0000 0000 0000 0000
000000f0: 0000 0000 0000 0000 0000 0000 0000 0000
00000100: 0000 0000 0000 0000 0000 0000 0000 0000
00000110: 0000 0000 0000 0000 0000 0000 0000 0000
00000120: 0000 0000 0000 0000 0000 0000 0000 0000
00000130: 0000 0000 0000 0000 0000 0000 0000 0000
00000140: 0000 0000 0000 0000 0000 0000 0000 0000
00000150: 0000 0000 0000 0000 0000 0000 0000 0000
00000160: 0000 0000 0000 0000 0000 0000 0000 0000
00000170: 0000 0000 0000 0000 0000 0000 0000 0000
00000180: 0000 0000 0000 0000 0000 0000 0000 0000
00000190: 0000 0000 0000 0000 0000 0000 0000 0000
000001a0: 0000 0000 0000 0000 0000 0000 0000 0000
000001b0: 0000 0000 0000 0000 0000 0000 0000 0000
000001c0: 0000 0000 0000 0000 0000 0000 0000 0000
000001d0: 0000 0000 0000 0000 0000 0000 0000 0000
000001e0: 0000 0000 0000 0000 0000 0000 0000 0000
000001f0: 0000 0000 0000 0000 0000 0000 0000 0000
0.0 0.0 0.0 0.0 0.0 0.0 0.0 0.0
0.0 0.0 0.0 0.0 0.0 0.0 0.0 0.0
0.0 0.0 0.0 0.0 0.0 0.0 0.0 0.0
0.0 0.0 0.0 0.0 0.0 0.0 0.0 0.0
0.0 0.0 0.0 0.0 0.0 0.0 0.0 0.0
0.0 0.0 0.0 0.0 0.0 0.0 0.0 0.0
0.0 0.0 0.0 0.0 0.0 0.0 0.0 0.0
0.0 0.0 0.0 0.0 0.0 0.0 0.0 0.0
0.0 0.0 0.0 0.0 0.0 0.0 0.0 0.0
0.0 0.0 0.0 0.0 0.0 0.0 0.0 0.0
0.0 0.0 0.0 0.0 0.0 0.0 0.0 0.0
0.0 0.0 0.0 0.0 0.0 0.0 0.0 0.0
0.0 0.0 0.0 0.0 0.0 0.0 0.0 0.0
0.0 0.0 0.0 0.0 0.0 0.0 0.0 0.0
0.0 0.0 0.0 0.0 0.0 0.0 0.0 0.0
0.0 0.0 0.0 0.0 0.0 0.0 0.0 0.0

action_model._continuous_distribution.log_sigma f4 [1, 39]
00000000: 0000 0000 0000 0000 0000 0000 0000 0000
00000010: 0000 0000 0000 0000 0000 0000 0000 0000
00000020: 0000 0000 0000 0000 0000 0000 0000 0000
00000030: 0000 0000 0000 0000 0000 0000 0000 0000
00000040: 0000 0000 0000 0000 0000 0000 0000 0000
00000050: 0000 0000 0000 0000 0000 0000 0000 0000
00000060: 0000 0000 0000 0000 0000 0000 0000 0000
00000070: 0000 0000 0000 0000 0000 0000 0000 0000
00000080: 0000 0000 0000 0000 0000 0000 0000 0000
00000090: 0000 0000 0000 0000 0000 0000
0.0 0.0 0.0 0.0 0.0 0.0 0.0 0.0
0.0 0.0 0.0 0.0 0.0 0.0 0.0 0.0
0.0 0.0 0.0 0.0 0.0 0.0 0.0 0.0
0.0 0.0 0.0 0.0 0.0 0.0 0.0 0.0
0.0 0.0 0.0 0.0 0.0 0.0 0.0

action_model._continuous_distribution.mu.weight f4 [39, 128]
00000000: 457e e73a 4f3e 63bc 264e 0dbd 9e98 36bc
00000010: 9fc7 b3bc 04bb 013c d3b9 0fbc d8f2 92bc
00000020: e3c8 b2bc b7f0 863a 2d21 3039 0d77 54bb
00000030: 8ed5 16bc ef34 edb9 df38 c0bc 4d3c efba
00000040: 72bc dfbb dac2 043d 3b3c debb e55d 0a3c
00000050: e3f4 fd3b b295 68bc d06f c9bc 97d1 433d
00000060: 5871 0d3c fd39 65bb ad0b 693c ebce 17bd
00000070: 3c9c cab9 6b70 2cbb b883 73bb df90 82bc
00000080: b1a5 023d a4e4 9c3c b82c 16bb 2f55 29bc
00000090: 5f89 4e3c e268 7dbb 9a3f 9abc 077d 293c
000000a0: 56f6 98bb 8ddc d3bb 6341 cbbb df56 babb
000000b0: 53e2 febc c240 f23c 03b6 0b3d 18bb ccbb
000000c0: c85f 593d 717b bd3c b7fc 9fbb ee1f c73a
000000d0: dc00 c93c b2b0 6a3c 8be1 873c 222e 38bc
000000e0: df81 b03a 5720 153c 0fd9 56bc 77d8 89bc
000000f0: 85d5 f83c 03b4 423c 28a1 7cbb 9978 c33b
00000100: efba 7fba c5cb e43b 88a9 383d c960 aabb
00000110: 8d7c a93a 0683 893c 4880 f93b 2257 b83c
00000120: 06e4 bc3b 7354 3ebb 34c4 263c 385d a1bb
00000130: 63c8 0fbb 302a 06bc 9ab3 993c a194 bd3c
00000140: 5ad6 91bc b0c8 f4ba 7f1e 62bc adf4 6d3a
00000150: 0b7c c53a 23db dcbc 3e1b b0bc 77ef 3cbc
00000160: a5b1 65bc 7639 893b 9a82 113b 4664 8b3c
00000170: e79d 1c3c d3cb 00bc 9811 4a3b 8a93 5cbb
00000180: 30c0 383c 5f1e a6ba 1b32 1f3c 1b87 a93c
00000190: 26e2 893c c2ab d4bc d19f adbb 7d92 5bbc
000001a0: 1091 ddbc 806e 82bc c992 213d 1ff3 0b3c
000001b0: e6ec 8dbc 3762 da39 0bb4 57bc dadb 84ba
000001c0: 5d91 c7bc 15fe 073d fff7 8b3c 374a 72bc
000001d0: 43bb 253c c1ca 03bc 5cd7 433d b764 9abb
000001e0: 9018 cbbc 5db7 233b 6fd7 12bd 8344 9b3b
000001f0: 8f5f ddbc 6dec 30bd 95ee 923c 2d09 533c
00000200: ca18 db3c cf88 ceb8 6d04 5d3c 3844 2fbc
00000210: 2b3d 053c b24e 583c 58a9 3dbc f760 963c
00000220: ff80 3ebc b7f4 4c3c c061 ee3c 984f eabb
00000230: 5998 8bbc 00ba 953c 8a59 633c 40a4 cf3c
00000240: 0114 cabb 03f7 8b3c 6b62 003d b3a9 cdbb
00000250: 5c77 b53b 7b5a 07bc 6811 53bb ec72 413c
00000260: dd5d c7bb 9bcb a7bb 83eb 71bc d051 033c
00000270: 5257 72bc 83c0 bb3c 8395 cd3a a180 04bc
00000280: 005b e8bc 8b34 99bc ddd8 53bc d64f 383c
00000290: 1af6 293c 0fb2 3fbc 5fa2 d1bc 773a 1f3c
000002a0: 289c dcbb 97e8 af39 cf69 51bb a61f 2fbc
000002b0: 0558 be3b 79d9 2a3c a725 9cba a3bb 7f3c
000002c0: 87e3 633b ca32 df3c 0039 783c f816 e6ba
000002d0: 95f3 663c 7a23 423c 1c58 833c 6bbb 8a3b
000002e0: ed04 e53a 0a99 a639 c980 16bc b118 14bd
000002f0: 1f2c 603c c07c debc 6a0d 63bc c6de 1e3c
00000300: 23a4 7b3c f737 eb3c 36e1 96bc 6e19 273c
00000310: 07a8 78bc b42c b43c b76a a73c 073f 423b
00000320: 78c0 76bc 7639 263c e714 ab3c da9f 45bc
00000330: 4538 7ebc 8ae6 4fbc 2650 c3bc 253b cabc
00000340: 9b71 f1bc 658e d43c 33b3 213c 8528 873c
00000350: 276a 4f3b fbfd 843c 57c7 d83b d03a 5cbc
00000360: 61bb 20bb 833f 2e3b 8dd4 03bc 073f a6bc
00000370: 806e 1c3c 7e7d 183b 0c03 b6bb 7d95 9d3c
00000380: 9407 36bd 2a1e ba3c b8ea bf3b a6de 07bc
00000390: 9d32 febb 7f2d d73a bf9f 0a3d 490c c6bc
000003a0: 3f0f a93a b3d0 0fbd f46a ca3c 6060 3abc
000003b0: 4921 46bd f7ac c23c cec0 ae3c 78a1 573c
000003c0: 6f72 58bb 77c2 c93a df31 ca3b bf35 58bc
000003d0: 46d7 28bc 8977 073d 178d eabb aaf4 27bc
000003e0: 967a 0c3c b675 3b3c 9b00 a0bb fbb2 d33c
000003f0: 2c7e cbba 9863 3e3c c516 72bc d5d7 cebb
0.0017661533 -0.013869836 -0.034498356 -0.011144785 -0.021945773 0.007918123 -0.008772331 -0.017938063
-0.021824306 0.0010295127 0.00016797027 -0.0032419593 -0.009206189 -0.000452436 -0.023464618 -0.0018252224
-0.0068278844 0.032412387 -0.0067820824 0.008445238 0.00775014 -0.014195846 -0.02458945 0.047807302
0.00863298 -0.003497719 0.014223975 -0.037062567 -0.00038644846 -0.0026312124 -0.0037157368 -0.01593822
0.031896297 0.019151993 -0.0022914838 -0.010335251 0.012605994 -0.0038667251 -0.018829156 0.01034475
-0.0046680374 -0.0064655007 -0.006202863 -0.0056866254 -0.03111378 0.029571895 0.034109127 -0.0062478893
0.05306986 0.02313015 -0.004882421 0.0015192011 0.024536543 0.014324354 0.01658704 -0.011241468
0.0013466439 0.009101949 -0.013113274 -0.016826851 0.030375252 0.011883738 -0.0038548205 0.005965304
-0.00097553333 0.006982299 0.045083553 -0.005199526 0.0012930796 0.01678611 0.0076141693 0.022502486
0.005764487 -0.0029042035 0.010178614 -0.0049244426 -0.0021939508 -0.008188769 0.018762399 0.02314216
-0.017802406 -0.0018675532 -0.013801216 0.0009077292 0.0015066875 -0.026959961 -0.021497365 -0.011531702
-0.014019405 0.004187758 0.0022203089 0.017015588 0.009559131 -0.0078610955 0.003083324 -0.0033657276
0.01127629 -0.0012673846 0.009716536 0.020694306 0.016831469 -0.025960807 -0.0052985926 -0.013401625
-0.02704671 -0.015921831 0.039446626 0.008541851 -0.017324876 0.00041653376 -0.013165484 -0.0010136322
-0.024361307 0.033201296 0.017086027 -0.014788202 0.010115447 -0.008043946 0.047812805 -0.004711713
-0.024791986 0.002498112 -0.035849985 0.004738392 -0.027023105 -0.043194223 0.01793603 0.012880606
0.026745219 -9.848328e-05 0.013489825 -0.010697417 0.008132259 0.013202356 -0.011576019 0.018356783
-0.011627435 0.012509516 0.029099345 -0.0071506016 -0.017040418 0.018277168 0.013876328 0.025346875
-0.0061669354 0.017085558 0.03134386 -0.0062763332 0.0055379104 -0.008261318 -0.003220642 0.011807185
-0.0060841874 -0.005120707 -0.014765623 0.008015111 -0.014791327 0.022918945 0.0015684817 -0.008087308
-0.028363705 -0.018701812 -0.012930122 0.011249503 0.010373617 -0.011700167 -0.02559012 0.009718529
-0.0067324825 0.00033551894 -0.0031953936 -0.010688698 0.0058088326 0.010427826 -0.0011913077 0.015608701
0.0034773068 0.027245898 0.015150309 -0.0017554453 0.01409616 0.011849279 0.016033225 0.0042337677
0.0017472781 0.0003177601 -0.009185978 -0.03615636 0.013682394 -0.027159095 -0.013858179 0.009696668
0.015358957 0.02871321 -0.018417936 0.010198934 -0.01517678 0.021993972 0.020436628 0.0029639618
-0.015060537 0.010145536 0.02088399 -0.012062037 -0.015516345 -0.012689242 -0.023841929 -0.024686405
-0.029473117 0.025946805 0.009869385 0.016498813 0.0031648965 0.016234389 0.00661556 -0.013441756
-0.002452575 0.002658815 -0.0080462815 -0.020293726 0.00954783 0.0023268159 -0.0055545624 0.01923632
-0.04444082 0.022719461 0.005856838 -0.00829283 -0.0077574984 0.0016416757 0.033843752 -0.02417578
0.001289822 -0.03511114 0.024709202 -0.011375517 -0.048371587 0.023764117 0.02133217 0.013161056
-0.0033027192 0.0015393038 0.006170496 -0.013196408 -0.010305231 0.033072982 -0.0071579325 -0.010251204
0.008574149 0.011441639 -0.0048828847 0.02584218 -0.0015525273 0.011620425 -0.0147759365 -0.0063123503

action_model._continuous_distribution.mu.bias f4 [39]
00000000: 0000 0000 0000 0000 0000 0000 0000 0000
00000010: 0000 0000 0000 0000 0000 0000 0000 0000
00000020: 0000 0000 0000 0000 0000 0000 0000 0000
00000030: 0000 0000 0000 0000 0000 0000 0000 0000
00000040: 0000 0000 0000 0000 0000 0000 0000 0000
00000050: 0000 0000 0000 0000 0000 0000 0000 0000
00000060: 0000 0000 0000 0000 0000 0000 0000 0000
00000070: 0000 0000 0000 0000 0000 0000 0000 0000
00000080: 0000 0000 0000 0000 0000 0000 0000 0000
00000090: 0000 0000 0000 0000 0000 0000
0.0 0.0 0.0 0.0 0.0 0.0 0.0 0.0
0.0 0.0 0.0 0.0 0.0 0.0 0.0 0.0
0.0 0.0 0.0 0.0 0.0 0.0 0.0 0.0
0.0 0.0 0.0 0.0 0.0 0.0 0.0 0.0
0.0 0.0 0.0 0.0 0.0 0.0 0.0

network_body._body_endoder.seq_layers.0.weight f4 [128, 243]
00000000: 3939 cc39 90d8 aebd 040d 1cbd d37d 79bd
00000010: 5dff 5b3d 439b 88bc 3e8f 52bd 3f21 08bd
00000020: 899a 44bb 33a0 a8bd a626 06bd a707 a6bc
00000030: 6da3 f3bc 5116 15bc 210d 7abd c046 1f3c
00000040: 4677 61bd 9cda 0e3b 6db9 943c 1b78 d23c
00000050: b8af 9e3d 86a8 58bd 8f31 163c 41fd bfbd
00000060: 099b b93d 2ab7 0fbd 1f06 b83c c3cc 3fbd
00000070: 4d31 19bc 1bb9 19bd c344 b4bc b8fc fdbc
00000080: f281 1ebd 63b8 e73b 7a1b 943d a142 d9ba
00000090: 8be1 8fbd 5491 193d 1f38 c4bd 599a b9bb
000000a0: 7276 0b3d 2862 58bc 8a0d 2abe 9f65 32bc
000000b0: 2911 ab3d 096b 063d d1e1 e3bc ea24 90bd
000000c0: 6388 f13b 56dc 97bd de8c 153e 704d 94bd
000000d0: a24e 5f3d ab0d c73c 721c c43c 9e76 dfbd
000000e0: 1627 a93c bf29 7ebd 8420 fc3c edf8 74bd
000000f0: 19fb 693d 005b ee3a 2b7e 373d 4e39 a4bc
00000100: 62bb 113e c40d f9bc 42be 693d 0888 763c
00000110: 9660 c43d c950 853b aa1a 3cbd 98f4 bfbd
00000120: 652c 033e c214 023d eb58 bf3d 52c6 43bd
00000130: f47b cd3c d6af 45bd f42e f4bd c434 16bd
00000140: 2fe5 d03d 0df4 30bb ed79 913c e32d 0c3d
00000150: 838b 39bd 8267 8f3d 2c4e f8bd a68c bf3c
00000160: ca6c 2ebd d9d7 533d f8ca a4bb 3bfa d33d
00000170: 377d 64bd 2aa3 61bd c110 54bd 12e9 28bc
00000180: b1a5 18bb b908 9bbd 1f27 96bd 3adf 0cbe
00000190: c689 183d ecea 403d 3a72 f0bb 976b a2bd
000001a0: cf28 0b3d d060 8f3c 36a5 45bd b83c 4c3d
000001b0: d4d1 cbbc cafa 883d c43f 063c a53e 7bbd
000001c0: fc60 4e3c 0f06 aa3d a204 51bd 762e 193d
000001d0: a1f9 39bd 6f12 12be 7ca0 93bd b44e 88bd
000001e0: 71ad a03d d13f 64bb ece7 56bd e279 913d
000001f0: 64da 29bc 689b a7bd 2689 023e 1a8f 97bc
00000200: 72c6 773d 1654 043d c300 b73c e5e6 ddbd
00000210: dabb 1bbc 0d2f 4ebc b2ec 61b9 f0d0 92bd
00000220: c74d 693b 6257 413d 90a8 97bd 5cb0 9cbd
00000230: 0886 8b3d 8923 2d3d 7961 533d 7238 7bbd
00000240: 0d9c 073e 22ba adbc 87c1 b7bd 0b2d 893c
00000250: 5a28 913d 84c2 db3c 0a1c 1fba 1d0d b63c
00000260: 3fea b63c 0941 583c ecde 30bd 7c92 d63c
00000270: 62db 8c3d 5369 d43c c372 0cbd ad39 c9bc
00000280: 0b6e ddbd 6602 45bd 77b2 95bd 9ea0 f63b
00000290: 004e 343c eac1 a2bd 7d09 21be ebd5 29be
000002a0: c9bc 043d 538c c4bc 5103 86bc 720f 30bd
000002b0: a610 a33d ae47 1b3c 3475 08bc 65c9 24bd
000002c0: 9e62 fbbc 4e16 343d a86b a23d b32f 253d
000002d0: 3143 0dbd 8b29 2ebd 4e94 c33c eae7 d53c
000002e0: 20b9 0d3d 8b85 13bd a8a6 333d 5d3c 5fbb
000002f0: 4107 02bd 4f82 d7bd 05b6 e4bc 2b1a f53a
00000300: 4096 f83c b5e1 c13d f32b 72bd c527 743d
00000310: f830 253e a9ae 793d b217 73bd d0bf 8abd
00000320: abc2 29bc 0cba 233d 0732 8a3d e435 f5bc
00000330: a1b6 8f3c 54d2 c33b 31fc c63c 7f88 803d
00000340: 767f ed3c bdf2 043c 25be 99bc fe53 233e
00000350: f14c 8e3d 5765 34bd 2b1b ab3d 18c6 ca3c
00000360: d6ee 77bd e774 833d 74f8 023c b570 fbbc
00000370: 57d7 a13d b37b 273d b6cd cc3b cafc a53d
00000380: f8b8 c33d d49f 123e 9dca b53d dea8 2cbd
00000390: f4e9 a73c 6892 1dbd 1d24 ec3b 0fcc febd
000003a0: 3c1d b4bc 2000 babd 6165 c6bd 7b19 e03a
000003b0: dc57 c03c 8210 10bd 178d 893d 7695 7cbd
000003c0: f6a4 1bbe 31f4 22be 1dbb 8fbc 09d4 893d
000003d0: 4437 08be 9aa5 d2bd 9ae1 4e3c be38 5dbc
000003e0: 83d4 9ebc f77b be3c a6ba 10be 3a17 073d
000003f0: 8917 4bbd 57f4 9f3c cf32 78bc e6d6 ccbd
0.00038952546 -0.085374 -0.03809835 -0.06091101 0.05371033 -0.016675597 -0.051406138 -0.03323483
-0.0029999337 -0.082336806 -0.0327517 -0.02026732 -0.029741013 -0.009099559 -0.061047677 0.009721458
-0.05504539 0.0021797782 0.018154824 0.025692036 0.077483594 -0.05289509 0.009167089 -0.09374476
0.09062774 -0.03508679 0.022463856 -0.046826135 -0.009350133 -0.037530046 -0.022005444 -0.031004295
-0.038698144 0.007071541 0.07231803 -0.0016575643 -0.07025441 0.03749211 -0.09581017 -0.0056641516
0.034048505 -0.013206996 -0.16606727 -0.010888486 0.083528824 0.03281692 -0.027817639 -0.07038291
0.007370995 -0.074150726 0.14604518 -0.072413325 0.05451835 0.02429851 0.023939345 -0.10911296
0.02064852 -0.06205153 0.030777223 -0.059807707 0.05712423 0.0018185079 0.044798058 -0.020046856
0.14231637 -0.030402072 0.05706621 0.015047081 0.09588735 0.004068468 -0.045923866 -0.093728244
0.12809904 0.031758077 0.09343132 -0.047796555 0.02508352 -0.048263393 -0.11923018 -0.036671415
0.10199963 -0.0027000934 0.017758334 0.03422345 -0.045299064 0.070021644 -0.12124285 0.023382496
-0.042584218 0.05171952 -0.0050290786 0.10350462 -0.055783477 -0.055087246 -0.05177379 -0.010309475
-0.002329212 -0.07570023 -0.073316805 -0.13757029 0.037240766 0.04709904 -0.0073378356 -0.079306774
0.033974465 0.017502218 -0.04825326 0.049862593 -0.024880327 0.06688459 0.008193914 -0.06133904
0.012596365 0.08301937 -0.05102981 0.037397824 -0.04540408 -0.14264844 -0.07208344 -0.066556364
0.07845581 -0.0034828077 -0.05246727 0.071033254 -0.01036701 -0.08183938 0.1274763 -0.018500853
0.060491987 0.032306753 0.02233923 -0.10835055 -0.0095052365 -0.01258446 -0.00021545848 -0.07168758
0.0035599337 0.047202475 -0.074051976 -0.076508254 0.06812674 0.042270217 0.05160663 -0.061333127
0.13243122 -0.02120692 -0.08972459 0.016745111 0.070877746 0.02682615 -0.0006069547 0.02222305
0.022328494 0.013199099 -0.043181345 0.026192896 0.068777815 0.025929129 -0.034289133 -0.024563635
-0.10812005 -0.04809799 -0.0730943 0.0075264713 0.011004925 -0.079471424 -0.15726276 -0.1658551
0.032406602 -0.023992693 -0.016359003 -0.04298348 0.0796216 0.009477539 -0.008328725 -0.040231127
-0.030686673 0.043966584 0.0793069 0.040328693 -0.034487907 -0.042520087 0.023874428 0.026111562
0.034600377 -0.03601603 0.043860108 -0.003406308 -0.0317452 -0.10522901 -0.027918825 0.0018699815
0.030345082 0.09466878 -0.059123944 0.05960824 0.16131961 0.060957585 -0.05934877 -0.067748666
-0.010361354 0.03997235 0.06747823 -0.029932924 0.017543139 0.005976001 0.024290176 0.062760346
0.028991442 0.008114514 -0.018767426 0.15950009 0.06948269 -0.044041958 0.08354791 0.024752662
-0.060530506 0.06418782 0.007993806 -0.030693391 0.07902401 0.040889453 0.0062501086 0.08104856
0.09556764 0.14318782 0.08876536 -0.04215323 0.0204973 -0.038469702 0.0072064535 -0.12441265
-0.021986596 -0.09082055 -0.09687305 0.0017097438 0.023479395 -0.035171993 0.06716364 -0.061665975
-0.15199646 -0.15913464 -0.017545277 0.067298956 -0.13302332 -0.10285492 0.01262703 -0.013502298
-0.019388443 0.02325247 -0.141337 0.032981135 -0.04958299 0.01952569 -0.015148832 -0.10001926

network_body._body_endoder.seq_layers.0.bias f4 [128]
00000000: 0000 0000 0000 0000 0000 0000 0000 0000
00000010: 0000 0000 0000 0000 0000 0000 0000 0000
00000020: 0000 0000 0000 0000 0000 0000 0000 0000
00000030: 0000 0000 0000 0000 0000 0000 0000 0000
00000040: 0000 0000 0000 0000 0000 0000 0000 0000
00000050: 0000 0000 0000 0000 0000 0000 0000 0000
00000060: 0000 0000 0000 0000 0000 0000 0000 0000
00000070: 0000 0000 0000 0000 0000 0000 0000 0000
00000080: 0000 0000 0000 0000 0000 0000 0000 0000
00000090: 0000 0000 0000 0000 0000 0000 0000 0000
000000a0: 0000 0000 0000 0000 0000 0000 0000 0000
000000b0: 0000 0000 0000 0000 0000 0000 0000 0000
000000c0: 0000 0000 0000 0000 0000 0000 0000 0000
000000d0: 0000 0000 0000 0000 0000 0000 0000 0000
000000e0: 0000 0000 0000 0000 0000 0000 0000 0000
000000f0: 0000 0000 0000 0000 0000 0000 0000 0000
00000100: 0000 0000 0000 0000 0000 0000 0000 0000
00000110: 0000 0000 0000 0000 0000 0000 0000 0000
00000120: 0000 0000 0000 0000 0000 0000 0000 0000
00000130: 0000 0000 0000 0000 0000 0000 0000 0000
00000140: 0000 0000 0000 0000 0000 0000 0000 0000
00000150: 0000 0000 0000 0000 0000 0000 0000 0000
00000160: 0000 0000 0000 0000 0000 0000 0000 0000
00000170: 0000 0000 0000 0000 0000 0000 0000 0000
00000180: 0000 0000 0000 0000 0000 0000 0000 0000
00000190: 0000 0000 0000 0000 0000 0000 0000 0000
000001a0: 0000 0000 0000 0000 0000 0000 0000 0000
000001b0: 0000 0000 0000 0000 0000 0000 0000 0000
000001c0: 0000 0000 0000 0000 0000 0000 0000 0000
000001d0: 0000 0000 0000 0000 0000 0000 0000 0000
000001e0: 0000 0000 0000 0000 0000 0000 0000 0000
000001f0: 0000 0000 0000 0000 0000 0000 0000 0000
0.0 0.0 0.0 0.0 0.0 0.0 0.0 0.0
0.0 0.0 0.0 0.0 0.0 0.0 0.0 0.0
0.0 0.0 0.0 0.0 0.0 0.0 0.0 0.0
0.0 0.0 0.0 0.0 0.0 0.0 0.0 0.0
0.0 0.0 0.0 0.0 0.0 0.0 0.0 0.0
0.0 0.0 0.0 0.0 0.0 0.0 0.0 0.0
0.0 0.0 0.0 0.0 0.0 0.0 0.0 0.0
0.0 0.0 0.0 0.0 0.0 0.0 0.0 0.0
0.0 0.0 0.0 0.0 0.0 0.0 0.0 0.0
0.0 0.0 0.0 0.0 0.0 0.0 0.0 0.0
0.0 0.0 0.0 0.0 0.0 0.0 0.0 0.0
0.0 0.0 0.0 0.0 0.0 0.0 0.0 0.0
0.0 0.0 0.0 0.0 0.0 0.0 0.0 0.0
0.0 0.0 0.0 0.0 0.0 0.0 0.0 0.0
0.0 0.0 0.0 0.0 0.0 0.0 0.0 0.0
0.0 0.0 0.0 0.0 0.0 0.0 0.0 0.0

network_body._body_endoder.seq_layers.2.weight f4 [128, 128]
00000000: 9638 3a3d 06a7 1fbc 716d cabd 5627 51bd
00000010: 1132 283d 0835 0dbe 24b9 653d c9d5 1dbe
00000020: ac1f 0a3e 89fc f03d 6d0b cbbd 846e 8bbd
00000030: edeb fbbc f74b 8b3d 5ca6 ec3c 74aa fa3d
00000040: fe52 ba3c 2b13 83bc 602d b2bc c5eb b93d
00000050: ecc1 8f3d 387a dbbc 4553 273d cf3d 0bbd
00000060: 84ad 0cbe 54b6 07be 9034 d83d 9c59 073d
00000070: 558d c1bd 0e89 fdbc 97a5 603d 1ef1 113e
00000080: a1df 173d 448b b5bb 1aac 42bc 0b89 05be
00000090: a345 8dbd 6108 1dbe 1e35 fabc b11a f13d
000000a0: 2da5 33bd b885 843d b4a6 44bd 1c7b 363d
000000b0: 7b53 49bc 517f 0dbe 7c72 8f3d 1f04 b8bd
000000c0: e7b3 f63c 7d65 d8bd 6139 1ebd a7b4 eabd
000000d0: 066b 173d 681a 153e 11ab 4f3d 508d be3c
000000e0: 00fc ef3d c1ff 15bd 61f6 053b 1f95 4dbc
000000f0: 866c 623e 9125 18bc fb4e 663e 0461 efbb
00000100: 443d d13b d7a2 853d 72c9 1fbd 8e5a abbd
00000110: a79a 06bd cdef 553e 650c c3bb fa3a 5ebd
00000120: 973a 1e3c 5f1e 8a3d 7180 e6bb d9c1 a33d
00000130: 2d83 14bd 4724 1f3e d713 d5bd 272e c13d
00000140: e8cd 593d 49d6 e8bd b491 26bd f762 ea3b
00000150: 86e6 d23d bbcb 523d b0b5 e23d f98f cd3d
00000160: b0de 21be 78c2 333d 32f4 353e d3a8 eebd
00000170: 0db2 b6bd 91c5 67bd c73d 90bd 9509 2abd
00000180: 3dde 073d 45b1 87bd 9d15 d2bd 1f56 e5bd
00000190: 11bb 203d 1c95 883d 5a10 2d3c 2091 d8bd
000001a0: c8b7 1abe f7db 6b3d a6e1 bfbc cd1f 0abe
000001b0: 2862 09be bd7a 84bd faf2 dabd b6b3 bdbc
000001c0: d3ff ab3d a096 df3d 5b3e 943e bcd0 b83d
000001d0: 9277 13be dfb6 ea3c 07cd 183e 996e 27be
000001e0: 541e 93bd 95a7 ef3b 70d6 f5bd 2765 2a3d
000001f0: c845 6a3d 294d 1e3d dfd7 42be 5edf fdbd
00000200: a25b f83d 4a91 fc3d a608 193d 009f 613e
00000210: 1548 86bc 624a afbd 15e0 5e3c 4c5b 5bbd
00000220: b318 463c 1cc6 04be ef74 84bd d104 26be
00000230: 91ef b53d f9a5 04be 2edc 8e3d 14ee 30bd
00000240: cfab debc 1873 2ebe cae3 e03c fa13 3c3d
00000250: bb9c 63bd 2b4c c63d e966 9c3d 3244 043d
00000260: 493a 883d e16b 1fbd 4251 2c3e 8ea4 3fbc
00000270: 324c 0ebc e5e7 343e 5cc2 073d 7f87 7a3d
00000280: b427 4b3d a260 cfbc c25b 263b 335d edbd
00000290: 31de cf3d 695f 80bd 860f 08be 6202 413d
000002a0: e14b a8bd c6fe 933c b686 b2bd 00d7 4c3d
000002b0: 31e3 51bd 68dc 6d3d 627d df3d 2787 023e
000002c0: d1f6 64bc 9b38 5d3d 783b 083e 4ce4 213b
000002d0: 020d c83c 1096 883d 6220 1abd 45e9 d5bc
000002e0: 6457 ba3c 0cf0 b5bd ab2b 493c c0c8 89bd
000002f0: e59b 02bd a4c7 43be 3772 3abd e9ff ac3d
00000300: 30c4 98bd 2170 643d a61b ef3b 4abb 27bb
00000310: 90f2 6cbd 1171 7e3d c858 14be 1daf 06bd
00000320: c11b bbbd 6ea7 36bd c247 9a3c 0067 053e
00000330: ec54 3dbd 68cf 9f3c f316 8dbd 1a2e ac3d
00000340: 75a9 3ebe fd2c a8bc 460b 693d 3161 fbbb
00000350: 9482 92bd 8870 fabc 5e19 b83d 7049 163d
00000360: 9b87 65bc 9b92 77bd 36f3 933d e218 28bb
00000370: e88f e13b 39db a1bd 9c17 dc3d 2975 973d
00000380: 2d8d 1bbd a205 f03b 0f98 533d 8a64 56bd
00000390: 32ae 023c 3860 b93d c1af a53d 237b 73bd
000003a0: 6256 9cbd 0b5b db3c c9ff c83b 2a8f 0fbd
000003b0: de5b 853c 5e69 e33c 0bdd 963d a08c 4ebd
000003c0: c5d3 c1bb 135b cdbd f7ea 773e e4c2 2ebe
000003d0: 5f5a f1bc ca69 18be 0b7f e6bd 02c2 633d
000003e0: 4e55 c13d 78e9 89be 2f25 fa3d 1118 a93d
000003f0: 8dec 81bd 2abb 933b f432 483e af1d 063d
0.04546412 -0.009744411 -0.098841555 -0.051062904 0.041063372 -0.13789761 0.056084767 -0.15413584
0.13488644 0.11766917 -0.09914289 -0.068081886 -0.030752147 0.068015985 0.02888792 0.122395426
0.022744652 -0.016000351 -0.021750152 0.090781726 0.070194095 -0.026791677 0.040850896 -0.033994492
-0.13738066 -0.13253146 0.105569005 0.033044443 -0.09450785 -0.030949142 0.05484542 0.14252135
0.037078504 -0.0055402834 -0.0118818525 -0.13040559 -0.06898048 -0.15335228 -0.030542906 0.11772669
-0.043858696 0.06470817 -0.048010543 0.044551 -0.01228797 -0.13818099 0.07004258 -0.08985161
0.030115081 -0.10566232 -0.03862894 -0.11460238 0.0369673 0.14560854 0.05070025 0.023260742
0.11717987 -0.03662086 0.0020441043 -0.01254776 0.22111711 -0.0092863 0.22491066 -0.0073052663
0.0063854773 0.065252 -0.039010473 -0.08366881 -0.03286233 0.20892258 -0.0059524053 -0.054255463
0.009657524 0.06744074 -0.0070343544 0.07995958 -0.03625791 0.15541182 -0.10404175 0.09432631
0.053174883 -0.11368997 -0.040666297 0.007152911 0.10297875 0.051463824 0.110698104 0.10037226
-0.15807605 0.04388663 0.17768934 -0.116532944 -0.08920679 -0.0565849 -0.07043033 -0.041513044
0.033170927 -0.06625608 -0.10258029 -0.11198067 0.0392409 0.06669065 0.010562981 -0.105745554
-0.1510917 0.05758282 -0.023423027 -0.13488694 -0.1341635 -0.06468723 -0.10690875 -0.023156982
0.08398404 0.10917401 0.28953823 0.09024188 -0.14401081 0.028651653 0.14921962 -0.16350783
-0.07183519 0.0073136785 -0.12003791 0.041600373 0.057195455 0.038647804 -0.19027661 -0.123961195
0.121268526 0.12332399 0.037361763 0.2203331 -0.016391793 -0.08559109 0.01360323 -0.053553864
0.01209085 -0.12966198 -0.06467616 -0.16212775 0.08883584 -0.12953939 0.0697559 -0.0431958
-0.027181534 -0.17036092 0.027452368 0.04591749 -0.05556939 0.09682497 0.07636816 0.0322916
0.06651742 -0.03892124 0.16827872 -0.011696948 -0.008685159 0.17666586 0.03314434 0.061164375
0.04959841 -0.025314633 0.0025384282 -0.11590042 0.101498015 -0.06268198 -0.13287172 0.047121413
-0.08217598 0.018065821 -0.087171 0.050009727 -0.051242057 0.058071524 0.10912587 0.12746869
-0.013974861 0.05400906 0.13303936 0.0024702726 0.024420265 0.06669247 -0.03762854 -0.026112208
0.02274675 -0.08883676 0.012278478 -0.06727743 -0.031886954 -0.19119126 -0.04551908 0.084472485
-0.07459295 0.055770997 0.007296997 -0.002559381 -0.057848513 0.062119547 -0.14486992 -0.032881845
-0.09136153 -0.044593267 0.018833045 0.13027573 -0.046223566 0.019508079 -0.06889143 0.08407231
-0.1861933 -0.020529265 0.056895517 -0.007671498 -0.07153812 -0.030571237 0.089892134 0.03669113
-0.014009382 -0.06044255 0.07224123 -0.0025649597 0.00688361 -0.079031415 0.10746691 0.073953934
-0.037976433 0.0073248902 0.051658686 -0.052341975 0.007976102 0.090515554 0.08090163 -0.059443604
-0.07633664 0.026776811 0.0061340076 -0.03504864 0.016279157 0.027760204 0.07366379 -0.05042708
-0.0059151375 -0.10027137 0.24210726 -0.17066532 -0.029462038 -0.14884105 -0.112547 0.055604942
0.09440099 -0.26935935 0.122141235 0.082565434 -0.063439466 0.0045083957 0.19550687 0.032743152

network_body._body_endoder.seq_layers.2.bias f4 [128]
00000000: 0000 0000 0000 0000 0000 0000 0000 0000
00000010: 0000 0000 0000 0000 0000 0000 0000 0000
00000020: 0000 0000 0000 0000 0000 0000 0000 0000
00000030: 0000 0000 0000 0000 0000 0000 0000 0000
00000040: 0000 0000 0000 0000 0000 0000 0000 0000
00000050: 0000 0000 0000 0000 0000 0000 0000 0000
00000060: 0000 0000 0000 0000 0000 0000 0000 0000
00000070: 0000 0000 0000 0000 0000 0000 0000 0000
00000080: 0000 0000 0000 0000 0000 0000 0000 0000
00000090: 0000 0000 0000 0000 0000 0000 0000 0000
000000a0: 0000 0000 0000 0000 0000 0000 0000 0000
000000b0: 0000 0000 0000 0000 0000 0000 0000 0000
000000c0: 0000 0000 0000 0000 0000 0000 0000 0000
000000d0: 0000 0000 0000 0000 0000 0000 0000 0000
000000e0: 0000 0000 0000 0000 0000 0000 0000 0000
000000f0: 0000 0000 0000 0000 0000 0000 0000 0000
00000100: 0000 0000 0000 0000 0000 0000 0000 0000
00000110: 0000 0000 0000 0000 0000 0000 0000 0000
00000120: 0000 0000 0000 0000 0000 0000 0000 0000
00000130: 0000 0000 0000 0000 0000 0000 0000 0000
00000140: 0000 0000 0000 0000 0000 0000 0000 0000
00000150: 0000 0000 0000 0000 0000 0000 0000 0000
00000160: 0000 0000 0000 0000 0000 0000 0000 0000
00000170: 0000 0000 0000 0000 0000 0000 0000 0000
00000180: 0000 0000 0000 0000 0000 0000 0000 0000
00000190: 0000 0000 0000 0000 0000 0000 0000 0000
000001a0: 0000 0000 0000 0000 0000 0000 0000 0000
000001b0: 0000 0000 0000 0000 0000 0000 0000 0000
000001c0: 0000 0000 0000 0000 0000 0000 0000 0000
000001d0: 0000 0000 0000 0000 0000 0000 0000 0000
000001e0: 0000 0000 0000 0000 0000 0000 0000 0000
000001f0: 0000 0000 0000 0000 0000 0000 0000 0000
0.0 0.0 0.0 0.0 0.0 0.0 0.0 0.0
0.0 0.0 0.0 0.0 0.0 0.0 0.0 0.0
0.0 0.0 0.0 0.0 0.0 0.0 0.0 0.0
0.0 0.0 0.0 0.0 0.0 0.0 0.0 0.0
0.0 0.0 0.0 0.0 0.0 0.0 0.0 0.0
0.0 0.0 0.0 0.0 0.0 0.0 0.0 0.0
0.0 0.0 0.0 0.0 0.0 0.0 0.0 0.0
0.0 0.0 0.0 0.0 0.0 0.0 0.0 0.0
0.0 0.0 0.0 0.0 0.0 0.0 0.0 0.0
0.0 0.0 0.0 0.0 0.0 0.0 0.0 0.0
0.0 0.0 0.0 0.0 0.0 0.0 0.0 0.0
0.0 0.0 0.0 0.0 0.0 0.0 0.0 0.0
0.0 0.0 0.0 0.0 0.0 0.0 0.0 0.0
0.0 0.0 0.0 0.0 0.0 0.0 0.0 0.0
0.0 0.0 0.0 0.0 0.0 0.0 0.0 0.0
0.0 0.0 0.0 0.0 0.0 0.0 0.0 0.0

value_heads.value_heads.extrinsic.weight f4 [1, 128]
00000000: 5e6a 573e 84a1 56be a014 903d aa33 2b3e
00000010: ac98 0cbe 1fce 25be fc7a 8a3d 38ff 36bd
00000020: b4b8 35bd 24dc 043e b0f5 bfbd b211 50be
00000030: 939d bcbd 5673 a0bd 3802 343e 3c21 983d
00000040: 9cf2 e63d 084b 903c 58d7 423e 686c ffbd
00000050: 85ff debd 1091 66bc f008 9dbd fe39 3f3e
00000060: a8db 903d 80ff 263e a516 36be 40e3 d93c
00000070: 9f4d 4dbe a0b8 fd3d 5078 e23d 6e36 9abd
00000080: 246d 413e c5a5 4abe 2a78 243e 214c 57be
00000090: 8122 4bbe 40e7 51bb 1eb2 15be c66b 14be
000000a0: 8058 d0bb aa1b 053e d8b8 893d e4ad b93d
000000b0: 92d7 2a3e e431 a7bd e486 1abe a02a 35be
000000c0: 5ea5 2dbe 022c 58be eaf2 583e b682 0c3e
000000d0: 2ceb b33d 9dc3 ccbd e843 8f3c 13e0 02be
000000e0: ec72 13bd 4340 41be d049 1f3d 7d95 1ebe
000000f0: c893 7c3d ae84 123e 3250 413e 86d4 043e
00000100: 721a 253e 97d5 1fbe 8a92 41be 9039 46bd
00000110: 4853 e73d 5c04 d23d 78e1 193e baad b4bd
00000120: 5885 133e 3010 28bc 7e73 28be f8af f83d
00000130: b0f7 0b3e 7632 d1bd a5ff 26be 9b1f 15be
00000140: d863 493e a856 e0bc 1e14 d7bd 4232 573e
00000150: 027b debd 98a7 f43d 6c4b 90bd 30e9 11be
00000160: 08ac 2bbd d4bf 283e a896 4f3d cf47 44be
00000170: 789d 3b3d 0e4e 303e c8f8 093e b8b1 603d
00000180: a4d7 6dbd 430c ecbd 648b 3d3e e849 413d
00000190: 3759 11be bebc 22be 06fe 393e 3038 4cbe
000001a0: ce17 31be 3055 e03c c841 893d f5ae f9bd
000001b0: 3ff4 43be be27 113e 36c0 213e 70f4 263d
000001c0: 5cd6 44bd f001 0e3d 6dc1 2abe bca3 39bd
000001d0: 8862 2a3d 2c6b 1b3e a81e c43d c859 363d
000001e0: 6c36 823d 260f 0bbe 98d9 ae3d 5630 423e
000001f0: 7ce9 a73d d8ee 783d acf6 1ebe 181e 00bd
0.2103667 -0.20960051 0.07035184 0.16718927 -0.13730115 -0.1619191 0.06761739 -0.04467699
-0.0443656 0.12974602 -0.09373033 -0.2031925 -0.092097424 -0.078344986 0.17578971 0.07428214
0.11276743 0.017613903 0.1902746 -0.12471849 -0.1088858 -0.0140726715 -0.0766772 0.18674466
0.07073146 0.16308403 -0.17782076 0.026597619 -0.20049141 0.1238873 0.11058104 -0.07529913
0.1888929 -0.19789799 0.16061464 -0.21025135 -0.19837381 -0.0032028705 -0.14618728 -0.14494237
-0.0063582063 0.12998834 0.06724709 0.0906637 0.16683796 -0.08163813 -0.15090519 -0.17692041
-0.16957614 -0.21110538 0.21186414 0.13721737 0.0878509 -0.09998248 0.017488435 -0.1278079
-0.03599827 -0.1887217 0.038888752 -0.15486713 0.061664373 0.14308426 0.18878248 0.12971696
0.1612337 -0.15608822 -0.18903556 -0.04839474 0.112951815 0.10254738 0.15027416 -0.08822198
0.14406335 -0.010257766 -0.16450307 0.121429384 0.13668704 -0.10214703 -0.16308458 -0.14562838
0.19666994 -0.02738507 -0.10501884 0.21015266 -0.10863306 0.119460285 -0.070456356 -0.1424911
-0.04191211 0.16479427 0.050680786 -0.19168018 0.04580447 0.17217276 0.13473809 0.054856986
-0.05806698 -0.11525776 0.18510205 0.047189623 -0.14194189 -0.15892312 0.18163309 -0.19943309
-0.17294237 0.02738437 0.06702 -0.121915735 -0.19136141 0.14175317 0.15795979 0.040760458
-0.04805599 0.034669816 -0.16675349 -0.045322165 0.041597873 0.15177602 0.0957616 0.044519216
0.063580364 -0.13579997 0.085375965 0.18963751 0.081988305 0.060774654 -0.15523785 -0.0312787
